training/models/environment_traffic_lights/1639402144/checkpoints/ep00025.pt (torch, 28751 bytes, 8 tensors)

seq.0.weight f4 [128, 16]
00000000: 77c3 b541 5206 b241 3f83 ab41 0fed 8d41
00000010: 8af3 b041 1de9 aa41 e0d3 a541 e0de 6a41
00000020: 44d5 b741 1f57 b141 b0c0 a941 46b1 8541
00000030: f67e b041 269f a941 f844 a341 1247 6f41
00000040: d71e b341 811a b241 0343 aa41 9a5d 8b41
00000050: bd79 b141 91bc ad41 56a4 a341 e58c 6741
00000060: e197 b341 7754 af41 928e a841 cab6 8541
00000070: 1e5b ae41 0c86 ab41 e7b7 a241 ad07 6841
00000080: 8cb4 b241 be51 af41 85cd a941 e12e 8b41
00000090: 077d af41 ae51 ab41 13f1 a341 8380 5f41
000000a0: fcf8 b041 740e ad41 4fb7 a941 b364 8141
000000b0: 2df2 ad41 8eb1 a641 5063 a441 a826 6541
000000c0: 6317 b841 8fe7 b241 6535 ae41 f4b1 8e41
000000d0: c1f3 b041 f5e5 ad41 4572 a641 1603 6941
000000e0: a7d1 b541 f845 af41 1931 ac41 a2bb 8341
000000f0: d78b b041 f677 a841 0b46 a341 921e 6941
00000100: d8f0 b741 da51 b141 20ba ab41 b0b1 8f41
00000110: 4e8d b141 5c1a ad41 cbf5 a441 2a3b 6441
00000120: a846 b841 f671 b241 fc5a ac41 3a2e 8441
00000130: dab8 ae41 26e8 ab41 e978 a241 df77 6e41
00000140: 0eba b741 89df b141 defd ad41 8e4d 9041
00000150: b1cd b241 067a ab41 9cae a341 68d8 6641
00000160: 833c b641 1dfd af41 08a3 aa41 4854 8741
00000170: dcfa af41 ec10 aa41 97e8 a441 426c 7041
00000180: 6e2d b541 d41a b241 117e ac41 286b 8c41
00000190: 983f b441 a447 af41 3a32 a741 6b58 6441
000001a0: d059 b741 b510 b141 fe39 aa41 b269 8741
000001b0: c2ae ae41 3083 ab41 48a6 a641 d16b 6841
000001c0: 7a50 b541 772e b041 9531 ad41 40dd 8e41
000001d0: 6b5d b041 fd66 ad41 9d67 a641 48f9 6441
000001e0: b640 b441 d9a8 af41 9946 a841 4220 8441
000001f0: 35bd ae41 8f3c a841 704a a341 ebe4 6941
00000200: de2d b641 0362 b141 aef5 ae41 b6f8 8f41
00000210: 170a b141 deee ac41 e368 a641 f76d 6641
00000220: 790c b841 f62b b241 2edb a941 4273 8641
00000230: 7bc2 b041 531b aa41 c1d1 a241 714c 6f41
00000240: 0142 b841 7c21 b341 dc5c af41 7237 8e41
00000250: 476e b241 1e7d ac41 6009 a541 59b2 6441
00000260: 79e1 b841 7c85 b041 fcec ac41 9346 8741
00000270: 631e af41 08fa a941 b6f2 a441 3403 6a41
00000280: 9f87 b841 1126 b441 9ecb ab41 1b9a 8d41
00000290: 8b91 b141 7e24 ac41 409d a441 06df 6941
000002a0: a076 b841 7dbf b241 3647 ac41 3ae8 8741
000002b0: e43b af41 56b5 a941 ccec a241 d500 6a41
000002c0: ebd9 b541 ab16 b241 678c ad41 ac1e 9041
000002d0: f52e b241 0416 ab41 af85 a341 0384 6741
000002e0: 7817 b841 c304 b041 569a aa41 9fa7 8741
000002f0: b5be ae41 6662 ab41 08ef a441 3564 6e41
00000300: 46aa b441 f6c4 b341 b5d0 ad41 42ec 8e41
00000310: eed0 b041 5189 ac41 ef41 a341 ac6e 6941
00000320: a274 b641 f96f b041 e110 ac41 87b7 8441
00000330: 2102 b141 bf8f a941 984d a241 bcf2 6941
00000340: a0b3 b441 3ac6 b341 e7a1 ad41 6a58 9041
00000350: 9481 b141 2a38 ac41 7577 a441 5a97 6341
00000360: e166 b541 baa6 b041 d463 ac41 519d 8641
00000370: 21cb ae41 4d7f aa41 bd9c a341 5d01 6e41
00000380: 5edb b641 18d7 b141 3ff3 aa41 16f7 8c41
00000390: fbb6 b041 641b aa41 7a30 a341 ef65 6541
000003a0: f806 b441 f969 ae41 1981 ab41 fb58 8741
000003b0: 4d6d b041 aa3f ab41 6e3e a441 1b85 6a41
000003c0: 8785 b441 bbed af41 1f99 ab41 1075 8f41
000003d0: 49fd b041 f804 ad41 fe0e a641 dbfb 6241
000003e0: fec8 b541 a435 b041 c536 aa41 744c 8541
000003f0: 8694 ae41 1f84 a941 fa67 a341 d652 7041
22.720442 22.253086 21.439085 17.740751 22.118916 21.363825 20.728455 14.679413
22.979134 22.16754 21.219086 16.71156 22.061993 21.20271 20.408676 14.954851
22.390059 22.262941 21.28272 17.420704 22.184443 21.717073 20.455242 14.471898
22.44916 21.916243 21.069614 16.714252 21.79449 21.440453 20.339796 14.501874
22.338158 21.914913 21.225351 17.39789 21.936049 21.414883 20.492712 13.968875
22.121574 21.632057 21.214506 16.17417 21.74325 20.836697 20.548492 14.321938
23.01142 22.363066 21.776072 17.836891 22.11902 21.737284 20.805796 14.563253
22.72737 21.909164 21.523973 16.466618 22.068281 21.058575 20.4092 14.569963
22.9926 22.164967 21.465881 17.961761 22.193996 21.63787 20.620016 14.264444
23.0345 22.305645 21.544426 16.522572 21.84026 21.488354 20.309038 14.904265
22.965847 22.234148 21.748959 18.037868 22.350435 21.434582 20.460258 14.427834
22.779547 21.99859 21.329605 16.916153 21.99749 21.258263 20.61357 15.02643
22.647182 22.2631 21.561556 17.552322 22.531052 21.90998 20.899525 14.271586
22.918854 22.133158 21.278316 16.926609 21.835331 21.439056 20.831192 14.526322
22.664295 22.022688 21.64921 17.858032 22.045614 21.675287 20.800592 14.31086
22.531597 21.957445 21.034472 16.51575 21.842386 21.02957 20.411346 14.618388
22.772396 22.172857 21.86996 17.99644 22.129927 21.616634 20.801214 14.401847
23.00609 22.271465 21.232021 16.806278 22.094961 21.263342 20.352419 14.956162
23.032228 22.39135 21.920341 17.777073 22.303846 21.561092 20.629578 14.293542
23.110094 22.065178 21.615715 16.90946 21.889837 21.247086 20.618511 14.625782
23.066221 22.518587 21.474422 17.700247 22.196066 21.517818 20.576782 14.616949
23.057922 22.3435 21.534771 16.988392 21.904243 21.213543 20.365623 14.625203
22.731405 22.261068 21.693556 18.014977 22.272928 21.38575 20.440275 14.469729
23.01146 22.002325 21.32536 16.956846 21.843119 21.423046 20.616714 14.899465
22.583141 22.471172 21.726908 17.86536 22.102016 21.567049 20.407194 14.5895195
22.80695 22.054674 21.508242 16.589613 22.12604 21.195189 20.287888 14.621761
22.587708 22.47179 21.704054 18.04317 22.18827 21.527424 20.558329 14.224451
22.675234 22.08141 21.548744 16.826815 21.849184 21.312159 20.451532 14.875333
22.857113 22.230026 21.368773 17.620647 22.089346 21.263374 20.39867 14.337386
22.503403 21.801744 21.438036 16.918447 22.05337 21.406086 20.530483 14.657496
22.565199 21.99108 21.449766 17.93216 22.123674 21.627426 20.75732 14.186488
22.72314 22.026192 21.276743 16.66233 21.822521 21.189512 20.42577 15.020224

seq.0.bias f4 [128]
00000000: dd12 c641 3f79 c741 09e7 c441 da79 c941
00000010: aaf9 c641 a8d5 c741 4389 c541 3645 c841
00000020: c615 c941 8c2c c941 7549 c941 dfc6 c941
00000030: fdfb c641 9145 c741 4118 c941 511e c741
00000040: f50a c841 30b0 c741 418a c641 23c1 c741
00000050: 9f59 c841 d4f7 c841 422a c941 e9ef c441
00000060: e5dd c741 afa1 c841 8b7a c641 b114 c841
00000070: 0a29 c841 8900 c741 d9b3 c741 3247 c741
00000080: 4723 c941 a4bf c841 955c c641 fe2e c741
00000090: 9497 c841 5d0a c841 605d c741 39fd c941
000000a0: 1fc6 c741 9dd2 c541 debc c841 c735 c641
000000b0: af3b c741 0e61 c741 22a7 c841 0701 c741
000000c0: ab63 c641 afc2 c641 f85e c941 9466 c941
000000d0: 6e96 c741 96d1 c641 5fa1 c841 f9d5 c841
000000e0: 65b2 c841 90e7 c641 1811 c741 266c c941
000000f0: ba80 ca41 2126 c741 28b3 c641 a191 c641
00000100: db79 c841 44fd c641 c611 c941 a734 c941
00000110: 00de c741 bc1c c741 a437 ca41 e0b6 c841
00000120: 0f69 c741 469e c541 c06e c841 5716 c741
00000130: 7d59 c841 b578 c641 f38f c941 ef33 c741
00000140: d6a8 c541 a4bc c741 741f c641 33e0 c641
00000150: 1b66 c641 e4f1 c741 37e6 c841 37f9 c741
00000160: 6485 c641 98a6 c841 20e7 c541 7481 c641
00000170: 7650 c841 754e c941 25ee c741 cf69 c941
00000180: 4267 c741 ada1 c741 dc3a ca41 4879 ca41
00000190: bb38 c741 ac03 ca41 5cc8 c741 c31a c641
000001a0: e36c c741 6b19 c941 82e0 c941 d5c2 c841
000001b0: 656c c641 3b4e c541 1957 c641 b1ed c841
000001c0: 6a50 c841 7b6f c741 1dcb c841 0591 c641
000001d0: e5b8 c641 76b9 c641 a40a c641 7ac6 c741
000001e0: 2009 c941 fa62 c741 06f8 c941 a299 c641
000001f0: bb95 c641 b586 c541 9986 c941 2a86 c641
24.75921 24.934202 24.61281 25.184498 24.871906 24.979324 24.692022 25.033794
25.135632 25.146751 25.160868 25.222105 24.873041 24.908968 25.136843 24.889803
25.00535 24.96103 24.817507 24.969305 25.04376 25.12101 25.145634 24.617144
24.983347 25.078947 24.809835 25.010103 25.020039 24.875261 24.962816 24.909763
25.142225 25.093575 24.795206 24.897945 25.074013 25.00506 24.920593 25.248644
24.971739 24.727839 25.09222 24.776258 24.904142 24.92239 25.081608 24.875502
24.798666 24.84506 25.171371 25.175087 24.948452 24.852337 25.078794 25.104479
25.087107 24.863068 24.883347 25.177807 25.312855 24.893618 24.837479 24.821108
25.0595 24.873665 25.133678 25.15071 24.983398 24.88903 25.277168 25.089294
24.926298 24.702282 25.054077 24.885908 25.043695 24.808939 25.195288 24.900358
24.70744 24.96711 24.765358 24.859472 24.799856 24.99311 25.11241 24.996687
24.815132 25.081345 24.737854 24.81321 25.039288 25.16331 24.991282 25.176664
24.925419 24.953943 25.27874 25.30922 24.9027 25.251793 24.972832 24.763067
24.928167 25.137411 25.234623 25.095133 24.802927 24.663198 24.792528 25.11606
25.039265 24.929434 25.099176 24.82081 24.84028 24.840557 24.755196 24.971912
25.129456 24.923328 25.246105 24.825016 24.82311 24.690775 25.190722 24.81551

seq.2.weight f4 [32, 128]
00000000: 2ba1 c241 6532 c241 89e0 be41 8cdd c241
00000010: 4ab8 c241 f38a c241 294b c141 a25d c241
00000020: ebba c141 2091 c241 6171 c241 1ece c241
00000030: 4fc4 c141 7a6c c341 84a8 c241 877f c341
00000040: 59a7 c141 f9cd c141 49cd c241 fb39 c341
00000050: 97b8 c241 fa61 c241 8ff0 c141 4236 c241
00000060: 1b80 c241 93be c141 3568 c241 4c16 c341
00000070: 6af3 c141 73ef c141 6e09 c241 6d51 c141
00000080: 8de8 c141 f8de c141 4926 c241 6c40 c241
00000090: db1b c241 1812 c241 2257 c341 c654 c241
000000a0: 3838 c241 cec8 c241 8f04 c241 4bfb c041
000000b0: f51c c241 0254 c241 7d87 c241 0159 c241
000000c0: 8780 c241 1637 c241 da50 c141 bf4b c241
000000d0: 930c c241 1644 c141 1dc8 c141 6dec c241
000000e0: 1b36 c341 b7a5 c241 e686 c241 2b5c c141
000000f0: 4153 c241 274e c241 672b c341 4af4 c141
00000100: 0922 c341 b4eb c141 4ec3 c241 877d c241
00000110: 06e5 c241 3aa5 c241 0a7b c241 647d c241
00000120: aa3b c341 36db c141 69f0 c141 a65f c241
00000130: 7c88 c241 b66a c341 b75e c241 2ec2 c141
00000140: d935 c341 5cba c141 631b c241 b8ad c241
00000150: 3735 c341 9bf4 c241 4ce8 c141 f755 c241
00000160: 3892 c141 833b c241 4843 c241 c754 c241
00000170: 2210 c241 c96a c241 bc18 c241 9634 c241
00000180: 9ed2 c141 a224 c241 b021 c241 b293 c241
00000190: f256 c241 cd7d c241 ad48 c241 60ef c241
000001a0: 5891 c241 6da9 c241 bba4 c241 3c0c c241
000001b0: fcb6 c141 9594 c141 dc28 c241 5984 c241
000001c0: b709 c241 4c3f c141 2b63 c241 369a c241
000001d0: 8d85 c141 1817 c241 10f3 c141 c6ef c141
000001e0: b8e9 c241 2c7f c141 05aa c241 a27a c241
000001f0: 47c6 c141 7401 c241 e714 c241 5554 c341
00000200: 9ffa a03c 2b9f 8e3a 9792 20bd 60f8 213d
00000210: 1e11 e9bc 4b04 d53c 5082 d4bb a961 91bd
00000220: 2ea6 563d c598 97bd 5a5d 10bd c073 3e3d
00000230: 8087 00bd 6ca9 06bc bb49 233c 9dc7 89bd
00000240: 0894 763d f05d 363d 99c7 0f3d 8ba9 943d
00000250: b231 aabd 87d4 abba 6dd0 98bd 3fe5 783d
00000260: f39c c73c 60b5 8bbd 9db8 e4bc 451f 033c
00000270: 1782 34bc ebaa 863c 23d9 b8bc 2b03 6cbd
00000280: 8d68 543d f6b8 3f3b f312 9abd 4dd5 1bbd
00000290: 1c03 593c 0b98 9bbd 8420 33bd a445 ec3c
000002a0: 2a7c 2fbc 60a4 653d 125e 10bd 6cfc 903d
000002b0: 0087 d33c 8a9b 92bc afad 903d e8f6 1c3c
000002c0: d057 5a3d ab8f c33b 0468 a0bc b627 d2bd
000002d0: 9336 753c 0145 9dbd 103e 09bc 5d54 2e3d
000002e0: 3c3c 743c a22d 52bb ff31 b6bd 5c0d 32bd
000002f0: 3e92 963d 0032 5fbd 462b 943c ab22 863d
00000300: cd74 903d 805c 7d3d 6926 d9bd 7f2e 04bc
00000310: dd88 9dbd 30dc 46bd dde4 4e3d cca9 7f3d
00000320: bbc5 c0bd 59e5 bcbc 330c 273d 9de2 37bc
00000330: 82ad 1abc 4e0d 86bd 606f 6dbd 40cb 8e3d
00000340: 7044 cabd 79a5 96bd 6e99 8d3d 916e 23bd
00000350: 4e33 b8bb 623a 373d 3efe 00bd ba3d 843c
00000360: 85cb 39bc 5a2c 58bd 3dad f3bc 2764 5dbc
00000370: 3df6 29bd 00eb 6abd 796a 233d 5ce0 103d
00000380: 3525 a93c ecb3 313d 18b5 b53b a6f5 903d
00000390: bba4 933c da35 6cbd a109 45bc 1972 bcbc
000003a0: 320c 143d eacb 5f3d 086d e2bc 4584 aebd
000003b0: 91ba adbd 3984 b8bd d902 ff3c 09fb 8b3d
000003c0: 36b6 bbbd 0bd9 ddbb e52d babc ab89 9cbc
000003d0: 0c05 d93b cdca 5e3d a70f b6bd a62b af3d
000003e0: 8b33 983d e905 40bd ffd5 abbd 37ed d6bc
000003f0: 209f a93c bdaa 463d d4a7 93bd b795 033b
24.328695 24.274607 23.859636 24.358177 24.339985 24.317846 24.1617 24.29572
24.216269 24.320862 24.30536 24.350643 24.220854 24.427967 24.332283 24.43727
24.206713 24.225573 24.350237 24.40331 24.340132 24.29784 24.24246 24.276493
24.312551 24.218054 24.300882 24.385887 24.243855 24.241919 24.254604 24.164759
24.23855 24.233871 24.268694 24.281456 24.263601 24.258835 24.417545 24.291393
24.27745 24.34805 24.252226 24.122702 24.26414 24.29102 24.316156 24.293459
24.312757 24.276897 24.164478 24.286985 24.25614 24.158245 24.222712 24.365442
24.401419 24.330915 24.315868 24.170004 24.290651 24.28816 24.396193 24.244282
24.391619 24.24009 24.345364 24.311293 24.361828 24.330677 24.310078 24.311226
24.404133 24.232037 24.242388 24.296703 24.316643 24.427105 24.296247 24.219814
24.401293 24.215996 24.263372 24.334824 24.400984 24.369436 24.238426 24.291975
24.196396 24.279058 24.282852 24.291395 24.257877 24.302141 24.262077 24.275677
24.22784 24.267887 24.266449 24.322117 24.292454 24.311426 24.285486 24.366882
24.320969 24.332727 24.330435 24.255974 24.214348 24.19755 24.26995 24.314623
24.254744 24.155907 24.298422 24.325298 24.19021 24.261276 24.243683 24.242077
24.36412 24.187096 24.333017 24.30988 24.221815 24.25071 24.260206 24.416178
0.019650755 0.0010881176 -0.0392023 0.03954351 -0.028450545 0.026003024 -0.006485261 -0.07098705
0.052404575 -0.07402185 -0.035245277 0.046497107 -0.031379223 -0.008219104 0.009966309 -0.06727526
0.060199767 0.04452318 0.03510246 0.072589 -0.0831026 -0.0013109603 -0.07461629 0.0607655
0.024366831 -0.06821704 -0.027920062 0.008003061 -0.011017344 0.016438922 -0.022564476 -0.05762021
0.05185752 0.0029254532 -0.075231455 -0.038045216 0.01324537 -0.07597359 -0.04373218 0.028841801
-0.010710755 0.056064963 -0.035245962 0.07079396 0.025821209 -0.017896432 0.070643775 0.009580351
0.0533064 0.0059680543 -0.019580849 -0.102614805 0.014966625 -0.07679177 -0.008376613 0.042560924
0.014906939 -0.0032070656 -0.08896255 -0.04346977 0.07352112 -0.054491043 0.01808704 0.06549581
0.07053528 0.061855793 -0.10603029 -0.008067726 -0.0769212 -0.04854983 0.05051123 0.06241779
-0.09412714 -0.02305858 0.04078312 -0.011223462 -0.009440782 -0.065455064 -0.057967544 0.069723606
-0.09876335 -0.0735578 0.0691403 -0.039900366 -0.0056213504 0.044733413 -0.031492464 0.016142715
-0.011340027 -0.052776672 -0.029745692 -0.013512648 -0.041494597 -0.05735302 0.039896462 0.035370216
0.020647625 0.043384477 0.0055452697 0.07078104 0.018022886 -0.057668544 -0.0120262215 -0.023003625
0.036144443 0.054637827 -0.02763988 -0.08521322 -0.0848285 -0.090095945 0.031129288 0.068349905
-0.09165613 -0.0067702583 -0.022726962 -0.019108614 0.006622916 0.054392625 -0.08889704 0.08553247
0.07431706 -0.046880636 -0.08390426 -0.02623616 0.02070576 0.048502672 -0.07209745 0.002007825

seq.2.bias f4 [32]
00000000: c3b2 ba41 fdc4 47bd bedd 413d 170a 31be
00000010: 5f23 b941 f161 1a3d a598 b941 19b3 b941
00000020: 9ab2 7f3d 340e 223e 49ff 7a3d c6cc 36be
00000030: 6951 ba41 0197 ba41 10c7 ba41 777c 80bd
00000040: 08bd ba41 76ce ba41 a2fa 473d 5491 903d
00000050: 37be b941 4288 af3d 88d7 ba41 d175 ba41
00000060: 7990 07be ad7a 54bc c14e ba41 cf9d b941
00000070: 635d 073c 7400 1fbe 944c 35bd 3ba1 8e3d
23.337286 -0.048771847 0.04733061 -0.17289005 23.142271 0.03769106 23.199533 23.21245
0.062426187 0.1582573 0.061278615 -0.17851552 23.289751 23.323732 23.347198 -0.0627374
23.3423 23.350811 0.048823006 0.07058969 23.217878 0.08570911 23.35524 23.307528
-0.13238706 -0.012968701 23.288454 23.202055 0.008262011 -0.15527517 -0.044262484 0.06964346

seq.4.weight f4 [8, 32]
00000000: e1d1 a43d 2d79 1cbe b87d e33d 0bad f93d
00000010: 1fe2 0ebe 9c50 003e 9412 213d c263 33be
00000020: 4e7d 19be 4c93 d5bd d45b 1a3e bc11 e03d
00000030: b911 67bd 72cb 103e ca42 b9bd f72b 123e
00000040: ac04 af3d c6a4 623c 0fa1 d63d 9abe 91bd
00000050: 0c06 f7bd 5807 fcbd edc0 e03d 14f2 953c
00000060: 8260 22be 0b4b 123e 0153 22be fd9c fa3c
00000070: 2399 6cbd abd3 3abd b172 16be c4bf eb3d
00000080: be78 87bd 9474 6d3d 00a4 83bb 6455 27be
00000090: 8385 043e 54bb a63d 1e6f e5bc 3dec d1bd
000000a0: 09ba 343e 4922 323e 895e 303b 678e f6bd
000000b0: f446 0cbe 5a64 f2bd 7372 12bd cad5 083e
000000c0: 8c83 1e3e edef 0cbe 7372 05be dec2 1cbd
000000d0: 2b6a 073e f359 09be ecec 643c b5b8 a9bb
000000e0: 7060 013e 2e33 ae3d f4db a4bd ef8e 0dbe
000000f0: c8af b7bd db57 29be 93ce 0a3e 2e3d ca3d
00000100: 875d 14be c274 023e 1abc 22be 6c0d d23d
00000110: 2dba f3bd 87ad ca3d 79da b3bc 84b9 01be
00000120: a236 23bd 4257 14be ca16 87bd c637 2c3d
00000130: 35ec 12be e847 14be dede 93bc eaaf 1fbe
00000140: c14a adbd d8a6 ec3d f48d ccbd b026 44bd
00000150: fba3 843d efbb 3b3e 7f4f 003e 63cf 26be
00000160: d92f 3a3c ffa8 133e 8925 eabd c476 253e
00000170: dc58 21be 6dd2 eabd abc1 2dbe 277f 323e
00000180: 9cbb c341 5e42 01be 82ff 9dbd dc93 c73d
00000190: 9d37 c341 f5fb 373d ed66 c441 96df c341
000001a0: aa26 0ebe f472 05bd 4d0d 153e 342d 7d3d
000001b0: 7f36 c041 f1ff c241 8ed7 c341 0031 eb3d
000001c0: b181 c341 b65b c441 a88c ac3d aed7 b9bb
000001d0: 9554 c241 39bf 0dbe 78a2 c141 8962 c341
000001e0: 74b3 e6bd ccab 183d 3b03 c441 7954 c341
000001f0: 22d8 dfbd b1fc bbbd 21ef b0bd 01e0 d7bd
00000200: ec68 4c3d 65b2 b93d 0f50 da3d f53e bcbd
00000210: ff46 233e e483 68bd 6c5a 21be b77e 12be
00000220: a49d b43d a592 2d3e 0361 cf3b 4593 1cbd
00000230: 94b4 25be 9cb8 df3d 333a 4c3d ccff d93d
00000240: 59bf d6bd f830 1bbe d57d 983d 6e08 4abd
00000250: a4e8 cabd 6a39 6bbd 54ca 2e3e 5b49 0b3e
00000260: db95 6fbd 11d5 18be 8e17 e4bc fb87 813d
00000270: 0183 1e3e 3edf 18bd 8bc2 10be 70d7 cf3d
00000280: c833 c241 3782 3d3e 522d 613d e80d 50be
00000290: 5411 c241 2571 c1bc ddd0 c341 3881 c141
000002a0: 0984 e7bd 2c80 163d 308e e4bd 439b 83be
000002b0: 68e3 c141 71f3 c241 3ecb c241 028a cf3d
000002c0: c36f c241 4c2e c341 91a1 20be a749 993c
000002d0: 39eb c341 25db 023e a0e8 c141 fe65 c341
000002e0: b202 f8bd e2dd 7fbd d86d c341 ec2e c441
000002f0: 9d53 bcbd fc5d e3bd bc1a 5a3d 63e3 fdbd
00000300: f64f bc3d 8240 f83c 3292 de3d e39c 9ebd
00000310: f6cf 96bd 6b60 10be e764 44be 78b1 0ebe
00000320: e8cd c63d 8590 043e 6e23 92bd f3b0 1cbe
00000330: 21b1 083e 2237 1a3d 95d7 edbd ce68 fc3d
00000340: 80a0 433c 13cd 523d 8d40 8cbd 1cdb b33d
00000350: 85e4 ab3d b09e e23d 1bee 89bc 60aa 003e
00000360: 0317 50bd 69b0 8bbd d989 c0bd 9235 1cbe
00000370: 961a c23d 428c 83bd af42 273e cdd4 08bd
00000380: 7bd4 59bb ed3b 143e 8cdb 8a3c 4ddc a9bb
00000390: e101 fc3d 870c 64bc c595 323a cc71 4dbe
000003a0: 2d77 033e 9f06 35bd c1c9 5c3d bd9e 9bbd
000003b0: b5d7 f6bd 4607 ad3d 115f 54bd 3c4f a8bd
000003c0: a1bb 6d3b b852 43be 995b 2fbe 9cd1 de3c
000003d0: e3ba 6c3d 9f76 093e 5f51 ac3d ae50 5e3d
000003e0: 1d0f 953d 7c94 a6bc 2a29 ee3c 0b30 db3d
000003f0: f14b ef3d 25d7 0d3e d2b5 94bd 3b93 30be
0.08047844 -0.152806 0.11107963 0.121912085 -0.13953446 0.1253075 0.039324358 -0.17518523
-0.14989206 -0.10428485 0.15074092 0.109408826 -0.056413386 0.14140108 -0.09045942 0.14274584
0.08545813 0.01383323 0.10479938 -0.071164325 -0.120617 -0.12306088 0.10974298 0.018303908
-0.15857127 0.14286439 -0.15851976 0.030592436 -0.05776323 -0.04561202 -0.14692189 0.11511186
-0.066148266 0.057972506 -0.004017353 -0.16341168 0.12941556 0.08141199 -0.028007086 -0.10250137
0.17649092 0.17395891 0.0026911816 -0.1203888 -0.13698941 -0.11835547 -0.03575368 0.13362804
0.15479869 -0.137634 -0.1303194 -0.038271777 0.13224094 -0.13413219 0.013972502 -0.0051794895
0.12634444 0.085058555 -0.08049765 -0.13824056 -0.089690745 -0.1653742 0.13555364 0.0987495
-0.14488803 0.12739852 -0.15892068 0.10256466 -0.119007446 0.09896379 -0.021954762 -0.12668425
-0.039847024 -0.14486411 -0.065961435 0.042045377 -0.14347918 -0.14480555 -0.018050607 -0.1559445
-0.08461524 0.115552604 -0.09988013 -0.047888458 0.06476589 0.1833341 0.12530325 -0.16290049
0.011363947 0.14419936 -0.114329405 0.16158587 -0.15756553 -0.11465917 -0.1696841 0.17431317
24.466606 -0.12622973 -0.0771475 0.09744999 24.402155 0.04491802 24.550257 24.484173
-0.13881937 -0.03258033 0.14555855 0.061810687 24.02661 24.374971 24.480251 0.114839554
24.438326 24.54478 0.084252656 -0.005671463 24.2913 -0.13842477 24.20433 24.423113
-0.11264697 0.037273213 24.501577 24.416246 -0.10929896 -0.091790564 -0.0863936 -0.10540772
0.04990475 0.09067229 0.10659801 -0.091916956 0.15945052 -0.056766406 -0.1575715 -0.1430615
0.0881913 0.16950472 0.0063287034 -0.038226385 -0.16182166 0.10923883 0.04986019 0.106444925
-0.104857154 -0.15155399 0.074458756 -0.049324445 -0.09907654 -0.0574278 0.1706937 0.13602202
-0.058492523 -0.14925028 -0.027843263 0.06324764 0.15479662 -0.037322275 -0.14136712 0.10148513
24.275284 0.18506704 0.05497486 -0.20317805 24.258461 -0.023613522 24.476984 24.188095
-0.113044806 0.036743328 -0.111599326 -0.25704393 24.236038 24.368868 24.34924 0.10133745
24.304571 24.397606 -0.15686633 0.018711878 24.489855 0.1277891 24.238586 24.4248
-0.12109889 -0.062467463 24.428635 24.522911 -0.091956355 -0.111019105 0.053248152 -0.12396886
0.09194939 0.030304197 0.10867728 -0.077447675 -0.07363884 -0.1409928 -0.19179116 -0.13934886
0.09707242 0.12945755 -0.07135664 -0.15301876 0.1334882 0.037650235 -0.11613385 0.123246774
0.011940122 0.051465105 -0.068482496 0.08782026 0.08393196 0.110654235 -0.01683717 0.12564993
-0.050803196 -0.06820757 -0.09401292 -0.1525481 0.09477727 -0.064232364 0.16334032 -0.033406068
-0.003323822 0.14475985 0.016950391 -0.0051837326 0.12305046 -0.013919002 0.00068124785 -0.20062941
0.1283843 -0.044195767 0.053903345 -0.07598636 -0.120528616 0.08448653 -0.051848475 -0.08218238
0.0036275166 -0.19074523 -0.17124785 0.027199559 0.057795417 0.13424157 0.08413958 0.05427616
0.07278273 -0.020334475 0.029072363 0.10702523 0.116844065 0.13851602 -0.07261242 -0.17243664

seq.4.bias f4 [8]
00000000: 755e e33d 0c46 69bd 131a 203e 71ae aa41
00000010: 2254 3e3e 57b2 aa41 ed3a 403e c9b5 3ebd
0.111020006 -0.056951568 0.15634947 21.335176 0.18586782 21.33708 0.18772478 -0.046560083

seq.6.weight f4 [4, 8]
00000000: 04e6 993e 4ad1 033e 2a09 22be 417e 3541
00000010: 789c a5be 7a04 3541 50b3 00be fbd4 b33e
00000020: 0aef a2be 04cc 9abe 74e7 183e 87ce bb41
00000030: 2979 803d 5805 b941 f1a0 90be 502d 03be
00000040: 126a 68bb 7771 16be a474 dc3d 3066 2f41
00000050: 5077 74be b1a8 3141 3d10 133d d1f0 a2be
00000060: 745c a6be 9f97 77be 31d6 90be 6139 ae41
00000070: bc13 acbd a949 ad41 5fa5 36be 4147 88be
0.300583 0.12872806 -0.15823808 11.343324 -0.3234594 11.313593 -0.12568402 0.3512343
-0.31822997 -0.30233777 0.14932042 23.475843 0.062731095 23.12761 -0.2824779 -0.12810254
-0.0035463613 -0.14691721 0.10764435 10.962448 -0.23873639 11.103684 0.035904158 -0.31824353
-0.3249241 -0.24178933 -0.28288415 21.778017 -0.084022015 21.660967 -0.17836522 -0.26616862

seq.6.bias f4 [4]
00000000: 6dd7 6441 cee6 9341 107b 7141 b9b9 8d41
14.302594 18.487698 15.092545 17.715685
