training/models/environment_traffic_lights/1639402144/checkpoints/ep00075.pt (torch, 28751 bytes, 8 tensors)

seq.0.weight f4 [128, 16]
000000 bf bd 79 42 2b a3 78 42 b1 3d 75 42 b4 a8 52 42
       62.4353 62.159344 61.310246 52.66475
000010 07 ea 76 42 fa 82 74 42 7c e9 71 42 8b 12 33 42
       61.728542 61.127907 60.478012 44.76811
000020 f1 1e 79 42 ea 8b 76 42 47 55 73 42 f3 9b 4d 42
       62.280216 61.636635 60.83328 51.402294
000030 7f 89 76 42 fd 63 74 42 34 12 71 42 64 d6 39 42
       61.634274 61.097645 60.267776 46.459366
000040 d6 6b 78 42 b1 ad 78 42 00 9e 74 42 55 61 51 42
       62.10531 62.16962 61.154297 52.34505
000050 8a 2d 77 42 29 ed 75 42 27 d2 70 42 50 3e 32 42
       61.79447 61.4816 60.205227 44.560852
000060 bb 00 77 42 f8 8a 75 42 ab bc 72 42 03 9f 4d 42
       61.750713 61.38571 60.684246 51.405285
000070 f5 77 75 42 f4 57 75 42 1a cc 70 42 c6 06 38 42
       61.367146 61.33589 60.199318 46.006615
000080 6a 3d 78 42 17 50 77 42 d9 69 74 42 54 4f 51 42
       62.059975 61.828213 61.103367 52.32747
000090 36 36 76 42 5e be 74 42 50 ff 70 42 59 3f 30 42
       61.55294 61.185905 60.24933 44.061863
0000a0 dc b7 75 42 ab 6e 74 42 a5 57 73 42 9c 7b 4b 42
       61.42955 61.108074 60.83559 50.870712
0000b0 16 4a 75 42 17 f4 72 42 7b a8 71 42 04 53 37 42
       61.32235 60.73837 60.41453 45.83107
0000c0 6a e8 7a 42 93 14 79 42 86 97 76 42 bc 0b 53 42
       62.726967 62.270092 61.647972 52.76146
0000d0 e7 ea 76 42 25 02 76 42 60 39 72 42 0c 9c 32 42
       61.729397 61.502094 60.55603 44.65239
0000e0 d6 1d 78 42 0e 84 75 42 3f 8e 74 42 b0 a1 4c 42
       62.029137 61.37896 61.138912 51.157898
0000f0 a2 90 76 42 35 d1 73 42 78 13 71 42 bd 4c 38 42
       61.641243 60.954304 60.269012 46.07494
000100 cd d5 7a 42 59 4a 78 42 6d 5a 75 42 11 8c 53 42
       62.70879 62.072605 61.338306 52.886784
000110 53 38 77 42 f1 9c 75 42 d7 7b 71 42 78 6a 31 42
       61.805004 61.403263 60.370937 44.353973
000120 02 59 79 42 a5 1a 77 42 ce a3 74 42 82 db 4c 42
       62.33692 61.77602 61.159966 51.214363
000130 ca a7 75 42 f7 89 75 42 79 ad 70 42 7b a3 39 42
       61.413857 61.38473 60.169407 46.40965
000140 4b b9 7a 42 fa 8f 78 42 47 7b 76 42 21 d9 53 42
       62.68095 62.140602 61.620388 52.96204
000150 4f d7 77 42 ad cb 74 42 12 d7 70 42 12 11 32 42
       61.960262 61.198902 60.21003 44.51667
000160 cf 52 78 42 26 df 75 42 b8 c6 73 42 a3 6d 4e 42
       62.080868 61.46792 60.94406 51.607067
000170 a9 47 76 42 22 9d 74 42 44 e4 71 42 d8 1f 3a 42
       61.56998 61.15345 60.472916 46.531097
000180 75 75 79 42 4f b0 78 42 bf bd 75 42 f5 e9 51 42
       62.364704 62.172176 61.4353 52.478474
000190 e0 92 78 42 05 b5 76 42 83 9b 72 42 ad 72 31 42
       62.143433 61.676777 60.651867 44.361988
0001a0 09 e4 78 42 6a 6b 76 42 b2 94 73 42 6d 7a 4e 42
       62.22269 61.604897 60.89521 51.619556
0001b0 1d a4 75 42 d0 58 75 42 a0 c5 72 42 70 21 38 42
       61.410267 61.33673 60.692993 46.032654
0001c0 60 83 79 42 68 b6 77 42 06 14 76 42 21 20 53 42
       62.378296 61.92813 61.519554 52.781376
0001d0 10 9e 76 42 2b c1 75 42 90 32 72 42 92 98 31 42
       61.654358 61.43864 60.549377 44.398994
0001e0 e0 53 77 42 06 b4 75 42 65 97 72 42 af d2 4c 42
       61.83191 61.425804 60.647846 51.205746
0001f0 b5 a7 75 42 d1 b1 73 42 1a 14 71 42 2c 7d 38 42
       61.413776 60.92365 60.26963 46.12224
000200 ca f3 79 42 ea 51 78 42 ba f7 76 42 34 af 53 42
       62.488075 62.079994 61.74192 52.921097
000210 32 f6 76 42 ae 86 75 42 cc 34 72 42 d7 f6 31 42
       61.740425 61.381523 60.55156 44.491055
000220 61 3b 79 42 1c f7 76 42 61 63 73 42 99 fd 4d 42
       62.307987 61.741318 60.84705 51.497654
000230 13 ac 76 42 05 a3 74 42 68 d9 70 42 49 d8 39 42
       61.66804 61.1592 60.21231 46.461216
000240 4e fe 7a 42 1a 32 79 42 b4 2b 77 42 e8 ce 52 42
       62.748344 62.298927 61.79268 52.702057
000250 b3 a8 77 42 3a 4e 75 42 87 85 71 42 35 88 31 42
       61.914745 61.326393 60.380398 44.383015
000260 47 a6 79 42 61 24 76 42 ba ec 74 42 a0 67 4e 42
       62.41238 61.535526 61.23118 51.601196
000270 77 da 75 42 c6 92 74 42 4a ea 71 42 3d 86 38 42
       61.463345 61.143333 60.478798 46.131092
000280 17 21 7b 42 5c b4 79 42 12 63 75 42 30 80 52 42
       62.782314 62.426132 61.34675 52.625183
000290 4b 3a 77 42 df 21 75 42 6f 4f 71 42 59 d3 32 42
       61.806927 61.283077 60.32757 44.706394
0002a0 dc 70 79 42 4c 41 77 42 ca 99 74 42 67 b8 4e 42
       62.360214 61.813766 61.150185 51.68008
0002b0 30 e9 75 42 62 70 74 42 43 e7 70 42 9f 85 38 42
       61.477722 61.10975 60.22584 46.13049
0002c0 98 c8 79 42 05 ab 78 42 ed 41 76 42 31 c1 53 42
       62.445892 62.16701 61.56438 52.938663
0002d0 56 87 77 42 1f 99 74 42 18 c2 70 42 a0 3b 32 42
       61.882164 61.149532 60.189545 44.558228
0002e0 ab 3f 79 42 6f e2 75 42 d0 c1 73 42 d7 96 4e 42
       62.312176 61.471127 60.93927 51.647305
0002f0 02 a9 75 42 4d 45 75 42 df e6 71 42 64 9d 39 42
       61.415047 61.317677 60.47546 46.4037
000300 58 31 79 42 b1 82 79 42 a3 64 76 42 7b 28 53 42
       62.298187 62.37763 61.598278 52.78953
000310 e4 d8 76 42 46 53 75 42 ae a0 70 42 9b b6 32 42
       61.711807 61.33132 60.156914 44.678326
000320 d2 6e 78 42 87 18 76 42 99 7d 74 42 35 1f 4d 42
       62.108223 61.523952 61.122654 51.280476
000330 3f cb 76 42 7d 5c 74 42 b2 96 70 42 71 81 38 42
       61.698483 61.09032 60.147163 46.126408
000340 83 35 79 42 e4 82 79 42 b7 4c 76 42 19 de 53 42
       62.302258 62.377823 61.574917 52.966892
000350 b9 30 77 42 38 2a 75 42 0a 3b 71 42 77 40 31 42
       61.79758 61.29123 60.307655 44.312954
000360 6a e7 77 42 70 33 76 42 9c a6 74 42 b5 11 4e 42
       61.97599 61.550232 61.162704 51.517292
000370 46 af 75 42 c8 d3 74 42 cc 3d 71 42 b8 84 39 42
       61.421165 61.206818 60.31035 46.37961
000380 67 4a 7a 42 40 8c 78 42 5c f6 74 42 45 2e 52 42
       62.57266 62.136963 61.240585 52.545185
000390 6a cc 76 42 c5 1c 74 42 77 98 70 42 b5 b4 31 42
       61.699623 61.028095 60.14889 44.42647
0003a0 7a 38 77 42 01 16 75 42 2f 36 74 42 53 70 4e 42
       61.805153 61.27149 61.052914 51.60969
0003b0 52 81 76 42 ff 34 75 42 98 8f 71 42 55 a6 38 42
       61.62629 61.301754 60.39023 46.162434
0003c0 fe 1d 79 42 2d 96 77 42 e8 47 75 42 17 6c 53 42
       62.27929 61.896656 61.32022 52.855556
0003d0 23 ee 76 42 3e 90 75 42 5b 06 72 42 4d 19 31 42
       61.732555 61.39086 60.506207 44.274708
0003e0 16 18 78 42 89 fa 75 42 9f 8f 73 42 f3 68 4d 42
       62.02352 61.494663 60.890255 51.35249
0003f0 7e 93 75 42 be 55 74 42 fd 22 71 42 c4 18 3a 42
       61.394035 61.083733 60.28417 46.524185

seq.0.bias f4 [128]
000000 6f 44 82 42 47 9e 82 42 90 fd 81 42 9d 1e 83 42
       65.13366 65.309135 64.99524 65.55979
000010 e5 7e 82 42 44 b5 82 42 a9 23 82 42 7e d0 82 42
       65.24784 65.354034 65.06965 65.40721
000020 a9 05 83 42 90 0b 83 42 c7 12 83 42 40 31 83 42
       65.511055 65.52258 65.536674 65.59619
000030 d1 7e 82 42 ea 90 82 42 2f 06 83 42 d8 86 82 42
       65.24769 65.283035 65.51208 65.26337
000040 a9 c2 82 42 72 ac 82 42 48 62 82 42 da af 82 42
       65.380196 65.33681 65.191956 65.34346
000050 a4 d6 82 42 49 fe 82 42 96 0b 83 42 fd fb 81 42
       65.41922 65.49665 65.52263 64.992165
000060 8b b7 82 42 9b e8 82 42 99 5e 82 42 12 c5 82 42
       65.35848 65.45431 65.18476 65.3849
000070 32 ca 82 42 2d 81 82 42 a4 ad 82 42 24 93 82 42
       65.39491 65.2523 65.33914 65.287384
000080 e2 08 83 42 d8 ef 82 42 1f 57 82 42 0c 8c 82 42
       65.51735 65.468445 65.17016 65.27353
000090 b9 e5 82 42 de c2 82 42 28 97 82 42 5b 3f 83 42
       65.44868 65.3806 65.29523 65.62374
0000a0 9e b1 82 42 ec 34 82 42 b2 ef 82 42 9e 4e 82 42
       65.34691 65.10336 65.468155 65.15355
0000b0 a4 8f 82 42 a6 97 82 42 18 ea 82 42 5f 80 82 42
       65.28055 65.29619 65.457214 65.250725
0000c0 fb 58 82 42 5c 70 82 42 ba 18 83 42 a8 19 83 42
       65.17379 65.21945 65.548294 65.55011
0000d0 e2 a5 82 42 bb 74 82 42 71 e9 82 42 42 f5 82 42
       65.32399 65.22799 65.45594 65.47902
0000e0 65 ec 82 42 de 79 82 42 26 84 82 42 69 1b 83 42
       65.46171 65.23802 65.2581 65.553535
0000f0 2e 60 83 42 8d 89 82 42 8d 6c 82 42 45 64 82 42
       65.68785 65.268654 65.21201 65.19584
000100 33 de 82 42 5c 7f 82 42 27 04 83 42 7e 0d 83 42
       65.43398 65.24875 65.50811 65.52635
000110 4a b7 82 42 85 87 82 42 7f 4e 83 42 6d ed 82 42
       65.35799 65.26469 65.65331 65.46372
000120 d4 99 82 42 6c 27 82 42 37 dc 82 42 83 85 82 42
       65.300446 65.076996 65.43011 65.260765
000130 87 d6 82 42 bb 5d 82 42 29 24 83 42 6b 8d 82 42
       65.419 65.18307 65.570625 65.27621
000140 d1 29 82 42 ca af 82 42 f8 47 82 42 2c 78 82 42
       65.08167 65.34334 65.140564 65.23471
000150 d2 58 82 42 d9 bb 82 42 79 fa 82 42 ce be 82 42
       65.17348 65.36689 65.489204 65.372665
000160 7e 61 82 42 03 ea 82 42 ef 39 82 42 20 60 82 42
       65.190414 65.457054 65.11315 65.187744
000170 ba d4 82 42 74 13 83 42 4f bb 82 42 87 1a 83 42
       65.41548 65.537994 65.36584 65.55181
000180 70 9b 82 42 e6 a8 82 42 0d 4f 83 42 6c 5e 83 42
       65.30359 65.32988 65.654396 65.68442
000190 04 8e 82 42 4c 41 83 42 e4 b1 82 42 94 46 82 42
       65.277374 65.62753 65.34744 65.13785
0001a0 78 9b 82 42 40 06 83 42 09 38 83 42 54 f1 82 42
       65.30365 65.51221 65.60944 65.471344
0001b0 3d 5b 82 42 ad 13 82 42 6e 55 82 42 66 fb 82 42
       65.1782 65.03843 65.166855 65.49101
0001c0 9f d4 82 42 11 9d 82 42 b7 f2 82 42 1a 64 82 42
       65.415276 65.30677 65.47405 65.19551
0001d0 62 6e 82 42 da 6e 82 42 52 43 82 42 10 b2 82 42
       65.21559 65.21651 65.131485 65.34778
0001e0 e3 01 83 42 1c 99 82 42 4d 3e 83 42 e5 65 82 42
       65.503685 65.29904 65.62168 65.19901
0001f0 19 66 82 42 54 21 82 42 69 21 83 42 3b 61 82 42
       65.19941 65.065094 65.565254 65.1899

seq.2.weight f4 [32, 128]
000000 c8 d2 83 42 28 b9 83 42 91 e6 82 42 95 e1 83 42
       65.91168 65.86163 65.450325 65.94059
000010 a3 d7 83 42 e4 cc 83 42 a8 7c 83 42 50 c3 83 42
       65.921165 65.90018 65.74347 65.88147
000020 70 98 83 42 1b cd 83 42 65 c5 83 42 b7 dd 83 42
       65.79773 65.9006 65.88554 65.93304
000030 89 9b 83 42 9c 05 84 42 a5 d5 83 42 57 0b 84 42
       65.80378 66.010956 65.917274 66.02215
000040 c1 93 83 42 22 9d 83 42 74 dd 83 42 a2 f9 83 42
       65.78858 65.8069 65.932526 65.987564
000050 57 d7 83 42 40 c2 83 42 d0 a6 83 42 9b b8 83 42
       65.920586 65.879395 65.825806 65.86056
000060 e1 c9 83 42 29 99 83 42 79 c4 83 42 00 f0 83 42
       65.894295 65.79914 65.883736 65.96875
000070 23 a9 83 42 2f a6 83 42 77 ab 83 42 80 7e 83 42
       65.830345 65.82458 65.83489 65.74707
000080 0c a4 83 42 fe a1 83 42 be b4 83 42 43 b9 83 42
       65.820404 65.81639 65.85301 65.86184
000090 32 b1 83 42 8b ad 83 42 af 00 84 42 6b bf 83 42
       65.846085 65.83895 66.001335 65.87386
0000a0 b5 b8 83 42 d4 dd 83 42 51 aa 83 42 c4 6a 83 42
       65.860756 65.93326 65.83265 65.70853
0000b0 6d b1 83 42 50 c0 83 42 8c cb 83 42 30 c0 83 42
       65.846535 65.87561 65.89755 65.87537
0000c0 bb c9 83 42 9e b7 83 42 be 7e 83 42 d3 bc 83 42
       65.894005 65.85863 65.74754 65.8688
0000d0 c5 ac 83 42 3e 7c 83 42 53 9d 83 42 bc e5 83 42
       65.83744 65.74266 65.807274 65.9487
0000e0 0f f8 83 42 45 d3 83 42 71 cb 83 42 a7 81 83 42
       65.98449 65.912636 65.89735 65.75323
0000f0 a2 be 83 42 a0 bd 83 42 5b f5 83 42 2a a7 83 42
       65.87233 65.87036 65.97921 65.82649
000100 04 f4 83 42 ed a4 83 42 34 db 83 42 c8 c8 83 42
       65.97659 65.82212 65.92813 65.89215
000110 a3 e3 83 42 e8 d2 83 42 cb c8 83 42 1f ca 83 42
       65.9446 65.91193 65.89217 65.89477
000120 e4 f9 83 42 24 a1 83 42 6b a5 83 42 58 c2 83 42
       65.98807 65.81473 65.82308 65.87958
000130 c6 cc 83 42 5f 05 84 42 af c1 83 42 7c 9a 83 42
       65.89995 66.01049 65.87829 65.80173
000140 32 f9 83 42 fc 97 83 42 7e b0 83 42 31 d5 83 42
       65.98671 65.796844 65.84471 65.91639
000150 46 f8 83 42 5b e9 83 42 2e a3 83 42 78 be 83 42
       65.98491 65.95577 65.81871 65.87201
000160 f1 8e 83 42 38 b8 83 42 d5 ba 83 42 69 bf 83 42
       65.77918 65.8598 65.86491 65.87385
000170 61 ad 83 42 b1 c5 83 42 64 b0 83 42 a7 b6 83 42
       65.83863 65.886116 65.84451 65.85674
000180 89 9e 83 42 69 b2 83 42 6f b2 83 42 84 ce 83 42
       65.80964 65.84846 65.8485 65.90335
000190 c2 bf 83 42 85 c8 83 42 48 bc 83 42 1d e7 83 42
       65.87453 65.89164 65.86774 65.95139
0001a0 ac cd 83 42 a3 d4 83 42 17 d3 83 42 91 ac 83 42
       65.9017 65.915306 65.912285 65.83704
0001b0 20 97 83 42 cd 8e 83 42 e3 b4 83 42 6f cb 83 42
       65.795166 65.77891 65.853294 65.89733
0001c0 f3 ab 83 42 28 7c 83 42 25 c3 83 42 69 d0 83 42
       65.83584 65.74249 65.88114 65.90705
0001d0 ab 8a 83 42 2d af 83 42 a4 a5 83 42 05 a5 83 42
       65.770836 65.84214 65.82352 65.8223
0001e0 25 e5 83 42 c0 89 83 42 ed d3 83 42 91 c9 83 42
       65.94755 65.76904 65.91392 65.893684
0001f0 c1 9a 83 42 8b ab 83 42 30 af 83 42 63 00 84 42
       65.80225 65.835045 65.84216 66.000755
000200 9f fa a0 3c 2b 9f 8e 3a 97 92 20 bd 60 f8 21 3d
       0.019650755 0.0010881176 -0.0392023 0.03954351
000210 1e 11 e9 bc 4b 04 d5 3c 50 82 d4 bb a9 61 91 bd
       -0.028450545 0.026003024 -0.006485261 -0.07098705
000220 2e a6 56 3d c5 98 97 bd 5a 5d 10 bd c0 73 3e 3d
       0.052404575 -0.07402185 -0.035245277 0.046497107
000230 80 87 00 bd 6c a9 06 bc bb 49 23 3c 9d c7 89 bd
       -0.031379223 -0.008219104 0.009966309 -0.06727526
000240 08 94 76 3d f0 5d 36 3d 99 c7 0f 3d 8b a9 94 3d
       0.060199767 0.04452318 0.03510246 0.072589
000250 b2 31 aa bd 87 d4 ab ba 6d d0 98 bd 3f e5 78 3d
       -0.0831026 -0.0013109603 -0.07461629 0.0607655
000260 f3 9c c7 3c 60 b5 8b bd 9d b8 e4 bc 45 1f 03 3c
       0.024366831 -0.06821704 -0.027920062 0.008003061
000270 17 82 34 bc eb aa 86 3c 23 d9 b8 bc 2b 03 6c bd
       -0.011017344 0.016438922 -0.022564476 -0.05762021
000280 8d 68 54 3d f6 b8 3f 3b f3 12 9a bd 4d d5 1b bd
       0.05185752 0.0029254532 -0.075231455 -0.038045216
000290 1c 03 59 3c 0b 98 9b bd 84 20 33 bd a4 45 ec 3c
       0.01324537 -0.07597359 -0.04373218 0.028841801
0002a0 2a 7c 2f bc 60 a4 65 3d 12 5e 10 bd 6c fc 90 3d
       -0.010710755 0.056064963 -0.035245962 0.07079396
0002b0 00 87 d3 3c 8a 9b 92 bc af ad 90 3d e8 f6 1c 3c
       0.025821209 -0.017896432 0.070643775 0.009580351
0002c0 d0 57 5a 3d ab 8f c3 3b 04 68 a0 bc b6 27 d2 bd
       0.0533064 0.0059680543 -0.019580849 -0.102614805
0002d0 93 36 75 3c 01 45 9d bd 10 3e 09 bc 5d 54 2e 3d
       0.014966625 -0.07679177 -0.008376613 0.042560924
0002e0 3c 3c 74 3c a2 2d 52 bb ff 31 b6 bd 5c 0d 32 bd
       0.014906939 -0.0032070656 -0.08896255 -0.04346977
0002f0 3e 92 96 3d 00 32 5f bd 46 2b 94 3c ab 22 86 3d
       0.07352112 -0.054491043 0.01808704 0.06549581
000300 cd 74 90 3d 80 5c 7d 3d 69 26 d9 bd 7f 2e 04 bc
       0.07053528 0.061855793 -0.10603029 -0.008067726
000310 dd 88 9d bd 30 dc 46 bd dd e4 4e 3d cc a9 7f 3d
       -0.0769212 -0.04854983 0.05051123 0.06241779
000320 bb c5 c0 bd 59 e5 bc bc 33 0c 27 3d 9d e2 37 bc
       -0.09412714 -0.02305858 0.04078312 -0.011223462
000330 82 ad 1a bc 4e 0d 86 bd 60 6f 6d bd 40 cb 8e 3d
       -0.009440782 -0.065455064 -0.057967544 0.069723606
000340 70 44 ca bd 79 a5 96 bd 6e 99 8d 3d 91 6e 23 bd
       -0.09876335 -0.0735578 0.0691403 -0.039900366
000350 4e 33 b8 bb 62 3a 37 3d 3e fe 00 bd ba 3d 84 3c
       -0.0056213504 0.044733413 -0.031492464 0.016142715
000360 85 cb 39 bc 5a 2c 58 bd 3d ad f3 bc 27 64 5d bc
       -0.011340027 -0.052776672 -0.029745692 -0.013512648
000370 3d f6 29 bd 00 eb 6a bd 79 6a 23 3d 5c e0 10 3d
       -0.041494597 -0.05735302 0.039896462 0.035370216
000380 35 25 a9 3c ec b3 31 3d 18 b5 b5 3b a6 f5 90 3d
       0.020647625 0.043384477 0.0055452697 0.07078104
000390 bb a4 93 3c da 35 6c bd a1 09 45 bc 19 72 bc bc
       0.018022886 -0.057668544 -0.0120262215 -0.023003625
0003a0 32 0c 14 3d ea cb 5f 3d 08 6d e2 bc 45 84 ae bd
       0.036144443 0.054637827 -0.02763988 -0.08521322
0003b0 91 ba ad bd 39 84 b8 bd d9 02 ff 3c 09 fb 8b 3d
       -0.0848285 -0.090095945 0.031129288 0.068349905
0003c0 36 b6 bb bd 0b d9 dd bb e5 2d ba bc ab 89 9c bc
       -0.09165613 -0.0067702583 -0.022726962 -0.019108614
0003d0 0c 05 d9 3b cd ca 5e 3d a7 0f b6 bd a6 2b af 3d
       0.006622916 0.054392625 -0.08889704 0.08553247
0003e0 8b 33 98 3d e9 05 40 bd ff d5 ab bd 37 ed d6 bc
       0.07431706 -0.046880636 -0.08390426 -0.02623616
0003f0 20 9f a9 3c bd aa 46 3d d4 a7 93 bd b7 95 03 3b
       0.02070576 0.048502672 -0.07209745 0.002007825

seq.2.bias f4 [32]
000000 ce e1 7b 42 fd c4 47 bd be dd 41 3d 17 0a 31 be
       62.970512 -0.048771847 0.04733061 -0.17289005
000010 f6 1a 7b 42 f1 61 1a 3d d9 51 7b 42 a9 62 7b 42
       62.77633 0.03769106 62.82993 62.846348
000020 9a b2 7f 3d 34 0e 22 3e 49 ff 7a 3d c6 cc 36 be
       0.062426187 0.1582573 0.061278615 -0.17851552
000030 6a b6 7b 42 eb d3 7b 42 11 eb 7b 42 77 7c 80 bd
       62.92814 62.95695 62.979557 -0.0627374
000040 f3 e6 7b 42 a1 ed 7b 42 a2 fa 47 3d 54 91 90 3d
       62.975536 62.98206 0.048823006 0.07058969
000050 33 67 7b 42 42 88 af 3d 7b f7 7b 42 54 c2 7b 42
       62.85078 0.08570911 62.99168 62.939774
000060 79 90 07 be ad 7a 54 bc ef ad 7b 42 5b 55 7b 42
       -0.13238706 -0.012968701 62.919857 62.833355
000070 63 5d 07 3c 74 00 1f be 94 4c 35 bd 3b a1 8e 3d
       0.008262011 -0.15527517 -0.044262484 0.06964346

seq.4.weight f4 [8, 32]
000000 e1 d1 a4 3d 2d 79 1c be b8 7d e3 3d 0b ad f9 3d
       0.08047844 -0.152806 0.11107963 0.121912085
000010 1f e2 0e be 9c 50 00 3e 94 12 21 3d c2 63 33 be
       -0.13953446 0.1253075 0.039324358 -0.17518523
000020 4e 7d 19 be 4c 93 d5 bd d4 5b 1a 3e bc 11 e0 3d
       -0.14989206 -0.10428485 0.15074092 0.109408826
000030 b9 11 67 bd 72 cb 10 3e ca 42 b9 bd f7 2b 12 3e
       -0.056413386 0.14140108 -0.09045942 0.14274584
000040 ac 04 af 3d c6 a4 62 3c 0f a1 d6 3d 9a be 91 bd
       0.08545813 0.01383323 0.10479938 -0.071164325
000050 0c 06 f7 bd 58 07 fc bd ed c0 e0 3d 14 f2 95 3c
       -0.120617 -0.12306088 0.10974298 0.018303908
000060 82 60 22 be 0b 4b 12 3e 01 53 22 be fd 9c fa 3c
       -0.15857127 0.14286439 -0.15851976 0.030592436
000070 23 99 6c bd ab d3 3a bd b1 72 16 be c4 bf eb 3d
       -0.05776323 -0.04561202 -0.14692189 0.11511186
000080 be 78 87 bd 94 74 6d 3d 00 a4 83 bb 64 55 27 be
       -0.066148266 0.057972506 -0.004017353 -0.16341168
000090 83 85 04 3e 54 bb a6 3d 1e 6f e5 bc 3d ec d1 bd
       0.12941556 0.08141199 -0.028007086 -0.10250137
0000a0 09 ba 34 3e 49 22 32 3e 89 5e 30 3b 67 8e f6 bd
       0.17649092 0.17395891 0.0026911816 -0.1203888
0000b0 f4 46 0c be 5a 64 f2 bd 73 72 12 bd ca d5 08 3e
       -0.13698941 -0.11835547 -0.03575368 0.13362804
0000c0 8c 83 1e 3e ed ef 0c be 73 72 05 be de c2 1c bd
       0.15479869 -0.137634 -0.1303194 -0.038271777
0000d0 2b 6a 07 3e f3 59 09 be ec ec 64 3c b5 b8 a9 bb
       0.13224094 -0.13413219 0.013972502 -0.0051794895
0000e0 70 60 01 3e 2e 33 ae 3d f4 db a4 bd ef 8e 0d be
       0.12634444 0.085058555 -0.08049765 -0.13824056
0000f0 c8 af b7 bd db 57 29 be 93 ce 0a 3e 2e 3d ca 3d
       -0.089690745 -0.1653742 0.13555364 0.0987495
000100 87 5d 14 be c2 74 02 3e 1a bc 22 be 6c 0d d2 3d
       -0.14488803 0.12739852 -0.15892068 0.10256466
000110 2d ba f3 bd 87 ad ca 3d 79 da b3 bc 84 b9 01 be
       -0.119007446 0.09896379 -0.021954762 -0.12668425
000120 a2 36 23 bd 42 57 14 be ca 16 87 bd c6 37 2c 3d
       -0.039847024 -0.14486411 -0.065961435 0.042045377
000130 35 ec 12 be e8 47 14 be de de 93 bc ea af 1f be
       -0.14347918 -0.14480555 -0.018050607 -0.1559445
000140 c1 4a ad bd d8 a6 ec 3d f4 8d cc bd b0 26 44 bd
       -0.08461524 0.115552604 -0.09988013 -0.047888458
000150 fb a3 84 3d ef bb 3b 3e 7f 4f 00 3e 63 cf 26 be
       0.06476589 0.1833341 0.12530325 -0.16290049
000160 d9 2f 3a 3c ff a8 13 3e 89 25 ea bd c4 76 25 3e
       0.011363947 0.14419936 -0.114329405 0.16158587
000170 dc 58 21 be 6d d2 ea bd ab c1 2d be 27 7f 32 3e
       -0.15756553 -0.11465917 -0.1696841 0.17431317
000180 00 16 84 42 5e 42 01 be 82 ff 9d bd dc 93 c7 3d
       66.04297 -0.12622973 -0.0771475 0.09744999
000190 00 f6 83 42 f5 fb 37 3d 38 41 84 42 f1 1e 84 42
       65.98047 0.04491802 66.12738 66.06043
0001a0 aa 26 0e be f4 72 05 bd 4d 0d 15 3e 34 2d 7d 3d
       -0.13881937 -0.03258033 0.14555855 0.061810687
0001b0 76 36 83 42 60 e7 83 42 09 1d 84 42 00 31 eb 3d
       65.60637 65.951904 66.05671 0.114839554
0001c0 65 07 84 42 46 3e 84 42 a8 8c ac 3d ae d7 b9 bb
       66.01444 66.12163 0.084252656 -0.005671463
0001d0 b3 bc 83 42 39 bf 0d be a4 90 83 42 0b 00 84 42
       65.86855 -0.13842477 65.7825 66.000084
0001e0 74 b3 e6 bd cc ab 18 3d 45 28 84 42 e7 fc 83 42
       -0.11264697 0.037273213 66.07865 65.99395
0001f0 22 d8 df bd b1 fc bb bd 21 ef b0 bd 01 e0 d7 bd
       -0.10929896 -0.091790564 -0.0863936 -0.10540772
000200 ec 68 4c 3d 65 b2 b9 3d 0f 50 da 3d f5 3e bc bd
       0.04990475 0.09067229 0.10659801 -0.091916956
000210 ff 46 23 3e e4 83 68 bd 6c 5a 21 be b7 7e 12 be
       0.15945052 -0.056766406 -0.1575715 -0.1430615
000220 a4 9d b4 3d a5 92 2d 3e 03 61 cf 3b 45 93 1c bd
       0.0881913 0.16950472 0.0063287034 -0.038226385
000230 94 b4 25 be 9c b8 df 3d 33 3a 4c 3d cc ff d9 3d
       -0.16182166 0.10923883 0.04986019 0.106444925
000240 59 bf d6 bd f8 30 1b be d5 7d 98 3d 6e 08 4a bd
       -0.104857154 -0.15155399 0.074458756 -0.049324445
000250 a4 e8 ca bd 6a 39 6b bd 54 ca 2e 3e 5b 49 0b 3e
       -0.09907654 -0.0574278 0.1706937 0.13602202
000260 db 95 6f bd 11 d5 18 be 8e 17 e4 bc fb 87 81 3d
       -0.058492523 -0.14925028 -0.027843263 0.06324764
000270 01 83 1e 3e 3e df 18 bd 8b c2 10 be 70 d7 cf 3d
       0.15479662 -0.037322275 -0.14136712 0.10148513
000280 cf bb 83 42 37 82 3d 3e 52 2d 61 3d e8 0d 50 be
       65.86681 0.18506704 0.05497486 -0.20317805
000290 39 b4 83 42 25 71 c1 bc 7d 23 84 42 23 8f 83 42
       65.852 -0.023613522 66.06931 65.779564
0002a0 09 84 e7 bd 2c 80 16 3d 30 8e e4 bd 43 9b 83 be
       -0.113044806 0.036743328 -0.111599326 -0.25704393
0002b0 75 a9 83 42 0d ec 83 42 b8 e1 83 42 02 8a cf 3d
       65.83097 65.96104 65.94086 0.10133745
0002c0 aa ca 83 42 b3 fa 83 42 91 a1 20 be a7 49 99 3c
       65.89583 65.98965 -0.15686633 0.018711878
0002d0 25 2a 84 42 25 db 02 3e fc a9 83 42 b2 08 84 42
       66.08231 0.1277891 65.832 66.01698
0002e0 b2 02 f8 bd e2 dd 7f bd b9 0a 84 42 57 3b 84 42
       -0.12109889 -0.062467463 66.02094 66.1159
0002f0 9d 53 bc bd fc 5d e3 bd bc 1a 5a 3d 63 e3 fd bd
       -0.091956355 -0.111019105 0.053248152 -0.12396886
000300 f6 4f bc 3d 82 40 f8 3c 32 92 de 3d e3 9c 9e bd
       0.09194939 0.030304197 0.10867728 -0.077447675
000310 f6 cf 96 bd 6b 60 10 be e7 64 44 be 78 b1 0e be
       -0.07363884 -0.1409928 -0.19179116 -0.13934886
000320 e8 cd c6 3d 85 90 04 3e 6e 23 92 bd f3 b0 1c be
       0.09707242 0.12945755 -0.07135664 -0.15301876
000330 21 b1 08 3e 22 37 1a 3d 95 d7 ed bd ce 68 fc 3d
       0.1334882 0.037650235 -0.11613385 0.123246774
000340 80 a0 43 3c 13 cd 52 3d 8d 40 8c bd 1c db b3 3d
       0.011940122 0.051465105 -0.068482496 0.08782026
000350 85 e4 ab 3d b0 9e e2 3d 1b ee 89 bc 60 aa 00 3e
       0.08393196 0.110654235 -0.01683717 0.12564993
000360 03 17 50 bd 69 b0 8b bd d9 89 c0 bd 92 35 1c be
       -0.050803196 -0.06820757 -0.09401292 -0.1525481
000370 96 1a c2 3d 42 8c 83 bd af 42 27 3e cd d4 08 bd
       0.09477727 -0.064232364 0.16334032 -0.033406068
000380 7b d4 59 bb ed 3b 14 3e 8c db 8a 3c 4d dc a9 bb
       -0.003323822 0.14475985 0.016950391 -0.0051837326
000390 e1 01 fc 3d 87 0c 64 bc c5 95 32 3a cc 71 4d be
       0.12305046 -0.013919002 0.00068124785 -0.20062941
0003a0 2d 77 03 3e 9f 06 35 bd c1 c9 5c 3d bd 9e 9b bd
       0.1283843 -0.044195767 0.053903345 -0.07598636
0003b0 b5 d7 f6 bd 46 07 ad 3d 11 5f 54 bd 3c 4f a8 bd
       -0.120528616 0.08448653 -0.051848475 -0.08218238
0003c0 a1 bb 6d 3b b8 52 43 be 99 5b 2f be 9c d1 de 3c
       0.0036275166 -0.19074523 -0.17124785 0.027199559
0003d0 e3 ba 6c 3d 9f 76 09 3e 5f 51 ac 3d ae 50 5e 3d
       0.057795417 0.13424157 0.08413958 0.05427616
0003e0 1d 0f 95 3d 7c 94 a6 bc 2a 29 ee 3c 0b 30 db 3d
       0.07278273 -0.020334475 0.029072363 0.10702523
0003f0 f1 4b ef 3d 25 d7 0d 3e d2 b5 94 bd 3b 93 30 be
       0.116844065 0.13851602 -0.07261242 -0.17243664

seq.4.bias f4 [8]
000000 75 5e e3 3d 0c 46 69 bd 13 1a 20 3e 95 d2 70 42
       0.111020006 -0.056951568 0.15634947 60.205647
000010 22 54 3e 3e a2 e0 70 42 ed 3a 40 3e c9 b5 3e bd
       0.18586782 60.219368 0.18772478 -0.046560083

seq.6.weight f4 [4, 8]
000000 04 e6 99 3e 4a d1 03 3e 2a 09 22 be 76 91 39 42
       0.300583 0.12872806 -0.15823808 46.39205
000010 78 9c a5 be bb 73 39 42 50 b3 00 be fb d4 b3 3e
       -0.3234594 46.363018 -0.12568402 0.3512343
000020 0a ef a2 be 04 cc 9a be 74 e7 18 3e e2 f7 72 42
       -0.31822997 -0.30233777 0.14932042 60.742073
000030 29 79 80 3d 2b 94 71 42 f1 a0 90 be 50 2d 03 be
       0.062731095 60.394695 -0.2824779 -0.12810254
000040 12 6a 68 bb 77 71 16 be a4 74 dc 3d 6d f6 37 42
       -0.0035463613 -0.14691721 0.10764435 45.99065
000050 50 77 74 be d2 87 38 42 3d 10 13 3d d1 f0 a2 be
       -0.23873639 46.132637 0.035904158 -0.31824353
000060 74 5c a6 be 9f 97 77 be 31 d6 90 be ce 99 5c 42
       -0.3249241 -0.24178933 -0.28288415 55.1502
000070 bc 13 ac bd b1 22 5c 42 5f a5 36 be 41 47 88 be
       -0.084022015 55.03388 -0.17836522 -0.26616862

seq.6.bias f4 [4]
000000 d8 3b 40 42 64 2f 57 42 51 4e 43 42 7c a9 47 42
       48.05844 53.79628 48.82648 49.915512
