training/models/environment_traffic_lights/1639322011/checkpoints/ep00100.pt (torch, 28751 bytes, 8 tensors)

seq.0.weight f4 [128, 16]
0.1577133 -0.4389467 -0.39167333 -0.03790386 -2.0726998 -2.2663887 -1.0098155 -0.026098475
-0.05527104 -0.48225117 -0.34996277 -0.083675675 -1.2143058 -2.1319857 -1.4649556 0.05557837
-0.032241166 -0.22430275 -0.053765204 0.029808538 -0.051305663 -0.056849927 -0.23997538 -5.3874435e-05
-0.00056694885 0.093801744 -0.13359621 -0.029587843 0.0017790522 -0.09514831 0.10838023 -0.00483485
-0.023810187 0.12863313 -0.12396198 0.026348602 -0.16133584 -0.20222887 0.029713847 -0.04167321
0.08936033 -0.036727935 -0.022040702 0.097055934 -0.049747273 -0.080128 -0.36372498 -0.16128978
0.04787955 0.05746719 -0.24514861 0.006156375 0.068442374 -0.012213385 -0.032159545 -0.01625588
-0.053684518 0.099112324 0.0805897 0.059643693 0.01334411 0.10866618 0.001279753 -0.03888057
0.061272345 -0.23484029 -0.09636806 -0.07324991 0.041438404 0.08850095 -0.11762872 -0.17062403
0.05723001 0.007572713 -0.19223589 -0.1743767 0.023142494 -0.25731248 -0.13267677 -0.12527966
-0.035275836 -0.05277098 0.068782106 -0.041605946 -0.13680483 0.16799371 -0.06751406 0.011888567
0.1685582 0.035706557 -0.20280273 0.027263228 0.12092871 -0.0524214 0.10690873 -0.040959954
-0.24336573 -0.2766787 -0.38643172 0.039767962 -0.06729228 0.022417985 0.11718887 0.058757912
0.031643923 -0.19323076 -0.43580708 -0.023187026 0.2711768 0.12217179 0.32323533 0.0910495
0.09614573 -0.06476356 -0.1900755 0.08164688 -0.04523968 0.18536209 -0.05010575 -0.031629384
-0.009161069 -0.04596579 -0.13699973 -0.034585126 -0.077236734 0.10280113 0.0680518 0.0032501563
0.18239576 0.3599978 -0.030222505 0.00066534034 -0.6655616 0.059062384 -0.74257934 -0.5808101
0.08529158 0.14054729 0.2417767 0.36744967 -0.4343401 0.12944843 -0.9447002 -0.42243683
0.21150346 -0.15292446 -0.25681636 0.22501099 0.037395116 -0.0013236492 -0.4619579 -1.6967542
0.25294557 0.08807451 0.016093817 0.3457916 0.23482507 -0.16128834 -0.17774162 -1.4761357
-0.055889253 0.18621093 0.043265603 -0.03589085 -0.035095464 0.01931575 0.028005563 0.018481579
0.09247996 -0.15932077 0.033089496 -0.03849844 0.07602652 0.18675241 -0.08830527 -0.022227656
-0.027588239 -0.06416159 0.0625984 -0.017905978 -0.06252971 0.11702885 0.029812705 0.037907865
-0.00380987 0.09871417 0.05896117 -0.0735599 -0.041965324 0.12852469 -0.11661351 -0.007208598
0.039861485 0.0532346 0.0027559737 -0.041602127 0.090076715 0.13025741 0.074621774 0.12161517
-0.11652576 0.04840305 0.074453905 0.38616174 0.020162094 0.14808278 0.25110084 0.017299857
0.013014707 -0.19505617 0.09348788 0.10479287 0.09052502 -0.010479032 0.004136542 -0.008609176
0.02867295 0.0041444525 -0.13127647 0.08449719 -0.039061572 0.09545563 -0.0044946433 -0.04167511
-0.043299753 -0.27648816 0.107706495 0.0974865 0.055137653 0.06467041 -0.1336275 0.017897462
0.14964853 -0.090548575 0.114380136 -0.10932089 0.004222376 -0.09969937 -0.0083563235 0.11018405
0.011388555 -0.53360456 -0.37310997 0.013139108 -0.25901636 -0.20746054 -0.5997573 -0.26662266
-0.18501619 0.13750777 0.081564896 -0.23282838 0.10529661 0.08131389 -0.13437441 0.0007519463
00000000: 987f 213e 9fbd e0be 6889 c8be 1441 1bbd
00000010: 1da7 04c0 830c 11c0 a241 81bf 78cc d5bc
00000020: e363 62bd a0e9 f6be 522e b3be 275e abbd
00000030: 5f6e 9bbf 7472 08c0 aa83 bbbf 25a6 633d
00000040: 500f 04bd 9faf 65be e738 5cbd 0931 f43c
00000050: e325 52bd 78db 68bd 1bbc 75be 3cf7 61b8
00000060: 4b9f 14ba 211b c03d 72cd 08be 3462 f2bc
00000070: 162f e93a 1edd c2bd 74f6 dd3d a96d 9ebb
00000080: 950d c3bc 67b8 033e c7df fdbd 06d9 d73c
00000090: 3935 25be 1615 4fbe 746a f33c 87b1 2abd
000000a0: 8c02 b73d 0870 16bd b48e b4bc 43c5 c63d
000000b0: ccc3 4bbd 261a a4bd 293a babe 2629 25be
000000c0: 591d 443d b762 6b3d 3d08 7bbe 6bbb c93b
000000d0: 842b 8c3d a61a 48bc bab9 03bd 0d2b 85bc
000000e0: 4ce4 5bbd 67fb ca3d 360c a53d f24c 743d
000000f0: 41a1 5a3c 608c de3d 63bd a73a 3c41 1fbd
00000100: b6f8 7a3d f979 70be 9e5c c5bd 0c04 96bd
00000110: 51bb 293d fc3f b53d 54e7 f0bd 11b8 2ebe
00000120: 046a 6a3d 8524 f83b 7cd9 44be ce8f 32be
00000130: 5495 bd3c 76be 83be 6bdc 07be 5049 00be
00000140: 657d 10bd 6226 58bd a2dd 8c3d ff6a 2abd
00000150: 9116 0cbe 8b06 2c3e d044 8abd 44c8 423c
00000160: 859a 2c3e 0a41 123d 85ab 4fbe 2257 df3c
00000170: 79a9 f73d d2b7 56bd f7f2 da3d a0c5 27bd
00000180: de34 79be d5a8 8dbe 61da c5be bbe3 223d
00000190: 89d0 89bd eca5 b73c b800 f03d 23ac 703d
000001a0: 0f9d 013d 49de 45be 1b22 dfbe b8f2 bdbc
000001b0: afd7 8a3e 3435 fa3d 1a7f a53e 2978 ba3d
000001c0: 0de8 c43d c2a2 84bd 27a3 42be 7b36 a73d
000001d0: 3e4d 39bd 8fcf 3d3e b03b 4dbd d08d 01bd
000001e0: 4f18 16bc a046 3cbd a849 0cbe 22a9 0dbd
000001f0: 4b2e 9ebd 6689 d23d be5e 8b3d 9300 553b
00000200: f4c5 3a3e a251 b83e 3095 f7bc 3c6a 2e3a
00000210: 3f62 2abf 66eb 713d ae19 3ebf f9af 14bf
00000220: 5aad ae3d a1eb 0f3e 5094 773e 5d22 bc3e
00000230: d361 debe 218e 043e dfd7 71bf a449 d8be
00000240: 5d94 583e 3b98 1cbe 6f7d 83be 4869 663e
00000250: 9f2b 193d 4c7e adba bf85 ecbe 3e2f d9bf
00000260: 1582 813e 6960 b43d 2ed7 833c 990b b13e
00000270: fc75 703e c528 25be e601 36be 04f2 bcbf
00000280: 21ec 64bd 14ae 3e3e 4637 313d 4902 13bd
00000290: 43c0 0fbd 103c 9e3c ec6b e53c ae66 973c
000002a0: 2266 bd3d fc24 23be da88 073d 8ab0 1dbd
000002b0: cbb3 9b3d 063c 3f3e 65d9 b4bd c616 b6bc
000002c0: bb00 e2bc 2767 83bd 9733 803d 8faf 92bc
000002d0: 940f 80bd d2ac ef3d c639 f43c 4745 1b3d
000002e0: 03af 79bb a82a ca3d 4581 713d 93a6 96bd
000002f0: d5e3 2bbd fa9b 033e 10d3 eebd 1a36 ecbb
00000300: cc45 233d 860c 5a3d 919d 343b fe66 2abd
00000310: 247a b83d 3362 053e 4dd3 983d 6011 f93d
00000320: 0fa5 eebd 4742 463d 4a7b 983d feb6 c53e
00000330: fa2a a53c 03a3 173e 4a90 803e 6eb8 8d3c
00000340: a33b 553c cebc 47be 9376 bf3d a59d d63d
00000350: 2f65 b93d 3fb0 2bbc d48b 873b 800d 0dbc
00000360: 89e3 ea3c 30ce 873b 576d 06be dd0c ad3d
00000370: 07ff 1fbd 3e7e c33d cd47 93bb 85b3 2abd
00000380: 155b 31bd db8f 8dbe 3995 dc3d 01a7 c73d
00000390: 05d8 613d eb71 843d a6d5 08be b39d 923c
000003a0: 773d 193e 8871 b9bd 2240 ea3d a1e3 dfbd
000003b0: db5b 8a3b 2f2f ccbd f6e8 08bc 2da8 e13d
000003c0: 1097 3a3c 4f9a 08bf 4508 bfbe 6a45 573c
000003d0: cb9d 84be 8970 54be b289 19bf c482 88be
000003e0: e274 3dbe d6ce 0c3e 7f0b a73d 906a 6ebe
000003f0: c0a5 d73d e687 a63d 7299 09be 431e 453a

seq.0.bias f4 [128]
2.124386 1.4395361 1.1933476 1.6276935 1.0574285 1.4966298 -1.0864097 1.3055286
-0.37937745 0.37749043 1.6813612 1.4539824 -1.4206591 1.1381793 1.3534925 -0.40166092
1.3279347 0.6929588 1.3922076 1.397593 -1.3079395 -1.2478824 1.5687068 -1.5005592
1.3523719 -0.076551124 1.2116458 1.4494381 1.0128835 1.4163699 1.2314738 1.3821743
1.6333464 0.96089184 0.52543443 1.2932132 -1.268842 1.643382 1.5650336 1.6116188
-0.6864815 1.1401954 1.4709678 0.11956427 1.730621 0.61007756 1.5146768 0.43965942
-0.074084744 1.3782285 0.50872916 1.6471087 1.4804122 1.3284953 1.1270404 1.3171299
1.3916764 1.570671 1.5808591 0.4948039 -0.21665314 1.4587247 1.4856943 0.7929112
-1.4533036 1.5093993 0.9213845 0.8342327 1.2283905 0.9275603 1.2158523 -1.7933908
0.9774402 -1.5954746 1.0683098 -0.45310616 0.66218495 -0.42134765 -0.43479857 -0.13334438
0.5368261 1.342675 1.3862948 0.6083833 1.5278949 1.409485 1.3726865 -0.1965423
1.5371889 1.5027133 1.1597399 -1.259148 1.4994141 1.528029 1.4803716 -0.123831965
1.1772405 0.92475104 1.5914726 -0.7921965 0.62820137 1.4214289 -0.37643296 -0.37119398
1.5811285 -0.2125986 1.8898599 1.3133569 1.3361381 1.168646 1.4952036 0.76584125
1.6118497 1.1658283 1.4221832 1.2962629 1.340675 0.5569312 1.6351967 -1.1302388
1.6259828 1.5254127 1.1201928 1.5063622 -0.26156825 1.7038895 0.9548803 1.365645
00000000: f1f5 0740 b842 b83f 9dbf 983f 4358 d03f
00000010: d159 873f 9191 bf3f 790f 8bbf 901b a73f
00000020: c33d c2be 6d46 c13e d836 d73f 181c ba3f
00000030: 28d8 b5bf dcaf 913f 3e3f ad3f 80a6 cdbe
00000040: c4f9 a93f bf65 313f dc33 b23f 54e4 b23f
00000050: 906a a7bf 9cba 9fbf 62cb c83f 5312 c0bf
00000060: 861a ad3f d6c6 9cbd 3617 9b3f 3087 b93f
00000070: 2ba6 813f 9c4b b53f efa0 9d3f 16eb b03f
00000080: 7f11 d13f 02fd 753f df82 063f 0388 a53f
00000090: 6a69 a2bf 575a d23f 0553 c83f 8649 ce3f
000000a0: 40bd 2fbf ecf1 913f ac48 bc3f 1dde f43d
000000b0: fd84 dd3f 0b2e 1c3f eee0 c13f 0a1b e13e
000000c0: beb9 97bd cb69 b03f 133c 023f 75d4 d23f
000000d0: 267e bd3f 220c aa3f dc42 903f b697 a83f
000000e0: 7422 b23f bf0b c93f 9759 ca3f f056 fd3e
000000f0: 52da 5dbe 7eb7 ba3f 3b2b be3f 3afc 4a3f
00000100: da05 babf ff33 c13f dbdf 6b3f 4690 553f
00000110: e63b 9d3f 9874 6d3f 0ca1 9b3f d48d e5bf
00000120: 8539 7a3f 8338 ccbf 60be 883f 88fd e7be
00000130: f484 293f e1ba d7be eb9d debe 6e8b 08be
00000140: 6f6d 093f c6dc ab3f 1c72 b13f 02bf 1b3f
00000150: 0f92 c33f 016a b43f 31b4 af3f 6242 49be
00000160: 9bc2 c43f e958 c03f 5b72 943f c32b a1bf
00000170: cdec bf3f 7496 c33f d17c bd3f 9d9b fdbd
00000180: d1af 963f 7cbc 6c3f 60b5 cb3f 64cd 4abf
00000190: ced1 203f 62f1 b53f d2bb c0be 230d bebe
000001a0: 6b62 ca3f 73b3 59be eee6 f13f 141c a83f
000001b0: 9306 ab3f 3196 953f d562 bf3f 2c0e 443f
000001c0: 1751 ce3f dd39 953f 190a b63f f1eb a53f
000001d0: 3d9b ab3f 0b93 0e3f 204e d13f aaab 90bf
000001e0: 3420 d03f b940 c33f 7a62 8f3f 7ad0 c03f
000001f0: 46ec 85be 0d19 da3f 0973 743f 75cd ae3f

seq.2.weight f4 [32, 128]
0.28537643 -0.00079974945 0.1936632 0.55539674 -0.13752195 0.33556563 -0.31282353 0.3319377
-0.19645287 -0.2581621 0.41221684 0.5056951 -0.15102549 0.15625252 0.29670057 -0.1366732
-0.015397666 -0.03373328 -0.05294434 0.39839315 -0.2816286 -0.27996895 0.3947935 0.0975402
0.39620167 -0.19290432 0.24848948 0.29925576 0.12098296 0.22729653 0.42200768 0.31555334
0.23102541 0.06648661 0.05769452 0.36800978 0.04641122 0.33561218 0.44918206 0.20334183
0.018179297 0.15777105 0.3967939 0.18717107 0.44471487 0.042351596 0.37605736 0.03524358
-0.1365157 0.5018502 0.1571793 0.5512103 0.17008594 0.116473556 -0.015285205 0.14659865
0.11939236 0.40180227 0.19570608 0.10551709 0.25753212 0.3289476 0.45885733 0.059968453
-0.07444601 0.34671295 0.1285273 -0.12494623 0.026185019 0.10418309 0.19423889 -0.16238701
0.2777563 -0.06571113 -0.07350549 0.07751229 -0.28459677 0.13123074 -0.16345432 -0.19315743
0.1848845 0.13191128 0.26908478 0.0010803941 0.5045778 -0.3080845 0.2067813 0.049187325
0.2864372 0.11225421 0.16736622 -0.14559665 0.3750622 0.47306126 0.30423746 -0.12584162
0.107625455 -0.057832856 0.36178413 -0.12379225 0.24078326 0.17489411 -0.23868403 -0.0298934
0.4209119 -0.14620604 -0.048719577 0.21625006 0.22725177 0.2629062 0.45249382 -0.29071805
0.49377155 0.052103706 0.21742447 0.20025025 0.17412423 0.26369506 0.47055972 -0.10905973
0.48243126 0.28803256 0.11756774 0.18352257 -0.14161304 0.27850828 -0.016867207 0.19900285
-0.031049099 0.0823486 -0.089034244 -0.043459926 0.012400208 0.032490984 -0.07165983 0.041868042
-0.0049899365 -0.048850168 -0.07402901 -0.010940321 -0.07156506 0.023566626 0.055873577 -0.0254259
-0.06471893 0.049275 0.020338377 -0.0675305 -0.05053848 0.039529275 0.025903143 0.020657888
0.05440865 -0.023709778 -0.052505072 -0.0076192063 -0.06362251 -0.08413087 0.003623154 0.04938367
-0.10887366 -0.03137935 0.031203415 -0.03870832 0.043000523 0.025891244 -0.049552344 -0.114547275
0.016011965 0.045261115 -0.10575817 0.007691759 0.009677433 -0.043216653 0.01316733 -0.10439135
0.009978182 -0.066809885 -0.057854276 -0.024504377 -0.06028946 -0.08856408 -0.03504472 -0.068283126
-0.0826417 -0.107874244 0.026424713 -0.0391909 0.0639332 0.029058885 0.030164609 -0.0045611653
-0.049499206 -0.02108043 0.07767476 -0.090819165 -0.07013577 0.03156072 -0.02336972 -0.07759243
-0.040834095 0.02498792 0.015176277 -0.0654472 -0.053123746 -0.08502102 -0.05494912 0.07342864
0.081153914 -0.105348915 -0.08404473 -0.07060623 -0.025502643 0.049049962 0.014525388 -0.03786905
0.016698169 -0.020467658 0.033585217 0.068685256 -0.046924956 -0.04091772 -0.11694574 0.02258246
0.04573075 0.08163919 0.013764212 -0.0014691527 0.024967961 -0.088708356 -0.08791775 -0.02821957
0.010398477 -0.063336335 -0.0007334897 -0.07240581 -0.07121366 -0.01017663 -0.053851258 -0.053030826
-0.058991928 -0.08089684 -0.003474251 0.042048667 -0.053307038 0.021723226 -0.11467144 -0.058012024
0.045625646 0.022464778 -0.11497826 -0.08755879 0.053769518 0.0142813 0.005962668 0.029975433
00000000: dc1c 923e 47a6 51ba a54f 463e 7b2e 0e3f
00000010: 8ed2 0cbe 42cf ab3e 682a a0be bdf3 a93e
00000020: f12a 49be d32d 84be 160e d33e 3c75 013f
00000030: 6da6 1abe a900 203e 23e9 973e 0ff4 0bbe
00000040: 7e46 7cbc e82b 0abd 2adc 58bd 30fa cb3e
00000050: a031 90be 1758 8fbe 6022 ca3e 28c3 c73d
00000060: f2da ca3e b688 45be 0774 7e3e 0d38 993e
00000070: eac5 f73d 6cc0 683e 6411 d83e 3590 a13e
00000080: ed91 6c3e 222a 883d 1751 6c3d c76b bc3e
00000090: b119 3e3d 5cd5 ab3e 31fb e53e d738 503e
000000a0: c0ec 943c bc8e 213e 9228 cb3e c6a9 3f3e
000000b0: abb1 e33e de78 2d3d 978a c03e 925b 103d
000000c0: c6ca 0bbe 4179 003f 9cf3 203e 1e1c 0d3f
000000d0: 022b 2e3e b089 ee3d cc6e 7abc f51d 163e
000000e0: fb83 f43d 07b9 cd3e 2d67 483e 5819 d83d
000000f0: 40db 833e d26b a83e 59ef ea3e 7ba1 753d
00000100: 2677 98bd 5c84 b13e a99c 033e cfe3 ffbd
00000110: f781 d63c f25d d53d 8fe6 463e c848 26be
00000120: 1336 8e3e 8f93 86bd 0c8a 96bd c3be 9e3d
00000130: abb6 91be 5a61 063e 9260 27be 10cb 45be
00000140: 5d52 3d3e c013 073e 7bc5 893e 039c 8d3a
00000150: 032c 013f 40bd 9dbe 7abe 533e a678 493d
00000160: e6a7 923e 89e5 e53d 0d62 2b3e 4a17 15be
00000170: 2708 c03e 1635 f23e 03c5 9b3e a0dc 00be
00000180: bc6a dc3d 25e2 6cbd c53b b93e cb86 fdbd
00000190: e38f 763e 7117 333e 9669 74be 01e3 f4bc
000001a0: c481 d73e 09b7 15be 2e8e 47bd a870 5d3e
000001b0: b0b4 683e a49b 863e 45ad e73e ffd8 94be
000001c0: a0cf fc3e b26a 553d 85a4 5e3e 670e 4d3e
000001d0: 9f4d 323e 0a03 873e 34ed f03e b55a dfbd
000001e0: 3b01 f73e 0179 933e 5bc7 f03d 57ed 3b3e
000001f0: 0203 11be a398 8e3e 192d 8abc 67c7 4b3e
00000200: ae5a febc 62a6 a83d 9657 b6bd 0903 32bd
00000210: 3e2a 4b3c 4415 053d 64c2 92bd d37d 2b3d
00000220: 9f82 a3bb 1d17 48bd 869c 97bd 083f 33bc
00000230: b490 92bd cc0e c13c b1db 643d fa49 d0bc
00000240: 5c8b 84bd 95d4 493d ab9c a63c 6e4d 8abd
00000250: 7001 4fbd 73e9 213d d432 d43c bb3a a93c
00000260: 9bdb 5e3d 023b c2bc 8f0f 57bd 89aa f9bb
00000270: 854c 82bd ce4c acbd 7072 6d3b 8846 4a3d
00000280: 27f9 debd a287 00bd 4e9e ff3c 9e8c 1ebd
00000290: 5121 303d e019 d43c 66f7 4abd c397 eabd
000002a0: 862b 833c b863 393d bd97 d8bd 270b fc3b
000002b0: 198e 1e3c f203 31bd c9bb 573c 22cb d5bd
000002c0: 877b 233c 9fd3 88bd 9bf8 6cbd 67bd c8bc
000002d0: 15f2 76bd 1661 b5bd 0d8b 0fbd 06d8 8bbd
000002e0: 0d40 a9bd 2ced dcbd a478 d83c a386 20bd
000002f0: 69ef 823d e60c ee3c c51b f73c d475 95bb
00000300: aebf 4abd deb0 acbc f213 9f3d 66ff b9bd
00000310: 58a3 8fbd d045 013d db71 bfbc c8e8 9ebd
00000320: a741 27bd 77b3 cc3c eba5 783c 2e09 86bd
00000330: 4998 59bd 801f aebd 5412 61bd c161 963d
00000340: 0634 a63d 2cc1 d7bd a51f acbd 009a 90bd
00000350: ebea d0bc 9de8 483d e5fb 6d3c 941c 1bbd
00000360: 99ca 883c caab a7bc a790 093d dbaa 8c3d
00000370: 6234 40bd 5799 27bd 4081 efbd dafe b83c
00000380: 2b50 3b3d 7332 a73d 4a83 613c 9690 c0ba
00000390: 9c89 cc3c baac b5bd 390e b4bd ba2c e7bc
000003a0: 605e 2a3c 7bb6 81bd a947 40ba 7f49 94bd
000003b0: 78d8 91bd e1bb 26bc 2393 5cbd da36 59bd
000003c0: 85a1 71bd 3ead a5bd 42b0 63bb 393b 2c3d
000003d0: 7b58 5abd e8f4 b13c dcd8 eabd 049e 6dbd
000003e0: f5e1 3a3d 0e08 b83c b979 ebbd 0652 b3bd
000003f0: 6d3d 5c3d 1dfc 693c 7c62 c33b 0a8f f53c

seq.2.bias f4 [32]
1.3557817 -0.077022694 -0.024782099 1.075602 1.3424685 1.3282323 1.2314008 1.2389214
1.2560155 0.023638288 1.3045784 -0.020677835 0.025669498 1.2065244 -0.0739433 1.228552
-0.024721785 1.2909924 -0.07246492 1.3397284 1.3147851 1.2560623 1.1643343 -0.05539773
1.2517862 1.1960305 1.2258899 -0.10172562 0.03434009 -0.100917645 1.3211427 1.2236272
00000000: 418a ad3f 13be 9dbd d403 cbbc 54ad 893f
00000010: 02d6 ab3f 8403 aa3f 8b9e 9d3f fa94 9e3f
00000020: 1ec5 a03f 15a5 c13c 6dfc a63f 9064 a9bc
00000030: d748 d23c 646f 9a3f 966f 97bd 3141 9d3f
00000040: 5785 cabc 3d3f a53f 7d68 94bd 387c ab3f
00000050: e14a a83f a6c6 a03f e808 953f bbe8 62bd
00000060: 883a a03f 8717 993f f6e9 9c3f 8655 d0bd
00000070: 32a8 0c3d e9ad cebd 341b a93f d19f 9c3f

seq.4.weight f4 [8, 32]
0.31103224 -0.061403964 0.10901139 -0.02375413 0.48657787 0.43664676 0.23916139 0.45962575
0.49679497 -0.07789457 0.33475888 0.06904035 -0.049208697 0.25659433 0.10478233 0.15325816
-0.038257793 0.41394052 0.12862226 0.2540708 0.38824996 -0.02877732 -0.015605274 0.0970573
0.40383297 0.24182291 0.4031711 -0.02423267 -0.13163115 -0.10227171 0.37339067 0.38769972
0.36788455 0.01184681 -0.111253105 0.14535266 0.33565694 0.4689546 0.4219002 0.40242893
0.29951444 -0.10262869 0.3065819 -0.04665053 0.03493498 0.39985263 -0.15286137 0.4855316
0.021912586 0.3257486 -0.14059289 0.35079667 0.3796119 0.55096006 0.490251 -0.07793878
0.46972027 0.46592164 0.3299061 0.11340193 0.12641583 -0.1408494 0.3420985 0.47164235
0.047040686 -0.073613964 -0.16709048 -0.2273318 0.012443939 0.06859798 -0.0021099558 0.065124676
0.13390523 0.068189345 -0.18994752 -0.059962913 0.13378586 0.13653553 -0.142832 -0.17975493
-0.043039832 -0.03796225 0.046871185 -0.014327594 -0.04161835 0.0501042 0.09774237 -0.11208021
0.06367409 -0.27134997 -0.2273294 -0.11554778 0.08630709 0.14490958 -0.005506896 0.09230215
0.01770695 0.11458812 -0.012695006 -0.102912374 -0.06691835 0.11117456 0.05327154 -0.13458139
-0.08501258 -0.046333816 -0.16241679 0.16214456 -0.09577552 -0.1260927 0.07396774 0.10785909
-0.16349272 0.10277659 0.1604165 0.0382977 -0.09774438 0.13766582 0.03215935 0.0030867318
-0.13684766 0.011903848 0.003136484 0.0952785 0.14768252 0.10453173 -0.19413915 -0.15709762
-0.1101675 -0.17491688 0.13957308 0.080420874 0.038213294 0.0051156143 -0.18601693 -0.021008175
-0.07015949 -0.087670155 0.03321405 0.09234982 -0.0024020467 -0.077143036 -0.15668006 0.09410115
0.04351107 -0.058217883 0.017140925 -0.06303135 0.037684612 -0.16440742 0.08419831 -0.057202294
-0.19058564 -0.072639704 -0.09294448 0.044150513 -0.08980667 0.049316395 0.036226146 -0.022201711
0.4476565 -0.037629806 -0.037019037 0.54402536 0.39379475 0.29075608 0.43926296 0.22849542
0.4055807 0.19169225 0.4079066 0.05855842 -0.110329606 0.43943042 0.03503796 0.4902881
-0.08689084 0.47580823 0.1376796 0.53799987 0.49555048 0.38618103 0.55745006 -0.09546949
0.3598563 0.15212813 0.43258932 -0.120841734 -0.17874753 0.06916459 0.48348552 0.21721855
-0.17731056 0.058482975 0.15591511 -0.18463656 -0.07761935 -0.1104755 -0.12928455 -0.1398506
0.041376527 -0.087697804 0.04949793 -0.0034813648 0.0016451447 -0.14265266 0.035110485 -0.14810061
-0.0816334 0.021011095 -0.049830005 0.016256953 0.0109649375 -0.012823382 0.13096012 0.10578572
-0.025111211 0.12099763 -0.08463601 0.09361665 0.15699719 0.08037617 -0.083842896 0.10159018
-0.0021027306 -0.044484794 0.11307696 0.16972749 0.0013388376 0.07960108 0.27719662 0.28058833
0.37191695 -0.0963498 -0.04156897 -0.0109038595 0.18390433 0.24020714 -0.104720734 0.25625172
0.17527597 0.40890196 0.03644725 0.21237528 0.3130852 0.17569123 0.26467308 -0.0048413817
0.20894349 0.32002902 0.35180515 0.03679491 0.09841917 -0.118671685 -0.008337669 0.47358444
00000000: 9e3f 9f3e b982 7bbd 5d41 df3d 0598 c2bc
00000010: bc20 f93e 2a90 df3e b9e6 743e 1154 eb3e
00000020: e95b fe3e 3087 9fbd 8465 ab3e 0765 8d3d
00000030: 0f8f 49bd 5560 833e 1e98 d63d b5ef 1c3e
00000040: 34b4 1cbd 03f0 d33e 8eb5 033e 9115 823e
00000050: b3c8 c63e 6abe ebbc 43ad 7fbc fac5 c63d
00000060: 32c3 ce3e 6da0 773e 716c ce3e 9883 c6bc
00000070: 51ca 06be d573 d1bd 102d bf3e 9480 c63e
00000080: 5d5b bc3e 1f19 423c abd8 e3bd 54d7 143e
00000090: 3adb ab3e d11a f03e 4e03 d83e 2a0b ce3e
000000a0: f559 993e fe2e d2bd 4ef8 9c3e a014 3fbd
000000b0: fb17 0f3d 7cb9 cc3e b187 1cbe 9997 f83e
000000c0: 0682 b33c 85c8 a63e 95f7 0fbe 9f9b b33e
000000d0: 7e5c c23e b80b 0d3f 2e02 fb3e 5e9e 9fbd
000000e0: 2d7f f03e 488d ee3e 74e9 a83e 453f e83d
000000f0: 2773 013e d33a 10be 8927 af3e 1b7b f13e
00000100: bcad 403d ebc2 96bd c419 2bbe abc9 68be
00000110: aae1 4b3c 197d 8c3d 2f47 0abb 1660 853d
00000120: 741e 093e dba6 8b3d 9a81 42be ac9b 75bd
00000130: 29ff 083e f8cf 0b3e 8d42 12be ad11 38be
00000140: 894a 30bd 4e7e 1bbd 00fc 3f3d 49be 6abc
00000150: 0178 2abd 103a 4d3d 272d c83d 4f8a e5bd
00000160: 9067 823d 62ee 8abe 0ac9 68be 51a4 ecbd
00000170: c6c1 b03d 2d63 143e 3173 b4bb e908 bd3d
00000180: 2a0e 913c 2dad ea3d b7fe 4fbc b9c3 d2bd
00000190: 7d0c 89bd 7daf e33d 4233 5a3d b4cf 09be
000001a0: 131b aebd 87c8 3dbd 9650 26be 3909 263e
000001b0: f525 c4bd 721e 01be 667c 973d 3ae5 dc3d
000001c0: a36a 27be 887c d23d 3944 243e 0dde 1c3d
000001d0: 352e c8bd 45f8 0c3e 86b9 033d c44a 4a3b
000001e0: cb21 0cbe 5b08 433c 788d 4d3b 6021 c33d
000001f0: 163a 173e bb14 d63d 6acc 46be 33de 20be
00000200: 809f e1bd 691d 33be 3fec 0e3e b3b3 a43d
00000210: 8b85 1c3d e2a0 a73b 397b 3ebe 5619 acbc
00000220: c7af 8fbd 698c b3bd 750b 083d e721 bd3d
00000230: a86b 1dbb 2bfd 9dbd bd70 20be 1bb8 c03d
00000240: aa38 323d e075 6ebd 206b 8c3c 9516 81bd
00000250: 2e5b 1a3d 6b5a 28be 2a70 ac3d f44c 6abd
00000260: e228 43be 20c4 94bd ad59 bebd 2bd7 343d
00000270: 8fec b7bd fdff 493d de61 143d 5de0 b5bc
00000280: 3c33 e53e b621 1abd 46a1 17bd 3f45 0b3f
00000290: 779f c93e fbdd 943e 13e7 e03e b4fa 693e
000002a0: 46a8 cf3e f94a 443e 22d9 d03e f4da 6f3d
000002b0: 7df4 e1bd 06fd e03e f783 0f3d 0b07 fb3e
000002c0: d3f3 b1bd 239d f33e e2fb 0c3e 5cba 093f
000002d0: cbb8 fd3e 85b9 c53e 0cb5 0e3f 8285 c3bd
000002e0: 163f b83e 7ac7 1b3e 597c dd3e df7b f7bd
000002f0: 9809 37be 2aa6 8d3d 6a8b f73e 8a6e 5e3e
00000300: e690 35be d88b 6f3d 36a8 1f3e 5e11 3dbe
00000310: e5f6 9ebd fb40 e2bd 2b63 04be ff34 0fbe
00000320: 6f7a 293d e89a b3bd 57be 4a3d 9c27 64bb
00000330: e5a1 d73a 8a13 12be 03d0 0f3d b0a7 17be
00000340: 692f a7bd 761f ac3c 8c1a 4cbd 4d2d 853c
00000350: 48a6 333c 2a19 52bc 691a 063e 2fa6 d83d
00000360: 07b6 cdbc 9bcd f73d a555 adbd 16ba bf3d
00000370: dfc3 203e 439c a43d d3b5 abbd 830e d03d
00000380: f7cd 09bb b035 36bd e594 e73d 0bcd 2d3e
00000390: ef7b af3a e405 a33d b7ec 8d3e 46a9 8f3e
000003a0: e66b be3e 0b53 c5bd 3944 2abd 1aa6 32bc
000003b0: 6b51 3c3e dcf8 753e d377 d6bd 6d33 833e
000003c0: 8b7b 333e 995b d13e b649 153d e878 593e
000003d0: b44c a03e 67e8 333e 3b83 873e 74a4 9ebb
000003e0: 48f5 553e d8da a33e ce1f b43e 42b6 163d
000003f0: fd8f c93d 240a f3bd b89a 08bc a979 f23e

seq.4.bias f4 [8]
1.1903144 1.2757941 -0.063683316 0.13628764 -0.031696115 1.3493178 0.08273416 0.92897445
00000000: 395c 983f 394d a33f 666c 82bd fd8e 0b3e
00000010: c9d3 01bd 72b6 ac3f 8770 a93d 45d1 6d3f

seq.6.weight f4 [4, 8]
0.49562663 0.47605383 0.4351651 -0.14749521 0.31767926 0.2890468 -0.3334749 0.40017298
0.39166036 0.6816929 -0.29405856 0.16689608 -0.30586028 0.34772897 -0.10661015 0.04130088
-0.07813242 0.5427172 -0.31661415 -0.18717805 -0.33531755 0.6033184 -0.20415169 0.50263685
0.4594229 0.1817763 0.03446062 -0.07603506 -0.28831944 0.6116424 -0.26451626 0.29791433
00000000: c6c2 fd3e 54bd f33e f6cd de3e fc08 17be
00000010: dba6 a23e f1fd 933e 39bd aabe 79e3 cc3e
00000020: b587 c83e 6d83 2e3f d88e 96be cee6 2a3e
00000030: b899 9cbe 8809 b23e 6c56 dabd 1d2b 293d
00000040: e403 a0bd 84ef 0a3f 401b a2be 9aab 3fbe
00000050: beae abbe 1373 1a3f 240d 51be cfac 003f
00000060: 7a39 eb3e 9123 3a3e 9426 0d3d 45b8 9bbd
00000070: 9b9e 93be 9994 1c3f ad6e 87be 3a88 983e

seq.6.bias f4 [4]
0.8593242 1.4013476 0.97896725 0.93531793
00000000: acfc 5b3f 5c5f b33f 999d 7a3f ff70 6f3f
