training/models/environment_traffic_lights/1639322011/checkpoints/ep00075.pt (torch, 28751 bytes, 8 tensors)

seq.0.weight f4 [128, 16]
00000000: e6ef 873e d9a4 03be 2444 93be 2bb9 5b3c
00000010: bdfa 09c0 aaab 0dc0 f2ac b0bf a461 27be
00000020: e91e 473e 4143 52be dbe7 b2bb b290 d73c
00000030: 700d bbbf 7bb1 06c0 80e0 f0bf db04 ebbd
00000040: 8594 b1bc 1b8b c2bc 57d4 02be b926 ab3d
00000050: dd87 8c3c 3ee2 a3bd d824 14be 08ac 7bbd
00000060: 23f7 a93c 8a12 5d3d 4365 6cbe 8e51 433c
00000070: 2085 c2bb 2b31 a6bd 7c9c ad3d c53f a8ba
00000080: bfe1 a3bc 7c36 093e 1159 00be 73d5 873d
00000090: 84c7 d9bd e62c 50be 06bd 093e a25a 12bd
000000a0: c38f b33d b84e d6bc 6266 85bc 268a 163e
000000b0: 0346 663d 29af 243d 77bd 57be 61bd 04be
000000c0: 1c24 273d 6e5b 493d 03a8 85be 29e3 5bbc
000000d0: ffbc 873d 1843 52bc ed70 4bbd df74 3cbd
000000e0: fb31 98bd a43f be3d 5a8a 8d3d 1c2a 833d
000000f0: 721f d23c 7cf7 fd3d 74f5 1a3c b861 67bd
00000100: 3f5a 003e a6d5 0cbe 08fb 4cbd 7143 d1bd
00000110: 6311 1b3e 5a51 473e 1b72 173c 73f8 1abe
00000120: f3b1 d03d c3a7 ea3d 361d fabd 48fd 9bbd
00000130: 1610 1e3e 48db 0abe b9f1 e73b dff1 d2bd
00000140: 2a38 f2bc b0ea 43bd 1f6d b23d b6cf 4cbd
00000150: 94cc 30be e274 2d3e 042a 05be 2a65 56bc
00000160: 3202 3f3e afb9 753d 559f 45be 463c e83c
00000170: 1006 053e fa89 67bd 8bdf f73d d01d 7fbd
00000180: 5d78 47be 6b73 15be 528d 85bd 1393 123d
00000190: 749c 26bc f752 3d3d b655 013e b35b 673d
000001a0: d9c3 ee3c 3bc6 07bd 47f6 3bbd e00d 563c
000001b0: 200d a83e 916b 1d3e 1c2b ad3e 0d26 923d
000001c0: 6c53 f93d 0b1c cabd d51e 4fbe a21a ca3d
000001d0: 7c3a 64bd 488b 4a3e 2d1e 83bd b4b1 f7bc
000001e0: fc75 0dbd 0b13 d7bd b113 78be 5427 93bc
000001f0: 7ba6 a3bd 2369 eb3d 2885 d23d de13 5e3c
00000200: e2eb 503e dc35 ba3e 459f da3d 93e6 18bd
00000210: 36f9 04bf 862d b03d 4204 c6be 0430 02bf
00000220: 8642 713e 2dc4 563e c59f b33e d73c b83e
00000230: ef89 32bf e348 05bd 8c09 42bf cf55 e5be
00000240: 9a35 3a3e fbcb 1cbe 11c3 a4be 51ee 103e
00000250: 0970 4cbd c264 283d 7495 d5be a838 b7bf
00000260: f858 6c3e 2b3d 4c3d 473c 8abc 7af3 7e3e
00000270: 8f11 983d 9c7c 97be 0b4b 86be 16f4 abbf
00000280: 24b0 8abd 6d49 433e 2e3c 2d3d 557e 8abd
00000290: ec1f 2bbd 639b 783c 988c 2d3c d027 edbc
000002a0: c2f6 aa3d 83c5 31be 8def e93c 1cbf 64bd
000002b0: 836d c53d ba8c 4e3e d9a7 22be cfa6 abbd
000002c0: dce6 3abd 1900 9dbd 5626 923d 853d 36bd
000002d0: a8db 6abd 3116 013e 4acd e23b d177 813c
000002e0: eeec eabb 51af d63d 154c 803d b227 e2bd
000002f0: 4f0f e1bc 9e40 163e 7947 26be e35a 14bd
00000300: 86fd 0e3d b79a 5a3d c90d 9fbb a7ad 57bd
00000310: 36c1 113e 2a61 183e d133 b83d 6cec ee3d
00000320: b5bd efbd da80 4a3d da31 a23d fae3 c43e
00000330: b5f1 5a3d bfad 2b3e b3f7 863e 7dbb 6dbc
00000340: 9a9c 19be 26b4 84be 2ca0 2a3d 962c 4a3b
00000350: a029 f03d b97a f8bb 97b6 11bc 3489 89bd
00000360: c5c2 ed3d 5b53 adbc e90d 2cbe d52d 833d
00000370: 66b6 babc d8b0 183e 5065 dabb 3201 95bd
00000380: b01c 0ebd 47f2 88be f524 fd3d d6f4 d43d
00000390: 53cf 5d3d 4a03 a23d d5f3 f2bd 3cc7 5a3d
000003a0: 703d 243e 89b8 8cbd f56d 023e 7eb0 d8bd
000003b0: 574b 023b 7cbf c9bd 156f 703c c243 153e
000003c0: 462e ed3d 3d3c 15bf 364f b8be 4a96 503d
000003d0: 03ef 4abe d0ab 2fbe 0217 0ebf 032b 76be
000003e0: 0c17 ffbd a1f2 003e 2f12 d53d e6bb 35be
000003f0: f03c 233e 5e38 e63d eb1a 9bbd d9ea f83d
0.26550215 -0.12855853 -0.28762925 0.013410847 -2.1559289 -2.2136025 -1.3802779 -0.1634584
0.19445385 -0.20533468 -0.005459768 0.026314113 -1.4613476 -2.1045825 -1.8818512 -0.114755355
-0.021677265 -0.023747971 -0.12776314 0.08356995 0.017154628 -0.08002137 -0.1446718 -0.06144336
0.020747727 0.05397276 -0.23085503 0.0119213 -0.00593628 -0.08114847 0.08477113 -0.0012836388
-0.020005105 0.1339969 -0.12533976 0.06632509 -0.10633758 -0.20329627 0.13451013 -0.035730965
0.08767655 -0.026160583 -0.016284171 0.14701137 0.056219112 0.04020611 -0.21068369 -0.12962867
0.04080592 0.04915946 -0.26104745 -0.013420858 0.06627845 -0.012833379 -0.04966824 -0.046009894
-0.07431408 0.09289482 0.06911154 0.06404516 0.02564976 0.124007195 0.009457935 -0.056489676
0.12534426 -0.13753375 -0.05004409 -0.102179416 0.15143351 0.19464627 0.009243513 -0.15133838
0.10190191 0.11457779 -0.12212603 -0.07616669 0.15435824 -0.13560212 0.007078376 -0.103000395
-0.029567797 -0.047831237 0.087122194 -0.050002776 -0.1726554 0.16939119 -0.13004309 -0.013085643
0.18653181 0.059991535 -0.19299062 0.028349053 0.12990594 -0.05652807 0.12103184 -0.06228429
-0.19479509 -0.1459481 -0.06521095 0.035784792 -0.010169137 0.0462217 0.12630352 0.056483936
0.029146122 -0.03314803 -0.045889165 0.0130648315 0.32822514 0.15373065 0.33821952 0.07136164
0.121741146 -0.0986863 -0.20226605 0.09868361 -0.055719838 0.19779694 -0.0640224 -0.030236103
-0.034536347 -0.10501679 -0.24226262 -0.017963089 -0.07990738 0.114946626 0.10279304 0.013554541
0.20402482 0.36369216 0.106749095 -0.037329268 -0.51942766 0.08602433 -0.38675123 -0.50854516
0.23560533 0.20973273 0.35082832 0.35983917 -0.6974172 -0.032540213 -0.7579582 -0.4479203
0.1818451 -0.15312187 -0.32180074 0.1415341 -0.049911533 0.041111715 -0.41715586 -1.4314165
0.23080814 0.04986302 -0.016874446 0.24897566 0.07425224 -0.29587257 -0.26229128 -1.3433864
-0.067718774 0.19070978 0.04229372 -0.06762377 -0.04177849 0.015173766 0.010592602 -0.028949648
0.083478466 -0.17360501 0.02855661 -0.05584632 0.09640028 0.2017087 -0.15884341 -0.083814256
-0.04563032 -0.07666034 0.07136218 -0.044492263 -0.057338387 0.12606122 0.006921445 0.015804203
-0.0071693575 0.10482658 0.062645115 -0.110427275 -0.02747312 0.14673087 -0.16238202 -0.03621949
0.034909748 0.053370204 -0.0048539382 -0.052655842 0.1423386 0.14880815 0.08994258 0.11666188
-0.117061056 0.04943929 0.07919665 0.38455182 0.053453166 0.16765498 0.26360855 -0.014510033
-0.15001145 -0.25918692 0.041656658 0.003084933 0.11726689 -0.007582989 -0.0088936305 -0.067156225
0.11609415 -0.021157911 -0.16802181 0.06405226 -0.022792052 0.1491121 -0.0066649094 -0.072756186
-0.034695327 -0.26747343 0.123605646 0.10398261 0.054152798 0.079107836 -0.118629135 0.05341266
0.16039062 -0.06871135 0.12737258 -0.10580538 0.0019881332 -0.09850976 0.0146749215 0.14576629
0.115810916 -0.5829504 -0.35997933 0.050924577 -0.19817738 -0.17155385 -0.5550386 -0.24039845
-0.12455568 0.12592556 0.10403859 -0.17747459 0.15941215 0.1124122 -0.075734936 0.12154169

seq.0.bias f4 [128]
00000000: 2ed2 ed3f 620c b73f f2a9 923f 3277 b33f
00000010: d922 8f3f 5951 a23f f991 64bf d4c3 943f
00000020: a564 83be d8d1 ca3e 900b b83f 22d6 9c3f
00000030: 66f3 9abf 66ca 7a3f a330 953f 72ce 96be
00000040: b4b6 933f 75a7 4e3f a0c8 943f f357 963f
00000050: 3a2d 8cbf a8d2 86bf 1d6b b03f 2f4e a7bf
00000060: b835 973f a45a 663d a73e 8b3f b0cb a93f
00000070: 450b 723f 951d a13f 4f7d 853f 3519 953f
00000080: bb4b b93f 2858 813f 89e0 243f 49f3 913f
00000090: 95ea 8dbf 2cfa b53f 45c1 ab3f eb27 b03f
000000a0: 267b 26bf e215 6f3f 077d 9f3f ecb7 833e
000000b0: 65e9 bf3f 8434 e33e f7f6 a83f 4ef3 f73e
000000c0: 32e8 703c 1c06 9f3f 2100 db3e a529 be3f
000000d0: 1249 a23f 6fd3 aa3f 0b51 963f 56c2 8f3f
000000e0: 8ebe b43f 1f67 af3f a080 b13f 61ef c43e
000000f0: a639 79be e531 a03f 834d a53f 1e85 683f
00000100: d86b a5bf b0da c53f e0e1 6a3f 70f6 453f
00000110: 7a48 863f 2d51 603f 6306 8b3f d4b4 ccbf
00000120: c76d 523f 9b5e afbf c992 7a3f a6c8 7dbe
00000130: 21c1 163f 3e8d c4be 033e 4dbd c57a 0cbe
00000140: 2fdf 083f 4989 943f 0669 a63f 4cb7 4f3f
00000150: 7e17 a83f 2182 943f 6a43 973f 1904 21be
00000160: 69c2 a53f 2d66 a73f 3177 8e3f 6dfd 8bbf
00000170: b7f6 a63f c550 ab3f 1be0 a33f 5849 31be
00000180: 5762 8e3f 69f8 4c3f c2ed b23f dc9e 3dbf
00000190: 8ea8 053f 616e 973f 812e 86be b070 dfbe
000001a0: 6437 b13f 15a8 59bd 437f f33f d754 903f
000001b0: 9543 8d3f 881f 843f 8dd1 a43f 79ad 6a3f
000001c0: cdda b43f c9c9 803f 8a0d b33f bdb8 973f
000001d0: 31a6 943f 7d74 1d3f 9499 b83f 10dd 6fbf
000001e0: 08af b33f c74c a83f 18db 703f 83de a93f
000001f0: ac0a c3be 3899 bc3f 91eb 303f 47a0 943f
1.8579767 1.4300654 1.1458113 1.402075 1.118251 1.2681075 -0.89285237 1.1622262
-0.25662723 0.39613223 1.4378529 1.2252848 -1.2105529 0.97965086 1.1655468 -0.2945438
1.1540132 0.8072427 1.1623726 1.174559 -1.0951302 -1.0533037 1.3782688 -1.3070735
1.1813269 0.056238785 1.0878495 1.3265285 0.94548446 1.2587153 1.0428866 1.1648318
1.4476236 1.0105028 0.64405113 1.140237 -1.1087214 1.4216971 1.3418356 1.3762182
-0.6503166 0.93392766 1.246003 0.2572626 1.4993101 0.44376004 1.3200368 0.48427814
0.014703797 1.242374 0.42773536 1.4856459 1.2678549 1.3345774 1.1743482 1.1231182
1.4120653 1.3703345 1.3867378 0.38463882 -0.24338397 1.2515227 1.291428 0.9082812
-1.2923536 1.5457363 0.9175091 0.7732916 1.0490868 0.87623864 1.0861324 -1.5992684
0.82198757 -1.3700746 0.97880226 -0.24783573 0.5888844 -0.3838901 -0.050107967 -0.13718708
0.5346555 1.1604396 1.3000801 0.81139064 1.3132169 1.1602212 1.1817448 -0.1572422
1.2949954 1.3078057 1.1130124 -1.0936714 1.3044041 1.3384024 1.2802767 -0.17313135
1.1123761 0.80066544 1.3978808 -0.74070525 0.5221032 1.183056 -0.26207355 -0.4364066
1.3845029 -0.05313881 1.9023212 1.1275891 1.1036249 1.0322123 1.287645 0.9167095
1.4129273 1.006158 1.3988507 1.1853253 1.1613218 0.6150587 1.4421868 -0.9369669
1.403779 1.314843 0.9408431 1.327103 -0.3809408 1.4734259 0.69109446 1.1611413

seq.2.weight f4 [32, 128]
00000000: cbbe 3d3e 101b 4abe 593f a03e f329 023f
00000010: 2bd5 3cbc 359c ac3e bbe8 8abe c0c8 ac3e
00000020: 5f3e 39be 3f12 34be 0067 c33e a764 fb3e
00000030: dce8 bbbd 6e03 633e f054 a83e ef98 07be
00000040: e912 20bc 6c6a ca3d aa20 343d 75b9 e43e
00000050: 2eff 71be 17d4 61be 64f5 d23e 00de fb3d
00000060: 81ed d53e a21d 85be c578 8a3e 3664 823e
00000070: 4288 bf3d faaf 7f3e 8fe6 d03e acc8 633e
00000080: 6a05 773e 0e7e 353e ba89 e03d ded6 d03e
00000090: e549 953d 2ad9 a73e 6c6b db3e 5983 8c3e
000000a0: 6473 a0bc c102 083e ad8b d03e f4f2 293e
000000b0: 0fe9 f73e 5b8f 71bd 407e ce3e febe 3d3d
000000c0: 5918 35be 5de4 f93e 9970 cd3d c994 0e3f
000000d0: c795 413e 7ef5 a93e f91b 2f3e 28cd 5c3e
000000e0: fde5 993e b4e9 cd3e d033 513e 1574 3b3d
000000f0: 23f1 d33d aae5 b83e af0b ee3e 00dd e63d
00000100: 609a b4bd 79ba b03e bab3 31bd c901 603c
00000110: fa19 783d 8256 383e 04db 7f3e bbe7 f9bd
00000120: 1041 ad3e 24a3 fa3b d03c 37bd 488c 8d3c
00000130: 489e 40be 3e51 fd3d bcd6 bcbd 7e08 96be
00000140: efdf 443e ec7b 113e 86f7 a53e 8adb a03d
00000150: 6221 fb3e a74a 90be 4c85 503e 64ca aa3b
00000160: c2a3 9a3e ddcc 013e b9b1 483e 904f debd
00000170: ed74 b93e 36ac fc3e cce1 a73e 10e7 5ebe
00000180: a868 313e 634e b33d 5a92 b53e a9a1 47be
00000190: e738 c73d 8e4f 2a3e 9a0c 92be bdd5 ecbd
000001a0: 38f5 d93e 61d4 e8bd 8914 67be 28fa 883e
000001b0: cf1e 813e 5e32 913e a86d e03e c6fe c3be
000001c0: 0f02 f73e 205d af3d d5a6 bb3e 87b2 773e
000001d0: 6e05 5e3e 2840 703e 7154 003f 7d2a a9bd
000001e0: fa6e f43e c795 c13e 4372 183e 5294 413e
000001f0: c2ff 3ebe f836 c03e 144e 12bd 96e4 3f3e
00000200: ae5a febc 62a6 a83d 9657 b6bd 6ef1 93bc
00000210: 3e2a 4b3c f41b 6d3d 0072 3dbd 14c4 893d
00000220: 9f82 a3bb 1d17 48bd 872c 47bd 23cc 6c3c
00000230: 260e 3dbd 1194 483d b1db 643d fa49 d0bc
00000240: 9108 21bd 95d4 493d 9c45 3b3d c79f 2cbd
00000250: 67db cdbc dafe 843d 4429 523d bb3a a93c
00000260: 9bdb 5e3d 023b c2bc cd05 debc 89aa f9bb
00000270: 854c 82bd 89cd 70bd 7072 6d3b 3d22 993d
00000280: e900 abbd a287 00bd 4e9e ff3c 38f9 59bc
00000290: 5121 303d 5a12 523d 0bf0 c5bc 4095 b6bd
000002a0: 862b 833c 8db5 903d 8ba0 a4bd d189 073d
000002b0: d4aa 0f3d f203 31bd e1e4 1d3d 75fb a1bd
000002c0: 877b 233c fc9d 29bd 9bf8 6cbd 67bd c8bc
000002d0: 99e4 0ebd 1661 b5bd 0d8b 0fbd 06d8 8bbd
000002e0: 0d40 a9bd e0e7 a8bd 7d4b 543d a386 20bd
000002f0: 69ef 823d ba12 5f3d 5ac5 623d d977 aa3c
00000300: aebf 4abd deb0 acbc f213 9f3d 66ff b9bd
00000310: 043c 37bd d045 013d eefd 023b 156b 56bd
00000320: dbc7 7cbc a66d 4e3d eba5 783c 2e09 86bd
00000330: 4998 59bd 801f aebd 76fa f1bc c161 963d
00000340: 0634 a63d 8bc3 a3bd 903f 70bd 009a 90bd
00000350: 30bd d3b8 9de8 483d d8c1 223d 941c 1bbd
00000360: 4772 2c3d dd3b 9f3b a790 093d dbaa 8c3d
00000370: 115b b0bc e74d 7ebc 157f bbbd dafe b83c
00000380: 2b50 3b3d 7332 a73d 4a83 613c 9690 c0ba
00000390: 9c89 cc3c baac b5bd 390e b4bd ba2c e7bc
000003a0: a377 123d 7bb6 81bd a947 40ba 7f49 94bd
000003b0: 18b0 3bbd 4778 793c 4a49 e9bc da36 59bd
000003c0: 819d 09bd 3ead a5bd 42b0 63bb 3720 8a3d
000003d0: 14d8 e4bc e8f4 b13c dfd9 b6bd 049e 6dbd
000003e0: af77 913d 2a0c 443d dd7c b7bd 0652 b3bd
000003f0: 6d3d 5c3d 5e8d 223d 7c62 c33b b3cc 623d
0.18529813 -0.19736886 0.3129833 0.5084526 -0.011525433 0.33712927 -0.27130684 0.3374691
-0.18090199 -0.17585085 0.3816452 0.4910023 -0.09175274 0.22169277 0.32877302 -0.13241933
-0.0097701335 0.098835796 0.043976463 0.44672742 -0.236325 -0.22053562 0.41202843 0.122982025
0.41782764 -0.2599917 0.27045265 0.2546708 0.09352161 0.24969473 0.40800902 0.22244519
0.24123159 0.17723867 0.10963769 0.4078893 0.07289485 0.3278287 0.42855394 0.2744396
-0.019586273 0.132823 0.40731564 0.16596586 0.48419997 -0.058974605 0.40330696 0.046324722
-0.17685069 0.4880704 0.10031242 0.5569578 0.18904792 0.33195108 0.17100514 0.21562636
0.3005828 0.40217364 0.20429921 0.045765 0.103487276 0.3611272 0.4649329 0.11272621
-0.08818507 0.34517267 -0.04338429 0.013672301 0.06057165 0.1800175 0.24985892 -0.12202402
0.338387 0.0076488424 -0.04473573 0.017278805 -0.1881038 0.12369011 -0.09220645 -0.29303354
0.19226049 0.14207429 0.32415408 0.07854374 0.49048907 -0.28181955 0.20363349 0.005212115
0.30203062 0.12675805 0.19599046 -0.10855019 0.3622202 0.49350137 0.32789457 -0.21767831
0.1732508 0.087551855 0.3546322 -0.19495262 0.0972765 0.1663191 -0.2852524 -0.11564205
0.425699 -0.11368633 -0.22566427 0.26753354 0.25218818 0.2835874 0.4383366 -0.38280314
0.48243758 0.08562684 0.3665072 0.24189197 0.21681759 0.23461974 0.5012885 -0.08260057
0.47740918 0.37809584 0.14887337 0.18904236 -0.18652251 0.37541938 -0.035718992 0.18739542
-0.031049099 0.0823486 -0.089034244 -0.018059459 0.012400208 0.057887986 -0.046251297 0.06726852
-0.0049899365 -0.048850168 -0.04862645 0.014452967 -0.04615607 0.048969332 0.055873577 -0.0254259
-0.03931481 0.049275 0.04572068 -0.042144563 -0.025129033 0.064939216 0.051308885 0.020657888
0.05440865 -0.023709778 -0.027102375 -0.0076192063 -0.06362251 -0.058789764 0.003623154 0.074772336
-0.08349783 -0.03137935 0.031203415 -0.013304047 0.043000523 0.051287033 -0.024162313 -0.08915186
0.016011965 0.07065878 -0.08038434 0.033090416 0.035075024 -0.043216653 0.038548354 -0.0790929
0.009978182 -0.04141043 -0.057854276 -0.024504377 -0.034885976 -0.08856408 -0.03504472 -0.068283126
-0.0826417 -0.08247352 0.051829804 -0.0391909 0.0639332 0.05446122 0.05536399 0.020809101
-0.049499206 -0.02108043 0.07767476 -0.090819165 -0.04473497 0.03156072 0.001998778 -0.052348215
-0.015428509 0.050397538 0.015176277 -0.0654472 -0.053123746 -0.08502102 -0.029538374 0.07342864
0.081153914 -0.07996281 -0.058654368 -0.07060623 -0.00010096503 0.049049962 0.039735645 -0.03786905
0.04210117 0.004859431 0.033585217 0.068685256 -0.021527799 -0.015521503 -0.09155098 0.02258246
0.04573075 0.08163919 0.013764212 -0.0014691527 0.024967961 -0.088708356 -0.08791775 -0.02821957
0.035758626 -0.063336335 -0.0007334897 -0.07240581 -0.045822233 0.01522643 -0.02847733 -0.053030826
-0.033597473 -0.08089684 -0.003474251 0.06744426 -0.027935065 0.021723226 -0.08928274 -0.058012024
0.07102906 0.047863163 -0.08959363 -0.08755879 0.053769518 0.0396856 0.005962668 0.055370998

seq.2.bias f4 [32]
00000000: 93d4 943f 5690 53bd d403 cbbc 2539 623f
00000010: 475e 933f 7435 923f 3fd6 853f 3981 873f
00000020: 2a34 893f 15a5 c13c e71f 8e3f 9064 a9bc
00000030: d748 d23c e18a 823f 966f 97bd fb43 853f
00000040: 5785 cabc b890 8d3f 7d68 94bd c122 933f
00000050: e551 903f 7711 893f b3f5 793f bbe8 62bd
00000060: 4e79 883f 0591 823f 9a39 853f d74d 9cbd
00000070: 50b4 743d e9ad cebd 8d32 903f aaf7 853f
1.1627373 -0.05165132 -0.024782099 0.88368446 1.1513146 1.1422563 1.0456008 1.0586311
1.0719044 0.023638288 1.1103486 -0.020677835 0.025669498 1.0198632 -0.0739433 1.0411371
-0.024721785 1.105979 -0.07246492 1.1494981 1.1274992 1.0708455 0.9764053 -0.05539773
1.0662019 1.0200506 1.0408204 -0.07632034 0.059742272 -0.100917645 1.1265427 1.0466206

seq.4.weight f4 [8, 32]
00000000: d9ea ad3e 287b 13bd 5d41 df3d b36f e5bd
00000010: 5604 043f 0f46 ed3e 6076 793e 533d f73e
00000020: a15d 073f 3087 9fbd fb77 b63e 0765 8d3d
00000030: 0f8f 49bd aa37 8d3e 1e98 d63d 1068 213e
00000040: 34b4 1cbd 80df da3e 8eb5 033e fd40 823e
00000050: 401a d23e c3e9 f0bc fd6c 82bc fac5 c63d
00000060: 2f34 da3e 72fa 713e 5ced ce3e 8691 913a
00000070: bc8e d9bd d573 d1bd d252 ce3e daad d33e
00000080: 33e2 b93e 7694 183d abd8 e3bd a251 5c3e
00000090: af87 aa3e a4dc f23e 5728 e33e ded9 d73e
000000a0: 10e2 9a3e fe2e d2bd d095 9c3e a014 3fbd
000000b0: fb17 0f3d bbc5 d13e b187 1cbe 2f5c 013f
000000c0: 0682 b33c 7191 b03e 95f7 0fbe 96b3 bc3e
000000d0: 481a c53e b435 0d3f 0340 f93e 5e9e 9fbd
000000e0: e164 f23e 80ea 043f 3f86 ba3e 2b39 b43d
000000f0: e875 1b3e d33a 10be 330d a93e 0e37 fd3e
00000100: bcad 403d ebc2 96bd c419 2bbe abc9 68be
00000110: aae1 4b3c 197d 8c3d 2f47 0abb 1660 853d
00000120: 741e 093e dba6 8b3d 9a81 42be ac9b 75bd
00000130: 29ff 083e f8cf 0b3e 8d42 12be ad11 38be
00000140: 894a 30bd 4e7e 1bbd 00fc 3f3d 49be 6abc
00000150: 0178 2abd 103a 4d3d 272d c83d 4f8a e5bd
00000160: 9067 823d 62ee 8abe 0ac9 68be 51a4 ecbd
00000170: c6c1 b03d 2d63 143e 3173 b4bb e908 bd3d
00000180: 2a0e 913c 2dad ea3d b7fe 4fbc b9c3 d2bd
00000190: 7d0c 89bd 7daf e33d 4233 5a3d b4cf 09be
000001a0: 131b aebd 87c8 3dbd 9650 26be 3909 263e
000001b0: f525 c4bd 721e 01be 667c 973d 3ae5 dc3d
000001c0: a36a 27be 887c d23d 3944 243e 0dde 1c3d
000001d0: 352e c8bd 45f8 0c3e 86b9 033d c44a 4a3b
000001e0: cb21 0cbe 5b08 433c 788d 4d3b 6021 c33d
000001f0: 163a 173e bb14 d63d 6acc 46be 33de 20be
00000200: 809f e1bd 691d 33be 3fec 0e3e b3b3 a43d
00000210: 8b85 1c3d e2a0 a73b 397b 3ebe 5619 acbc
00000220: c7af 8fbd 698c b3bd 750b 083d e721 bd3d
00000230: a86b 1dbb 2bfd 9dbd bd70 20be 1bb8 c03d
00000240: aa38 323d e075 6ebd 206b 8c3c 9516 81bd
00000250: 2e5b 1a3d 6b5a 28be 2a70 ac3d f44c 6abd
00000260: e228 43be 20c4 94bd ad59 bebd 2bd7 343d
00000270: 8fec b7bd fdff 493d de61 143d 5de0 b5bc
00000280: 4421 e63e e670 48bc 46a1 17bd 12be 113f
00000290: 3639 cb3e 46b5 9a3e 254e e53e 00e1 793e
000002a0: e328 d33e f94a 443e 54b4 d73e f4da 6f3d
000002b0: 7df4 e1bd db7b e73e f783 0f3d 502e 033f
000002c0: d3f3 b1bd 97e8 f43e e2fb 0c3e c494 0c3f
000002d0: c742 013f 2e3d db3e 183e 173f 8285 c3bd
000002e0: 5fe5 c23e 2e39 333e 495b df3e 43c1 15be
000002f0: ab08 1dbe 2aa6 8d3d 2953 003f 5de4 6a3e
00000300: e690 35be d88b 6f3d 36a8 1f3e 5e11 3dbe
00000310: e5f6 9ebd fb40 e2bd 2b63 04be ff34 0fbe
00000320: 6f7a 293d e89a b3bd 57be 4a3d 9c27 64bb
00000330: e5a1 d73a 8a13 12be 03d0 0f3d b0a7 17be
00000340: 692f a7bd 761f ac3c 8c1a 4cbd 4d2d 853c
00000350: 48a6 333c 2a19 52bc 691a 063e 2fa6 d83d
00000360: 07b6 cdbc 9bcd f73d a555 adbd 16ba bf3d
00000370: dfc3 203e 439c a43d d3b5 abbd 830e d03d
00000380: c275 983c 2b5f 9dbc e594 e73d 0fdf 363e
00000390: 89d5 b93b 0c5f 903d 4180 a33e dfc9 8e3e
000003a0: eb1f cf3e 0b53 c5bd 3a20 5abd 1aa6 32bc
000003b0: 6b51 3c3e bbea 923e d377 d6bd 1b1d 863e
000003c0: 8b7b 333e d9a0 e13e b649 153d 91f0 633e
000003d0: 8a5e a73e af6f 643e df3a a33e 74a4 9ebb
000003e0: 7a0e 5e3e 7a64 a03e 89c4 b43e 78ab 3a3c
000003f0: 9f94 fd3d 240a f3bd 118a c5bb 619d 043f
0.33968237 -0.036006123 0.10901139 -0.112029456 0.51569116 0.46342513 0.24361563 0.48288974
0.5287724 -0.07789457 0.35638413 0.06904035 -0.049208697 0.2758153 0.10478233 0.15762353
-0.038257793 0.42748642 0.12862226 0.25440207 0.41035652 -0.029408341 -0.01592111 0.0970573
0.42617938 0.23630694 0.40415466 0.0011105991 -0.106229275 -0.10227171 0.40297562 0.41343576
0.3630539 0.03725096 -0.111253105 0.21515515 0.33306643 0.4743396 0.44366714 0.42158407
0.30250597 -0.10262869 0.30583048 -0.04665053 0.03493498 0.4097117 -0.15286137 0.50531286
0.021912586 0.34485963 -0.14059289 0.36855763 0.38496614 0.5516007 0.4868165 -0.07793878
0.4734259 0.5192032 0.36430547 0.087999664 0.15181696 -0.1408494 0.33017883 0.49456066
0.047040686 -0.073613964 -0.16709048 -0.2273318 0.012443939 0.06859798 -0.0021099558 0.065124676
0.13390523 0.068189345 -0.18994752 -0.059962913 0.13378586 0.13653553 -0.142832 -0.17975493
-0.043039832 -0.03796225 0.046871185 -0.014327594 -0.04161835 0.0501042 0.09774237 -0.11208021
0.06367409 -0.27134997 -0.2273294 -0.11554778 0.08630709 0.14490958 -0.005506896 0.09230215
0.01770695 0.11458812 -0.012695006 -0.102912374 -0.06691835 0.11117456 0.05327154 -0.13458139
-0.08501258 -0.046333816 -0.16241679 0.16214456 -0.09577552 -0.1260927 0.07396774 0.10785909
-0.16349272 0.10277659 0.1604165 0.0382977 -0.09774438 0.13766582 0.03215935 0.0030867318
-0.13684766 0.011903848 0.003136484 0.0952785 0.14768252 0.10453173 -0.19413915 -0.15709762
-0.1101675 -0.17491688 0.13957308 0.080420874 0.038213294 0.0051156143 -0.18601693 -0.021008175
-0.07015949 -0.087670155 0.03321405 0.09234982 -0.0024020467 -0.077143036 -0.15668006 0.09410115
0.04351107 -0.058217883 0.017140925 -0.06303135 0.037684612 -0.16440742 0.08419831 -0.057202294
-0.19058564 -0.072639704 -0.09294448 0.044150513 -0.08980667 0.049316395 0.036226146 -0.022201711
0.44947255 -0.012233948 -0.037019037 0.5693065 0.39692086 0.30216426 0.44786182 0.24402237
0.41242132 0.19169225 0.42129767 0.05855842 -0.110329606 0.45211682 0.03503796 0.5124254
-0.08689084 0.47833702 0.1376796 0.549145 0.5049252 0.42820114 0.5907912 -0.09546949
0.3806562 0.17502281 0.43624333 -0.14624505 -0.15335338 0.06916459 0.5012689 0.22938676
-0.17731056 0.058482975 0.15591511 -0.18463656 -0.07761935 -0.1104755 -0.12928455 -0.1398506
0.041376527 -0.087697804 0.04949793 -0.0034813648 0.0016451447 -0.14265266 0.035110485 -0.14810061
-0.0816334 0.021011095 -0.049830005 0.016256953 0.0109649375 -0.012823382 0.13096012 0.10578572
-0.025111211 0.12099763 -0.08463601 0.09361665 0.15699719 0.08037617 -0.083842896 0.10159018
0.018610839 -0.019210419 0.11307696 0.17858528 0.0056712073 0.07049379 0.31933787 0.2788839
0.4045404 -0.0963498 -0.05325339 -0.0109038595 0.18390433 0.2869471 -0.104720734 0.2619408
0.17527597 0.4406803 0.03644725 0.22259738 0.32689315 0.22308229 0.31880853 -0.0048413817
0.2168521 0.31326658 0.35306194 0.01139342 0.12381863 -0.118671685 -0.0060284217 0.5180264

seq.4.bias f4 [8]
00000000: 9bd0 823f 502f 8c3f 666c 82bd fd8e 0b3e
00000010: c9d3 01bd 66f5 903f 8770 a93d 4820 473f
1.0219911 1.0951939 -0.063683316 0.13628764 -0.031696115 1.132489 0.08273416 0.7778363

seq.6.weight f4 [4, 8]
00000000: 587a 003f a911 f13e f6cd de3e fc08 17be
00000010: dba6 a23e 0599 923e 39bd aabe c17a d33e
00000020: 703a cc3e 02cb 2f3f d88e 96be cee6 2a3e
00000030: b899 9cbe 31a9 af3e 6c56 dabd 72db 623d
00000040: 8543 b3bd 4481 0d3f 401b a2be 9aab 3fbe
00000050: beae abbe 8f91 1d3f 240d 51be dd0a 073f
00000060: 41ce f33e 7b38 4c3e 9426 0d3d 45b8 9bbd
00000070: 9b9e 93be c3d3 1e3f ad6e 87be b892 933e
0.5018668 0.47083786 0.4351651 -0.14749521 0.31767926 0.2863237 -0.3334749 0.4130459
0.39888334 0.6866914 -0.29405856 0.16689608 -0.30586028 0.3430877 -0.10661015 0.05538506
-0.08753113 0.5527537 -0.31661415 -0.18717805 -0.33531755 0.6155023 -0.20415169 0.5275095
0.47618297 0.1994342 0.03446062 -0.07603506 -0.28831944 0.6204187 -0.26451626 0.28822875

seq.6.bias f4 [4]
00000000: 4112 583f 3e7a 933f ca36 573f f1ba 223f
0.84402853 1.152168 0.84067976 0.635665
