training/models/environment_traffic_lights/1639328476/checkpoints/ep00050.pt (torch, 28751 bytes, 8 tensors)

seq.0.weight f4 [128, 16]
-0.20082928 0.02837825 -0.071465224 0.36944458 0.27171946 0.20231357 -0.013074993 0.20751347
0.28249466 -0.13138023 -0.29537925 0.26619956 -0.9017853 -0.2681595 -0.15232463 0.22677295
0.38783062 0.45336807 0.2896594 0.7460795 -0.20049667 0.322128 0.048562158 0.006943279
0.3013931 0.45967883 0.15696487 0.8087119 0.262443 0.0235513 0.2536322 0.06239539
0.21021111 0.18276161 0.1525099 0.31278673 0.15452452 0.24980958 0.11638201 -0.57200205
0.043431725 0.21719979 0.15317704 0.1906376 0.1960667 0.10037359 0.09453444 -0.69213253
0.18092424 -0.047412094 0.21429193 1.3962452 0.2661172 0.4483945 0.4221661 -0.2769554
0.094452865 0.16390532 0.11195369 1.1625766 0.19698614 0.3700839 0.29920563 -0.53962916
0.16386153 0.22255825 0.08224698 -1.1462954 0.32983997 0.455044 0.41356894 -0.6538654
0.35028228 0.03057323 0.20651414 -1.1459273 0.26235616 0.36561844 0.2302648 -0.7505602
0.17254485 0.20643632 0.03525103 0.27283442 0.4069043 0.011815941 -0.11782883 0.47456905
0.38646522 0.2190566 -0.038726468 0.47697547 0.4271057 0.09584744 0.38341683 0.8368452
0.26919025 0.122459956 0.25192007 0.42981532 -0.10660494 -0.014649275 -0.007098908 0.2390357
0.09601001 0.11688319 0.14104141 0.14784062 -0.0008755927 -0.068399206 -0.33175445 0.0007850884
0.034649912 0.21057352 -0.13378836 -0.3518487 0.18252632 0.17003113 -0.14935976 -0.3012073
0.2453667 0.044863872 0.0030541955 0.11282348 0.26005894 0.30972755 0.045033675 -0.27743044
0.45201564 0.21817574 0.15871847 0.47753167 0.2770883 0.19304468 0.097809196 0.33035263
0.4643152 0.5149156 0.4344531 0.19144066 0.04315834 0.22651662 0.2244103 0.29814094
0.11064945 0.2083461 0.14002094 0.3819342 0.3755555 0.17896989 0.21502009 0.21211521
-0.05921107 0.047167834 -0.038385138 0.25399902 0.05590136 0.27692655 0.36167872 0.4915826
0.012274935 -0.17373756 0.044900216 0.23308827 0.30869985 -0.042427234 0.0058558295 0.26684654
0.119124524 -0.0058209207 0.0031430006 0.43107846 0.14786309 0.19310227 0.13728511 0.3884424
-0.07890929 -0.04620162 -0.17071587 0.32711208 0.22377977 -0.05256023 -0.22571978 0.39637196
0.07579905 -0.090498 -0.15890661 0.4084002 0.06660418 0.03286862 0.17320402 0.2752442
-0.03313953 -0.3137358 -0.32414117 0.28600731 0.06274379 0.27693594 -0.14339605 0.4818335
0.06348376 -0.08131613 0.070530176 0.09771044 0.15127033 -0.08817173 0.03169224 0.40823448
-0.14176418 -0.49700317 0.11880588 0.04723063 -0.05367921 -0.027849896 0.036440253 -0.35437265
-0.23970908 0.26377648 0.101376705 0.11420129 -0.13259222 0.17668284 0.0709372 0.30292672
0.07982533 0.057217136 -0.16962084 0.1270738 0.13916776 0.061435904 0.26881877 0.49994788
0.055661283 -0.041245103 0.22702096 0.54989463 0.38295668 -0.053344492 0.3627044 0.7729611
-0.14552008 -0.041786335 -0.2518367 -1.4937814 0.14729214 0.30157322 0.2997661 -0.9297445
-0.0105581125 -0.7109238 -0.12557994 -1.5496541 0.17257665 0.4222414 0.29996106 -1.6830457
00000000: 31a6 4dbe 8179 e83c 5c5c 92bd d727 bd3e
00000010: d01e 8b3e 4a2b 4f3e 7f38 56bc 697e 543e
00000020: 24a3 903e 8a88 06be f33b 97be 4f4b 883e
00000030: 67db 66bf 344c 89be fdfa 1bbe 2b37 683e
00000040: bc91 c63e dc1f e83e 3d4e 943e 11ff 3e3f
00000050: 004f 4dbe f6ed a43e 1de9 463d 7284 e33b
00000060: 3250 9a3e 065b eb3e 66bb 203e be07 4f3f
00000070: ee5e 863e a8ee c03c 14dc 813e 4f92 7f3d
00000080: 9541 573e dc25 3b3e 8e2b 1c3e 9525 a03e
00000090: ad3b 1e3e 15ce 7f3e b159 ee3d ba6e 12bf
000000a0: 77e5 313d 9f69 5e3e 71da 1c3e 8136 433e
000000b0: b6c5 483e ab90 cd3d 469b c13d 992f 31bf
000000c0: 3444 393e 2f33 42bd 586f 5b3e 2ab8 b23f
000000d0: 8340 883e f793 e53e 2826 d83e 19cd 8dbe
000000e0: 8170 c13d ccd6 273e fa47 e53d 4fcf 943f
000000f0: bcb6 493e a37b bd3e 7b31 993e 2325 0abf
00000100: 51cb 273e 4fe6 633e 1b71 a83d cfb9 92bf
00000110: c9e0 a83e 87fb e83e 4fbf d33e b963 27bf
00000120: 3358 b33e b674 fa3c 7178 533e bfad 92bf
00000130: 8c53 863e 5732 bb3e 89ca 6b3e b724 40bf
00000140: 99af 303e 0b64 533e 6263 103d f4b0 8b3e
00000150: c355 d03e a697 413c 3e50 f1bd b7fa f23e
00000160: c5de c53e 6050 603e a59f 1ebd 2136 f43e
00000170: 99ad da3e aa4b c43d 364f c43e 7d3b 563f
00000180: 4ed3 893e 49cc fa3d abfb 803e c110 dc3e
00000190: b153 dabd 8303 70bc f59d e8bb c6c5 743e
000001a0: e5a0 c43d 7460 ef3d 296d 103e 8863 173e
000001b0: 0888 65ba e214 8cbd b8db a9be 64ce 4d3a
000001c0: 11ed 0d3d 96a0 573e d1ff 08be 8325 b4be
000001d0: 2ee8 3a3e a41c 2e3e c4f1 18be d837 9abe
000001e0: 6941 7b3e 2ec3 373d e628 483b ff0f e73d
000001f0: 7226 853e 9c94 9e3e 3b75 383d 5d0b 8ebe
00000200: 986e e73e 7669 5f3e 1887 223e 087f f43e
00000210: 85de 8d3e 81ad 453e 3050 c83d fb23 a93e
00000220: b9ba ed3e 82d1 033f a370 de3e 0509 443e
00000230: cdc6 303d f9f3 673e d0cb 653e eea5 983e
00000240: 2e9c e23d ae58 553e a661 0f3e e18c c33e
00000250: cf48 c03e e243 373e 3a2e 5c3e bb34 593e
00000260: 4f87 72bd 0f33 413d bc39 1dbd 290c 823e
00000270: d3f8 643d 51c9 8d3e f42d b93e b7b0 fb3e
00000280: cf1c 493c 42e8 31be 4ae9 373d b1ae 6e3e
00000290: e80d 9e3e 2ec8 2dbd 42e2 bf3b 1ca0 883e
000002a0: 8ff7 f33d 6cbd bebb cdfa 4d3b 51b6 dc3e
000002b0: 6c69 173e 9abc 453e 7894 0c3e ece1 c63e
000002c0: 329b a1bd e93d 3dbd 24d0 2ebe 3c7b a73e
000002d0: 8626 653e 6549 57bd 1623 67be 44f1 ca3e
000002e0: 883c 9b3d 0457 b9bd 6ab8 22be d519 d13e
000002f0: c667 883d 3fa1 063d 655c 313e cfec 8c3e
00000300: 51bd 07bd fba1 a0be d5f5 a5be 8d6f 923e
00000310: d17f 803d 8cca 8d3e 6ad6 12be e1b2 f63e
00000320: c603 823d 1289 a6bd 2072 903d 691c c83d
00000330: 9ce6 1a3e 6193 b4bd b9cf 013d 1c04 d13e
00000340: a12a 11be 3377 febe 7f50 f33d e874 413d
00000350: bbde 5bbd 7725 e4bc 6042 153d 5570 b5be
00000360: 4c76 75be b60d 873e 979e cf3d 5ee2 e93d
00000370: 41c6 07be 59ec 343e 8647 913d 3619 9b3e
00000380: 767b a33d 845c 6a3d 16b1 2dbe a21f 023e
00000390: fe81 0e3e 37a4 7b3d 9da2 893e 2bf9 ff3e
000003a0: 16fd 633d a0f0 28bd 2f78 683e e5c5 0c3f
000003b0: e612 c43e c17f 5abd 64b4 b93e c7e0 453f
000003c0: 3703 15be 2628 2bbd bdf0 80be 3b34 bfbf
000003d0: c0d3 163e ce67 9a3e f17a 993e bc03 6ebf
000003e0: effb 2cbc 1aff 35bf 0798 00be 115b c6bf
000003f0: efb7 303e 0630 d83e 7f94 993e 0b6e d7bf

seq.0.bias f4 [128]
0.3545171 -0.9396761 -2.4524412 -0.28217435 -0.7756637 -0.82809526 0.60316515 1.1021997
-0.95430505 -0.48166972 1.1585488 0.9141196 1.2158829 0.72658414 -0.33668244 -1.0158523
1.0842154 1.1716622 -0.61563724 -2.372359 0.2770454 0.8828395 0.7512911 -0.6525969
-2.2367706 0.80527884 -0.5300352 -0.35370424 1.0160432 1.4516175 -0.102913715 1.1484547
0.79654515 0.7961492 1.162685 0.3546873 1.1887347 -0.85077757 0.9888043 -1.3032594
-2.4644556 -0.7865585 1.0127887 1.5132742 1.2811687 1.0097666 0.22635283 1.1197815
1.1859672 0.9434042 -2.0480342 -0.6816126 1.1652248 0.8943719 0.09988427 1.024607
1.1768254 0.8684015 0.22268543 -0.76876837 1.1626627 0.11399869 0.70754147 -1.7683743
0.8522705 -0.06770849 0.92044276 0.8387105 0.66410446 0.92330706 -0.5983537 -2.0808148
0.93794984 1.3685124 0.76712936 1.2744129 0.5594221 1.5903116 -0.2702221 -2.282907
0.74458015 0.7070733 1.24803 -0.6654404 1.2244458 1.0774508 0.7228834 -1.2782464
-1.913016 -0.685027 -0.4565865 0.13996409 1.5295846 2.1721718 -1.216665 1.1933119
-0.9722051 -0.86113715 -0.23879981 1.0261698 -1.0544899 -1.7736304 -2.4834468 2.1366627
1.3195473 -2.0208979 -0.6678752 -1.8026984 -0.4991031 1.2677287 0.88519216 -0.13466682
1.4670383 -0.6938823 -0.68661475 1.1393834 0.6441817 -0.79833347 1.009428 0.6729414
-0.8381628 0.06270733 1.1177473 0.7289006 -0.1782166 -0.15430509 -0.37078455 0.95015514
00000000: 4483 b53e 9d8e 70bf ccf4 1cc0 2879 90be
00000010: e591 46bf 0dfe 53bf 0869 1a3f e114 8d3f
00000020: 564d 74bf 6a9d f6be 544b 943f be03 6a3f
00000030: 0da2 9b3f 6b01 3a3f a461 acbe 7307 82bf
00000040: 92c7 8a3f 07f9 953f 679a 1dbf bbd4 17c0
00000050: e5d8 8d3e c501 623f 9d54 403f 9710 27bf
00000060: 4027 0fc0 c126 4e3f 63b0 07bf b918 b5be
00000070: b40d 823f 9ace b93f 6dc4 d2bd 9000 933f
00000080: 62ea 4b3f 6fd0 4b3f ddd2 943f 9399 b53e
00000090: 7528 983f 8fcc 59bf 4722 7d3f 34d1 a6bf
000000a0: a4b9 1dc0 e65b 49bf 0fa3 813f f8b2 c13f
000000b0: 56fd a33f 0840 813f 09c9 673e 0055 8f3f
000000c0: c6cd 973f f082 713f fe12 03c0 2a7e 2ebf
000000d0: 1626 953f 8ff5 643f 2090 cc3d 5226 833f
000000e0: 37a2 963f 904f 5e3f a607 643e 01ce 44bf
000000f0: 22d2 943f 2578 e93d 7021 353f 175a e2bf
00000100: 662e 5a3f c0aa 8abd 23a2 6b3f bbb5 563f
00000110: c002 2a3f da5d 6c3f b52d 19bf 122c 05c0
00000120: 7b1d 703f 6a2b af3f 9762 443f f61f a33f
00000130: 4936 0f3f 558f cb3f 8d5a 8abe 261b 12c0
00000140: ce9c 3e3f c102 353f 72bf 9f3f 4d5a 2abf
00000150: a4ba 9c3f e8e9 893f e30e 393f 949d a3bf
00000160: b5dd f4bf ee5d 2fbf b5c5 e9be bf52 0f3e
00000170: 6ec9 c33f dd04 0b40 aebb 9bbf 72be 983f
00000180: 6fe2 78bf 7c73 5cbf f087 74be 8859 833f
00000190: 86f9 86bf 5206 e3bf cbf0 1ec0 15bf 0840
000001a0: ede6 a83f 6456 01c0 def9 2abf d2be e6bf
000001b0: 718a ffbe ef44 a23f f49b 623f 19e6 09be
000001c0: e9c7 bb3f 45a2 31bf fcc5 2fbf 51d7 913f
000001d0: 18e9 243f 955f 4cbf f034 813f e345 2c3f
000001e0: d691 56bf b36c 803d 5812 8f3f 3b99 3a3f
000001f0: 6a7e 36be 2702 1ebe 79d7 bdbe 5e3d 733f

seq.2.weight f4 [32, 128]
0.058898516 0.041752715 -0.054842144 -0.03142309 -0.05245483 0.062019944 0.022965278 -0.028315458
-0.08845808 -0.08901575 -0.007886817 0.012474279 0.027616307 -0.0051927594 -0.06106174 -0.058691673
0.042508155 -0.034980837 0.009104417 -0.08488122 0.045097835 0.023798918 -0.0010621779 0.037580214
-0.03193812 0.06395019 -0.0023389477 -0.051994108 -0.033196352 0.006833075 0.014274578 -0.06425756
0.0010926747 0.03222325 -0.10036737 -0.087544434 -0.103410386 -0.063526474 0.058099955 -0.026629109
-0.048274398 0.045311976 -0.037387814 -0.008475317 0.020845136 -0.021212954 -0.032251913 -0.026216496
-0.08121997 0.06569392 0.0074036256 -0.024369648 0.06028306 -0.08858226 -0.056654286 0.054275896
-0.091417834 -0.031103829 0.04349594 0.06268392 -0.030227974 0.06882068 0.059404995 0.06585087
-0.07671859 -0.06127403 0.029118473 0.0051280265 -0.11436983 -0.019102478 -0.072150394 -0.0122867115
-0.012175562 -0.09455915 0.046127282 -0.015137467 -0.10952757 -0.08245002 -0.034887705 -0.08112679
-0.035246726 -0.008680313 -0.013156549 0.0639355 -0.0030823273 -0.093299605 -0.061455805 -0.028777536
-0.0011384008 -0.07674549 -0.031336233 0.052453045 0.012172428 -0.0423471 0.0063023437 -0.08947441
0.052750085 0.03594078 -0.095861636 -0.050645903 0.01809183 0.011326245 -0.09233756 0.020652698
-0.056840707 0.033125952 -0.030318834 -0.102379955 -0.052369025 -0.023699947 0.025448797 0.039753407
-0.04657138 0.042674292 0.03400161 0.033525262 -0.09109475 0.065605395 -0.022496374 0.021016138
0.06241823 0.035778645 0.061629582 0.0055643343 -0.05474304 -0.095608 0.058290154 -0.0647179
0.12956364 -0.5094852 1.8992078 -0.23427336 0.1002728 -0.1871517 -0.045404058 0.41571862
-0.27413094 -0.10192999 0.26946497 0.14991812 0.31161848 0.2637076 -0.041588247 0.15305336
0.10751698 0.27299884 -0.1569096 1.2291349 0.0064612986 0.23749346 0.4405037 -0.049432147
1.1635199 0.28614515 -0.22440308 0.9528037 0.20559734 1.6034563 0.053661067 0.4044029
0.11748286 0.30127138 0.23147905 0.04177616 0.37811813 -0.14025344 0.6849011 0.68568516
1.0662909 -0.26743987 1.382099 0.53049517 0.36767268 0.3342868 0.10604441 0.916591
0.290584 0.1801673 1.1530588 0.817643 0.36470145 0.14481412 0.28780025 0.17356333
0.31731632 0.18852432 -0.19894682 -0.021862997 0.35546744 0.05200562 0.15198742 0.5265483
0.0017310535 -0.006843127 0.10857992 0.17245382 0.39452794 0.26926556 -0.435968 2.0786254
0.12026406 0.5147156 0.093957864 0.49877948 0.21075535 0.61780685 -0.12187449 1.60971
0.039741915 0.18819688 0.2715844 0.51956195 0.33144927 0.18195833 0.07272934 0.39407006
0.63723725 -0.21417156 1.2928337 -0.06593131 0.9170719 1.462504 0.5187741 0.34952685
0.55244654 -0.10025234 0.044958595 0.047242317 0.14832368 0.3377176 1.7084384 1.0600309
0.35084125 1.1658974 0.08111994 0.45069072 -0.19535822 0.4280946 0.10730559 -0.12695761
0.50820845 0.7830207 -0.1854337 0.07178626 0.2385978 -0.11657894 0.62063324 0.09875167
-0.13474166 -0.011654184 0.21845901 0.2534724 0.14542946 -0.2899449 0.29406896 0.37115812
00000000: 923f 713d e504 2b3d 28a2 60bd 7fb5 00bd
00000010: e0da 56bd a008 7e3d ae21 bc3c d2f5 e7bc
00000020: 8329 b5bd e44d b6bd b537 01bc eb60 4c3c
00000030: 983b e23c 0628 aabb e01b 7abd ae66 70bd
00000040: 081d 2e3d 1148 0fbd b12a 153c 34d6 adbd
00000050: 82b8 383d f3f5 c23c c738 8bba b6ed 193d
00000060: 8cd1 02bd 51f8 823d 0849 19bb c6f7 54bd
00000070: e6f8 07bd fde7 df3b ebdf 693c 7899 83bd
00000080: 1438 8f3a 87fc 033d 688d cdbd 7f4a b3bd
00000090: d3c8 d3bd 2b1a 82bd 38fa 6d3d 4a25 dabc
000000a0: 60bb 45bd 0d99 393d f723 19bd 0edc 0abc
000000b0: 6bc3 aa3c cac6 adbc 951a 04bd fac3 d6bc
000000c0: a856 a6bd 898a 863d 1d9a f23b dba2 c7bc
000000d0: 5feb 763d 9e6a b5bd 530e 68bd 6750 5e3d
000000e0: 4639 bbbd 75cd febc cc28 323d 6d60 803d
000000f0: a8a0 f7bc dbf1 8c3d a752 733d d2dc 863d
00000100: a31e 9dbd 7afa 7abd dd89 ee3c 0109 a83b
00000110: bb3a eabd cd7c 9cbc 96c3 93bd 344e 49bc
00000120: 027c 47bc 3aa8 c1bd f6ef 3c3d 2303 78bc
00000130: fe4f e0bd 8edb a8bd 69e6 0ebd cd25 a6bd
00000140: df5e 10bd df37 0ebc 918e 57bc 9ef0 823d
00000150: df00 4abb dd13 bfbd 15b9 7bbd debe ebbc
00000160: 6436 95ba bd2c 9dbd 6c5a 00bd 01d9 563d
00000170: dd6e 473c 2774 2dbd e483 ce3b 5c3e b7bd
00000180: 7910 583d a436 133d 1b53 c4bd 1472 4fbd
00000190: 5135 943c b791 393c 7a1b bdbd d92f a93c
000001a0: cdd1 68bd 14af 073d 345f f8bc 95ac d1bd
000001b0: e780 56bd 6426 c2bc ff79 d03c 78d4 223d
000001c0: a2c1 3ebd 3dcb 2e3d 4645 0b3d c951 093d
000001d0: e28f babd 1f5c 863d 514a b8bc 092a ac3c
000001e0: 42aa 7f3d a18c 123d 4d6f 7c3d 0555 b63b
000001f0: 3d3a 60bd 21ce c3bd a8c1 6e3d d18a 84bd
00000200: 55ac 043e 9f6d 02bf 3e19 f33f 5be5 6fbe
00000210: d35b cd3d b2a4 3fbe 9bf9 39bd 12d9 d43e
00000220: e45a 8cbe acc0 d0bd 50f7 893e 2384 193e
00000230: 758c 9f3e af04 873e 7058 2abd 05ba 1c3e
00000240: dd31 dc3d 81c6 8b3e e9ac 20be 4b54 9d3f
00000250: 4db9 d33b 7c31 733e b389 e13e 5d79 4abd
00000260: 38ee 943f 9e81 923e ecc9 65be f1ea 733f
00000270: 1c88 523e 0e3e cd3f b5cb 5b3d e60d cf3e
00000280: db9a f03d 3e40 9a3e d808 6d3e 7b1d 2b3d
00000290: b398 c13e 999e 0fbe ae55 2f3f 1089 2f3f
000002a0: 387c 883f e1ed 88be 9fe8 b03f 88ce 073f
000002b0: 983f bc3e a427 ab3e d02d d93d b5a5 6a3f
000002c0: 6dc7 943e c77d 383e 6e97 933f 0d51 513f
000002d0: 26ba ba3e 274a 143e 8e5a 933e 96ba 313e
000002e0: 4977 a23e 850c 413e b7b8 4bbe 071a b3bc
000002f0: d4ff b53e d803 553d 97a2 1b3e dfcb 063f
00000300: 84e4 e23a 4f3c e0bb 265f de3d bc97 303e
00000310: 91ff c93e 2ddd 893e 3337 dfbe 3308 0540
00000320: 014d f63d 67c4 033f fb6c c03d 0660 ff3e
00000330: 40d0 573e 9728 1e3f 5599 f9bd fa0a ce3f
00000340: 6bc8 223d afb6 403e 1c0d 8b3e 0302 053f
00000350: b8b3 a93e 4953 3a3e 1ff3 943d 8dc3 c93e
00000360: fb21 233f ca4f 5bbe 937b a53f ff06 87bd
00000370: 39c5 6a3f 5533 bb3f 61ce 043f 2ff5 b23e
00000380: 236d 0d3f 1951 cdbd 8126 383d 2981 413d
00000390: 2ae2 173e 52e9 ac3e 1cae da3f 18af 873f
000003a0: 77a1 b33e 203c 953f 3622 a63d efc0 e63e
000003b0: fc0b 48be 372f db3e 08c3 db3d 2d01 02be
000003c0: f319 023f 0b74 483f 55e2 3dbe ad04 933d
000003d0: fb52 743e f0c0 eebd d2e1 1e3f 513e ca3d
000003e0: b8f9 09be 31f1 3ebc b8b3 5f3e 22c7 813e
000003f0: 76eb 143e a873 94be 3590 963e 7008 be3e

seq.2.bias f4 [32]
-0.033443276 1.2258852 1.1859041 0.9424048 0.00787885 1.145865 1.1254776 -0.092775784
0.96044046 -0.07605762 0.911037 1.0053464 0.67133814 1.0841944 1.2606078 1.1821657
1.1135662 0.02987505 1.0370246 0.85334706 1.1515532 1.0344241 0.9996652 0.9203272
2.2623398 -0.08074896 -0.087107494 -0.058798347 0.92410314 0.0025378026 1.1160538 -0.038102414
00000000: d1fb 08bd cee9 9c3f b5cb 973f 7141 713f
00000010: 4b16 013c b4ab 923f a60f 903f 3b01 bebd
00000020: 6ddf 753f 19c4 9bbd b939 693f 31af 803f
00000030: d1dc 2b3f e2c6 8a3f 995b a13f 3551 973f
00000040: 5689 8e3f 85bc f43c 39bd 843f f474 5a3f
00000050: 1866 933f 0268 843f 0fea 7f3f 909a 6b3f
00000060: 2dca 1040 b65f a5bd 6a65 b2bd 89d6 70bd
00000070: 0692 6c3f 4351 263b dada 8e3f 4711 1cbd

seq.4.weight f4 [8, 32]
-0.03765555 0.4411298 0.45821926 0.2827296 -0.08908954 0.50987303 0.9200409 -0.113926224
0.27126276 -0.052728474 -0.21360055 0.53302723 -0.21136221 0.1713895 0.64230263 0.5863635
0.9726489 0.05741796 0.27738622 -0.011046366 0.64576036 0.9139663 0.282199 0.25613642
-0.5750759 0.027998028 -0.0011171318 -0.065032296 0.5875181 -0.111025244 0.87556744 -0.09161558
-0.14071032 0.12980008 0.090389974 0.047412027 -0.035798687 0.15164581 0.55482036 0.098650895
0.022578482 0.08000383 2.1126964 0.34240314 0.07498221 0.077703476 0.09356925 0.23196012
0.35119575 0.12715816 0.24967974 -0.22721624 0.2795713 0.77123207 0.38877267 0.18156049
2.839581 0.1531823 0.027604084 -0.0807821 0.36320767 -0.09336334 0.7070085 0.14994664
0.02343735 0.2109906 0.11902189 0.33561492 -0.086927496 0.35614565 0.5522653 -0.041336495
-0.2698533 0.14109416 1.0888577 -0.119734064 -0.16303381 0.20005763 0.5027098 0.2692869
0.2845935 -0.09359334 0.26305366 0.700217 0.58429956 0.56548053 0.8399056 0.27080637
1.0020801 -0.12570028 -0.08768797 0.11008585 -0.21848862 0.097126685 0.3785412 -0.14756246
-0.13916394 0.47791746 0.7427875 0.55695015 -0.086802475 0.29664993 0.15549839 0.104939096
1.0068123 -0.024315935 0.3659783 0.71426886 0.9934409 0.32116562 0.009001008 0.07413579
0.5246502 -0.13656574 0.33163524 -0.42230195 -0.031164803 -0.11122193 -0.2125469 0.7023206
1.4543282 -0.050793916 0.12406848 0.09424591 0.9211749 0.09996993 0.19249561 -0.114470094
0.1346122 0.5910387 0.5062201 0.3093874 -0.079021566 0.63077426 0.29407308 0.09640246
0.3804104 -0.11617732 -0.6474173 0.510816 0.58813405 0.6286245 0.63088393 0.56791747
0.254805 -0.10229164 0.47500396 0.51644695 0.5647675 0.28922877 0.46004772 0.2922608
-0.74166405 0.15889344 0.0072765527 0.096150674 0.4285211 0.0033089505 0.37617356 0.1084889
-0.00993832 -0.022387397 -0.054709636 -0.18121059 0.15083921 -0.068010285 0.0039263084 -0.09855157
-0.034583595 -0.07429079 -0.11875095 -0.1377877 -0.025766203 0.098198034 0.09049125 -0.122180074
0.10935595 -0.17493105 0.09118879 -0.03905013 0.030240893 0.052570928 -0.005018373 -0.08340136
-0.023057781 0.10560363 0.13188933 -0.12770928 -0.10108638 0.04895057 0.059534475 -0.16853283
0.010193592 -0.014140039 -0.019389734 0.078577496 -0.095973775 -0.17887852 0.0037689307 -0.09059884
-0.11171522 -0.11994343 -0.18331845 -0.10394662 0.07000579 -0.13624197 -0.13172054 -0.20564258
-0.11690958 0.15946238 0.05276872 0.020139955 0.011289679 0.082255885 0.005370697 0.07459538
0.017858498 0.0341686 -0.11533354 0.106014 -0.010219281 0.15269542 -0.1369893 0.0390576
-0.06394458 0.5907546 0.40162557 0.72245467 0.03160314 0.3651914 -0.032417044 -0.011474214
0.6464386 -0.031863887 0.7782594 0.21833767 0.9283078 0.7132837 0.40014872 0.5929274
-0.19073392 0.07214291 0.7536441 0.79252076 0.42551637 0.083519146 0.68401605 0.7431511
1.6740749 -0.12200102 -0.07677533 -0.024626534 0.13692616 0.03618456 -0.10113918 0.040032506
00000000: b53c 1abd c4db e13e b79b ea3e efc1 903e
00000010: 9474 b6bd 0a87 023f cd87 6b3f 2752 e9bd
00000020: f4e2 8a3e d0f9 57bd 1aba 5abe 7974 083f
00000030: 566f 58be bb80 2f3e f26d 243f eb1b 163f
00000040: 85ff 783f 182f 6b3d 9105 8e3e d1fb 34bc
00000050: 8d50 253f b2f9 693f 637c 903e 5024 833e
00000060: 2d38 13bf 1f5c e53c b96c 92ba a72f 85bd
00000070: 9667 163f 3461 e3bd 3025 603f f3a0 bbbd
00000080: 5e16 10be 50ea 043e 611e b93d 1d33 423d
00000090: a5a1 12bd 0a49 1b3e b508 0e3f 7b09 ca3d
000000a0: 82f6 b83c 0cd9 a33d 6b36 0740 774f af3e
000000b0: 4690 993d 0023 9f3d 3ca1 bf3d f486 6d3e
000000c0: eecf b33e c035 023e 0cac 7f3e 60ab 68be
000000d0: f823 8f3e 776f 453f 360d c73e feea 393e
000000e0: b2bb 3540 d2db 1c3e f621 e23c 1671 a5bd
000000f0: 5bf6 b93e 4735 bfbd 82fe 343f 9d8b 193e
00000100: afff bf3c eb0d 583e c0c1 f33d b8d5 ab3e
00000110: 0b07 b2bd b958 b63e 4261 0d3f 7550 29bd
00000120: 362a 8abe fd7a 103e b05f 8b3f 2237 f5bd
00000130: 56f2 26be e8db 4c3e 97b1 003f f9df 893e
00000140: 3db6 913e ddad bfbd f8ae 863e 6c41 333f
00000150: a894 153f 55c3 103f 0e04 573f 22a7 8a3e
00000160: 2944 803f 93b7 00be c095 b3bd b174 e13d
00000170: 7bbb 5fbe 5bea c63d 27d0 c13e 9d1a 17be
00000180: fe80 0ebe 99b1 f43e 5227 3e3f 4994 0e3f
00000190: 7fc5 b1bd 80e2 973e f83a 1f3e 4fea d63d
000001a0: 3adf 803f 3632 c7bc 8261 bb3e 53da 363f
000001b0: 2552 7e3f d26f a43e f778 133c 81d4 973d
000001c0: 7a4f 063f e4d7 0bbe 18cc a93e f637 d8be
000001d0: 544d ffbc 53c8 e3bd e5a5 59be 48cb 333f
000001e0: 6d27 ba3f 480d 50bd 9e17 fe3d 0004 c13d
000001f0: 1ed2 6b3f 09bd cc3d 921d 453e 4c6f eabd
00000200: c8d7 093e 504e 173f a497 013f 0668 9e3e
00000210: 0fd6 a1bd 6c7a 213f bf90 963e a76e c53d
00000220: 27c5 c23e 60ee edbd 24bd 25bf d6c4 023f
00000230: f48f 163f 89ed 203f 9c81 213f 0a63 113f
00000240: cd75 823e 487e d1bd b833 f33e de35 043f
00000250: 9a94 103f cb15 943e 608b eb3e 35a3 953e
00000260: b2dd 3dbf f6b4 223e 2670 ee3b a5ea c43d
00000270: 1e67 db3e fada 583b d299 c03e 6e2f de3d
00000280: 56d4 22bc c665 b7bc 3617 60bd 458f 39be
00000290: 9875 1a3e fa48 8bbd 43a8 803b 68d5 c9bd
000002a0: 87a7 0dbd c525 98bd b333 f3bd 3818 0dbe
000002b0: a513 d3bc 0d1c c93d 7a53 b93d 8c39 fabd
000002c0: 03f6 df3d 2021 33be 30c1 ba3d 07f3 1fbd
000002d0: c0bb f73c 9d54 573d 2a71 a4bb 55ce aabd
000002e0: ace3 bcbc b746 d83d ff0d 073e 39c6 02be
000002f0: 6006 cfbd 6580 483d 6cda 733d df93 2cbe
00000300: 0603 273c 9fab 67bc 38d7 9ebc 3ded a03d
00000310: e68d c4bd ee2b 37be 2a00 773b e28b b9bd
00000320: f3ca e4bd e7a4 f5bd d5b7 3bbe f7e1 d4bd
00000330: 325f 8f3d 0483 0bbe c0e1 06be f893 52be
00000340: 4a6e efbd 1b4a 233e 0324 583d 8cfc a43c
00000350: 59f8 383c c675 a83d acfc af3b 76c5 983d
00000360: fc4b 923c 60f4 0b3d fe33 ecbd de1d d93d
00000370: c56e 27bc 305c 1c3e ec46 0cbe ddfa 1f3d
00000380: 60f5 82bd b23b 173f dea1 cd3e caf2 383f
00000390: 4b72 013d 5efa ba3e bcc7 04bd 57fe 3bbc
000003a0: 007d 253f b583 02bd 023c 473f e993 5f3e
000003b0: 94a5 6d3f c399 363f 4be0 cc3e 17ca 173f
000003c0: c14f 43be a9bf 933d d2ee 403f a4e2 4a3f
000003d0: 48dd d93e 160c ab3d ad1b 2f3f 273f 3e3f
000003e0: 1648 d63f acdb f9bd 623c 9dbd 96bd c9bc
000003f0: 5f36 0c3e 4336 143d 0f22 cfbd 20f9 233d

seq.4.bias f4 [8]
1.3647099 0.47272748 0.9473582 0.49452767 1.4493285 -0.10979588 -0.19320045 0.81129223
00000000: d0ae ae3f 5609 f23e 1186 723f bb32 fd3e
00000010: 9983 b93f aadc e0bd 57d6 45be d9b0 4f3f

seq.6.weight f4 [4, 8]
-0.43211755 -0.88646317 -0.101486444 -0.8194248 -0.016606025 0.22029243 0.10309428 -0.126167
-0.92314833 -0.34807932 -0.57472926 -0.052071385 -0.554892 0.2612887 0.10836321 -0.19729142
-0.04656241 -0.47606924 -0.65124863 -0.07431998 -0.27038914 0.19780146 0.1753163 -0.88322634
-0.4430428 0.10372849 -0.05801975 -0.6781776 -0.71650946 0.3238012 -0.3169939 -0.6733263
00000000: 833e ddbe 40ef 62bf 20d8 cfbd d3c5 51bf
00000010: 5c09 88bc 5794 613e 1823 d33d ec31 01be
00000020: 7353 6cbf 7437 b2be 7521 13bf ce48 55bd
00000030: 670d 0ebf a2c7 853e 88ed dd3d c306 4abe
00000040: 3ab8 3ebd 59bf f3be 3bb8 26bf 1335 98bd
00000050: 7270 8abe 778c 4a3e 1e86 333e 1f1b 62bf
00000060: 82d6 e2be 9a6f d43d 1ea6 6dbd 0c9d 2dbf
00000070: 2a6d 37bf 45c9 a53e 064d a2be 1d5f 2cbf

seq.6.bias f4 [4]
-0.60436875 -0.9233211 -0.5241659 -0.59222484
00000000: e9b7 1abf c65e 6cbf bd2f 06bf 0c9c 17bf
