training/models/environment_traffic_lights/1639328476/checkpoints/ep00025.pt (torch, 28751 bytes, 8 tensors)

seq.0.weight f4 [128, 16]
000000 9a 46 e9 bd e1 1b ff 3d 03 ee c0 3d c8 52 4e 3f
       -0.11390419 0.12456489 0.09420397 0.80595064
000010 99 c6 6b 3e 79 78 4a 3e 21 0b 2f be e8 25 0f 3f
       0.23024978 0.19772519 -0.17094089 0.55917215
000020 c6 85 9a 3e f8 4a bb bd 7f 92 f7 bd 71 c8 52 3f
       0.30180186 -0.091451585 -0.12088489 0.823371
000030 3e 2a 4f be d5 84 24 bb 34 44 1e bd bf bb 33 3f
       -0.20230958 -0.0025103588 -0.038639262 0.7020835
000040 62 ff ae 3e 21 3b e2 3e 49 66 8c 3e 7a db 62 3e
       0.34179217 0.44185737 0.27421787 0.22154036
000050 0c 02 8e be 42 99 4e 3d 09 7d 4f be 1b a5 ec bd
       -0.27735937 0.050439127 -0.20262541 -0.11554929
000060 a5 41 49 3e 5e 47 87 3e aa 0b 04 be 93 08 be 3e
       0.19653948 0.26421636 -0.12895074 0.37115917
000070 7a 51 b9 3d 21 86 fb bd 92 1d 13 3e 0b cc 43 3e
       0.090487435 -0.122814424 0.14366749 0.19120805
000080 57 08 ab 3d 1c 2d 56 3e df 87 68 3e ec 90 9c 3c
       0.083512 0.20915645 0.2270808 0.019112073
000090 3e 8e 0c 3e c7 60 7a 3e 9f cb 8d 3e 5e de 6a bf
       0.13726136 0.2445098 0.27694413 -0.91745555
0000a0 87 20 e0 3d 6e e9 98 3e 2a cc 8c 3e c9 d8 82 be
       0.10943704 0.29865593 0.27499515 -0.2555602
0000b0 76 b3 cc 3d 4e c5 82 3d fe 01 45 3d 45 74 44 bf
       0.09995167 0.06385289 0.048097603 -0.76739913
0000c0 e9 b8 3c 3b 89 94 4a be 9f 3b b1 3d fa df fa 3e
       0.0028796738 -0.19783224 0.0865395 0.48999006
0000d0 04 85 13 3e 89 54 fb 3e 10 11 a8 3e be 46 f6 3d
       0.1440621 0.49087933 0.32825518 0.12025212
0000e0 6c 69 df 3c a2 5d e3 bc c3 9c f0 3d 5d 6b 85 3e
       0.027271949 -0.027754609 0.1174865 0.26058474
0000f0 f2 3d 00 3e 0d 64 ab 3e c8 78 af 3e 4e b4 f9 be
       0.1252363 0.3347477 0.34271836 -0.48770374
000100 ba d7 97 3d 86 78 1b 3e eb 87 9a bd a7 a1 85 bf
       0.074141935 0.15182695 -0.075454555 -1.0439957
000110 20 8b f2 3e ac c1 12 3f 0b 63 c1 3e dd 32 0c bf
       0.4737177 0.5732677 0.37770876 -0.5476511
000120 55 de a2 3e a4 8c 28 be cd f6 24 3d c7 12 4a bf
       0.3181025 -0.164599 0.04027443 -0.789349
000130 94 b9 9f 3e b3 80 f4 3e a2 f8 8a 3e fd f3 4d bf
       0.31196272 0.4775444 0.27142817 -0.8045042
000140 98 db 5e 3d d9 a7 36 3d 22 f0 1e be 2f 5a 77 3d
       0.05440864 0.044593666 -0.15521291 0.06038874
000150 47 66 84 3e c4 98 13 be 24 08 85 be 24 54 77 3e
       0.2585928 -0.14413744 -0.25982773 0.24153191
000160 e0 7a b5 3e 76 cb f4 3d 05 01 60 be 4d 8c e7 3e
       0.3544531 0.119528696 -0.21875389 0.45224229
000170 78 ba 7d 3e eb fe 67 be 15 a7 6c 3e 04 e8 36 3f
       0.24778163 -0.22655837 0.23110612 0.7144778
000180 5e 5e bd 3e ae c4 8a 3e 34 8b b2 3e c1 08 37 3f
       0.3698606 0.2710318 0.3487183 0.7149773
000190 cb 73 6b 3b 4f f0 ae 3a 2f e2 5a 3d 97 e0 15 3f
       0.0035927172 0.0013346764 0.05343836 0.5854582
0001a0 f7 30 3f 3e 25 34 8d 3e c9 63 97 3e ef 83 f5 3e
       0.18671022 0.27578846 0.29568318 0.4795222
0001b0 0c 82 07 3e 00 d4 ca bb f2 dc 87 be aa 44 fa 3e
       0.13233203 -0.006189823 -0.26535755 0.48880512
0001c0 0a 3e 1b 3e b5 38 8d 3e b8 7f d9 bc 4f 74 54 be
       0.15160385 0.27582327 -0.026550159 -0.20747493
0001d0 71 9a 92 3e 62 a6 87 3e a0 c8 88 3b 9d 28 16 bd
       0.28633454 0.26494128 0.004174307 -0.036659826
0001e0 20 63 a2 3e ce 7e 86 3d 0f 69 70 3d 31 75 b0 3d
       0.3171625 0.06567155 0.05869394 0.086161025
0001f0 e8 c4 c3 3e c0 db ad 3e 00 d8 ed 3d f8 27 02 be
       0.38236165 0.33956718 0.11613464 -0.1271056
000200 36 6a e9 3e d4 a4 76 3e 23 ef c7 3d ef 87 0c 3e
       0.45588845 0.24086314 0.097624086 0.1372373
000210 3f 16 42 3e d4 fe 5a 3c 75 f9 5a bc 8f bf 8b bd
       0.18953799 0.01336642 -0.013365139 -0.06823646
000220 a1 93 e1 3e af 1c 06 3f e4 f9 e7 3e 5a d1 a6 be
       0.44057944 0.5238752 0.4530784 -0.32581598
000230 b7 e0 1e be 1f 02 c6 3d ec bc a5 3d 6c cb 20 bd
       -0.1551541 0.09668373 0.080926746 -0.0392565
000240 36 a0 46 3e a3 26 6a 3e 07 62 73 3e 1f f1 8e 3e
       0.19397053 0.22866301 0.23767863 0.27918336
000250 3b 5d d3 3e 70 d5 8e 3e 5b 7c b4 3e c8 b0 32 3e
       0.41282067 0.27897215 0.35251126 0.17450249
000260 f0 65 2a bc 83 48 2c bd 72 e3 80 bd 77 ea d0 ba
       -0.01040028 -0.04206134 -0.06293382 -0.0015939017
000270 ab cc 72 3d 8f 74 71 3e 65 47 d6 3e f8 6e 78 3e
       0.059277218 0.2357962 0.41851345 0.24261081
000280 86 d0 92 3d 0d 93 05 be 4d e9 b4 3d 79 4c 10 3f
       0.07168679 -0.13044377 0.08833561 0.5636669
000290 bc b0 b7 3e 57 60 2b 3c 29 56 a4 3d 8d 74 21 3f
       0.35877025 0.010459981 0.08024246 0.6306847
0002a0 8c 10 2f 3e 02 a3 25 3d 78 34 b5 3c 03 4f 41 3f
       0.17096156 0.04043866 0.022119746 0.7551119
0002b0 8c a4 61 3e ad fd 85 3e ce eb 45 3e 91 52 45 3f
       0.22035426 0.26170102 0.19328234 0.7707911
0002c0 54 85 31 bd 74 a5 24 bc d0 cb 1f be 63 57 22 3f
       -0.043340042 -0.010049213 -0.15605092 0.6341459
0002d0 f4 05 8b 3e ba c0 31 bb 9b 7a 39 be a4 bf 42 3f
       0.2715298 -0.002712293 -0.18113177 0.7607367
0002e0 a9 1f af 3d 94 28 95 bd 5f 18 39 be 7b b6 42 3f
       0.085509606 -0.0728313 -0.18075703 0.76059693
0002f0 40 b9 ec 3d a5 6a e9 3d e1 71 5b 3e d1 66 34 3f
       0.11558771 0.11397294 0.2143016 0.70469385
000300 12 90 7b 3d 6f 34 5c be 13 61 54 be de 5b 25 3f
       0.061416693 -0.21504377 -0.20740156 0.64593303
000310 66 31 db 3d 5b 00 ab 3e 1c 16 5e bd 1f 60 52 3f
       0.107027814 0.3339871 -0.054220304 0.8217792
000320 f1 c4 db 3d ab a7 d0 bc 4e 30 9f 3d 96 88 e9 3e
       0.10730923 -0.025470575 0.07772885 0.4561202
000330 ad f4 62 3e 43 6f 46 bc 24 63 cd 3d 50 79 44 3f
       0.22163649 -0.012111488 0.10028675 0.7674761
000340 bd 9e f9 bb a5 75 9f be 70 c3 17 3e ae 3a fc 3e
       -0.0076178 -0.31144443 0.14820647 0.4926352
000350 85 aa da 3d e2 3d 17 3e 4b 3e 17 3e 97 18 87 3e
       0.10677055 0.147697 0.14769857 0.26385948
000360 3b ce b5 bd e0 c4 14 3e 14 d8 d4 3b 67 b4 fb 3e
       -0.08877226 0.14528227 0.006495485 0.49161074
000370 77 fb fc 3c ad 16 ab 3e d5 88 2b 3e 79 ec 28 3f
       0.030881627 0.33415738 0.16751416 0.6598583
000380 1f 8e a3 3d b1 65 bf 3d 40 ff 4c be 25 a7 81 3e
       0.07986092 0.09345568 -0.20019245 0.25322834
000390 d6 e8 f5 3d 9e 54 e5 3d f6 97 aa 3e 20 91 2a 3f
       0.120073006 0.1119778 0.33319062 0.66627693
0003a0 3a 2c 7f 3d 8a 82 cf bd 73 0f 0e 3e c4 ab 2c 3f
       0.062298037 -0.1013232 0.13873081 0.67449594
0003b0 a1 1a c7 3e 83 89 07 3b a2 4d b4 3e 65 f6 52 3f
       0.38887504 0.0020681329 0.3521548 0.8240722
0003c0 86 07 8c bd 84 72 16 3e d4 55 42 bd 99 da 99 bf
       -0.068373725 0.14692122 -0.047445133 -1.2019836
0003d0 57 2f 69 3e a8 c3 35 3f f9 a5 ea 3e 2f 1a d4 be
       0.22771965 0.7100167 0.45829752 -0.41426226
0003e0 ea 8d 88 3d 5a 24 e9 be 72 32 30 3d f3 80 8d bf
       0.06667693 -0.45535547 0.04301686 -1.1054977
0003f0 5d 29 b4 3e 9f a4 3d 3f fc ed ca 3e 18 0d a7 bf
       0.35187808 0.74079317 0.39634693 -1.3050871

seq.0.bias f4 [128]
000000 f2 6d 4d be ee 77 41 bf b6 ae 09 c0 87 39 e1 be
       -0.20061472 -0.75573623 -2.1512885 -0.43989202
000010 85 50 0e bf 92 01 1a bf 8e fa 87 be fe 50 37 3e
       -0.55591613 -0.60158646 -0.26558346 0.1790199
000020 e1 5f e3 be a8 d8 69 be b7 a2 09 3e 6d cc 1c bd
       -0.44409087 -0.22836554 0.13440977 -0.038280893
000030 83 b4 5f 3e 45 95 d7 bd 65 59 cb be 29 d4 2b bf
       0.21846204 -0.10526518 -0.3971664 -0.67120606
000040 61 14 c9 3d 43 02 2c 3e 08 21 1f be d1 54 07 c0
       0.0981834 0.16797738 -0.15539944 -2.1145518
000050 b9 66 91 bd 1f 92 dc bd ea 0d b9 be ed 42 8c be
       -0.07099671 -0.10770058 -0.36143428 -0.2739481
000060 3d 9f 04 c0 a1 84 69 bc aa 25 0e bf a6 dd 3e bf
       -2.0722191 -0.014252813 -0.5552622 -0.7455696
000070 71 aa 99 3d 93 89 de bd ce 82 f4 be 0f fc 10 3e
       0.07503212 -0.10866084 -0.47756046 0.14158653
000080 7c 1d 4c be 14 a7 f3 bd 30 63 23 3e 22 42 2a be
       -0.19933122 -0.11897102 0.15955806 -0.1662679
000090 74 f4 2f 3e 5e dc b9 be c7 7c 0c bf 45 c7 87 bf
       0.17183095 -0.3630094 -0.54877895 -1.0607687
0000a0 e0 6b 0f c0 e7 1d a3 be 13 be e5 be cd d8 f7 3e
       -2.2409592 -0.3185875 -0.44871578 0.48407593
0000b0 7c 3f 69 3e be 01 ee 3c 70 6a 6a be 8f 7c 9b be
       0.22778124 0.029053565 -0.22892165 -0.30368468
0000c0 da d4 29 3e 8b ba 8a bd 77 26 e7 bf ba 18 2c bf
       0.16585103 -0.067738615 -1.8058614 -0.6722523
0000d0 67 5a 11 3e b1 33 66 bd ca 2d 95 be e2 aa 8c 3d
       0.14194642 -0.05620164 -0.29136497 0.06868531
0000e0 92 3c 22 3e 6e cf 49 bd a5 2d 4c bf 24 f5 0f be
       0.15843418 -0.049270086 -0.7975715 -0.14058357
0000f0 12 34 32 3e e9 73 40 bf 7b 60 d8 bd b9 45 cd bf
       0.17402676 -0.75176865 -0.10565277 -1.6036903
000100 69 1f 94 bd 17 50 aa be cb d1 84 be 0f d1 0a bd
       -0.072325535 -0.3326423 -0.2594131 -0.03389078
000110 38 8d e5 3d df a3 ed 3d a2 00 19 3e 5d 3e d0 bf
       0.11208576 0.116035216 0.14941648 -1.6269032
000120 3f 00 fe bb 5d 85 b7 3e de 19 8a bd 66 b6 84 3e
       -0.007751494 0.35843936 -0.06743215 0.2592041
000130 78 c4 29 bf 67 18 07 3f ee 5c bf be b3 0c e6 bf
       -0.6631541 0.5277161 -0.37375587 -1.7972625
000140 64 58 26 be 2f a6 e0 bd 3f d6 42 3e 79 b7 8f bf
       -0.16244656 -0.10969197 0.19027041 -1.1227866
000150 04 9b 44 3e cc fe 4d 3d 9c f3 43 be 2f 48 65 bf
       0.19199759 0.05029182 -0.19135898 -0.8956327
000160 cd fe c0 bf 38 40 d1 be 18 3e 47 bf 74 5f c5 be
       -1.5077759 -0.40869308 -0.7782912 -0.38549387
000170 8e 68 55 bd 67 a7 81 3f 2b d4 6a bf 8b 08 23 3e
       -0.052101664 1.0129212 -0.9172999 0.15921228
000180 f7 96 5d bf 40 d7 37 bf 1b 82 6e be d4 e5 72 3d
       -0.8655848 -0.7181282 -0.23291819 0.059301212
000190 c2 f9 41 bf 4a c7 99 bf d3 55 0d c0 d8 55 86 3f
       -0.75771725 -1.2013943 -2.2083633 1.0494947
0001a0 d0 5c 96 3e 6b ab e4 bf e3 d6 3e bf 16 e9 d2 bf
       0.29367685 -1.7864813 -0.7454664 -1.6477382
0001b0 13 75 d8 be 9e b0 7a 3e 64 76 85 bd 50 38 ae be
       -0.4227682 0.24481437 -0.06516722 -0.34027338
0001c0 47 fe f4 3e 21 39 45 bf 5c 12 04 bf 34 4e 11 3e
       0.47850248 -0.77040297 -0.51590514 0.14189988
0001d0 58 82 1e be 14 0b ba be ef 55 79 bd 47 da d9 bd
       -0.1547941 -0.36336577 -0.06087297 -0.10637336
0001e0 07 77 01 bf f7 24 09 bf 1f cd f4 3d be a0 91 bd
       -0.50572246 -0.5357203 0.11953186 -0.07110737
0001f0 2b 1b 03 bf d4 e0 cd be ea 3c 92 be 18 71 6c 3c
       -0.5121333 -0.40210593 -0.285621 0.0144312605

seq.2.weight f4 [32, 128]
000000 92 3f 71 3d e5 04 2b 3d 28 a2 60 bd 7f b5 00 bd
       0.058898516 0.041752715 -0.054842144 -0.03142309
000010 e0 da 56 bd a0 08 7e 3d ae 21 bc 3c d2 f5 e7 bc
       -0.05245483 0.062019944 0.022965278 -0.028315458
000020 83 29 b5 bd e4 4d b6 bd b5 37 01 bc eb 60 4c 3c
       -0.08845808 -0.08901575 -0.007886817 0.012474279
000030 98 3b e2 3c 06 28 aa bb e0 1b 7a bd ae 66 70 bd
       0.027616307 -0.0051927594 -0.06106174 -0.058691673
000040 08 1d 2e 3d 11 48 0f bd b1 2a 15 3c 34 d6 ad bd
       0.042508155 -0.034980837 0.009104417 -0.08488122
000050 82 b8 38 3d f3 f5 c2 3c c7 38 8b ba b6 ed 19 3d
       0.045097835 0.023798918 -0.0010621779 0.037580214
000060 8c d1 02 bd 51 f8 82 3d 08 49 19 bb c6 f7 54 bd
       -0.03193812 0.06395019 -0.0023389477 -0.051994108
000070 e6 f8 07 bd fd e7 df 3b eb df 69 3c 78 99 83 bd
       -0.033196352 0.006833075 0.014274578 -0.06425756
000080 14 38 8f 3a 87 fc 03 3d 68 8d cd bd 7f 4a b3 bd
       0.0010926747 0.03222325 -0.10036737 -0.087544434
000090 d3 c8 d3 bd 2b 1a 82 bd 38 fa 6d 3d 4a 25 da bc
       -0.103410386 -0.063526474 0.058099955 -0.026629109
0000a0 60 bb 45 bd 0d 99 39 3d f7 23 19 bd 0e dc 0a bc
       -0.048274398 0.045311976 -0.037387814 -0.008475317
0000b0 6b c3 aa 3c ca c6 ad bc 95 1a 04 bd fa c3 d6 bc
       0.020845136 -0.021212954 -0.032251913 -0.026216496
0000c0 a8 56 a6 bd 89 8a 86 3d 1d 9a f2 3b db a2 c7 bc
       -0.08121997 0.06569392 0.0074036256 -0.024369648
0000d0 5f eb 76 3d 9e 6a b5 bd 53 0e 68 bd 67 50 5e 3d
       0.06028306 -0.08858226 -0.056654286 0.054275896
0000e0 46 39 bb bd 75 cd fe bc cc 28 32 3d 6d 60 80 3d
       -0.091417834 -0.031103829 0.04349594 0.06268392
0000f0 a8 a0 f7 bc db f1 8c 3d a7 52 73 3d d2 dc 86 3d
       -0.030227974 0.06882068 0.059404995 0.06585087
000100 a3 1e 9d bd 7a fa 7a bd dd 89 ee 3c 01 09 a8 3b
       -0.07671859 -0.06127403 0.029118473 0.0051280265
000110 bb 3a ea bd cd 7c 9c bc 96 c3 93 bd 34 4e 49 bc
       -0.11436983 -0.019102478 -0.072150394 -0.0122867115
000120 02 7c 47 bc 3a a8 c1 bd f6 ef 3c 3d 23 03 78 bc
       -0.012175562 -0.09455915 0.046127282 -0.015137467
000130 fe 4f e0 bd 8e db a8 bd 69 e6 0e bd cd 25 a6 bd
       -0.10952757 -0.08245002 -0.034887705 -0.08112679
000140 df 5e 10 bd df 37 0e bc 91 8e 57 bc 9e f0 82 3d
       -0.035246726 -0.008680313 -0.013156549 0.0639355
000150 df 00 4a bb dd 13 bf bd 15 b9 7b bd de be eb bc
       -0.0030823273 -0.093299605 -0.061455805 -0.028777536
000160 64 36 95 ba bd 2c 9d bd 6c 5a 00 bd 01 d9 56 3d
       -0.0011384008 -0.07674549 -0.031336233 0.052453045
000170 dd 6e 47 3c 27 74 2d bd e4 83 ce 3b 5c 3e b7 bd
       0.012172428 -0.0423471 0.0063023437 -0.08947441
000180 79 10 58 3d a4 36 13 3d 1b 53 c4 bd 14 72 4f bd
       0.052750085 0.03594078 -0.095861636 -0.050645903
000190 51 35 94 3c b7 91 39 3c 7a 1b bd bd d9 2f a9 3c
       0.01809183 0.011326245 -0.09233756 0.020652698
0001a0 cd d1 68 bd 14 af 07 3d 34 5f f8 bc 95 ac d1 bd
       -0.056840707 0.033125952 -0.030318834 -0.102379955
0001b0 e7 80 56 bd 64 26 c2 bc ff 79 d0 3c 78 d4 22 3d
       -0.052369025 -0.023699947 0.025448797 0.039753407
0001c0 a2 c1 3e bd 3d cb 2e 3d 46 45 0b 3d c9 51 09 3d
       -0.04657138 0.042674292 0.03400161 0.033525262
0001d0 e2 8f ba bd 1f 5c 86 3d 51 4a b8 bc 09 2a ac 3c
       -0.09109475 0.065605395 -0.022496374 0.021016138
0001e0 42 aa 7f 3d a1 8c 12 3d 4d 6f 7c 3d 05 55 b6 3b
       0.06241823 0.035778645 0.061629582 0.0055643343
0001f0 3d 3a 60 bd 21 ce c3 bd a8 c1 6e 3d d1 8a 84 bd
       -0.05474304 -0.095608 0.058290154 -0.0647179
000200 62 9d 86 3e a9 82 be bc 98 45 a5 3f 42 31 ef ba
       0.2629195 -0.023255663 1.2911863 -0.0018248933
000210 57 cd 87 3e 60 cd 5a 3e 77 e3 8f 3d 22 41 2e 3e
       0.2652385 0.21367407 0.07025807 0.17017034
000220 6d e2 ac 3c 23 85 c5 3d c2 cc 6d 3e 54 db 48 3e
       0.021104062 0.096445344 0.2322264 0.19614917
000230 21 b6 4a 3e d3 1f 47 3e f0 95 7e 3e 4c 55 bb 3e
       0.19796039 0.19445734 0.24861884 0.36588514
000240 97 ea 13 3e ba a1 87 3e cb db 49 3c 46 5d 7f 3f
       0.14444958 0.26490575 0.012320469 0.997517
000250 02 15 41 3d bd 75 a7 3d 7d c1 bc 3e 9a a4 09 3e
       0.047139175 0.08176754 0.3686637 0.13441697
000260 8d 9b 7b 3f 1d bb 59 3e 0d cf 53 3e 6d 6d 47 3e
       0.98284227 0.21262784 0.20684452 0.19475336
000270 72 31 47 3e 0f 79 d4 3f 10 b0 d9 3e 50 c5 bb 3e
       0.19452456 1.6599444 0.42517138 0.36673975
000280 f8 c0 2b 3e 0c 26 5e 3e cb 56 58 3e 4b a7 ce 3d
       0.1677283 0.21694201 0.21126859 0.10090502
000290 6c b0 3f 3e aa e1 1e 3e 52 55 75 3f 0a 52 0e 3f
       0.18719643 0.15515772 0.95833313 0.5559393
0002a0 13 6f 7c 3f 97 39 46 bd 37 2e d1 3f 3a 54 d4 3e
       0.98606986 -0.048394766 1.6342229 0.4147051
0002b0 30 03 fc 3d e0 4e 8b 3e 4c 0c 1f 3e 9d f6 4c 3f
       0.123052955 0.27208614 0.15532035 0.800638
0002c0 bf ba 28 3e 02 9a 27 3e 0a 96 7f 3f 7d 62 e0 3e
       0.16477488 0.16367343 0.99838316 0.4382514
0002d0 19 73 74 3e ee c2 1a 3e 33 4a 60 3e 81 5d 06 3e
       0.23872031 0.15113422 0.21903305 0.13121606
0002e0 d2 59 32 3e a6 18 58 3e 04 49 9a 3c 73 d0 ac 3d
       0.17417076 0.21103153 0.018833645 0.08438196
0002f0 9b 5d 8c 3e 2b d7 61 3e a5 19 13 3e b6 d4 08 3f
       0.27415165 0.22054736 0.14365251 0.5344957
000300 3d 61 ce bb d5 ef 2f 3e 31 9f e2 3d fa f1 4e 3e
       -0.006298213 0.17181332 0.110655196 0.20209494
000310 24 16 41 3e f2 d0 19 3d 87 3d 90 be 08 ce 81 3f
       0.18856102 0.03755278 -0.28171942 1.0141001
000320 87 87 34 3e f0 d3 a6 3e a6 15 17 3d 79 e5 cf 3e
       0.17629825 0.3258357 0.03688588 0.4060476
000330 71 55 7f 3f 2a 82 d6 3e 83 d0 44 3e cd 2c d6 3f
       0.9973975 0.41896182 0.19220166 1.6732422
000340 2f 31 93 3d 54 04 87 3e d5 28 cb 3d de 62 6a 3f
       0.071871154 0.2637049 0.099198975 0.9155711
000350 00 bd 5d 3e 2e 5c df 3d 1f 79 ce 3d b1 fe 2d 3f
       0.21654129 0.10906254 0.10081696 0.67966753
000360 11 bf 68 3f 6a cc 27 3e d2 8a 02 3f 0e f8 dd 3d
       0.90916544 0.16386572 0.50993073 0.10838328
000370 9b 5c 93 3f eb b9 9e 3f 1a a2 2f 3e b1 e7 81 3e
       1.1512636 1.2400488 0.1715168 0.2537208
000380 1d 1d 97 3f 37 e3 b8 3d 1d f8 4e 3e 0d 34 d6 3d
       1.180576 0.09027713 0.20211835 0.10459147
000390 1c 68 bb 3f 42 0f 95 3f 9d d1 c0 3f 56 d8 62 3f
       1.4641147 1.1645281 1.5063969 0.8861135
0003a0 86 31 80 3e f2 b7 11 3f aa ea 3b 3e dd da f1 3e
       0.25037783 0.56921303 0.18351236 0.47237292
0003b0 54 4c 5b 3e 68 4e 2b 3e 23 2e 44 3e ee c4 3a 3d
       0.21415836 0.16729128 0.19158225 0.045597963
0003c0 2d c4 b3 3e fc d4 c1 3e 79 b2 3a 3c 87 2e 91 3d
       0.35110608 0.37857807 0.01139509 0.070889525
0003d0 1e 71 8f 3e c5 25 03 3d 68 18 f6 3e c5 d2 fe 3b
       0.2801599 0.03201844 0.48065495 0.0077765905
0003e0 82 72 02 3e ba 8a 4c 3e 6d c4 15 3e 4c 6c 3c 3e
       0.12738994 0.19974795 0.14625712 0.18400687
0003f0 98 cf 6c 3e 92 4c e3 3d 22 4a a7 3e b8 4a 84 3e
       0.23126066 0.11098589 0.32673746 0.25838256

seq.2.bias f4 [32]
000000 d1 fb 08 bd 57 1b 37 3e d9 29 14 3e 90 ff 78 bd
       -0.033443276 0.17881523 0.14469089 -0.0607906
000010 4b 16 01 3c 82 31 a9 3d da dc 56 3d 3b 01 be bd
       0.00787885 0.08261396 0.052456714 -0.092775784
000020 03 ef 1a 3d 19 c4 9b bd 7a 88 7a 3d fc ee b3 bc
       0.037825596 -0.07605762 0.06116531 -0.021964543
000030 f1 c1 34 be 5c ef 05 3e 07 8d 72 3e 2a 74 0b 3e
       -0.17652108 0.1307959 0.2368661 0.13618532
000040 e6 0c a3 3d 85 bc f4 3c 5e b6 d4 3c 7a 2a af 3e
       0.079614446 0.02987505 0.025965866 0.34212095
000050 ae 7b e2 3d 1f 4a ad bc b8 f8 99 3d 1f 95 bb bd
       0.11058746 -0.021153508 0.075181425 -0.09159302
000060 10 72 af 3f b6 5f a5 bd 6a 65 b2 bd 89 d6 70 bd
       1.3706684 -0.08074896 -0.087107494 -0.058798347
000070 7b 67 61 bd 43 51 26 3b 1e 40 56 3d 47 11 1c bd
       -0.055030327 0.0025378026 0.05230724 -0.038102414

seq.4.weight f4 [8, 32]
000000 b5 3c 1a bd 88 76 05 3f a1 c0 11 3f 00 3d cf 3e
       -0.03765555 0.5213399 0.56934553 0.40476227
000010 94 74 b6 bd 05 fc 07 3f 41 bf 4c 3f 27 52 e9 bd
       -0.08908954 0.53118926 0.7997933 -0.113926224
000020 6d 6d fe 3e d0 f9 57 bd 49 8f 8c be 6f c8 20 3f
       0.4969286 -0.052728474 -0.27453068 0.6280584
000030 e5 24 0c 3e 29 ce 95 3e 1b 13 12 3f b7 81 15 3f
       0.13685949 0.2925885 0.570604 0.58401054
000040 8d ea 6b 3f 18 2f 6b 3d 50 fa b6 3e ce 62 a0 bd
       0.9215477 0.05741796 0.35737848 -0.078313455
000050 54 b3 0f 3f dd 94 42 3f bc 5d 49 3e 92 cb c8 3e
       0.5613301 0.760084 0.19664663 0.39217812
000060 e7 8e 12 bf 1f 5c e5 3c b9 6c 92 ba a7 2f 85 bd
       -0.572493 0.027998028 -0.0011171318 -0.065032296
000070 ae 10 37 3f 34 61 e3 bd 5f 03 46 3f f3 a0 bb bd
       0.71509826 -0.111025244 0.77348894 -0.09161558
000080 5e 16 10 be df ab 36 3e 30 11 25 3e 07 8f fa 3d
       -0.14071032 0.17839001 0.16119838 0.122343116
000090 a5 a1 12 bd 1c 9e f8 3d ba 73 d1 3e 7b 09 ca 3d
       -0.035798687 0.12139532 0.40908605 0.098650895
0000a0 3e f8 51 3e 0c d9 a3 3d 4d 68 04 40 18 93 c9 3e
       0.20504853 0.08000383 2.068866 0.39370036
0000b0 06 cf a1 3e 90 92 07 3e 80 2c e4 3c 0c 0b 56 3e
       0.3160326 0.13239503 0.02785325 0.20902652
0000c0 9c 19 81 3e c0 35 02 3e 1b 0c 9d 3e 67 ab 4c be
       0.2521485 0.12715816 0.30673298 -0.1998726
0000d0 d4 2a 45 3e 45 4a 19 3f 4f 39 a2 3e 1e d7 91 3e
       0.19254619 0.5987895 0.31684348 0.28484434
0000e0 9c 1f 3a 40 d2 db 1c 3e f6 21 e2 3c 16 71 a5 bd
       2.9081793 0.1531823 0.027604084 -0.0807821
0000f0 ae 3a de 3e 47 35 bf bd 20 ff 11 3f 9d 8b 19 3e
       0.43404144 -0.09336334 0.57029915 0.14994664
000100 af ff bf 3c a9 73 9b 3e b0 5d 69 3e 88 1e f8 3e
       0.02343735 0.3036168 0.22789645 0.48460793
000110 0b 07 b2 bd 7b 52 b3 3e 50 dd b3 3e 75 50 29 bd
       -0.086927496 0.35023865 0.35129786 -0.041336495
000120 1f d5 3b bc fd 7a 10 3e ed 73 80 3f 6a b7 5d bd
       -0.011464386 0.14109416 1.0035378 -0.054129995
000130 f9 11 81 3e 18 58 b6 3e 0e 8d da 3e f8 9e 87 3e
       0.25209025 0.35614085 0.4268574 0.2648847
000140 be 0c 16 3e dd ad bf bd 8f dd c0 3e 78 70 3b 3f
       0.14653298 -0.09359334 0.37669036 0.7321849
000150 bf 0f f5 3e 1f 53 a6 3e 80 ea 44 3f 46 78 e1 3e
       0.47863576 0.3248529 0.7692032 0.44037074
000160 26 3a 89 3f 93 b7 00 be c0 95 b3 bd b1 74 e1 3d
       1.072087 -0.12570028 -0.08768797 0.11008585
000170 08 0d 08 be 5b ea c6 3d 70 6a 41 3e 9d 1a 17 be
       -0.13286221 0.097126685 0.18888259 -0.14756246
000180 fe 80 0e be 38 e0 d1 3e 3c 9a 2a 3f 8a 57 ea 3e
       -0.13916394 0.40991378 0.6664159 0.45769912
000190 7f c5 b1 bd 19 10 9f 3e f8 1f cf 3e 4f ea d6 3d
       -0.086802475 0.3106697 0.40454078 0.104939096
0001a0 3c c0 4a 3f 36 32 c7 bc e0 d0 19 3f 71 71 30 3f
       0.79199576 -0.024315935 0.6008434 0.689231
0001b0 65 7a 2a 3f 91 dc 3f 3e 94 52 98 3d 74 af c0 3d
       0.6659301 0.18736483 0.074376255 0.09408465
0001c0 2c e4 34 3f e4 d7 0b be c6 e5 89 3e 07 34 df be
       0.7066066 -0.13656574 0.26933116 -0.4359438
0001d0 98 94 a6 3d be ca 3e 3e 15 f0 f0 bd 0d 92 1a 3f
       0.08133811 0.18632028 -0.11764542 0.60379106
0001e0 93 56 b7 3f 48 0d 50 bd 9e 17 fe 3d 00 04 c1 3d
       1.4323295 -0.050793916 0.12406848 0.09424591
0001f0 6c 5d 63 3f 09 bd cc 3d ff 10 e4 3e 4c 6f ea bd
       0.88814425 0.09996993 0.44544217 -0.114470094
000200 c8 d7 09 3e 5a 7e 19 3f 2c 1d 04 3f 8d a1 a9 3e
       0.1346122 0.5995842 0.5160701 0.33131066
000210 0f d6 a1 bd 03 d8 2c 3f c0 7d ca 3e a7 6e c5 3d
       -0.079021566 0.6751711 0.39549065 0.09640246
000220 ff 28 b5 3e 60 ee ed bd e0 f6 08 bf 5b 19 09 3f
       0.3538284 -0.11617732 -0.535017 0.53554314
000230 8f 09 17 3f 52 3f 25 3f da 33 28 3f 52 21 1a 3f
       0.5899896 0.64549744 0.6570412 0.6020709
000240 0e f3 aa 3e 48 7e d1 bd 78 a2 fd 3e 74 8d f2 3e
       0.3338856 -0.10229164 0.49538016 0.47373545
000250 0e 78 1e 3f f1 46 d2 3e df c8 04 3f 51 59 9f 3e
       0.6190194 0.4106975 0.51869005 0.3112283
000260 a8 93 43 bf f6 b4 22 3e 26 70 ee 3b a5 ea c4 3d
       -0.7639718 0.15889344 0.0072765527 0.096150674
000270 df bc eb 3e fa da 58 3b 65 b2 f7 3e 6e 2f de 3d
       0.46042535 0.0033089505 0.48378292 0.1084889
000280 56 d4 22 bc c6 65 b7 bc 36 17 60 bd 45 8f 39 be
       -0.00993832 -0.022387397 -0.054709636 -0.18121059
000290 98 75 1a 3e fa 48 8b bd 43 a8 80 3b 68 d5 c9 bd
       0.15083921 -0.068010285 0.0039263084 -0.09855157
0002a0 87 a7 0d bd c5 25 98 bd b3 33 f3 bd 38 18 0d be
       -0.034583595 -0.07429079 -0.11875095 -0.1377877
0002b0 a5 13 d3 bc 0d 1c c9 3d 7a 53 b9 3d 8c 39 fa bd
       -0.025766203 0.098198034 0.09049125 -0.122180074
0002c0 03 f6 df 3d 20 21 33 be 30 c1 ba 3d 07 f3 1f bd
       0.10935595 -0.17493105 0.09118879 -0.03905013
0002d0 c0 bb f7 3c 9d 54 57 3d 2a 71 a4 bb 55 ce aa bd
       0.030240893 0.052570928 -0.005018373 -0.08340136
0002e0 ac e3 bc bc b7 46 d8 3d ff 0d 07 3e 39 c6 02 be
       -0.023057781 0.10560363 0.13188933 -0.12770928
0002f0 60 06 cf bd 65 80 48 3d 6c da 73 3d df 93 2c be
       -0.10108638 0.04895057 0.059534475 -0.16853283
000300 06 03 27 3c 9f ab 67 bc 38 d7 9e bc 3d ed a0 3d
       0.010193592 -0.014140039 -0.019389734 0.078577496
000310 e6 8d c4 bd ee 2b 37 be 2a 00 77 3b e2 8b b9 bd
       -0.095973775 -0.17887852 0.0037689307 -0.09059884
000320 f3 ca e4 bd e7 a4 f5 bd d5 b7 3b be f7 e1 d4 bd
       -0.11171522 -0.11994343 -0.18331845 -0.10394662
000330 32 5f 8f 3d 04 83 0b be c0 e1 06 be f8 93 52 be
       0.07000579 -0.13624197 -0.13172054 -0.20564258
000340 4a 6e ef bd 1b 4a 23 3e 03 24 58 3d 8c fc a4 3c
       -0.11690958 0.15946238 0.05276872 0.020139955
000350 59 f8 38 3c c6 75 a8 3d ac fc af 3b 76 c5 98 3d
       0.011289679 0.082255885 0.005370697 0.07459538
000360 fc 4b 92 3c 60 f4 0b 3d fe 33 ec bd de 1d d9 3d
       0.017858498 0.0341686 -0.11533354 0.106014
000370 c5 6e 27 bc 30 5c 1c 3e ec 46 0c be dd fa 1f 3d
       -0.010219281 0.15269542 -0.1369893 0.0390576
000380 60 f5 82 bd 96 8f 09 3f 4c 15 aa 3e 22 0e 29 3f
       -0.06394458 0.5373472 0.33219373 0.6603719
000390 4b 72 01 3d 7b ef bc 3e 40 40 ff 3d 57 fe 3b bc
       0.03160314 0.3690146 0.124634266 -0.011474214
0003a0 d6 b3 f4 3e b5 83 02 bd ae 7c 7c 3f 06 cd 31 3e
       0.47793454 -0.031863887 0.98627746 0.17363366
0003b0 65 f5 31 3f 4a 08 21 3f 1b b4 e9 3e 4f b0 1d 3f
       0.6951507 0.62903273 0.45645222 0.6159715
0003c0 1c 7e e5 bd a9 bf 93 3d 84 8c 39 3f dc 49 53 3f
       -0.11205694 0.07214291 0.72480035 0.82534575
0003d0 b9 ad 05 3f 70 86 95 3e dd ea 4e 3f b8 8e 2e 3f
       0.52218205 0.2920413 0.8082712 0.6818652
0003e0 a5 03 d7 3f ac db f9 bd 62 3c 9d bd 96 bd c9 bc
       1.6797987 -0.12200102 -0.07677533 -0.024626534
0003f0 08 8e a5 3d 43 36 14 3d 89 34 51 3d 20 f9 23 3d
       0.08083731 0.03618456 0.051075492 0.040032506

seq.4.bias f4 [8]
000000 a1 14 a3 3e d9 7a a3 be 16 e0 06 3e ca 3f 92 be
       0.31851676 -0.31929663 0.1317142 -0.28564292
000010 3a ca 08 3f aa dc e0 bd 57 d6 45 be f9 1f 30 3d
       0.53433573 -0.10979588 -0.19320045 0.04299924

seq.6.weight f4 [4, 8]
000000 d2 28 d5 be 67 5d 68 bf 84 3c a8 bd 0f 1f 55 bf
       -0.41632706 -0.9076752 -0.082146674 -0.83250517
000010 94 92 98 3c 57 94 61 3e 18 23 d3 3d 7c 86 e1 bd
       0.018624581 0.22029243 0.10309428 -0.11011979
000020 84 90 56 bf 63 19 79 be 63 9b e6 be ca ac 5d be
       -0.83814263 -0.2432609 -0.45040426 -0.21647945
000030 9b 9a 20 bf a2 c7 85 3e 88 ed dd 3d 53 22 94 be
       -0.6273591 0.2612887 0.10836321 -0.28932437
000040 29 3a a6 3b cf 49 f7 be 0d c7 2b bf b9 ef 4d bd
       0.005072851 -0.482985 -0.671006 -0.050277445
000050 58 d2 73 be 77 8c 4a 3e 1e 86 33 3e a0 47 67 bf
       -0.23810709 0.19780146 0.1753163 -0.90343666
000060 d9 b0 14 bf 02 5c b2 bb 2a 20 38 be 20 f0 0c bf
       -0.5808235 -0.005443097 -0.1798102 -0.550539
000070 18 05 30 bf 45 c9 a5 3e 06 4d a2 be 1d 7f 14 bf
       -0.6875777 0.3238012 -0.3169939 -0.5800646

seq.6.bias f4 [4]
000000 ee 31 65 bc 49 d7 12 be 41 bb 84 bd c0 82 5a bd
       -0.013988955 -0.14339937 -0.06481028 -0.05334735
