training/models/environment_traffic_lights/1639328476/checkpoints/ep00075.pt (torch, 28751 bytes, 8 tensors)

seq.0.weight f4 [128, 16]
0.010512662 -0.10531433 -0.12178577 0.30698532 0.27715626 0.14270884 0.16202381 0.04040095
0.21412453 -0.23520613 -0.40391666 0.13682587 -1.0376211 -0.15071191 0.010859437 0.21692716
0.4483359 0.4781472 0.3301189 0.7906322 -0.08933228 0.37305552 0.11354624 0.005788899
0.38358462 0.49377528 0.22522686 0.85776323 0.3691457 0.10948134 0.34451196 0.09349518
0.14074907 0.14369707 0.14127466 0.4817199 0.11586765 0.06520002 0.13210188 -0.5740473
0.07792838 0.1470838 0.11396593 0.12621434 0.1460487 0.1003203 0.010961208 -0.7951291
0.09344289 -0.024514988 0.14478299 1.4298539 0.22260755 0.36201352 0.39994904 -0.24848515
0.044170715 0.13840503 0.092976674 1.2307279 0.21786265 0.32662395 0.3093088 -0.80444133
0.24496843 0.14694135 0.09046424 -1.4500802 0.34619918 0.38207272 0.3860533 -0.19424467
0.43911704 0.13216951 0.15907657 -1.6520092 0.30038172 0.32524207 0.25535747 -0.23316725
0.23534861 0.2806923 0.11269201 0.34437352 0.46838412 0.13642451 0.03145388 0.52649105
0.43927193 0.2853603 0.04540632 0.5436781 0.47334695 0.17293093 0.43586174 0.87184286
0.18576077 0.01699943 0.16537963 0.26740626 -0.11776873 -0.029341804 -0.024989668 0.07837545
0.044397242 0.03505204 0.107921466 0.00812796 -0.05062096 -0.08190211 -0.2666561 -0.045233816
0.017446615 0.20147763 -0.13583702 -0.35367402 0.12510906 0.11941071 -0.16647726 -0.32031986
0.17524497 0.0035952944 -0.024942337 0.040836353 0.2113894 0.2593963 0.0026422672 -0.33581337
0.49931458 0.26483515 0.19353938 0.54657847 0.35503647 0.26912886 0.19553615 0.41669402
0.5041893 0.5346743 0.45514452 0.25999913 0.12340081 0.2802022 0.30407628 0.3566063
0.088953845 0.22529298 0.13653128 0.47222406 0.39826563 0.20522241 0.24983418 0.31906697
-0.11193295 0.085129425 -0.040552206 0.35729715 0.051750604 0.25265375 0.3570998 0.52401835
-0.022617029 -0.17872402 0.04178811 0.14672266 0.26169652 -0.07509608 -0.00831829 0.17443588
0.08677302 -0.02295421 -1.7087033e-05 0.3429335 0.10525267 0.16836448 0.1120213 0.3270673
-0.113284335 -0.03890969 -0.15572576 0.21674213 0.17907885 -0.07034319 -0.22883531 0.279117
0.06456813 -0.07502187 -0.13953045 0.3087701 0.03210601 0.026257457 0.16056724 0.21846114
-0.079010285 -0.34971067 -0.3189485 0.1823923 0.0028238501 0.2394759 -0.15987344 0.38388172
0.023272168 -0.08997692 0.0644481 -0.0074666967 0.105990745 -0.11734394 0.012695286 0.35434648
-0.21636744 -0.42017552 0.002768769 -0.14122552 -0.30158174 -0.22734274 -0.025604658 -0.3963104
-0.12408537 0.3170818 0.19856645 0.0021128543 -0.074661195 0.015348936 0.060583547 0.21475896
0.07613029 0.08880063 -0.16401051 0.20058143 0.17390257 0.14338142 0.27643666 0.52624196
0.09507443 -0.004693903 0.23987088 0.6026057 0.38095495 -0.023970976 0.34179178 0.79174775
-0.010177462 -0.1484074 -0.5079885 -1.0941426 0.24348502 0.22644441 0.39526713 -0.7346254
-0.030650811 -0.7140653 -0.044358935 -1.6874185 0.14609152 0.14745049 0.26940578 -1.4746804
00000000: 4d3d 2c3c 0aaf d7bd d16a f9bd 2e2d 9d3e
00000010: 6de7 8d3e 4422 123e 92e9 253e 777b 253d
00000020: 7643 5b3e e0d9 70be 2ace cebe 151c 0c3e
00000030: c5d0 84bf 3954 1abe c8eb 313c 2722 5e3e
00000040: 488c e53e b6cf f43e 5805 a93e df66 4a3f
00000050: d8f3 b6bd 2201 bf3e ee8a e83d ceb0 bd3b
00000060: 3465 c43e 1dd0 fc3e dfa1 663e 5f96 5b3f
00000070: aa00 bd3e c137 e03d df63 b03e 677a bf3d
00000080: 8620 103e 5325 133e 4eaa 103e fea3 f63e
00000090: 054c ed3d 9787 853d b745 073e c4f4 12bf
000000a0: ea98 9f3d 239d 163e f866 e93d 553e 013e
000000b0: ca8d 153e bb74 cd3d a396 333c 958d 4bbf
000000c0: fc5e bf3d a8d3 c8bc fe41 143e 7405 b73f
000000d0: 3cf3 633e d659 b93e 1fc6 cc3e e472 7ebe
000000e0: 5aec 343d 0cba 0d3e 8e6a be3d 7e88 9d3f
000000f0: 6317 5f3e 413b a73e b95d 9e3e deef 4dbf
00000100: 01d9 7a3e cb77 163e 5145 b93d 3a9c b9bf
00000110: 0541 b13e 099f c33e c7a8 c53e 13e8 46be
00000120: f3d3 e03e 7257 073e f8e4 223e 0a75 d3bf
00000130: a2cb 993e 2186 a63e 37be 823e 65c3 6ebe
00000140: 3aff 703e e7b6 8f3e 12cb e63d ba51 b03e
00000150: 0bd0 ef3e deb2 0b3e c9d5 003d 1ec8 063f
00000160: 40e8 e03e bf1a 923e fafb 393d 7d2e 0b3f
00000170: 885a f23e ce14 313e 4529 df3e 1831 5f3f
00000180: 1238 3e3e 6342 8b3c 4759 293e 79e9 883e
00000190: bb30 f1bd 395e f0bc 22b7 ccbc 4f83 a03d
000001a0: e2d9 353d ba92 0f3d ee05 dd3d 232b 053c
000001b0: ec57 4fbd 4bbc a7bd 2687 88be 1847 39bd
000001c0: 34ec 8e3c 2750 4e3e dc18 0bbe c314 b5be
000001d0: 971c 003e 9a8d f43d 0479 2abe f700 a4be
000001e0: 6b73 333e 089f 6b3b df53 ccbc 0544 273d
000001f0: 7676 583e 98cf 843e e329 2d3b bbef abbe
00000200: 29a6 ff3e 7998 873e 302f 463e 91ec 0b3f
00000210: 57c7 b53e 42cb 893e a13a 483e eb58 d53e
00000220: 8d12 013f 6ae0 083f b408 e93e 9b1e 853e
00000230: 90b9 fc3d aa76 8f3e e3af 9b3e 1a95 b63e
00000240: 6f2d b63d 34b3 663e dbce 0b3e 5ac7 f13e
00000250: 79e9 cb3e d325 523e 88d4 7f3e bf5c a33e
00000260: 1a3d e5bd 5658 ae3d 121a 26bd a7ef b63e
00000270: 71f8 533d d55b 813e c9d5 b63e 1126 063f
00000280: 5947 b9bc 6e03 37be 022a 2b3d 773e 163e
00000290: 16fd 853e f9cb 99bd 7049 08bc 529f 323e
000002a0: 0eb6 b13d 780a bcbc 2056 8fb7 fb94 af3e
000002b0: b68e d73d bd67 2c3e 6c6b e53d 5d75 a73e
000002c0: 9e01 e8bd c45f 1fbd 9376 1fbe a6f1 5d3e
000002d0: 7260 373e 1710 90bd ce53 6abe 6ce8 8e3e
000002e0: 4c3c 843d 11a5 99bd 12e1 0ebe 1d17 9e3e
000002f0: 9781 033d e119 d73c bd6b 243e 47b4 5f3e
00000300: 25d0 a1bd 470d b3be 384d a3be 0cc5 3a3e
00000310: 5810 393b 2c39 753e ddb5 23be 258c c43e
00000320: 46a5 be3c d245 b8bd 5efd 833d 31ab f4bb
00000330: ad11 d93d 0552 f0bd e4ff 4f3c e76c b53e
00000340: 6d8f 5dbe 3f21 d7be 3c74 353b 6c9d 10be
00000350: ec68 9abe 89cc 68be dcc0 d1bc 32e9 cabe
00000360: 7820 febd 8c58 a23e 0155 4b3e d077 0a3b
00000370: f8e7 98bd 1b7a 7b3c 7426 783d c6e9 5b3e
00000380: 33ea 9b3d 1bdd b53d 5ff2 27be 3865 4d3e
00000390: 8413 323e 94d2 123e 1b89 8d3e cbb7 063f
000003a0: 62b6 c23d 50cf 99bb b6a0 753e 5e44 1a3f
000003b0: 870c c33e c85e c4bc 55ff ae3e fbaf 4a3f
000003c0: 5fbf 26bc 1cf8 17be 890b 02bf dd0c 8cbf
000003d0: 2354 793e 0be1 673e 7460 ca3e 6910 3cbf
000003e0: 6917 fbbc fccc 36bf b7b1 35bd 54fd d7bf
000003f0: 0499 153e 43fd 163e 8eef 893e 54c2 bcbf

seq.0.bias f4 [128]
0.71764135 -0.83795303 -2.5758805 -0.5079389 -0.67745286 -0.76175934 0.8516304 1.3917133
-0.88704103 -0.5651646 1.4341373 1.1931223 1.496673 1.103169 -0.410221 -1.2816558
1.3658708 1.4456501 -0.66151565 -2.4416208 0.014038249 1.1962194 1.0584743 -0.68072206
-2.3119538 1.0558814 -0.5611019 -0.2678091 1.2838987 1.8163192 0.23711407 1.4350002
1.0464766 1.1757028 1.4419712 0.7553107 1.4722335 -0.8037887 1.348023 -1.349282
-2.3914683 -0.7602594 1.3668698 1.7915463 1.5594034 1.2759063 0.00709675 1.4516361
1.470906 1.2219869 -2.1057749 -0.6660116 1.4454272 1.1743622 0.64099926 1.2927103
1.4455614 1.1425252 -0.01746098 -0.7740451 1.4323232 0.11067283 0.94635034 -1.7363317
1.1510353 -0.3764202 1.1920072 1.1227659 0.975529 1.2157779 -0.55970234 -2.1501403
1.212708 1.6425015 1.0638539 1.5526165 0.88544637 1.8892102 -0.31996349 -2.502224
0.9981462 1.1220253 1.5300902 -0.8195785 1.5073696 1.3571208 0.9769938 -1.2653805
-1.9384282 -0.65940934 -0.5883472 0.42663136 1.8703269 2.4837956 -1.3182538 1.471495
-1.025248 -0.7171713 -0.4365242 1.307374 -1.3132718 -1.8550174 -2.5314581 2.4303975
1.5928612 -2.109541 -0.741954 -2.0469177 -0.4877192 1.5546503 1.1659396 -0.14393575
1.740769 -0.819485 -0.6649 1.4245734 0.89623636 -0.67538685 1.3764535 0.97896737
-0.8218089 0.27709886 1.4121747 1.030528 -0.16678852 -0.19561623 0.13231917 1.2268353
00000000: 58b7 373f 1784 56bf 3adb 24c0 4908 02bf
00000010: 8d6d 2dbf a902 43bf 7304 5a3f a923 b23f
00000020: 1f15 63bf a1ae 10bf d091 b73f 3bb8 983f
00000030: fb92 bf3f a434 8d3f 7d08 d2be 4c0d a4bf
00000040: dbd4 ae3f 100b b93f 1759 29bf 8443 1cc0
00000050: af00 663c b81d 993f 167c 873f cd43 2ebf
00000060: 0df7 13c0 1f27 873f 60a4 0fbf 461e 89be
00000070: cb56 a43f 267d e83f 08ce 723e 16ae b73f
00000080: f2f2 853f 6e7d 963f 8392 b83f 0b5c 413f
00000090: 2672 bc3f 19c5 4dbf 058c ac3f 46b5 acbf
000000a0: d10d 19c0 5ca0 42bf 97f5 ae3f 6451 e53f
000000b0: 889a c73f e650 a33f db8b e83b 36cf b93f
000000c0: a646 bc3f 116a 9c3f 04c5 06c0 bc7f 2abf
000000d0: c203 b93f 8051 963f 8718 243f 8877 a53f
000000e0: 2808 b93f 443e 923f 540a 8fbc d227 46bf
000000f0: 5e56 b73f 70a8 e23d 0444 723f 1e40 debf
00000100: 2055 933f 26ba c0be b193 983f cbb6 8f3f
00000110: 45bc 793f 9c9e 9b3f a748 0fbf e69b 09c0
00000120: 043a 9b3f 7d3d d23f 5d2c 883f 23bc c63f
00000130: 9dac 623f a4d1 f13f 41d2 a3be 7024 20c0
00000140: 8286 7f3f 869e 8f3f ffd9 c33f e6cf 51bf
00000150: 7df1 c03f 22b6 ad3f 441c 7a3f fdf7 a1bf
00000160: 6a1e f8bf 0dcf 28bf ec9d 16bf 6d6f da3e
00000170: df66 ef3f 82f6 1e40 8abc a8bf f359 bc3f
00000180: 543b 83bf 8a98 37bf 1a80 dfbe 0858 a73f
00000190: 4a19 a8bf 3671 edbf 6903 22c0 a28b 1b40
000001a0: e0e2 cb3f b802 07c0 b3f0 3dbf b300 03c0
000001b0: 55b6 f9be c8fe c63f 823d 953f e563 13be
000001c0: 85d1 de3f c5c9 51bf e336 2abf 6c58 b63f
000001d0: bf6f 653f 27e6 2cbf a12f b03f 9b9d 7a3f
000001e0: 1162 52bf e7df 8d3e 24c2 b43f 57e8 833f
000001f0: 9cca 2abe 9f4f 48be ad7e 073e f008 9d3f

seq.2.weight f4 [32, 128]
0.058898516 0.041752715 -0.054842144 -0.03142309 -0.05245483 0.062019944 0.022965278 -0.028315458
-0.08845808 -0.08901575 -0.007886817 0.012474279 0.027616307 -0.0051927594 -0.06106174 -0.058691673
0.042508155 -0.034980837 0.009104417 -0.08488122 0.045097835 0.023798918 -0.0010621779 0.037580214
-0.03193812 0.06395019 -0.0023389477 -0.051994108 -0.033196352 0.006833075 0.014274578 -0.06425756
0.0010926747 0.03222325 -0.10036737 -0.087544434 -0.103410386 -0.063526474 0.058099955 -0.026629109
-0.048274398 0.045311976 -0.037387814 -0.008475317 0.020845136 -0.021212954 -0.032251913 -0.026216496
-0.08121997 0.06569392 0.0074036256 -0.024369648 0.06028306 -0.08858226 -0.056654286 0.054275896
-0.091417834 -0.031103829 0.04349594 0.06268392 -0.030227974 0.06882068 0.059404995 0.06585087
-0.07671859 -0.06127403 0.029118473 0.0051280265 -0.11436983 -0.019102478 -0.072150394 -0.0122867115
-0.012175562 -0.09455915 0.046127282 -0.015137467 -0.10952757 -0.08245002 -0.034887705 -0.08112679
-0.035246726 -0.008680313 -0.013156549 0.0639355 -0.0030823273 -0.093299605 -0.061455805 -0.028777536
-0.0011384008 -0.07674549 -0.031336233 0.052453045 0.012172428 -0.0423471 0.0063023437 -0.08947441
0.052750085 0.03594078 -0.095861636 -0.050645903 0.01809183 0.011326245 -0.09233756 0.020652698
-0.056840707 0.033125952 -0.030318834 -0.102379955 -0.052369025 -0.023699947 0.025448797 0.039753407
-0.04657138 0.042674292 0.03400161 0.033525262 -0.09109475 0.065605395 -0.022496374 0.021016138
0.06241823 0.035778645 0.061629582 0.0055643343 -0.05474304 -0.095608 0.058290154 -0.0647179
0.18529487 -0.5436441 2.2525384 -0.28044996 0.09911395 -0.2504816 0.04261348 0.5385705
-0.33436945 -0.12880047 0.34882846 0.24270636 0.45007375 0.5775603 -0.0729932 0.14179826
0.2138459 0.33450052 -0.20153734 1.3423662 -0.048111945 0.55245847 0.47927055 -0.0955483
0.97474027 0.34494913 -0.17570722 0.90957105 0.27220932 1.6366388 0.063978635 0.5015321
0.17600746 0.5504237 0.31213397 0.2737688 0.56212205 -0.20545463 0.6967195 0.7204771
0.8277711 -0.3857514 1.4034607 0.6190229 0.5152711 0.4138442 0.08367093 0.96897537
0.43075982 0.2818352 0.875736 0.56440485 0.50860417 0.2333734 0.44744626 0.3803573
0.41356397 0.25158307 -0.20974772 -0.09486615 0.43639153 -0.008452154 0.21725176 0.4727808
0.10088024 -0.01863004 0.1489663 0.36502668 0.5653307 0.4423264 -0.4902233 2.2847636
0.23428717 0.61509883 0.22585286 0.5892831 0.20845832 0.71957004 -0.13163273 1.6850054
0.1541477 0.62225413 0.42316768 0.6665002 0.4590381 0.31762755 0.16058497 0.43998498
0.611828 -0.26240578 0.9334315 -0.12916431 0.9796947 1.645792 0.6383955 0.46967992
0.5675826 0.0063276165 -0.018857706 0.17340994 -0.052374866 0.47464907 1.6572907 1.1893082
0.44748303 1.3158413 0.041557953 0.47940022 -0.23162985 0.60097325 0.18658914 -0.26996475
0.6099914 0.49504393 -0.2792046 0.1838176 0.27984288 -0.16144228 0.6708752 0.36154997
-0.19207814 -0.014771044 0.3654246 0.37392095 0.027706554 -0.3888596 0.37934178 0.4855704
00000000: 923f 713d e504 2b3d 28a2 60bd 7fb5 00bd
00000010: e0da 56bd a008 7e3d ae21 bc3c d2f5 e7bc
00000020: 8329 b5bd e44d b6bd b537 01bc eb60 4c3c
00000030: 983b e23c 0628 aabb e01b 7abd ae66 70bd
00000040: 081d 2e3d 1148 0fbd b12a 153c 34d6 adbd
00000050: 82b8 383d f3f5 c23c c738 8bba b6ed 193d
00000060: 8cd1 02bd 51f8 823d 0849 19bb c6f7 54bd
00000070: e6f8 07bd fde7 df3b ebdf 693c 7899 83bd
00000080: 1438 8f3a 87fc 033d 688d cdbd 7f4a b3bd
00000090: d3c8 d3bd 2b1a 82bd 38fa 6d3d 4a25 dabc
000000a0: 60bb 45bd 0d99 393d f723 19bd 0edc 0abc
000000b0: 6bc3 aa3c cac6 adbc 951a 04bd fac3 d6bc
000000c0: a856 a6bd 898a 863d 1d9a f23b dba2 c7bc
000000d0: 5feb 763d 9e6a b5bd 530e 68bd 6750 5e3d
000000e0: 4639 bbbd 75cd febc cc28 323d 6d60 803d
000000f0: a8a0 f7bc dbf1 8c3d a752 733d d2dc 863d
00000100: a31e 9dbd 7afa 7abd dd89 ee3c 0109 a83b
00000110: bb3a eabd cd7c 9cbc 96c3 93bd 344e 49bc
00000120: 027c 47bc 3aa8 c1bd f6ef 3c3d 2303 78bc
00000130: fe4f e0bd 8edb a8bd 69e6 0ebd cd25 a6bd
00000140: df5e 10bd df37 0ebc 918e 57bc 9ef0 823d
00000150: df00 4abb dd13 bfbd 15b9 7bbd debe ebbc
00000160: 6436 95ba bd2c 9dbd 6c5a 00bd 01d9 563d
00000170: dd6e 473c 2774 2dbd e483 ce3b 5c3e b7bd
00000180: 7910 583d a436 133d 1b53 c4bd 1472 4fbd
00000190: 5135 943c b791 393c 7a1b bdbd d92f a93c
000001a0: cdd1 68bd 14af 073d 345f f8bc 95ac d1bd
000001b0: e780 56bd 6426 c2bc ff79 d03c 78d4 223d
000001c0: a2c1 3ebd 3dcb 2e3d 4645 0b3d c951 093d
000001d0: e28f babd 1f5c 863d 514a b8bc 092a ac3c
000001e0: 42aa 7f3d a18c 123d 4d6f 7c3d 0555 b63b
000001f0: 3d3a 60bd 21ce c3bd a8c1 6e3d d18a 84bd
00000200: f0bd 3d3e 422c 0bbf 9729 1040 2397 8fbe
00000210: 41fc ca3d 203f 80be 798b 2e3d c2df 093f
00000220: 7932 abbe 45e4 03be a599 b23e 0488 783e
00000230: 1170 e63e feda 133f 757d 95bd 9033 113e
00000240: 6bfa 5a3e a743 ab3e ce5f 4ebe a8d2 ab3f
00000250: 0811 45bd eb6d 0d3f f362 f53e d4ae c3bd
00000260: 9488 793f 2c9d b03e 98ec 33be a6d9 683f
00000270: 055f 8b3e 617d d13f 3b07 833d 6864 003f
00000280: 4d3b 343e 91e8 0c3f 06d0 9f3e 6d2b 8c3e
00000290: 3be7 0f3f b362 52be 365c 323f 3071 383f
000002a0: cfe8 533f 3581 c5be 9aa4 b33f 4978 1e3f
000002b0: cfe8 033f 63e3 d33e aa5b ab3d c50e 783f
000002c0: 8d8c dc3e b44c 903e 3c30 603f d67c 103f
000002d0: e233 023f 70f9 6e3e ad17 e53e 31be c23e
000002e0: a8be d33e 7fcf 803e 1bc8 56be 2f49 c2bd
000002f0: b66e df3e e77a 0abc 3f77 5e3e 5310 f23e
00000300: 4d9a ce3d 079e 98bc 9f8a 183e c7e4 ba3e
00000310: 83b9 103f 9b78 e23e 8cfe fabe 9139 1240
00000320: fae8 6f3e 1e77 1d3f f945 673e 42db 163f
00000330: 1976 553e be35 383f bbca 06be 42ae d73f
00000340: e5d8 1d3e 0c4c 1f3f 6fa9 d83e c29f 2a3f
00000350: 0b07 eb3e 14a0 a23e 6370 243e b645 e13e
00000360: c3a0 1c3f 0d5a 86be 5ef5 6e3f a643 04be
00000370: 46cd 7a3f 50a9 d23f e36d 233f e379 f03e
00000380: 184d 113f e557 cf3b 7a7b 9abc 6092 313e
00000390: 0787 56bd 3405 f33e 1a22 d43f 403b 983f
000003a0: 7f1c e53e 7d6d a83f ac38 2a3d f273 f53e
000003b0: 6030 6dbe 62d9 193f 3911 3f3e d238 8abe
000003c0: 6528 1c3f 6676 fd3e e8f3 8ebe ae3a 3c3e
000003d0: 9147 8f3e 2051 25be 7abe 2b3f 141d b93e
000003e0: 22b0 44be 4002 72bc ef18 bb3e 9172 bf3e
000003f0: dbf8 e23c 9b18 c7be 1639 c23e af9c f83e

seq.2.bias f4 [32]
-0.033443276 1.5175941 1.4822317 1.2330364 0.00787885 1.4317452 1.4090855 -0.092775784
1.2563068 -0.07605762 1.1844659 1.3025241 0.9625872 1.366377 1.5325482 1.4646696
1.3986948 0.02987505 1.3255293 1.0305203 1.42766 1.3140014 1.2619708 1.2165593
2.553319 -0.08074896 -0.087107494 -0.058798347 1.2194394 0.0025378026 1.4018952 -0.038102414
00000000: d1fb 08bd 8640 c23f c5b9 bd3f 23d4 9d3f
00000010: 4b16 013c 6d43 b73f ea5c b43f 3b01 bebd
00000020: a9ce a03f 19c4 9bbd 949c 973f 1cb9 a63f
00000030: 1d6c 763f 71e5 ae3f 8a2a c43f 4b7a bb3f
00000040: 6e08 b33f 85bc f43c f2aa a93f 17e8 833f
00000050: 90bd b63f 3331 a83f 4288 a13f 37b8 9b3f
00000060: 9469 2340 b65f a5bd 6a65 b2bd 89d6 70bd
00000070: 9716 9c3f 4351 263b 4d71 b33f 4711 1cbd

seq.4.weight f4 [8, 32]
-0.03765555 0.5367012 0.5508858 0.38710785 -0.08908954 0.6028515 1.0015272 -0.113926224
0.36532712 -0.052728474 -0.09250404 0.62112874 -0.102299735 0.2810826 0.7373955 0.6853835
1.0442507 0.05741796 0.38556126 0.08654997 0.74297786 0.99921066 0.3934624 0.36473846
-0.4418627 0.027998028 -0.0011171318 -0.065032296 0.66968054 -0.111025244 0.95594376 -0.09161558
-0.14071032 0.22791342 0.18479897 0.15277158 -0.035798687 0.24022998 0.6228263 0.098650895
0.12947798 0.08000383 2.2038207 0.43263972 0.20645516 0.18719167 0.17384282 0.322566
0.41753358 0.12715816 0.35397407 -0.15578309 0.35966098 0.8357562 0.47678813 0.2887636
2.965603 0.1531823 0.027604084 -0.0807821 0.4524258 -0.09336334 0.7736339 0.14994664
0.02343735 0.30042297 0.21040039 0.43090123 -0.086927496 0.44029054 0.62492824 -0.041336495
-0.16884926 0.14109416 1.1876199 -0.028187668 -0.052176144 0.29359305 0.57668626 0.35190675
0.36003634 -0.09359334 0.35691857 0.76833504 0.65992063 0.63613474 0.91727954 0.36906856
1.1225455 -0.12570028 -0.08768797 0.11008585 -0.12760468 0.097126685 0.45285398 -0.14756246
-0.13916394 0.56599855 0.8264184 0.651828 -0.086802475 0.38321474 0.24025236 0.104939096
1.0908582 -0.024315935 0.48439094 0.7961866 1.0946085 0.41839054 0.094064385 0.16339982
0.6017571 -0.13656574 0.42745835 -0.35247558 0.057736922 -0.024395531 -0.115151726 0.8002932
1.5849096 -0.050793916 0.12406848 0.09424591 1.0022489 0.09996993 0.2764404 -0.114470094
0.1346122 0.67548114 0.5935208 0.39997602 -0.079021566 0.7187996 0.38888398 0.09640246
0.4650589 -0.11617732 -0.51476943 0.600866 0.67271763 0.71563065 0.71720904 0.65569955
0.34589744 -0.10229164 0.5668756 0.5943263 0.6567909 0.3884389 0.5556834 0.38836193
-0.61014855 0.15889344 0.0072765527 0.096150674 0.51697856 0.0033089505 0.47338915 0.1084889
-0.00993832 -0.022387397 -0.054709636 -0.18121059 0.15083921 -0.068010285 0.0039263084 -0.09855157
-0.034583595 -0.07429079 -0.11875095 -0.1377877 -0.025766203 0.098198034 0.09049125 -0.122180074
0.10935595 -0.17493105 0.09118879 -0.03905013 0.030240893 0.052570928 -0.005018373 -0.08340136
-0.023057781 0.10560363 0.13188933 -0.12770928 -0.10108638 0.04895057 0.059534475 -0.16853283
0.010193592 -0.014140039 -0.019389734 0.078577496 -0.095973775 -0.17887852 0.0037689307 -0.09059884
-0.11171522 -0.11994343 -0.18331845 -0.10394662 0.07000579 -0.13624197 -0.13172054 -0.20564258
-0.11690958 0.15946238 0.05276872 0.020139955 0.011289679 0.082255885 0.005370697 0.07459538
0.017858498 0.0341686 -0.11533354 0.106014 -0.010219281 0.15269542 -0.1369893 0.0390576
-0.06394458 0.6852146 0.498785 0.8212 0.03160314 0.46025422 0.067547284 -0.011474214
0.7468231 -0.031863887 0.90868676 0.31992555 1.0311188 0.8052782 0.4853461 0.683605
-0.08916415 0.07214291 0.8499523 0.85706717 0.51632154 0.18419601 0.7720273 0.84521776
1.8121444 -0.12200102 -0.07677533 -0.024626534 0.2406736 0.03618456 0.0015276459 0.040032506
00000000: b53c 1abd 4065 093f da06 0d3f 0033 c63e
00000010: 9474 b6bd 7a54 1a3f 0b32 803f 2752 e9bd
00000020: 280c bb3e d0f9 57bd c272 bdbd 4b02 1f3f
00000030: 8682 d1bd 0fea 8f3e f4c5 3c3f 4b75 2f3f
00000040: 02aa 853f 182f 6b3d 4968 c53e 1c41 b13d
00000050: cc33 3e3f 45cc 7f3f e773 c93e 00bf ba3e
00000060: d43b e2be 1f5c e53c b96c 92ba a72f 85bd
00000070: 2f70 2b3f 3461 e3bd bbb8 743f f3a0 bbbd
00000080: 5e16 10be 2362 693e f13b 3d3e 2770 1c3e
00000090: a5a1 12bd d9fe 753e 8b71 1f3f 7b09 ca3d
000000a0: e095 043e 0cd9 a33d 660b 0d40 f482 dd3e
000000b0: fb68 533e 2caf 3f3e da03 323e 5f27 a53e
000000c0: f6c6 d53e c035 023e 173c b53e 9a85 1fbe
000000d0: 7c25 b83e 1ef4 553f 931d f43e d3d8 933e
000000e0: 71cc 3d40 d2db 1c3e f621 e23c 1671 a5bd
000000f0: 5ba4 e73e 4735 bfbd df0c 463f 9d8b 193e
00000100: afff bf3c 0ad1 993e 3373 573e 169f dc3e
00000110: 0b07 b2bd c36d e13e 4cfb 1f3f 7550 29bd
00000120: d2e6 2cbe fd7a 103e ee03 983f d3e9 e6bc
00000130: a7b6 55bd d451 963e b6a1 133f 1f2d b43e
00000140: af56 b83e ddad bfbd 08be b63e 9bb1 443f
00000150: 8ff0 283f bad9 223f d5d2 6a3f 8ef6 bc3e
00000160: 92af 8f3f 93b7 00be c095 b3bd b174 e13d
00000170: cdaa 02be 5bea c63d 7adc e73e 9d1a 17be
00000180: fe80 0ebe 48e5 103f 2890 533f 33de 263f
00000190: 7fc5 b1bd b934 c43e b704 763e 4fea d63d
000001a0: 3ea1 8b3f 3632 c7bc 1702 f83e e3d2 4b3f
000001b0: 221c 8c3f 4937 d63e d4a4 c03d 4852 273e
000001c0: c10c 1a3f e4d7 0bbe d2db da3e ae77 b4be
000001d0: 8d7d 6c3d 23d9 c7bc abd4 ebbd 04e0 4c3f
000001e0: 51de ca3f 480d 50bd 9e17 fe3d 0004 c13d
000001f0: b149 803f 09bd cc3d 9989 8d3e 4c6f eabd
00000200: c8d7 093e 55ec 2c3f fbf0 173f a8c9 cc3e
00000210: 0fd6 a1bd 4003 383f cd1b c73e a76e c53d
00000220: 331c ee3e 60ee edbd eec7 03bf 5bd2 193f
00000230: 3937 2c3f 9233 373f 039b 373f eddb 273f
00000240: 7819 b13e 487e d1bd c21e 113f c525 183f
00000250: 7323 283f 77e1 c63e 4441 0e3f 60d7 c63e
00000260: b232 1cbf f6b4 223e 2670 ee3b a5ea c43d
00000270: b558 043f fada 583b 1060 f23e 6e2f de3d
00000280: 56d4 22bc c665 b7bc 3617 60bd 458f 39be
00000290: 9875 1a3e fa48 8bbd 43a8 803b 68d5 c9bd
000002a0: 87a7 0dbd c525 98bd b333 f3bd 3818 0dbe
000002b0: a513 d3bc 0d1c c93d 7a53 b93d 8c39 fabd
000002c0: 03f6 df3d 2021 33be 30c1 ba3d 07f3 1fbd
000002d0: c0bb f73c 9d54 573d 2a71 a4bb 55ce aabd
000002e0: ace3 bcbc b746 d83d ff0d 073e 39c6 02be
000002f0: 6006 cfbd 6580 483d 6cda 733d df93 2cbe
00000300: 0603 273c 9fab 67bc 38d7 9ebc 3ded a03d
00000310: e68d c4bd ee2b 37be 2a00 773b e28b b9bd
00000320: f3ca e4bd e7a4 f5bd d5b7 3bbe f7e1 d4bd
00000330: 325f 8f3d 0483 0bbe c0e1 06be f893 52be
00000340: 4a6e efbd 1b4a 233e 0324 583d 8cfc a43c
00000350: 59f8 383c c675 a83d acfc af3b 76c5 983d
00000360: fc4b 923c 60f4 0b3d fe33 ecbd de1d d93d
00000370: c56e 27bc 305c 1c3e ec46 0cbe ddfa 1f3d
00000380: 60f5 82bd 396a 2f3f bf60 ff3e 2a3a 523f
00000390: 4b72 013d 71a6 eb3e 3b56 8a3d 57fe 3bbc
000003a0: cc2f 3f3f b583 02bd b29f 683f 48cd a33e
000003b0: b3fb 833f b626 4e3f 497f f83e bd00 2f3f
000003c0: b29b b6bd a9bf 933d 7996 593f c168 5b3f
000003d0: a62d 043f e19d 3c3e 95a3 453f 3160 583f
000003e0: 59f4 e73f acdb f9bd 623c 9dbd 96bd c9bc
000003f0: 2473 763e 4336 143d 4a3b c83a 20f9 233d

seq.4.bias f4 [8]
1.6329707 0.74375415 1.1754066 0.77789736 1.6964413 -0.10979588 -0.19320045 1.0669801
00000000: 2f05 d13f ac66 3e3f b973 963f 4824 473f
00000010: fd24 d93f aadc e0bd 57d6 45be ce92 883f

seq.6.weight f4 [4, 8]
-0.4928613 -0.9569132 -0.17684717 -0.89299226 -0.092038035 0.22029243 0.10309428 -0.21315974
-0.97351635 -0.41773218 -0.6395097 -0.12464458 -0.6162273 0.2612887 0.10836321 -0.27597895
-0.12241181 -0.556079 -0.71097726 -0.16361074 -0.3397751 0.19780146 0.1753163 -0.95379573
-0.5164872 0.005916072 -0.14595202 -0.7440599 -0.76884437 0.3238012 -0.3169939 -0.74109614
00000000: 5158 fcbe 43f8 74bf 6d17 35be 249b 64bf
00000010: 707e bcbd 5794 613e 1823 d33d 8c46 5abe
00000020: 5e38 79bf fee0 d5be e8b6 23bf a845 ffbd
00000030: 13c1 1dbf a2c7 853e 88ed dd3d 1d4d 8dbe
00000040: 0bb3 fabd 315b 0ebf 9b02 36bf 9389 27be
00000050: 00f7 adbe 778c 4a3e 1e86 333e f52b 74bf
00000060: 8138 04bf 9cdb c13b 7274 15be b67a 3ebf
00000070: fcd2 44bf 45c9 a53e 064d a2be 7ab8 3dbf

seq.6.bias f4 [4]
-0.83714026 -1.0618922 -0.695688 -0.768991
00000000: d34e 56bf 15ec 87bf 9c18 32bf 98dc 44bf
