training/models/environment_traffic_lights/1638899442/checkpoints/ep00450.pt (torch, 28751 bytes, 8 tensors)

seq.0.weight f4 [128, 16]
000000 97 ff 5d 3e 36 05 50 3e b6 7f dc 3e 63 9c 3d be
       0.21679531 0.20314488 0.43066186 -0.18516688
000010 ad fd 1f be 58 23 f5 bd 96 0e 2a bd 41 d3 15 be
       -0.15624113 -0.11969632 -0.041517816 -0.14631368
000020 96 25 92 3e b5 31 ca 3d 78 4d eb 3d f6 f2 e3 bd
       0.285443 0.09872762 0.11489385 -0.111303255
000030 5d e8 c1 3d 17 dd 53 3d 05 57 49 be 56 f8 e8 bd
       0.09468148 0.05172452 -0.19662102 -0.11375491
000040 15 69 7d be 8d 55 56 be 0e 0f 4a be ca 82 76 3d
       -0.24747117 -0.20931073 -0.19732305 0.060183324
000050 7d 74 4c bf f6 3e 44 be 63 0e 07 3f 92 94 d4 be
       -0.79865247 -0.19164643 0.5275633 -0.415196
000060 c9 e2 53 bd 9b f6 f2 3e 86 48 86 3e e0 2e 51 3d
       -0.05172995 0.4745377 0.26227206 0.051070094
000070 18 db 8d bc 75 3a ba 3d 21 77 c2 bc 2e bd 43 be
       -0.017316386 0.09093181 -0.023738446 -0.19115135
000080 be 72 04 bf 10 2b 6c 3e 0e 28 58 3d a8 b6 78 3d
       -0.5173758 0.23063302 0.052772574 0.06072107
000090 d3 30 95 be d0 70 8d bd c9 f4 b1 3e 35 d1 59 bf
       -0.29138812 -0.06906283 0.3475707 -0.8508485
0000a0 e5 0a 33 be e4 77 3a be 7e f0 20 3e 83 00 40 be
       -0.17484625 -0.18209797 0.1571674 -0.18750195
0000b0 8c 6b 05 be 1a 34 2d be 9d 29 97 3c 2a d7 08 bf
       -0.13029307 -0.16914406 0.01845246 -0.53453314
0000c0 f6 3a 9c bd 3f e8 3c bd 1a 90 0e 3e f9 a3 df 3c
       -0.076284334 -0.046119925 0.13922158 0.027299868
0000d0 e9 b9 fa 3c 09 ef 4c be f1 85 8d 3d 1f 36 3c 3e
       0.030606227 -0.2001306 0.06910313 0.1838002
0000e0 41 35 60 bb ff da 13 be 2f 72 0a bd 91 da 9d 3d
       -0.003421143 -0.14439009 -0.0338003 0.07707704
0000f0 05 16 4c be 6b 6b 10 3e af c5 38 be 6c 01 93 bd
       -0.19930275 0.14103477 -0.1804416 -0.071780056
000100 35 d0 81 be f6 1a 93 3d 5a b3 a5 3e 3e 3f b1 3d
       -0.25354162 0.07182877 0.32363397 0.086546406
000110 43 09 b0 3c 9a 24 8a be fd 7f 93 3e f7 24 87 3e
       0.021488791 -0.2698105 0.28808585 0.2639539
000120 bc 01 c9 be b8 3e 95 be 2d c4 ef 3c 6b be 04 bf
       -0.39259136 -0.29149413 0.029268349 -0.51853055
000130 5e c6 28 be d2 28 8e be dd dd 68 bd f2 ef 49 bd
       -0.16481921 -0.27765518 -0.05685221 -0.049301095
000140 0c ec a0 be 34 5d eb be ae 08 73 bc 85 6f 1e be
       -0.3143009 -0.45969546 -0.014833612 -0.15472229
000150 b6 d4 19 3e 74 a7 a4 bd fd a6 b8 3e 48 6d e0 be
       0.15022549 -0.08039752 0.36064902 -0.43833375
000160 f4 d7 20 be 3d 40 8c 3b 1a a8 ed 3d f3 8b ec bd
       -0.1570738 0.0042801187 0.116043285 -0.11550131
000170 19 e9 2a be 09 54 89 3e 93 93 05 be a2 8a 61 be
       -0.16690482 0.26821926 -0.13044576 -0.2202554
000180 f2 7a b1 3e 8d ae 92 3e d1 2c 83 bc d2 f0 7e bb
       0.34664112 0.28648797 -0.016012581 -0.0038900864
000190 f0 ab e0 3d 8a f5 9b bd 0d b2 52 3c a2 b7 17 be
       0.109702945 -0.07615192 0.012859833 -0.14816144
0001a0 22 ee 2b bd 58 fb 4f 3c 62 9c 15 bd 26 91 9b bd
       -0.041975148 0.012694202 -0.03652609 -0.07596044
0001b0 12 c0 99 bd e6 9b 10 3e 8f 91 3c 3e 3f 0e 2d be
       -0.07507338 0.1412197 0.18414901 -0.16899966
0001c0 75 66 03 bf a5 9d 48 bf eb 81 29 bf f5 8f 80 be
       -0.5132821 -0.78365546 -0.66213864 -0.2510983
0001d0 3c f2 6e bc aa 4b 18 bf 32 9a a0 3e 05 de d1 be
       -0.01458412 -0.59490454 0.31367642 -0.409897
0001e0 31 42 ed be f1 9b c0 be cf 34 0b bf 24 61 b1 be
       -0.46339563 -0.37618974 -0.54377455 -0.34644425
0001f0 cd 01 fc be 7a 48 de ba 19 c6 7f be 53 f9 d5 be
       -0.49220124 -0.0016958856 -0.24977912 -0.41791782
000200 f4 bf c5 be 21 34 cb be bb 8c da 3d 3b 30 8d 3c
       -0.3862301 -0.3968821 0.106713735 0.017234912
000210 94 eb 33 be 63 b7 5e 3e cc ed 9c be 87 39 0e 3e
       -0.17570335 0.21749644 -0.30650175 0.13889132
000220 25 7f a1 bd c3 40 d4 be 46 fe 15 3e cc fe fd bd
       -0.07885579 -0.4145566 0.14647779 -0.12402114
000230 db 5b b8 be 22 fa bd 3e 2b bc b8 3e b9 54 85 3d
       -0.3600758 0.371049 0.3608106 0.065103
000240 4f 9e 55 be 8b b3 11 3e d9 4f 40 be 37 b4 b8 bd
       -0.20861171 0.14228646 -0.1878046 -0.09018748
000250 05 9a 43 be 58 e1 68 3a 8e a8 19 3e 04 3d ce 3e
       -0.19101723 0.00088836765 0.15005705 0.40280926
000260 93 53 e5 bd 19 9e 4a be 73 fe 6e bd 23 03 e4 3b
       -0.11197581 -0.19786872 -0.05834813 0.0069583817
000270 9c 5b 7a be 0c bd f5 3c dd e9 34 be 40 fe 8f 3d
       -0.24449009 0.029997371 -0.17667337 0.07030916
000280 20 ce 48 be c2 1b d0 be b4 17 b9 3e d1 d3 ca be
       -0.1960988 -0.40646178 0.36150897 -0.39614728
000290 64 f2 09 be 52 a2 8b be 96 15 c3 bd 36 6b 80 bd
       -0.13471371 -0.27272278 -0.095256016 -0.06270449
0002a0 84 0f 1d be b0 e4 09 bf 60 1b 80 be da 87 a7 be
       -0.1533795 -0.53864574 -0.25020885 -0.32720834
0002b0 1e 7d 8d 3d 58 7b c0 be ff ec 0f bf a5 92 28 be
       0.0690863 -0.37594104 -0.56221 -0.1646219
0002c0 e0 79 c0 be 4d 5d 6f 3e 98 b3 19 bf 0d 5d 47 bf
       -0.37592983 0.23375435 -0.60039663 -0.7787636
0002d0 c0 2a 85 be f9 e5 de 3d dc 86 c5 3e 59 0e c5 3e
       -0.26009178 0.108837076 0.38579452 0.3848751
0002e0 e2 4c a8 bc 95 9a 4f 3c b8 af 59 bf bd d6 1c bf
       -0.020544473 0.012671133 -0.8503375 -0.61265165
0002f0 12 21 be be c4 52 48 bd 8d 9c 4a 3e 0e 19 f6 3e
       -0.37134606 -0.048907056 0.19786282 0.4806599
000300 7b ef 14 3e 04 9f 1d be 85 56 8c bd 41 62 d2 bd
       0.1454448 -0.15392691 -0.0685244 -0.10272647
000310 c1 f0 94 bd 55 e9 eb bd d3 4a 6c bd 81 0b 3c 3e
       -0.07272483 -0.11519114 -0.057688545 0.18363763
000320 a1 88 f3 bd 97 f2 80 3c 06 a1 10 3c 8a c3 22 be
       -0.11891294 0.015740676 0.0088274535 -0.15894905
000330 81 b0 cd 3d 6b 27 21 3e 47 27 49 3e 1f cc 19 3e
       0.10043431 0.15737693 0.1964389 0.15019272
000340 2f 20 9b be 7a 81 6e be 6b 76 4a 3b d5 af 6b be
       -0.30297992 -0.23291579 0.0030893337 -0.23016293
000350 0e 43 0c 3e 92 5b f9 bc e5 4d 2a bd 40 f6 9c 3e
       0.13697454 -0.030439172 -0.041578192 0.30656624
000360 47 8a 20 3e e4 55 c3 bd 35 f8 1f 3e 3c f4 48 be
       0.15677749 -0.09537867 0.15622027 -0.19624418
000370 50 27 7e be a3 a6 29 3b 04 d6 13 3e b9 e4 44 3e
       -0.24819684 0.0025886677 0.14437109 0.19227876
000380 70 69 1e bd 80 aa 0d bf 88 a7 a6 be 21 b0 80 be
       -0.03867477 -0.5533829 -0.3254969 -0.25134376
000390 f5 ca 78 bd 09 98 a8 3c 62 5a ea 3e ae 9f 54 be
       -0.06074043 0.020580309 0.45772082 -0.20764038
0003a0 6a c6 99 be bf 46 7e be 25 df ad be 6d f3 78 3e
       -0.3003419 -0.24831675 -0.33959308 0.2431161
0003b0 09 a5 d5 be 9e 77 97 be 50 62 bf be ea ca 1b be
       -0.41727474 -0.29583448 -0.37379694 -0.15214124
0003c0 c3 f5 bf be 7b b9 f2 bd 29 87 1f 3c c2 45 01 3e
       -0.3749219 -0.11851784 0.009736815 0.12624267
0003d0 3f 56 81 be 0c fc 1c bd b5 9a fb 3d b1 b7 8e be
       -0.25261113 -0.038326308 0.122853674 -0.2787452
0003e0 66 ea 89 bf 2b d3 da be d3 20 d6 be 2e de 05 be
       -1.0774658 -0.42739233 -0.41821918 -0.13073036
0003f0 80 fa 9a bd 15 44 7d 3e cb 38 91 be e8 c2 c5 be
       -0.0756731 0.24733002 -0.28363642 -0.38625264

seq.0.bias f4 [128]
000000 e2 c3 ae 3f e5 d1 bf be 2e aa 9e 3e 08 f2 a4 3f
       1.3653529 -0.37464824 0.30989212 1.2886362
000010 31 b5 a5 bb fa 02 02 3d eb 71 ba 3f 10 b7 50 be
       -0.005057 0.03174112 1.4566015 -0.20382333
000020 dd 5c 1f 3e ef a3 6a 3f 62 22 15 be 9a 28 da bb
       0.15562768 0.9165639 -0.14563897 -0.006657672
000030 3d cd b2 3f 53 57 91 3f b8 ba 83 be e5 ac 72 be
       1.3968884 1.1354774 -0.25728393 -0.23698767
000040 fb 6f 76 bf d4 a5 33 3f e4 05 e1 be b2 3c af 3f
       -0.9626462 0.7017491 -0.43949807 1.3690398
000050 33 84 3d 3e 8a b6 62 3e fa 51 97 3f 67 a4 bb 3f
       0.18507461 0.22139946 1.1821892 1.4659547
000060 04 98 be 3f e6 9d cf be a6 0d 9f 3f 97 0a 27 be
       1.4890141 -0.40550154 1.242604 -0.16312633
000070 bc 94 68 3e a3 6c e7 3f d8 7c 19 bf b8 7a d2 3e
       0.22712988 1.8080028 -0.5995612 0.41109252
000080 14 47 42 bf 31 3a 74 3f 49 d0 e0 3e 1e eb 05 3f
       -0.75889707 0.95401293 0.4390891 0.52311885
000090 49 2a 96 3f 61 c9 87 3f 91 6d 6e 3f e0 3a a7 3e
       1.1731654 1.0608331 0.93135935 0.32662106
0000a0 60 c9 92 3f dc a2 6e bc e2 fd e3 3f a5 a5 af 3f
       1.1467705 -0.014565196 1.7811854 1.3722426
0000b0 78 b3 ca 3f 84 e8 32 3f ed 38 91 be 37 8f de be
       1.583602 0.6988604 -0.28363743 -0.4346864
0000c0 0e 51 70 bf 5e d2 1b 3e f8 c8 ee be 55 18 09 bf
       -0.9387368 0.15216967 -0.46637702 -0.5355275
0000d0 f1 14 e2 3e b1 c1 ad 3e 50 fa da be 4f df 9f 3f
       0.44156602 0.33936837 -0.42769098 1.2490023
0000e0 0d 32 c2 3f b2 41 76 3f 3a fb 9a 3e ff 60 14 bd
       1.5171524 0.96193993 0.30269796 -0.036225315
0000f0 4f 14 26 bd 60 b7 7d 3c 28 e4 db 3f 4e df a9 3e
       -0.04054671 0.015485615 1.7179003 0.3317818
000100 52 28 b8 bc fd 7a 67 bf 49 e2 ac be ee 00 c0 3f
       -0.022480164 -0.9042204 -0.33766392 1.5000284
000110 2f 03 00 3f 48 fe b3 3e 0f 9e 0d bf 54 c2 14 3d
       0.5000486 0.3515494 -0.55319303 0.03631814
000120 a4 81 fb be c5 39 a0 be af 61 02 bf 4b 02 d5 3e
       -0.49122345 -0.31294075 -0.50930303 0.41603312
000130 dc ea 5d 3e f0 57 c6 3f 27 16 bc 3f f5 72 8e 3f
       0.21671623 1.5495586 1.469426 1.1128832
000140 0c 93 d7 3f a7 98 e1 bd d6 c3 99 be 17 ed 7a 3f
       1.684175 -0.11015444 -0.30032223 0.9801802
000150 8a 2f a0 3f ff 82 d3 be aa 41 b3 bd 66 d0 e2 3f
       1.2514508 -0.4131088 -0.08752759 1.7719848
000160 45 7f 64 3e fd bf da 3e 49 db cb 3e 87 be a9 3f
       0.22314174 0.427246 0.3981574 1.3261269
000170 6d e4 a4 3f 54 1d 18 bc 24 a2 a0 3f 90 d2 83 3f
       1.288221 -0.009284336 1.2549481 1.0298634
000180 34 0b 19 bf 81 cb 88 3f 62 91 4c 3f 1f 54 47 be
       -0.5978272 1.0687104 0.79909337 -0.19465683
000190 dd 29 4a 3f 07 e5 3f be a1 74 d0 be 12 52 ff be
       0.7897013 -0.18739711 -0.4071398 -0.49867302
0001a0 be dc 65 3f 5c 22 00 be 7a cf c6 3f b6 d6 52 3c
       0.8978995 -0.12513107 1.5532067 0.012868574
0001b0 51 d1 9c be 86 b2 cc 3d 9e fd 0a bf 4d fd 0b 3f
       -0.30628446 0.09994988 -0.5429324 0.5468338
0001c0 8b 47 8e 3f 56 3d ca be 09 58 8e 3f 02 16 d7 3e
       1.1115583 -0.3949992 1.1120616 0.42008978
0001d0 83 d9 04 3f 68 99 11 3f f2 2b 25 3f da ac 8e 3f
       0.51894397 0.56874704 0.6452018 1.11465
0001e0 c0 2f 14 bf 42 65 c0 3f 18 7b 3d 3f 71 02 c0 3f
       -0.5788536 1.5030901 0.7401595 1.5000745
0001f0 15 31 94 3f 30 e4 9f 3f f0 b2 9f 3f d0 ec 16 3f
       1.1577479 1.2491512 1.2476482 0.589551

seq.2.weight f4 [32, 128]
000000 d6 a1 03 3d 7e 21 3f bd e3 8e 86 bd 9c 1e 22 bc
       0.03213676 -0.0466628 -0.06570222 -0.009894993
000010 5b bf 23 bd 56 30 af 39 7e 50 2c 3d 1a 27 1c bd
       -0.039977413 0.00033414614 0.04206895 -0.038123228
000020 47 6c cb 3c 1d fb 45 bd a2 a0 63 bd 57 f0 9c 3d
       0.024831904 -0.048335183 -0.055573113 0.07663029
000030 91 75 7a 3d 19 06 bb bd 49 d7 32 bd ac ad 59 bb
       0.061147276 -0.091320224 -0.043662343 -0.0033215089
000040 63 09 25 bd d7 d6 b4 bd 36 39 8f 3d e2 a4 7e 3d
       -0.040292155 -0.0883004 0.06993334 0.062168963
000050 8d ce 79 bd 8b 80 31 bd cc 4c 35 bd 1b 91 6c bb
       -0.060987998 -0.04333548 -0.044262692 -0.0036097232
000060 77 c6 df bc 89 e1 2d 3d 21 24 9d 3d 32 06 4f 3c
       -0.027316315 0.042451415 0.07672907 0.012635754
000070 7c 00 50 bc 31 91 4a bc f1 44 ab 3d d6 db 38 bd
       -0.012695428 -0.012363718 0.08362759 -0.045131527
000080 00 95 d4 ba 5f 71 80 3d 32 82 c1 bd 9d a7 b5 bc
       -0.0016218722 0.06271624 -0.09448661 -0.02217465
000090 de 39 0e bd 7b 3f d4 3b ab a6 c0 bd df 0a 1e bd
       -0.034723155 0.006477294 -0.094067894 -0.038584586
0000a0 7e bc af bd b3 23 1b 3d 22 bb 96 3d d1 2b 1f 3d
       -0.08580874 0.037875842 0.073599115 0.038860146
0000b0 54 3c 91 bd 29 e8 89 bd a1 a3 28 3d 9d 0f d0 3c
       -0.07091585 -0.06733734 0.041171674 0.02539807
0000c0 bd d8 1a bd 00 2b 60 3d 7b 2d f9 bc 82 a4 2d 3d
       -0.037804354 0.054728508 -0.030417195 0.042393215
0000d0 0b d5 6f bc c2 b6 c2 bc 11 a5 5f bd 8f c1 8d 3d
       -0.014638196 -0.023768786 -0.05460078 0.06921684
0000e0 c3 2b cb bc 82 f6 71 bd bb 8c ba bd cf 1e 8c 3d
       -0.02480114 -0.05907298 -0.091088735 0.06841814
0000f0 20 a0 02 3d 31 04 d9 3c 58 f5 29 3d 4e 53 0f 3d
       0.03189099 0.026491256 0.041493744 0.034991555
000100 94 ed b8 bd b0 11 f1 3b 1a ea 98 3d 2d d0 8c 3d
       -0.090296894 0.007356845 0.07466526 0.06875644
000110 cb 6f 5b bd e3 1b b7 bd ba 2a 46 bd 83 f9 16 3d
       -0.05357341 -0.08940866 -0.04838059 0.036859047
000120 3d 20 b1 bd 32 0d 5c bd 5f d2 ec 3c a1 0a 80 3c
       -0.08648727 -0.05372352 0.028908907 0.015630068
000130 bb b0 69 3c 9d 68 0a bc 21 8e b9 bc 19 4e da 3c
       0.014263327 -0.008447793 -0.02265078 0.026648568
000140 b6 79 80 bd fc 42 5e bd d5 f6 5a bc 12 aa 26 3d
       -0.062732145 -0.0542631 -0.013364513 0.040689535
000150 9f 2d 90 3c 68 fb 11 bd 5e c7 58 3c 50 e8 90 bd
       0.017599879 -0.03564015 0.013231127 -0.0707556
000160 2c 53 8f 3d a7 d2 a3 bd 49 76 7e bb fd 96 fd bc
       0.06998286 -0.07999163 -0.0038827828 -0.030955786
000170 18 b1 ac bd 3d 7e be bb b4 3d 8b ba c9 76 35 bd
       -0.084322155 -0.0058133886 -0.0010623247 -0.044302735
000180 10 95 86 3d fa b2 8e bd f8 87 33 3c f2 3a 25 3d
       0.065714 -0.06967731 0.01095771 0.040339418
000190 53 a3 92 bc f0 c9 32 bd 7c d9 16 bc 3a 01 b9 bc
       -0.017900145 -0.043649614 -0.009207126 -0.022583593
0001a0 73 f5 aa bd 2c 28 bc bd c7 c0 4f bd 2f 28 00 3d
       -0.08347597 -0.0918735 -0.050720956 0.031288322
0001b0 d6 b8 05 bd 2f 3a 25 3d 28 cd bd bd 82 18 8f bd
       -0.032646976 0.04033869 -0.09267646 -0.06987096
0001c0 31 df 78 3d b3 8e a2 bd dc 71 44 bd 80 c5 18 bd
       0.060759727 -0.07937374 -0.047960147 -0.037297726
0001d0 1a 04 19 bd 7c 64 3a bd ca 4e a9 bc 78 ed 5c 3b
       -0.037357427 -0.045505986 -0.020667452 0.0033710878
0001e0 97 3e 88 bc 50 3b 2d bd c0 5b 28 bd fe c9 6e bd
       -0.016631408 -0.042292893 -0.041103125 -0.058298104
0001f0 34 ba bd bd 2c b1 00 3d c7 b4 61 bc f5 f7 2e 3d
       -0.09264031 0.031418964 -0.013776011 0.04271694
000200 f7 f3 cb 3e b9 57 c0 be e9 32 f4 3d 95 ef 6f 3d
       0.39834568 -0.37566927 0.11923773 0.058578093
000210 83 39 fd 3c 5c b4 62 be b2 67 18 3e 34 08 ff 3b
       0.030911213 -0.22139114 0.14883307 0.0077829603
000220 4f c7 89 be 48 72 72 3e e4 8b 84 be bb 52 d4 bd
       -0.26909873 0.23676407 -0.25887978 -0.10367342
000230 29 50 2f 3e 90 80 43 bb 4c a1 31 3e ca 18 d1 bd
       0.17120422 -0.0029831268 0.17346686 -0.10209806
000240 71 e9 03 3f 65 29 97 be 69 30 09 bf cb 1a bc bd
       0.5152808 -0.2952377 -0.53589493 -0.09184798
000250 d0 c2 c4 be 13 cf c4 3c bb c5 34 3e 67 e8 9e 3e
       -0.3842988 0.024024522 0.17653553 0.31036684
000260 f7 dd da 3e d8 54 e0 be 43 34 0e be c4 87 05 bf
       0.4274747 -0.4381473 -0.13887124 -0.52160287
000270 6d 8c bc 3d eb 3d 06 3f 24 95 23 bf 15 6d f8 be
       0.092064716 0.5243823 -0.63899446 -0.48520723
000280 8c 6f e8 3d a9 b7 7b 3e 5c f3 d2 3d 71 18 a3 3d
       0.11349401 0.2458178 0.10300323 0.07963646
000290 47 7e 78 bd 83 aa df be b4 ef a6 be 61 fb b3 be
       -0.060667302 -0.43684778 -0.32604754 -0.35152724
0002a0 9c d9 91 3d e4 5e 9b be bb 41 72 3f 10 6a a9 3d
       0.07121584 -0.30345833 0.94631547 0.08272183
0002b0 07 41 17 3f 16 29 af bd b2 98 8b be 5a f9 43 be
       0.590836 -0.085527584 -0.27264935 -0.19138089
0002c0 bf 35 29 bf 2c 8c fc 3e 5e 69 2f bf 4c 91 e2 be
       -0.66097635 0.49325693 -0.6852015 -0.44251478
0002d0 4b a2 fa 3e 81 18 7b 3d fb 48 0c 3e 2c d9 58 be
       0.48951945 0.061302666 0.13699715 -0.21176594
0002e0 5c 59 07 3f b8 5c 4e be 76 75 3c bf f8 55 d1 bd
       0.52870727 -0.20152557 -0.7361673 -0.10221475
0002f0 d0 bb 3a be 0c 10 d2 be f2 c7 26 3f 69 95 4f bf
       -0.18235707 -0.41027868 0.6514884 -0.81087357
000300 72 dc 0d bd c5 21 74 3e 9a 99 0b bc 60 a3 8f bd
       -0.03463406 0.23841007 -0.008520508 -0.07013583
000310 39 4e 2e bf 98 b9 fc be a2 56 10 be c7 c4 0d be
       -0.6808811 -0.49360347 -0.14095548 -0.13844596
000320 31 09 4c 3e d8 2a 08 be 8e d9 d9 be ad ba f5 3e
       0.19925381 -0.13297594 -0.42548794 0.47993985
000330 3a e5 cb be c6 a3 17 3f b6 bd 42 3e 5c 1c 56 be
       -0.39823323 0.59234273 0.19017681 -0.20909256
000340 3a 27 03 3f 87 dd 89 be 60 93 6f be 4d 0c 1e be
       0.5123173 -0.26926824 -0.23396063 -0.1543438
000350 33 5c 78 3e 90 d7 82 be 97 65 ec 3d 94 6e 78 3f
       0.24253921 -0.25555086 0.11542814 0.9704373
000360 0a e4 c9 be bd c6 4a bf bf ae ed bd 94 97 a9 3e
       -0.39431792 -0.792095 -0.11605596 0.33123457
000370 19 04 a9 3e 26 27 9d be de 3b 06 bd a8 94 cc be
       0.3301094 -0.3069393 -0.032771938 -0.39957166
000380 ac ba c4 3d 93 8b 8c 3c 00 35 75 3e 49 3f 10 be
       0.09605917 0.017156398 0.23945999 -0.14086641
000390 e3 d5 6a be 03 46 ed be 14 96 89 bd 6b 17 3c be
       -0.22933154 -0.46342477 -0.06718078 -0.18368308
0003a0 ff c2 a0 3e 24 10 b1 3e a5 4c b3 3e 78 48 ae 3c
       0.3139877 0.34582627 0.35019413 0.02127479
0003b0 f4 12 5a 3d 80 d1 d0 3d 5b 6c df 3e e8 b3 e0 be
       0.05324073 0.10196209 0.43637356 -0.43887258
0003c0 b0 ad 33 3c 0a 08 99 3d da 5a a5 bc 41 f5 13 bf
       0.010966703 0.074722365 -0.020184923 -0.577961
0003d0 77 69 e3 be 69 66 11 bf e9 08 0e be 46 0b a9 3d
       -0.444164 -0.5679689 -0.13870586 0.08254103
0003e0 69 20 35 be ca d3 58 3e 4e 65 91 3d 7e 74 92 3e
       -0.17688145 0.21174541 0.070994005 0.286045
0003f0 10 72 2d 3d 6e f7 41 3d 9a d4 e9 bd d2 32 5c bf
       0.042345107 0.047355108 -0.11417504 -0.86015046

seq.2.bias f4 [32]
000000 10 f1 21 3d c9 b2 96 3f 40 5d 9f bd 32 49 a2 3f
       0.039536536 1.1773311 -0.07781458 1.2678587
000010 e3 1d 85 bc 12 c7 aa 3f 65 1d 35 3f 0a 75 3a bd
       -0.016249603 1.3342001 0.7074798 -0.045521773
000020 0e 9d aa 3f 87 3a 98 3f 6a 4a 46 3f 50 b8 08 bd
       1.3329179 1.1892861 0.77457297 -0.0333789
000030 88 46 97 bd 00 dd a0 3f e1 81 02 3f 53 62 b6 3f
       -0.073865 1.2567444 0.5097943 1.4248756
000040 38 52 98 3f 7e 3f ad 3f e7 83 af 3f c4 48 e2 bd
       1.1900091 1.3535001 1.3712128 -0.11049035
000050 33 69 b2 3f 50 31 9b 3f 00 e1 81 3f 22 a2 c3 bd
       1.3938354 1.2124424 1.014679 -0.09552409
000060 47 75 ed bd 16 d8 b1 3f ee c6 86 3f 22 2e a7 3f
       -0.115946345 1.3894069 1.0529459 1.3060954
000070 c5 20 ed 3a d4 6f 7f 3c 4f 9c 9f 3f df 4b c0 bd
       0.0018091431 0.015590627 1.2469577 -0.09389471

seq.4.weight f4 [8, 32]
000000 0c b0 6f 3d 26 2c b9 3c 1f 5c d2 3c c6 9b 39 be
       0.0585175 0.02260406 0.025678692 -0.18125829
000010 9a 95 31 3e 1a 36 13 be bd 63 41 be fc 32 7b 3d
       0.17342225 -0.14376107 -0.18885703 0.06132792
000020 c0 a8 8b bd 7f 83 25 be 5c f3 50 bc c4 39 01 3d
       -0.06819296 -0.16163443 -0.012753334 0.03154923
000030 db 99 83 3d 55 57 a6 3d 16 ef a0 3d 81 1a e8 3d
       0.0642583 0.08122126 0.07858102 0.1133318
000040 46 a4 3e bc 1b b8 90 bc 18 17 21 be 1f b7 ce bd
       -0.0116358455 -0.017665913 -0.15731466 -0.10093521
000050 2d d0 39 bc 1f a6 ef 3d 8e 0a 3a 3d a9 c7 25 3e
       -0.011341137 0.11701607 0.045420222 0.16189446
000060 c3 14 20 3e e8 23 80 bd 11 b4 06 be 5f 7c 01 3e
       0.1563292 -0.062568486 -0.13154627 0.126451
000070 1b 76 18 be f6 0d 97 3d b3 21 d8 bd d4 0d 5b 3d
       -0.14888804 0.0737571 -0.105533026 0.053479984
000080 ef 26 27 be a2 60 98 bd c1 72 86 bd 2c f6 b7 3e
       -0.16323446 -0.07440306 -0.06564856 0.35930002
000090 d7 d0 9a bb 88 a6 aa 3e 98 bb a0 bb 35 23 bd bb
       -0.0047246027 0.33330178 -0.0049051754 -0.0057720193
0000a0 3c 53 83 3e 3f 46 ba 3e 53 a1 0b 3f 58 83 93 bc
       0.2564944 0.3638172 0.54543036 -0.018006966
0000b0 d6 7a 0b bb 4c 7a d4 3e f2 0b 00 bf 63 ad 96 bd
       -0.0021282933 0.41499555 -0.5001823 -0.0735729
0000c0 de 29 09 3f a2 cd bf bc fe e9 a3 bd c8 b6 2b be
       0.5357951 -0.023413483 -0.08003615 -0.16768944
0000d0 60 08 99 3e c6 cd 56 be 74 3b 9b 3e 2e 92 fe 3c
       0.29889202 -0.20976934 0.30318797 0.031075563
0000e0 cf 72 d3 bd 83 90 c3 3e 62 61 67 3e 76 e4 74 3c
       -0.103246324 0.3819619 0.22595742 0.014947047
0000f0 57 25 33 3e e4 7c 93 3d c2 07 a6 3e eb 6f 14 be
       0.17494713 0.07201555 0.32427794 -0.14495818
000100 42 57 d1 3d 0d e5 b3 3e 6f 72 ae 3c 29 49 83 3d
       0.10221721 0.3513569 0.0212948 0.064104386
000110 d4 90 10 bd 85 eb 6f be 11 c8 4b 3f 6d d7 04 bd
       -0.03529437 -0.23429687 0.7960215 -0.03243201
000120 6f 56 01 3f c4 dc a7 be b0 0d b1 be 7f 16 be 3d
       0.5052251 -0.32785618 -0.34580755 0.092816345
000130 c4 0b 22 bd 1c fa 7d be c4 fd 0a 3f 3c e9 71 3e
       -0.039562 -0.2480244 0.54293466 0.23624128
000140 c4 6f 1e 3f 33 b2 c7 3e 51 da 7d be c9 87 63 3b
       0.6188929 0.39003143 -0.24790312 0.0034718385
000150 48 41 1d bd fd e9 0c bf 90 ad cb be e8 f0 f4 3d
       -0.038392335 -0.5504454 -0.39780855 0.11960012
000160 54 bf f0 3d 3b c3 43 3e b6 75 21 bd 8f 5e c2 3d
       0.11755243 0.19117443 -0.0394189 0.09490692
000170 6e a5 09 3e 42 a3 db 3d ac ad 97 be 7c 84 3e 3d
       0.13442013 0.10724498 -0.2962469 0.046513066
000180 9c e3 99 3a 88 6c 97 bc 19 1e 4c bd 89 e9 af b9
       0.0011740807 -0.018484369 -0.04983339 -0.00033552598
000190 2f 5c d7 3d dd 4b c3 3d 88 51 e0 3a d5 30 d1 bc
       0.105156295 0.09535954 0.0017114142 -0.02553598
0001a0 9a 47 0b be fe 7f 04 be fa 85 05 3d d4 4a 0a 3d
       -0.13601533 -0.1293945 0.032598473 0.033762768
0001b0 10 b8 36 bc 0a d2 c5 3d 48 28 bc 3d 45 99 26 be
       -0.011152282 0.096592024 0.091873705 -0.16269405
0001c0 b0 c3 b3 bd 53 f1 39 bd df e0 9e 3d fe 1c bd bd
       -0.08777559 -0.04539616 0.077577345 -0.092340454
0001d0 b9 85 dc 3d fb be 0a bd f0 ce ff bd 8d 7b 28 be
       0.10767693 -0.03387354 -0.12490642 -0.16453381
0001e0 0c 9d 6f 3d 50 b6 88 bd dc c1 22 3d 73 ac b0 3c
       0.05849938 -0.06675398 0.03973566 0.021566605
0001f0 59 40 cc 3d 4a ae 8e 3d ba 06 11 bd e8 5e f1 3d
       0.09973211 0.06966837 -0.035406806 0.1178568
000200 c8 b2 69 3d e4 b9 02 bd e7 be cf bd 62 e1 ca 3d
       0.057055265 -0.03191556 -0.101438336 0.099062696
000210 a6 d8 28 be 67 d4 c7 bd a0 6b cb bc 5b dd 12 3e
       -0.16488895 -0.097573094 -0.024831593 0.14342253
000220 cc cc 80 bd 79 3d cc bd a6 c1 1e be f8 ac 9b bd
       -0.06289062 -0.099726625 -0.15503559 -0.076013505
000230 62 c0 d3 3d 68 46 77 bd 4d dc 16 3e b6 51 7d bd
       0.103394285 -0.06036988 0.14732476 -0.061845504
000240 c4 04 13 be bb cb 33 be 8c 9b 51 3d 85 98 2b 3e
       -0.14357287 -0.17558186 0.05117373 0.167574
000250 e0 4c 64 bd 1c 2d 52 3d 58 2c bb bc b1 ae 0a 3e
       -0.055737376 0.05131255 -0.022848293 0.13543202
000260 80 50 ea bc a8 98 a8 3c b6 0f d9 3d 88 86 de bd
       -0.028602839 0.020580605 0.105987 -0.108655035
000270 f1 b6 00 3e 2e a0 fa 3d a1 e6 2b be e7 3b 12 3e
       0.12569787 0.12237583 -0.16787197 0.14280663
000280 d3 ac bc bb 37 68 5e 3d 45 71 53 bd 9f 7c 8c 3e
       -0.005757907 0.054298606 -0.051621694 0.27438828
000290 30 c8 26 3e 80 41 04 3f c0 b0 ec 3c de e6 c1 bd
       0.16287303 0.51662445 0.028892875 -0.094678625
0002a0 64 e0 14 3f 3a ae 78 3c 02 cd 1a be 2c 3e ab bd
       0.5815489 0.015178258 -0.15117267 -0.08361468
0002b0 6a 21 d0 bd 17 8b cf 3e 0f 66 b0 be 19 fd 00 3f
       -0.10162623 0.40535805 -0.34452865 0.50386196
0002c0 eb a1 15 3e 08 fd 20 3f 95 5c 35 3f 14 a8 dc bd
       0.14612548 0.62886095 0.70844394 -0.10774246
0002d0 cd f5 01 3f 4d ff d1 3d b3 91 f2 3e ae 45 b0 bd
       0.5076569 0.10253773 0.47376785 -0.0860704
0002e0 1c 6b ff 3d 33 69 ae 3e ec 95 eb bd 43 97 0e 3f
       0.12471601 0.34064636 -0.11503205 0.5569956
0002f0 4d d0 d3 bd 25 a3 91 bb 39 37 dc 3e 46 47 c0 3d
       -0.103424646 -0.004444497 0.43010882 0.09388594
000300 a0 78 df 3b 30 80 e7 3e 6f c5 c1 3d 8a 2a aa 3e
       0.0068197995 0.45214987 0.094614856 0.3323558
000310 0d c0 08 be c2 d4 9f 3e e0 f3 24 3e ed 4c 46 bd
       -0.13354512 0.3121701 0.16108656 -0.048413206
000320 1f 7b 42 3d c0 df dc 3e 2e a1 30 bd f3 67 02 3e
       0.0474807 0.43139458 -0.043122463 0.12734966
000330 0b 2a 5e 3d 1c 91 6e bc bd a5 33 be 6c e9 06 3f
       0.054239314 -0.014560964 -0.17543693 0.52699924
000340 4e cc 85 bd eb eb cc 3e 8c ed ba 3e b8 60 b0 3d
       -0.06533109 0.4002374 0.3650936 0.08612198
000350 6d 6d 95 3e ae 6c 14 3f 7b a1 c7 be e3 f1 51 3d
       0.29185048 0.5797833 -0.38990387 0.05125607
000360 ad aa 85 bd f8 60 e7 3e ab e3 31 3e df c3 ee 3e
       -0.065266944 0.4519117 0.17372005 0.46633813
000370 ee a8 58 bd f8 b7 33 be 79 d9 dd 3e e1 7d 9a 3c
       -0.05289548 -0.17550647 0.4332998 0.018858852
000380 f9 12 94 bd d0 c9 63 3d 5e 13 0a 3e 93 42 c4 3c
       -0.07230181 0.055612385 0.1348395 0.023957526
000390 6f 87 15 3e 29 41 81 bd 17 ce 3d 3c d6 a0 e2 3d
       0.14602445 -0.063112564 0.01158478 0.11065833
0003a0 f3 38 23 be 84 02 39 3d ed c4 d3 3d 67 b3 9a bd
       -0.15939693 0.045168415 0.10340295 -0.075537495
0003b0 23 d2 11 3d 5e ac 07 3e 8b 98 c7 bd e9 c5 20 bd
       0.035600793 0.13249347 -0.09745892 -0.03925124
0003c0 30 59 bb bd 06 8a ca 3d e3 eb c6 bd 7e fc dd bd
       -0.091478705 0.09889607 -0.097129606 -0.10839175
0003d0 b2 c3 9e 3d 7d 12 91 bd a9 2d ba bd a7 88 e9 bd
       0.0775217 -0.070836045 -0.0909074 -0.114030175
0003e0 b3 a9 de 3d c1 fd b1 bc b3 e4 25 be 55 47 aa bc
       0.10872211 -0.021727445 -0.16200523 -0.020785967
0003f0 0b b7 e5 3c a2 06 6f bd eb d2 cf bd b7 6f 57 3d
       0.028041383 -0.058355935 -0.10147651 0.052596774

seq.4.bias f4 [8]
000000 0e f0 24 be 45 ee 91 3f 71 e2 09 3f 4d 50 c4 3d
       -0.16107199 1.1400839 0.5386115 0.09585629
000010 80 5b 96 bc 3e d1 cc 3f a7 cb ae 3f 8e 14 aa bd
       -0.018354177 1.6001356 1.36559 -0.08304702

seq.6.weight f4 [4, 8]
000000 30 3d a3 3c ae 3a 91 be dd a5 88 bd 4a 53 91 3e
       0.019926637 -0.28365082 -0.06672261 0.28383857
000010 b0 ec 6a be 7c 4a db be fa 16 1b bf ee af 4f 3e
       -0.22941852 -0.42830265 -0.60581934 0.20281956
000020 ab b1 0c bd 98 ec a1 be 71 cb 8a 3e 7f 7f 0c 3e
       -0.034349125 -0.3162582 0.27108338 0.13720511
000030 d0 68 c1 3d 1a dc 07 bf 4a 57 ff be 08 54 b1 3e
       0.094438195 -0.53070223 -0.49871284 0.34634423
000040 7d 1c ef bc 32 21 79 be 76 da 36 bd 3d 93 b4 3d
       -0.029188389 -0.2432907 -0.044641934 0.08817146
000050 48 d1 e7 3d 8f 69 37 bf 4d 62 73 be 48 79 88 3d
       0.11319214 -0.71645445 -0.23767968 0.066637576
000060 6b a2 98 3e 30 4e 3a bf bd ff e5 bc da 70 bf 3d
       0.29811415 -0.72775555 -0.028076047 0.093476966
000070 18 8a 22 3d 1b 27 b5 be 8c f1 f4 be ae 55 0e be
       0.039682478 -0.35381398 -0.47840536 -0.13899872

seq.6.bias f4 [4]
000000 07 d9 d7 bf 8c 37 45 bf 2f 0a a3 bf 90 33 3f bf
       -1.6863106 -0.7703788 -1.2737483 -0.74688053
