training/models/environment_traffic_lights/1638899442/checkpoints/ep00325.pt (torch, 28751 bytes, 8 tensors)

seq.0.weight f4 [128, 16]
000000 1c 68 52 3e 1d 61 45 3e c6 68 d6 3e 2b bc 19 be
       0.20547527 0.19275327 0.4187681 -0.15013187
000010 d1 99 00 be 8a 15 be bd 0b fe e7 bc 88 9c 09 be
       -0.12558676 -0.09281452 -0.02831938 -0.13438618
000020 d5 2d 8f 3e 9c 30 9f 3d f8 6b 5b 3d 10 0d b5 bd
       0.27964655 0.077729434 0.053569764 -0.08840382
000030 59 cf 09 3e 06 85 8f 3d a8 13 65 be 55 8a e4 bd
       0.13458003 0.07007794 -0.2237078 -0.11159197
000040 9b 64 c3 be 9c 2c c7 be f7 20 bd 3c 3e cc 34 3e
       -0.38162693 -0.38901222 0.023087008 0.17656037
000050 83 bc 53 bf d1 77 ea bd 7f 6b fe 3e ed 08 c1 be
       -0.8270952 -0.114486344 0.49691388 -0.37702122
000060 5b 5d be be 3a a7 e2 3d 91 26 bf bd 1a ae 90 3d
       -0.371806 0.11067052 -0.09333528 0.07064457
000070 03 c1 a1 bd 05 3f da bd 4f 5b 5e be e5 a4 e6 be
       -0.07898142 -0.10656551 -0.21714519 -0.4504768
000080 dd 9d 3c bf 55 8e 57 3e 21 6e 36 3c e9 d7 60 be
       -0.7367838 0.21050389 0.011134655 -0.21957363
000090 27 d2 2e be 3a 9d 13 bd 23 b0 68 3d d7 fb 60 be
       -0.17072354 -0.036038615 0.056808602 -0.2197107
0000a0 b8 61 05 bd 76 16 ad bd 9a 5e d4 3e f5 9a 4e be
       -0.032563895 -0.0845155 0.41478425 -0.20176299
0000b0 be f9 39 bc 74 5a 13 bd a9 52 11 3e 5b d9 0a be
       -0.011351047 -0.035974935 0.14191689 -0.13559477
0000c0 5a 84 68 bd 0f 0c d5 bc 7a f4 29 3e 3f ad 78 3d
       -0.056766845 -0.026006727 0.16597167 0.060712095
0000d0 6b c6 82 3d b9 67 40 be 10 4d a3 3d c2 07 49 3e
       0.063855015 -0.18789567 0.07973683 0.19631866
0000e0 3b 0e 93 3c 0f b1 06 be 27 6c a1 bc 33 7a d1 3d
       0.017951122 -0.1315348 -0.019704891 0.10228386
0000f0 76 37 46 be 96 fd 29 3e 76 26 26 be 8a 9f 8d bd
       -0.19357094 0.16600642 -0.16225609 -0.06915195
000100 ca 7c 86 be 4e 53 fd bc cd 53 78 3e 64 38 22 be
       -0.26267081 -0.030923512 0.24250717 -0.15841824
000110 5b ce 4d be ce e0 9c 3d 91 1f e2 bc f6 a8 bb 3c
       -0.2009825 0.076600656 -0.027602943 0.022907715
000120 41 a2 5d bd 62 17 d5 3d 9d 7c c3 3d 8a 93 ca bd
       -0.054109816 0.104048505 0.095452525 -0.09891422
000130 49 de ef bd 48 9e 74 bd 5c 8a 83 3d 0f 50 72 be
       -0.117123194 -0.05972126 0.06422874 -0.23663352
000140 b8 52 dc bc c4 ba a0 bd 6e 1b 41 3e 29 9a cb bd
       -0.026894912 -0.07848123 0.1885812 -0.09941513
000150 be dd 2b bb b1 26 fb bd cb e4 56 3d b8 27 1e be
       -0.0026224698 -0.12263239 0.052464288 -0.15444839
000160 fa bf 74 3d 2a a3 07 3d 51 b7 04 3e 42 a7 be bd
       0.059753396 0.03311459 0.12960555 -0.09309246
000170 59 b7 5c 3d 47 16 a8 bd 7f e0 ce bd 49 ca 64 be
       0.05388579 -0.08207374 -0.10101413 -0.2234279
000180 7c ac ad 3e 2f 67 94 3e 10 2b 51 bc b1 ad 8e 3c
       0.33920658 0.28984973 -0.012766615 0.017416807
000190 f6 ec f7 3d 16 f3 8c bd 3f 71 82 3a 4e 8f 03 be
       0.121057436 -0.068823025 0.0009951963 -0.12847635
0001a0 98 48 5d bd 8d 62 82 bb ff bc 90 bd 6c 32 7e bd
       -0.05402431 -0.0039790333 -0.07067298 -0.062059805
0001b0 87 8e 7d bd 53 9c 14 3e 93 08 20 3e 57 0a 31 be
       -0.061903503 0.14512758 0.15628271 -0.172891
0001c0 75 66 03 bf a5 9d 48 bf eb 81 29 bf ce 92 8d be
       -0.5132821 -0.78365546 -0.66213864 -0.27651066
0001d0 ad da 99 bd 10 6d 04 bf 1f 8a 45 3e 05 de d1 be
       -0.07512412 -0.51728916 0.1929097 -0.409897
0001e0 97 b2 e1 be f1 9b c0 be cf 34 0b bf 33 78 8c be
       -0.44081566 -0.37618974 -0.54377455 -0.27435455
0001f0 55 82 04 bf 5e ed a8 3d 69 c0 4b be 53 f9 d5 be
       -0.5176137 0.08248399 -0.19897617 -0.41791782
000200 00 4b 5a be a4 ae 6f be 25 d4 81 3e 97 6e d4 3d
       -0.21317673 -0.23406464 0.25357166 0.10372656
000210 1a 7e 10 bf b9 55 6c 3e c0 06 82 bc 80 b3 b4 3c
       -0.56442416 0.23079576 -0.01587236 0.022058249
000220 4c 47 1d be 7b 5e 18 bf d7 27 08 bb d0 43 64 be
       -0.15359229 -0.59519166 -0.00207757 -0.22291493
000230 3a 76 15 3e 89 fc 12 bc 7f 07 b3 3e c1 9c 6b be
       0.14595881 -0.008971342 0.34966657 -0.23009016
000240 80 9b b5 bd 82 c7 bd 3d 5a a8 b8 be 2e 0d 47 bb
       -0.0886755 0.09266569 -0.36065942 -0.0030372846
000250 03 98 c8 bd fd 25 78 bd 06 a5 8c 3d c7 a8 da 3e
       -0.09794619 -0.060583103 0.06867413 0.42706892
000260 35 21 b4 3c af 71 01 be 6a f8 b5 bc e3 a9 30 bd
       0.02198849 -0.12641023 -0.02221318 -0.043130767
000270 31 b7 62 be a0 20 46 3d 2a 96 47 bd cb ca 0d 3e
       -0.22140194 0.048370957 -0.048727192 0.1384689
000280 6a 49 07 be fb 62 13 bd a1 0e a5 3e 1f b7 d7 be
       -0.13211599 -0.035983067 0.32237723 -0.42131898
000290 d3 50 f8 bc 49 5c 05 be 44 2d 4f be 17 7c 22 bd
       -0.030311977 -0.13023485 -0.20232111 -0.039669123
0002a0 dd f9 e0 bc 8e 1f 84 be e1 40 bd be f1 cf c5 be
       -0.027462894 -0.25805324 -0.3696356 -0.3863521
0002b0 c3 cd 82 be ef f6 a4 3c ba f0 b0 be 62 f4 7d 3e
       -0.2554761 0.020137278 -0.3455866 0.24800256
0002c0 04 95 54 be 42 5e 81 bd 81 c5 ef be e8 db 5a bf
       -0.2075997 -0.063168064 -0.4683037 -0.854918
0002d0 2b ab cb bd e6 05 78 be 36 59 4a be fc 4c db 3e
       -0.09944757 -0.24221 -0.19760594 0.42832172
0002e0 53 f3 b4 be 90 33 f5 bd 37 b0 4e bf 1c c4 6f bf
       -0.35341892 -0.119727254 -0.8073763 -0.93658614
0002f0 e4 c2 f1 be 0a f1 ae bd 2d 31 0b 3d 11 60 3e 3e
       -0.47219002 -0.08542068 0.033982445 0.18591334
000300 03 0d 3e 3e 0d 2f 07 be 23 02 68 bd c2 23 9d bd
       0.18559651 -0.13201542 -0.056642663 -0.07672836
000310 5b bc 64 bd 57 d3 e6 bd 5c 2e 86 bd 2d 70 29 3e
       -0.055843692 -0.112707786 -0.06551811 0.16546698
000320 8f f6 d0 bd c9 be 09 3d 44 c2 09 3c 02 38 11 be
       -0.10203277 0.033629213 0.008408133 -0.14181522
000330 02 30 ef 3d 97 2a 2d 3e 94 bc 46 3e 49 26 2f 3e
       0.11679079 0.16910778 0.19407874 0.17104448
000340 7f 7e 3e be 77 92 5f be aa 86 e9 bd 77 8e 55 be
       -0.18602942 -0.21833216 -0.11402638 -0.20855127
000350 a0 90 25 3e 4e d1 56 bd 97 e9 af bd c0 d8 94 3e
       0.16168451 -0.052445702 -0.085894756 0.29071617
000360 75 e3 4d 3e 27 8c 9d bd 34 1d 0d 3e 02 4e 6d be
       0.20106299 -0.076927476 0.13780671 -0.23174289
000370 03 ef 95 be c1 5e ec bc 50 b2 0a 3e a3 25 85 3e
       -0.29283914 -0.028853776 0.13544583 0.26005277
000380 23 d0 64 be 5c d0 6f be f6 d4 75 3e 5e dd df be
       -0.22345023 -0.23419327 0.2400702 -0.43723577
000390 43 e3 e4 bc ea 37 02 be 0e 66 90 3d 2a a7 55 be
       -0.027940398 -0.12716642 0.070507154 -0.2086455
0003a0 6d 42 b8 be f7 55 42 be fc ea 89 3d 07 6d 48 3e
       -0.3598818 -0.18978105 0.06734273 0.1957284
0003b0 21 61 df be 38 a4 8f bd 93 6e 86 be 4f aa 96 3a
       -0.4362879 -0.07013744 -0.26256236 0.0011494848
0003c0 5f f5 b2 be c4 4e 25 be 8c f2 d3 bc f3 bb 88 bd
       -0.34952828 -0.16143328 -0.025872491 -0.066764735
0003d0 cd 7e 87 be 26 53 7c bc 0c 47 86 3e 02 90 b4 be
       -0.2646393 -0.0154006835 0.2622608 -0.3526612
0003e0 66 ea 89 bf 2b d3 da be d3 20 d6 be 43 f4 c5 bc
       -1.0774658 -0.42739233 -0.41821918 -0.024164325
0003f0 8a b7 05 be fb 15 c8 bd 58 27 60 be 1b b2 dd be
       -0.13058296 -0.097698174 -0.21890008 -0.43299946

seq.0.bias f4 [128]
000000 3c 9d a8 3f 36 f0 85 be 6f 83 5e 3f 83 bd 9e 3f
       1.3172984 -0.2615983 0.869193 1.2401584
000010 d1 3b 2a 3f 10 76 55 3f bb a4 b0 3f ff df a9 be
       0.6649752 0.83383274 1.3800272 -0.33178708
000020 8a 38 db 3e 38 17 6a 3f 10 df b4 3e 77 c4 a0 bc
       0.42816573 0.9144168 0.35326433 -0.019624932
000030 39 53 aa 3f c9 81 8e 3f e1 41 3a 3e 55 e4 ca bd
       1.3306648 1.1133357 0.18189193 -0.09906832
000040 8e 75 5a bf a4 b5 56 3f cb d7 e5 be e1 49 a6 3f
       -0.85335624 0.8387091 -0.448912 1.2991296
000050 73 ba 39 3e 31 75 69 3f 40 1b 91 3f 62 82 ae 3f
       0.18137531 0.91194445 1.1336441 1.363354
000060 7e 76 b2 3f 04 86 0e bd a3 e0 96 3f ad 1b a0 3e
       1.3942411 -0.034795776 1.1787304 0.31271115
000070 6a de 6b 3f 1a 42 d8 3f 44 87 ba be da 10 f9 3e
       0.9213625 1.6895173 -0.36431324 0.4864567
000080 aa 6d 03 bf 2f c1 7c 3f e7 19 d3 3e 40 18 52 3f
       -0.5133921 0.98732275 0.412307 0.8206825
000090 da 7c 90 3f ef 71 88 3f 69 13 72 3f c4 c4 db 3e
       1.1288102 1.065977 0.9456087 0.42923558
0000a0 8a d7 8a 3f 30 ee b7 bc 10 77 d5 3f 4a dd a4 3f
       1.0847027 -0.022452444 1.667696 1.2880032
0000b0 bf 19 bd 3f 7e 5f 67 3f 6b 38 db bd 75 63 5f bd
       1.4773482 0.90380085 -0.1070412 -0.05453821
0000c0 e3 e1 2b bf e3 b4 2c 3e d4 30 c1 be c1 69 81 be
       -0.6714155 0.16865878 -0.37732565 -0.25275996
0000d0 63 f9 ab 3e 69 b1 ae 3e d1 1e bf be 5e d6 97 3f
       0.33588704 0.34119728 -0.373282 1.1862295
0000e0 43 c9 b4 3f e2 64 82 3f 67 d9 26 3f af 1b ba 3e
       1.412392 1.0187037 0.6517548 0.36349246
0000f0 5a 54 37 3f d0 49 43 3f 31 90 cc 3f 34 ac 08 3f
       0.71613085 0.76284504 1.5981504 0.5338776
000100 bb 0b 68 3f ae 1b 4e bf 2a f6 c9 3c 6d c4 b4 3f
       0.906429 -0.80510986 0.024653513 1.4122444
000110 3e 8d fd 3e 95 a1 c0 3e 7e 14 7c 3d 9f 94 37 3f
       0.49521822 0.37623277 0.06154298 0.7171115
000120 bc b3 df be bc 87 fe bd 1b 54 dc be 6c 2a ee 3e
       -0.43691814 -0.12428233 -0.43032917 0.4651674
000130 b0 a3 4a 3f 21 43 b9 3f 64 c7 ae 3f ef 0d 8b 3f
       0.7915602 1.4473611 1.3654599 1.0863627
000140 8e 91 c8 3f d1 30 1f 3f b6 23 93 3e a0 00 70 3f
       1.566942 0.6218386 0.28738183 0.93750954
000150 6b e2 9b 3f 88 ba 0a be fd fe 36 3f 2a ce d3 3f
       1.2178472 -0.13547719 0.7148283 1.6547291
000160 d3 ae 9c 3e 27 d8 e7 3e a5 b5 d6 3e f9 b4 a1 3f
       0.3060213 0.452821 0.4193546 1.2633353
000170 b0 40 99 3f 30 99 14 3f 05 e6 9a 3f f5 99 84 3f
       1.1972866 0.58046246 1.2101446 1.0359484
000180 67 fd 79 be b4 e1 8c 3f 79 49 26 3f 05 f7 25 be
       -0.24413072 1.1006379 0.6495586 -0.16207512
000190 a3 68 5d 3f 18 1e 19 be 88 d7 97 be e5 07 d8 bd
       0.8648779 -0.14952886 -0.29656625 -0.10548381
0001a0 49 64 84 3f 9b 54 2d 3e 59 33 b8 3f 73 06 85 3e
       1.0343105 0.16926806 1.439067 0.25981483
0001b0 c8 fa 00 3e b2 b1 56 3f 12 88 45 bd 91 99 5b 3f
       0.12595665 0.8386489 -0.04822547 0.857812
0001c0 d1 3d 8f 3f 53 4e 81 bc 68 7c 8f 3f fc 8b 01 3f
       1.119074 -0.015784418 1.1209841 0.50604224
0001d0 57 e7 21 3f c5 a5 1c 3f a5 f5 80 3f 9c ea 8c 3f
       0.6324362 0.61190444 1.0074965 1.1009097
0001e0 a7 c3 d8 be 32 76 b4 3f 69 7e 80 3f 0b ef b4 3f
       -0.4233677 1.409857 1.0038577 1.413545
0001f0 a9 83 94 3f 99 b0 9a 3f 82 2d 9d 3f 33 4c ff 3e
       1.160268 1.2085143 1.2279513 0.49862823

seq.2.weight f4 [32, 128]
000000 d6 a1 03 3d 7e 21 3f bd e3 8e 86 bd 9c 1e 22 bc
       0.03213676 -0.0466628 -0.06570222 -0.009894993
000010 5b bf 23 bd 56 30 af 39 7e 50 2c 3d 1a 27 1c bd
       -0.039977413 0.00033414614 0.04206895 -0.038123228
000020 47 6c cb 3c 1d fb 45 bd a2 a0 63 bd 57 f0 9c 3d
       0.024831904 -0.048335183 -0.055573113 0.07663029
000030 91 75 7a 3d 19 06 bb bd 49 d7 32 bd ac ad 59 bb
       0.061147276 -0.091320224 -0.043662343 -0.0033215089
000040 63 09 25 bd d7 d6 b4 bd 36 39 8f 3d e2 a4 7e 3d
       -0.040292155 -0.0883004 0.06993334 0.062168963
000050 8d ce 79 bd 8b 80 31 bd cc 4c 35 bd 1b 91 6c bb
       -0.060987998 -0.04333548 -0.044262692 -0.0036097232
000060 77 c6 df bc 89 e1 2d 3d 21 24 9d 3d 32 06 4f 3c
       -0.027316315 0.042451415 0.07672907 0.012635754
000070 7c 00 50 bc 31 91 4a bc f1 44 ab 3d d6 db 38 bd
       -0.012695428 -0.012363718 0.08362759 -0.045131527
000080 00 95 d4 ba 5f 71 80 3d 32 82 c1 bd 9d a7 b5 bc
       -0.0016218722 0.06271624 -0.09448661 -0.02217465
000090 de 39 0e bd 7b 3f d4 3b ab a6 c0 bd df 0a 1e bd
       -0.034723155 0.006477294 -0.094067894 -0.038584586
0000a0 7e bc af bd b3 23 1b 3d 22 bb 96 3d d1 2b 1f 3d
       -0.08580874 0.037875842 0.073599115 0.038860146
0000b0 54 3c 91 bd 29 e8 89 bd a1 a3 28 3d 9d 0f d0 3c
       -0.07091585 -0.06733734 0.041171674 0.02539807
0000c0 bd d8 1a bd 00 2b 60 3d 7b 2d f9 bc 82 a4 2d 3d
       -0.037804354 0.054728508 -0.030417195 0.042393215
0000d0 0b d5 6f bc c2 b6 c2 bc 11 a5 5f bd 8f c1 8d 3d
       -0.014638196 -0.023768786 -0.05460078 0.06921684
0000e0 c3 2b cb bc 82 f6 71 bd bb 8c ba bd cf 1e 8c 3d
       -0.02480114 -0.05907298 -0.091088735 0.06841814
0000f0 20 a0 02 3d 31 04 d9 3c 58 f5 29 3d 4e 53 0f 3d
       0.03189099 0.026491256 0.041493744 0.034991555
000100 94 ed b8 bd b0 11 f1 3b 1a ea 98 3d 2d d0 8c 3d
       -0.090296894 0.007356845 0.07466526 0.06875644
000110 cb 6f 5b bd e3 1b b7 bd ba 2a 46 bd 83 f9 16 3d
       -0.05357341 -0.08940866 -0.04838059 0.036859047
000120 3d 20 b1 bd 32 0d 5c bd 5f d2 ec 3c a1 0a 80 3c
       -0.08648727 -0.05372352 0.028908907 0.015630068
000130 bb b0 69 3c 9d 68 0a bc 21 8e b9 bc 19 4e da 3c
       0.014263327 -0.008447793 -0.02265078 0.026648568
000140 b6 79 80 bd fc 42 5e bd d5 f6 5a bc 12 aa 26 3d
       -0.062732145 -0.0542631 -0.013364513 0.040689535
000150 9f 2d 90 3c 68 fb 11 bd 5e c7 58 3c 50 e8 90 bd
       0.017599879 -0.03564015 0.013231127 -0.0707556
000160 2c 53 8f 3d a7 d2 a3 bd 49 76 7e bb fd 96 fd bc
       0.06998286 -0.07999163 -0.0038827828 -0.030955786
000170 18 b1 ac bd 3d 7e be bb b4 3d 8b ba c9 76 35 bd
       -0.084322155 -0.0058133886 -0.0010623247 -0.044302735
000180 10 95 86 3d fa b2 8e bd f8 87 33 3c f2 3a 25 3d
       0.065714 -0.06967731 0.01095771 0.040339418
000190 53 a3 92 bc f0 c9 32 bd 7c d9 16 bc 3a 01 b9 bc
       -0.017900145 -0.043649614 -0.009207126 -0.022583593
0001a0 73 f5 aa bd 2c 28 bc bd c7 c0 4f bd 2f 28 00 3d
       -0.08347597 -0.0918735 -0.050720956 0.031288322
0001b0 d6 b8 05 bd 2f 3a 25 3d 28 cd bd bd 82 18 8f bd
       -0.032646976 0.04033869 -0.09267646 -0.06987096
0001c0 31 df 78 3d b3 8e a2 bd dc 71 44 bd 80 c5 18 bd
       0.060759727 -0.07937374 -0.047960147 -0.037297726
0001d0 1a 04 19 bd 7c 64 3a bd ca 4e a9 bc 78 ed 5c 3b
       -0.037357427 -0.045505986 -0.020667452 0.0033710878
0001e0 97 3e 88 bc 50 3b 2d bd c0 5b 28 bd fe c9 6e bd
       -0.016631408 -0.042292893 -0.041103125 -0.058298104
0001f0 34 ba bd bd 2c b1 00 3d c7 b4 61 bc f5 f7 2e 3d
       -0.09264031 0.031418964 -0.013776011 0.04271694
000200 3e 22 e5 3e 0d d8 32 be 17 f9 62 3e 2e 36 1d 3e
       0.44752687 -0.1746523 0.22165333 0.15352699
000210 f8 e0 cb 3d 55 0f a8 bd 6e 89 5d 3e 30 1d 93 3d
       0.09955019 -0.08206049 0.21634457 0.071833014
000220 53 c3 53 be bf 4f b9 3e 70 e4 b8 bd b8 5d c1 3d
       -0.20679979 0.36193654 -0.09027946 0.094417036
000230 60 27 76 3e 4e 76 bb 3d 2f e7 04 3c 4e 6c ba 3d
       0.24038458 0.09153424 0.008111759 0.09102689
000240 30 32 03 3f ee 7a 0d be 5f 4f ba be 90 04 86 3b
       0.51248455 -0.13816425 -0.3638868 0.0040898994
000250 80 9d de be b5 8f 2f 3e 06 12 91 3e 86 6f c2 3e
       -0.43479538 0.17144664 0.28334063 0.3797571
000260 aa 50 fa 3e 05 e7 98 be 68 0d c1 bc c8 0c 63 be
       0.48889667 -0.29863754 -0.023565963 -0.22172844
000270 69 1e 4a 3e 58 ff 12 3f 53 b1 78 be bf bc a0 be
       0.19738163 0.57420874 -0.24286394 -0.31394002
000280 dd fe c1 3e d3 3a b0 3e 05 07 02 3e 37 67 66 3e
       0.37889758 0.3441988 0.1269799 0.22500311
000290 52 c0 75 3d 16 3d 93 be a2 bb a7 be a1 4c a9 be
       0.059997864 -0.28757542 -0.3276034 -0.33066276
0002a0 b7 62 39 3e 52 19 c4 bd b1 a5 7a 3f 7b 81 1f 3e
       0.18104063 -0.09575142 0.97909075 0.15576737
0002b0 a8 f6 25 3f 3d f1 22 3d 26 2c 0d be 41 4d 3b bd
       0.6482949 0.039780844 -0.13786373 -0.045727972
0002c0 d3 ac 24 bf 9a 80 f9 3e 80 c0 fb be c9 92 c3 be
       -0.6432621 0.48730928 -0.49170303 -0.38197926
0002d0 5b 3e 91 3e 6a cf 68 3d 92 3b 15 3e f5 1a c6 bd
       0.28367886 0.05683843 0.14573506 -0.096731104
0002e0 8f c4 15 3f 75 d4 c9 bd 94 27 2b bf 96 5f 1f 3d
       0.5850305 -0.09854976 -0.66857266 0.038909517
0002f0 58 dc 86 be 45 8d 4d be 6c 39 33 3f 92 e2 2b bf
       -0.26339984 -0.20073421 0.70009494 -0.67142594
000300 12 9f 64 bd ad 48 70 3e c7 21 b6 bd 1f c8 80 3c
       -0.055815764 0.23465224 -0.08893161 0.015720425
000310 e6 a3 0e bf 72 8c d3 be eb f4 45 be bc f1 4a bc
       -0.5571884 -0.4131809 -0.1933171 -0.0123867355
000320 00 ac 09 3d eb 92 91 bd b4 95 c9 be 6c 0f ec 3e
       0.033611298 -0.071081005 -0.39372027 0.46105516
000330 0d c9 93 be cd c2 23 3f c8 40 86 3e fd 46 85 bd
       -0.28864327 0.6396912 0.262213 -0.065076806
000340 92 16 0f 3f f3 b9 16 be 1d dd 59 be c2 12 5a bc
       0.55893815 -0.14719371 -0.21275754 -0.013310136
000350 c8 35 a9 3e e1 07 57 3c 37 ac 28 3e 55 9a 81 3f
       0.33048844 0.013124437 0.16471945 1.0125223
000360 d9 fd 9d be 9b eb 1d bf 30 c3 85 bd 9f a9 c7 3e
       -0.30857733 -0.6168763 -0.0653137 0.38996598
000370 99 e0 d8 3e 3e 16 50 be 73 80 96 3d f8 67 83 be
       0.42358854 -0.20320985 0.073487185 -0.2566526
000380 2a 3b f6 bd 6b 9a 0d 3e 52 fc 26 3e dc f5 52 be
       -0.120230034 0.13828437 0.1630719 -0.206016
000390 30 e8 06 be d2 cf 8f be a6 aa 87 3d 7e c3 bd 3c
       -0.1317451 -0.28088242 0.066243455 0.023164507
0003a0 ca b0 cc 3e 45 51 5b 3e 4c 15 d2 3e 76 0d fe 3c
       0.3997863 0.2141772 0.41031873 0.031012278
0003b0 dd ca 57 3e c3 aa 51 3e f9 ff 8b 3d 37 14 73 be
       0.2107348 0.20475297 0.06835932 -0.2373818
0003c0 61 97 ec 3d 4b 68 4f 3d a9 82 a4 3d 73 3a fa be
       0.11552311 0.05063657 0.08032734 -0.48872718
0003d0 ec 1f a5 be 19 60 e4 be d8 6c f1 bb 04 c0 53 3e
       -0.32250917 -0.44604567 -0.0073677115 0.20678717
0003e0 8f 44 5f be 12 2e 8f 3e af ba 64 3e a8 16 af 3e
       -0.21803497 0.27964836 0.22336839 0.34196973
0003f0 02 32 0b 3e 80 e5 20 3e 03 60 72 bb 98 9f 23 bf
       0.13593295 0.15712547 -0.0036983497 -0.63915396

seq.2.bias f4 [32]
000000 10 f1 21 3d 83 8e 8c 3f 40 5d 9f bd 58 a0 90 3f
       0.039536536 1.0980991 -0.07781458 1.1298933
000010 e3 1d 85 bc 3a 49 96 3f 64 a4 50 3f d4 c0 a4 bc
       -0.016249603 1.1741097 0.8150084 -0.020111479
000020 e9 3a 98 3f 3c b1 8a 3f 1b e0 4b 3f 50 b8 08 bd
       1.1892978 1.0835338 0.7963883 -0.0333789
000030 88 46 97 bd 79 30 91 3f 28 7d 3c 3f 3b 33 a2 3f
       -0.073865 1.1342918 0.73628473 1.2671884
000040 93 bc 8d 3f ed 76 98 3f d5 64 9a 3f c4 48 e2 bd
       1.1073173 1.1911293 1.2062021 -0.11049035
000050 4b 55 9e 3f a4 b5 8f 3f f3 b3 74 3f 22 a2 c3 bd
       1.2369779 1.1227307 0.9558708 -0.09552409
000060 47 75 ed bd 93 0a 9e 3f f5 df 83 3f 94 73 92 3f
       -0.115946345 1.2346977 1.0302721 1.1441522
000070 c5 20 ed 3a d4 6f 7f 3c ea 31 8b 3f b2 ae a0 bd
       0.0018091431 0.015590627 1.0874608 -0.078458205

seq.4.weight f4 [8, 32]
000000 0c b0 6f 3d 26 2c b9 3c 1f 5c d2 3c c6 9b 39 be
       0.0585175 0.02260406 0.025678692 -0.18125829
000010 9a 95 31 3e 1a 36 13 be bd 63 41 be fc 32 7b 3d
       0.17342225 -0.14376107 -0.18885703 0.06132792
000020 c0 a8 8b bd 7f 83 25 be 5c f3 50 bc c4 39 01 3d
       -0.06819296 -0.16163443 -0.012753334 0.03154923
000030 db 99 83 3d 55 57 a6 3d 16 ef a0 3d 81 1a e8 3d
       0.0642583 0.08122126 0.07858102 0.1133318
000040 46 a4 3e bc 1b b8 90 bc 18 17 21 be 1f b7 ce bd
       -0.0116358455 -0.017665913 -0.15731466 -0.10093521
000050 2d d0 39 bc 1f a6 ef 3d 8e 0a 3a 3d a9 c7 25 3e
       -0.011341137 0.11701607 0.045420222 0.16189446
000060 c3 14 20 3e e8 23 80 bd 11 b4 06 be 5f 7c 01 3e
       0.1563292 -0.062568486 -0.13154627 0.126451
000070 1b 76 18 be f6 0d 97 3d b3 21 d8 bd d4 0d 5b 3d
       -0.14888804 0.0737571 -0.105533026 0.053479984
000080 ef 26 27 be d2 2b b2 3c c1 72 86 bd 42 09 c2 3e
       -0.16323446 0.02174941 -0.06564856 0.37897688
000090 d7 d0 9a bb ff f0 ae 3e 09 2a aa 3c 11 d1 fe bc
       -0.0047246027 0.3416824 0.020771997 -0.03110555
0000a0 d8 c2 94 3e 60 6a c0 3e 72 b9 f7 3e 58 83 93 bc
       0.29054904 0.37581158 0.4838367 -0.018006966
0000b0 d6 7a 0b bb 5b e9 de 3e 10 10 ca 3d 3c 17 35 bd
       -0.0021282933 0.4353741 0.09866345 -0.04421161
0000c0 f5 fd 15 3f d7 4b f0 3b 7d cf 66 bd c8 b6 2b be
       0.5859063 0.0073332596 -0.05635022 -0.16768944
0000d0 d6 23 9f 3e 92 c3 17 be 9e 5c c3 3e 2e 92 fe 3c
       0.31082028 -0.14820698 0.381566 0.031075563
0000e0 cf 72 d3 bd 2e 5a ca 3e 2b 4d ab 3e c0 31 18 3d
       -0.103246324 0.39521927 0.33457312 0.03715682
0000f0 57 25 33 3e e4 7c 93 3d 67 d5 a8 3e 9e 9a ca bd
       0.17494713 0.07201555 0.32975313 -0.09892772
000100 42 57 d1 3d fa b7 97 3e 6f 72 ae 3c 56 61 83 3d
       0.10221721 0.2963255 0.0212948 0.0641505
000110 d4 90 10 bd c3 36 4c be fb ac 1a 3f 6d d7 04 bd
       -0.03529437 -0.19942765 0.604202 -0.03243201
000120 6b 6c e2 3e bb 1d 76 be 92 e4 d1 be 7f 16 be 3d
       0.4422334 -0.24034779 -0.40994698 0.092816345
000130 c4 0b 22 bd 86 dd 5c be f8 54 41 bc d5 aa 5d 3e
       -0.039562 -0.2156888 -0.011800043 0.21647198
000140 e5 5c 02 3f b3 f1 b3 3e dd ca 5a be c9 87 63 3b
       0.50922996 0.3514534 -0.21366449 0.0034718385
000150 27 61 db bc 7d 43 ce be 9a 95 ab be e8 f0 f4 3d
       -0.026779724 -0.40285864 -0.33512574 0.11960012
000160 54 bf f0 3d 2c 00 3b 3e 5a 3f ee bb 3a fd b9 3d
       0.11755243 0.18261784 -0.0072707357 0.09081502
000170 6e a5 09 3e 42 a3 db 3d cb 9e 7f be 09 dc 3e 3d
       0.13442013 0.10724498 -0.24962918 0.04659656
000180 9c e3 99 3a 88 6c 97 bc 19 1e 4c bd 89 e9 af b9
       0.0011740807 -0.018484369 -0.04983339 -0.00033552598
000190 2f 5c d7 3d dd 4b c3 3d 88 51 e0 3a d5 30 d1 bc
       0.105156295 0.09535954 0.0017114142 -0.02553598
0001a0 9a 47 0b be fe 7f 04 be fa 85 05 3d d4 4a 0a 3d
       -0.13601533 -0.1293945 0.032598473 0.033762768
0001b0 10 b8 36 bc 0a d2 c5 3d 48 28 bc 3d 45 99 26 be
       -0.011152282 0.096592024 0.091873705 -0.16269405
0001c0 b0 c3 b3 bd 53 f1 39 bd df e0 9e 3d fe 1c bd bd
       -0.08777559 -0.04539616 0.077577345 -0.092340454
0001d0 b9 85 dc 3d fb be 0a bd f0 ce ff bd 8d 7b 28 be
       0.10767693 -0.03387354 -0.12490642 -0.16453381
0001e0 0c 9d 6f 3d 50 b6 88 bd dc c1 22 3d 73 ac b0 3c
       0.05849938 -0.06675398 0.03973566 0.021566605
0001f0 59 40 cc 3d 4a ae 8e 3d ba 06 11 bd e8 5e f1 3d
       0.09973211 0.06966837 -0.035406806 0.1178568
000200 c8 b2 69 3d e4 b9 02 bd e7 be cf bd 62 e1 ca 3d
       0.057055265 -0.03191556 -0.101438336 0.099062696
000210 a6 d8 28 be 67 d4 c7 bd a0 6b cb bc 5b dd 12 3e
       -0.16488895 -0.097573094 -0.024831593 0.14342253
000220 cc cc 80 bd 79 3d cc bd a6 c1 1e be f8 ac 9b bd
       -0.06289062 -0.099726625 -0.15503559 -0.076013505
000230 62 c0 d3 3d 68 46 77 bd 4d dc 16 3e b6 51 7d bd
       0.103394285 -0.06036988 0.14732476 -0.061845504
000240 c4 04 13 be bb cb 33 be 8c 9b 51 3d 85 98 2b 3e
       -0.14357287 -0.17558186 0.05117373 0.167574
000250 e0 4c 64 bd 1c 2d 52 3d 58 2c bb bc b1 ae 0a 3e
       -0.055737376 0.05131255 -0.022848293 0.13543202
000260 80 50 ea bc a8 98 a8 3c b6 0f d9 3d 88 86 de bd
       -0.028602839 0.020580605 0.105987 -0.108655035
000270 f1 b6 00 3e 2e a0 fa 3d a1 e6 2b be e7 3b 12 3e
       0.12569787 0.12237583 -0.16787197 0.14280663
000280 d3 ac bc bb 59 92 de 3d 45 71 53 bd c7 f3 8c 3e
       -0.005757907 0.10867757 -0.051621694 0.27529737
000290 30 c8 26 3e b7 56 fd 3e 46 f3 b5 bc 10 e4 f5 bd
       0.16287303 0.4948022 -0.022210728 -0.1200639
0002a0 05 49 0f 3f 86 99 2e 3d d1 85 18 be 2c 3e ab bd
       0.55970794 0.04262688 -0.14894797 -0.08361468
0002b0 6a 21 d0 bd 9d 94 cb 3e ef 2d 3e be 27 97 f7 3e
       -0.10162623 0.3976182 -0.1857221 0.48357508
0002c0 89 d1 31 3e 2d 9b 1a 3f 4d eb 2c 3f 14 a8 dc bd
       0.17365088 0.6039303 0.6754654 -0.10774246
0002d0 a6 5c f8 3e 6f fd 0b 3e f9 97 fb 3e ae 45 b0 bd
       0.48508185 0.13670896 0.49139383 -0.0860704
0002e0 1c 6b ff 3d 01 fc a8 3e b0 c6 0d 3a 79 39 08 3f
       0.12471601 0.33004764 0.000540833 0.53212696
0002f0 4d d0 d3 bd 25 a3 91 bb 2f 66 d3 3e e2 1d 2d 3e
       -0.103424646 -0.004444497 0.41288897 0.1690593
000300 a0 78 df 3b 6a 47 fa 3e 6f c5 c1 3d 2e 6e a9 3e
       0.0068197995 0.4888261 0.094614856 0.33091873
000310 0d c0 08 be 1a 21 9c 3e 65 30 15 3e 12 06 97 bd
       -0.13354512 0.30494004 0.14569242 -0.07374205
000320 6b d1 3c 3d 86 0d e0 3e d2 5d 99 bd f3 67 02 3e
       0.046098154 0.43760318 -0.07488598 0.12734966
000330 0b 2a 5e 3d a3 b3 47 bb 02 db 7a 3e c6 7f 04 3f
       0.054239314 -0.0030472062 0.24497607 0.51757467
000340 e2 b4 5c bd 40 b3 c8 3e 0b 9b b8 3e b8 60 b0 3d
       -0.05388344 0.39199257 0.36055788 0.08612198
000350 ac 4c 91 3e 8f 9f 1c 3f 2a ab a6 be e3 f1 51 3d
       0.28378808 0.6118097 -0.32552463 0.05125607
000360 ad aa 85 bd 18 9d e2 3e 20 72 85 3e 64 1c ea 3e
       -0.065266944 0.44260478 0.26063633 0.45724785
000370 ee a8 58 bd f8 b7 33 be fc 86 d9 3e 1b d6 a0 3d
       -0.05289548 -0.17550647 0.42485797 0.078533374
000380 f9 12 94 bd d0 c9 63 3d 5e 13 0a 3e 93 42 c4 3c
       -0.07230181 0.055612385 0.1348395 0.023957526
000390 6f 87 15 3e 29 41 81 bd 17 ce 3d 3c d6 a0 e2 3d
       0.14602445 -0.063112564 0.01158478 0.11065833
0003a0 f3 38 23 be 84 02 39 3d ed c4 d3 3d 67 b3 9a bd
       -0.15939693 0.045168415 0.10340295 -0.075537495
0003b0 23 d2 11 3d 5e ac 07 3e 8b 98 c7 bd e9 c5 20 bd
       0.035600793 0.13249347 -0.09745892 -0.03925124
0003c0 30 59 bb bd 06 8a ca 3d e3 eb c6 bd 7e fc dd bd
       -0.091478705 0.09889607 -0.097129606 -0.10839175
0003d0 b2 c3 9e 3d 7d 12 91 bd a9 2d ba bd a7 88 e9 bd
       0.0775217 -0.070836045 -0.0909074 -0.114030175
0003e0 b3 a9 de 3d c1 fd b1 bc b3 e4 25 be 55 47 aa bc
       0.10872211 -0.021727445 -0.16200523 -0.020785967
0003f0 0b b7 e5 3c a2 06 6f bd eb d2 cf bd b7 6f 57 3d
       0.028041383 -0.058355935 -0.10147651 0.052596774

seq.4.bias f4 [8]
000000 0e f0 24 be 10 6c 71 3f 69 d7 04 3f 4d 50 c4 3d
       -0.16107199 0.94305515 0.5189119 0.09585629
000010 80 5b 96 bc db 9f ae 3f fa b8 92 3f 8e 14 aa bd
       -0.018354177 1.3642534 1.14627 -0.08304702

seq.6.weight f4 [4, 8]
000000 30 3d a3 3c 3a 06 8c be 5f e5 9a bd 4a 53 91 3e
       0.019926637 -0.273485 -0.0756328 0.28383857
000010 b0 ec 6a be aa 80 c2 be 14 5f 15 bf ee af 4f 3e
       -0.22941852 -0.37988788 -0.583482 0.20281956
000020 ab b1 0c bd 70 0e 9b be 4f da 77 3e 7f 7f 0c 3e
       -0.034349125 -0.30284452 0.24204372 0.13720511
000030 d0 68 c1 3d a7 31 f6 be 50 55 f7 be 08 54 b1 3e
       0.094438195 -0.48084757 -0.48307276 0.34634423
000040 7d 1c ef bc 54 df 77 be c1 05 10 bd 3d 93 b4 3d
       -0.029188389 -0.24206287 -0.035161737 0.08817146
000050 48 d1 e7 3d 7d 08 32 bf 56 8f 4f be 48 79 88 3d
       0.11319214 -0.695442 -0.20269522 0.066637576
000060 6b a2 98 3e 00 5d 36 bf f2 f0 f3 3a da 70 bf 3d
       0.29811415 -0.71235657 0.0018611236 0.093476966
000070 18 8a 22 3d 2d 77 91 be da d1 d7 be ae 55 0e be
       0.039682478 -0.28411236 -0.42152292 -0.13899872

seq.6.bias f4 [4]
000000 b4 63 b9 bf 72 8f 23 bf da da 85 bf 7c 72 0b bf
       -1.4483552 -0.63890755 -1.0457413 -0.54471564
