training/models/environment_traffic_lights/1638899442/checkpoints/ep00500.pt (torch, 28751 bytes, 8 tensors)

seq.0.weight f4 [128, 16]
000000 f4 69 5d 3e fb 82 4b 3e 3f 1c d2 3e 8f 6c 3b be
       0.21622449 0.19874184 0.41037175 -0.1830313
000010 95 44 26 be 8c 87 00 be 27 43 17 bd 64 16 1b be
       -0.162371 -0.12551707 -0.036929276 -0.1514526
000020 54 36 98 3e 95 57 d5 3d a8 46 e7 3d 9d ad 05 be
       0.2972895 0.104170956 0.112927735 -0.1305451
000030 db fe 9f 3d 55 b7 09 3d 98 e2 55 be db b9 fb bd
       0.07812282 0.033622105 -0.2088722 -0.122913085
000040 53 69 bf be 3a ce 1d 3d 42 3d bc 3d 33 4e 2e be
       -0.37385044 0.03852675 0.091913715 -0.17022018
000050 6e b6 89 bf db 87 80 be 64 72 70 3e 7e 47 c2 be
       -1.0758798 -0.2510365 0.23481137 -0.3794517
000060 46 53 4c bd 77 06 da 3e bf 8f 41 3e fd 02 90 3e
       -0.049884103 0.42583057 0.18902491 0.2812728
000070 f6 98 55 bd 30 5c 90 bd f7 b0 9e bd b3 d7 29 be
       -0.052147828 -0.07048833 -0.07748597 -0.16586189
000080 96 1e 2b bf 65 55 0c 3f fb dd 24 be ed 87 06 3e
       -0.66843545 0.548178 -0.16100304 0.13137789
000090 18 92 bb be 88 8a 4c 3e 19 63 9a 3e 50 8a 9d bf
       -0.36634898 0.1997472 0.3015373 -1.2307835
0000a0 3e 8f 45 be 47 5f 6a be 70 fb 56 bd d6 94 5e 3d
       -0.19292924 -0.22887908 -0.052485883 0.05434116
0000b0 3b 04 59 be d0 c9 a1 be d5 91 7f bd 63 e7 11 bf
       -0.2119302 -0.31599283 -0.062394936 -0.56993693
0000c0 f8 24 9e bd fd 2a 62 bd 74 38 0c 3e f3 a7 c0 3c
       -0.07721895 -0.055216778 0.1369341 0.023517584
0000d0 ee 91 89 3c 9e ac 52 be d9 63 91 3d f8 67 2f 3e
       0.016793218 -0.2057366 0.070991226 0.17129505
0000e0 cd e0 2f bb 83 ac 0e be d9 84 e4 bc 55 20 98 3d
       -0.0026836873 -0.13932995 -0.027895378 0.07428042
0000f0 b9 87 53 be 97 f1 06 3e a6 2c 34 be 69 39 98 bd
       -0.20657243 0.13178097 -0.17595157 -0.07432825
000100 66 5b f3 be 4d b9 33 bd 60 c5 b5 3d 7c 73 90 bc
       -0.4753067 -0.04387789 0.08875537 -0.017633192
000110 11 f7 25 3e 59 69 6a be ca 49 90 3e ad 6a 63 3e
       0.1620753 -0.2289175 0.28181297 0.22208662
000120 3f 87 bf be 56 e5 a8 be 54 54 11 be db f7 0a bf
       -0.37407872 -0.3298747 -0.14192325 -0.5428445
000130 91 6d d9 be 3d 57 d3 be e1 49 68 bd d4 96 e3 bd
       -0.42466405 -0.41277495 -0.05671108 -0.111127526
000140 59 3d 9a be 5d bc b3 be 7a 2b 84 be f0 30 9c be
       -0.3012493 -0.35104647 -0.2581442 -0.30506086
000150 e7 05 f9 bd 71 93 11 bf 39 2f 94 3e c6 c6 b1 be
       -0.12159329 -0.568656 0.28942278 -0.34721965
000160 8f 30 3a 3e c5 75 05 be 1e c7 cf 3d 48 2e d1 be
       0.18182586 -0.13033207 0.101454005 -0.40855622
000170 b2 bd db be 97 87 5c 3e 23 4d e7 bd a6 89 89 be
       -0.42918164 0.21536098 -0.112940095 -0.2686283
000180 75 52 b1 3e 9a 45 8e 3e 9a b8 d8 bc 43 29 ba 3a
       0.34633222 0.27787477 -0.026455212 0.0014202971
000190 a8 dc cf 3d 83 74 af bd 0f 1c d1 3b d2 fb 1c be
       0.10149509 -0.08567145 0.0063815187 -0.15330437
0001a0 8b ff 11 bd 91 06 31 3c b4 07 1e bd ea 4f a9 bd
       -0.035644095 0.010804788 -0.038581565 -0.082671955
0001b0 03 41 97 bd e8 d9 07 3e b6 b4 39 3e 4b ef 39 be
       -0.07385447 0.13266718 0.18135342 -0.1815769
0001c0 75 66 03 bf a5 9d 48 bf eb 81 29 bf f5 8f 80 be
       -0.5132821 -0.78365546 -0.66213864 -0.2510983
0001d0 3a 50 07 bd aa 4b 18 bf 44 82 0e 3e 05 de d1 be
       -0.033035494 -0.59490454 0.1391688 -0.409897
0001e0 5b 3f e0 be f1 9b c0 be cf 34 0b bf 24 61 b1 be
       -0.43798336 -0.37618974 -0.54377455 -0.34644425
0001f0 cd 01 fc be 91 86 1f bd 19 c6 7f be 53 f9 d5 be
       -0.49220124 -0.038946692 -0.24977912 -0.41791782
000200 c7 4e 1e bf 8d d4 35 bf f2 30 2b 3e b6 41 ea 3d
       -0.61838955 -0.7102745 0.1671789 0.114383146
000210 8f c1 37 be c8 e9 e1 3d 08 6d 28 bf ed 66 11 be
       -0.1794493 0.11030918 -0.6579137 -0.1419942
000220 21 7b 7e 3e af 43 74 be 8e c9 2a 3d a9 d6 77 be
       0.24851657 -0.23853944 0.041696124 -0.2420298
000230 3c 3c af be 46 87 80 3e a9 ad 3e 3e 17 3d 53 be
       -0.34225643 0.25103205 0.18620934 -0.20628773
000240 42 bf 29 be fa 30 c3 3d a9 ec 9b bb 6d 9a f9 bb
       -0.16576865 0.09530826 -0.0047584367 -0.007617286
000250 17 25 0c be c4 ad 1a 3d a2 30 ac 3e 9b 09 79 3e
       -0.13686024 0.037763372 0.33630854 0.2432007
000260 ff a1 fb bd 3b 22 80 be df d3 f2 bc 40 e9 41 3d
       -0.12286758 -0.25026116 -0.029642044 0.047341585
000270 5e 50 9e be 93 25 5d 3d 46 aa 08 bd c3 68 61 3d
       -0.3092069 0.05399091 -0.03336551 0.05503155
000280 14 47 b9 be 31 0c b5 be 8d ee cd 3e eb c5 24 bf
       -0.3618704 -0.35360864 0.40221062 -0.643645
000290 78 79 8f be ed e5 ec bd e1 e1 f6 3d 9c 07 f6 bd
       -0.2802236 -0.11567292 0.12054802 -0.1201317
0002a0 b0 d3 63 be b7 1f 21 bf f6 0b 0a bd 84 71 df be
       -0.22248721 -0.6293902 -0.033702813 -0.43641293
0002b0 4b 12 b0 3d fd 12 16 bf 2c ea 02 bf 90 52 19 be
       0.08597239 -0.58622724 -0.5113857 -0.14972901
0002c0 62 1f f1 be 1c 48 16 bd a9 d9 53 bf b4 44 54 bf
       -0.47094256 -0.036689863 -0.82754 -0.8291733
0002d0 a8 1c e9 be 46 24 f1 3d 57 88 15 3f 40 fe ad 3e
       -0.45529675 0.11774497 0.58411163 0.3398304
0002e0 77 0c bd bd e6 80 73 3e f9 de 75 bf c3 b5 f3 be
       -0.09230893 0.2377964 -0.96043354 -0.4759961
0002f0 9f eb ab be 0e fe 78 3e 72 a1 c9 be 01 a4 a2 3e
       -0.33578202 0.24315664 -0.39380985 0.3176575
000300 30 43 09 3e 13 b0 24 be 97 35 8c bd 2b 11 dd bd
       0.13404536 -0.16082792 -0.06846159 -0.1079429
000310 2d 5b 9a bd 04 fc fc bd 64 9e 70 bd f5 51 3a 3e
       -0.07536922 -0.12352756 -0.058744803 0.18195327
000320 34 36 fa bd ed d4 1e 3c 5d 74 a6 3b 40 9b 2a be
       -0.1221737 0.00969432 0.0050797896 -0.16660786
000330 b4 08 ca 3d 07 6b 19 3e 76 13 50 3e 89 20 15 3e
       0.09864941 0.14982234 0.20319924 0.14563192
000340 a5 62 a4 be d6 b9 3c be 44 64 03 3c 70 74 6c be
       -0.3210651 -0.18430266 0.008019511 -0.23091292
000350 8c 9b d5 3d 49 d2 af bd 99 ed ad bd 70 cc 8a 3e
       0.10430059 -0.085850306 -0.08492584 0.27109098
000360 1e 4c 0d 3e 84 96 18 be 61 f3 17 3e 15 83 25 be
       0.13798568 -0.14901167 0.14838935 -0.16163285
000370 9c 99 b3 be f9 2e 24 bd 9e ad 1e 3e ec 5e 1a 3e
       -0.35078132 -0.04008386 0.15495917 0.15075272
000380 76 83 9e bd df 0c 35 bf 5d 31 74 be 0d e1 1a be
       -0.07739918 -0.70722765 -0.23846956 -0.15124913
000390 73 b8 5e 3d fe ca 74 3e 3d 6d bb 3e 60 3f fd be
       0.054375123 0.2390556 0.3660678 -0.49462414
0003a0 23 fb 3d be 63 68 01 bf 60 5d 0e bf c9 e8 54 3d
       -0.18552832 -0.50549906 -0.5561123 0.051979814
0003b0 6d 86 52 bf d0 9f 98 be 99 1e fb be cc 6e 18 3e
       -0.8223637 -0.29809427 -0.49046782 0.14886016
0003c0 e9 59 e2 be 71 b1 6a bd 5c 29 8f 3e e8 10 a5 3e
       -0.4420922 -0.057298128 0.27961242 0.3223946
0003d0 df cb a0 bd 0f bc d3 3d 1f 15 90 3e 3a 18 68 be
       -0.07851385 0.10338604 0.28141114 -0.22665492
0003e0 b1 a9 86 bf 7d 68 ea be ed 5e bc be c5 88 3b 3e
       -1.0520536 -0.45782843 -0.36791173 0.18313892
0003f0 a5 2b de 3d f9 ec 6f 3d 38 e4 01 bf 52 47 2e be
       0.10848168 0.058575604 -0.5073886 -0.17019394

seq.0.bias f4 [128]
000000 23 4e b0 3f 95 49 13 bf 5f a6 2d 3e 9e 24 a6 3f
       1.3773845 -0.5753415 0.16957997 1.2979925
000010 b6 da d4 bc 12 b0 ee bd 53 7e bd 3f 96 c3 b3 be
       -0.025983196 -0.116546765 1.4804176 -0.35110158
000020 65 d1 e2 bd 95 f8 6b 3f 99 29 91 be 83 77 ae bd
       -0.11075095 0.9217618 -0.2835205 -0.08518889
000030 b7 37 b5 3f 7d e3 8f 3f da 1b b5 be c0 87 c7 be
       1.4157628 1.1241299 -0.35372812 -0.38970757
000040 80 76 79 bf f6 e8 ec 3e 96 31 e4 be b7 c5 b1 3f
       -0.9744644 0.46271485 -0.4456908 1.3888463
000050 d2 eb 5a 3e 1b 59 a1 bb 7f ed 96 3f b7 0c c0 3f
       0.21379021 -0.0049239523 1.1791228 1.500388
000060 60 ab c2 3f c6 aa 25 bf ba 28 a0 3f f2 42 0c be
       1.520855 -0.64713705 1.2512429 -0.13697413
000070 b1 d0 08 3e 15 b8 ec 3f c4 38 52 bf 91 1a c1 3e
       0.1336086 1.8493677 -0.8211787 0.3771558
000080 e6 27 5a bf 31 08 6b 3f 7c ab e7 3e 47 41 cd 3e
       -0.8521713 0.91809374 0.4524802 0.40088865
000090 dc c4 96 3f aa 10 85 3f 4b 98 77 3f 53 4b 56 3e
       1.1778827 1.039571 0.96716756 0.20927171
0000a0 54 ca 93 3f 59 64 6a be 2a 1b e9 3f 7b fe b2 3f
       1.1546121 -0.22889842 1.8211415 1.3983911
0000b0 ff 71 cf 3f e7 e9 da 3e cf d7 f6 be 26 28 8b be
       1.6206664 0.42756578 -0.48211524 -0.27179068
0000c0 7c 84 81 bf fd ee 9c bd e6 b6 f7 be e5 2c 39 bf
       -1.0118556 -0.07662771 -0.48381728 -0.7233413
0000d0 28 48 04 3f ec 4b 86 3e 50 fa da be 80 8d a1 3f
       0.516726 0.262298 -0.42769098 1.2621307
0000e0 b6 c2 c6 3f 10 29 73 3f 73 f2 2e 3e aa cf a4 be
       1.5528171 0.9498453 0.17084675 -0.32189685
0000f0 18 4d e5 bd 42 8c 6d be 24 3d e1 3f e2 f3 6d 3e
       -0.11196345 -0.23198035 1.7596784 0.23237565
000100 c1 9c 23 be 8c 4a 89 bf 1d fc e5 be f3 97 c3 3f
       -0.15977766 -1.0725875 -0.4491891 1.5280746
000110 cd e7 e1 3e 2d 0c 07 3f 79 1f 14 bf 5d cf a3 3d
       0.44122162 0.52752954 -0.57860523 0.07998536
000120 30 b9 f0 be 23 6c 86 be af 61 02 bf a1 24 ca 3e
       -0.47016287 -0.26254377 -0.50930303 0.3948107
000130 f1 06 d5 3d 8b d3 ca 3f 99 84 c0 3f a3 37 8e 3f
       0.104017146 1.5845808 1.5040466 1.1110729
000140 f5 ca dc 3f 48 52 fd bd be a0 e1 be f1 9f 78 3f
       1.7249438 -0.123692095 -0.4406795 0.9711905
000150 06 4e a0 3f 81 36 06 bf fe 03 24 be d3 15 e8 3f
       1.2523811 -0.52426916 -0.16017148 1.813166
000160 1a 1e 17 3e b5 26 f1 3e 82 cd e2 3e cf 65 ac 3f
       0.14757577 0.47099844 0.44297415 1.346857
000170 7b 93 a8 3f fd 8c 59 be ed 01 a1 3f d5 fa 6c 3f
       1.3170007 -0.21245189 1.2578713 0.9257024
000180 38 5e 34 bf f2 24 82 3f 32 d4 59 3f 1f 54 47 be
       -0.70456266 1.0167525 0.8508941 -0.19465683
000190 2a 82 3e 3f 53 3b 00 bf 2d 24 c7 be 11 a7 1f bf
       0.74417365 -0.5009052 -0.38894787 -0.623643
0001a0 4f b5 30 3f 11 8a 4f be 6d d7 cb 3f 3e b4 ba bc
       0.69026655 -0.20267512 1.5925118 -0.022791024
0001b0 09 54 d5 be e2 cf e9 bd 71 a2 45 bf e5 6f eb 3e
       -0.41665676 -0.114166036 -0.7720099 0.45983806
0001c0 21 72 89 3f 11 d9 07 bf a8 eb 8a 3f 5b b1 b8 3e
       1.0737954 -0.5306559 1.0853167 0.3607281
0001d0 d7 a1 df 3e 8b 9b 0c 3f a9 ab b3 3e 91 ae 8b 3f
       0.43678162 0.5492484 0.35091904 1.0912648
0001e0 c0 2f 14 bf 7d 5d c4 3f 61 3e 0c 3e 2b a9 c3 3f
       -0.5788536 1.534103 0.1369567 1.5286001
0001f0 b3 44 92 3f 7a 51 a0 3f 79 f5 a0 3f 59 98 10 3f
       1.1427215 1.2524865 1.2574912 0.56482464

seq.2.weight f4 [32, 128]
000000 d6 a1 03 3d 7e 21 3f bd e3 8e 86 bd 9c 1e 22 bc
       0.03213676 -0.0466628 -0.06570222 -0.009894993
000010 5b bf 23 bd 56 30 af 39 7e 50 2c 3d 1a 27 1c bd
       -0.039977413 0.00033414614 0.04206895 -0.038123228
000020 47 6c cb 3c 1d fb 45 bd a2 a0 63 bd 57 f0 9c 3d
       0.024831904 -0.048335183 -0.055573113 0.07663029
000030 91 75 7a 3d 19 06 bb bd 49 d7 32 bd ac ad 59 bb
       0.061147276 -0.091320224 -0.043662343 -0.0033215089
000040 63 09 25 bd d7 d6 b4 bd 36 39 8f 3d e2 a4 7e 3d
       -0.040292155 -0.0883004 0.06993334 0.062168963
000050 8d ce 79 bd 8b 80 31 bd cc 4c 35 bd 1b 91 6c bb
       -0.060987998 -0.04333548 -0.044262692 -0.0036097232
000060 77 c6 df bc 89 e1 2d 3d 21 24 9d 3d 32 06 4f 3c
       -0.027316315 0.042451415 0.07672907 0.012635754
000070 7c 00 50 bc 31 91 4a bc f1 44 ab 3d d6 db 38 bd
       -0.012695428 -0.012363718 0.08362759 -0.045131527
000080 00 95 d4 ba 5f 71 80 3d 32 82 c1 bd 9d a7 b5 bc
       -0.0016218722 0.06271624 -0.09448661 -0.02217465
000090 de 39 0e bd 7b 3f d4 3b ab a6 c0 bd df 0a 1e bd
       -0.034723155 0.006477294 -0.094067894 -0.038584586
0000a0 7e bc af bd b3 23 1b 3d 22 bb 96 3d d1 2b 1f 3d
       -0.08580874 0.037875842 0.073599115 0.038860146
0000b0 54 3c 91 bd 29 e8 89 bd a1 a3 28 3d 9d 0f d0 3c
       -0.07091585 -0.06733734 0.041171674 0.02539807
0000c0 bd d8 1a bd 00 2b 60 3d 7b 2d f9 bc 82 a4 2d 3d
       -0.037804354 0.054728508 -0.030417195 0.042393215
0000d0 0b d5 6f bc c2 b6 c2 bc 11 a5 5f bd 8f c1 8d 3d
       -0.014638196 -0.023768786 -0.05460078 0.06921684
0000e0 c3 2b cb bc 82 f6 71 bd bb 8c ba bd cf 1e 8c 3d
       -0.02480114 -0.05907298 -0.091088735 0.06841814
0000f0 20 a0 02 3d 31 04 d9 3c 58 f5 29 3d 4e 53 0f 3d
       0.03189099 0.026491256 0.041493744 0.034991555
000100 94 ed b8 bd b0 11 f1 3b 1a ea 98 3d 2d d0 8c 3d
       -0.090296894 0.007356845 0.07466526 0.06875644
000110 cb 6f 5b bd e3 1b b7 bd ba 2a 46 bd 83 f9 16 3d
       -0.05357341 -0.08940866 -0.04838059 0.036859047
000120 3d 20 b1 bd 32 0d 5c bd 5f d2 ec 3c a1 0a 80 3c
       -0.08648727 -0.05372352 0.028908907 0.015630068
000130 bb b0 69 3c 9d 68 0a bc 21 8e b9 bc 19 4e da 3c
       0.014263327 -0.008447793 -0.02265078 0.026648568
000140 b6 79 80 bd fc 42 5e bd d5 f6 5a bc 12 aa 26 3d
       -0.062732145 -0.0542631 -0.013364513 0.040689535
000150 9f 2d 90 3c 68 fb 11 bd 5e c7 58 3c 50 e8 90 bd
       0.017599879 -0.03564015 0.013231127 -0.0707556
000160 2c 53 8f 3d a7 d2 a3 bd 49 76 7e bb fd 96 fd bc
       0.06998286 -0.07999163 -0.0038827828 -0.030955786
000170 18 b1 ac bd 3d 7e be bb b4 3d 8b ba c9 76 35 bd
       -0.084322155 -0.0058133886 -0.0010623247 -0.044302735
000180 10 95 86 3d fa b2 8e bd f8 87 33 3c f2 3a 25 3d
       0.065714 -0.06967731 0.01095771 0.040339418
000190 53 a3 92 bc f0 c9 32 bd 7c d9 16 bc 3a 01 b9 bc
       -0.017900145 -0.043649614 -0.009207126 -0.022583593
0001a0 73 f5 aa bd 2c 28 bc bd c7 c0 4f bd 2f 28 00 3d
       -0.08347597 -0.0918735 -0.050720956 0.031288322
0001b0 d6 b8 05 bd 2f 3a 25 3d 28 cd bd bd 82 18 8f bd
       -0.032646976 0.04033869 -0.09267646 -0.06987096
0001c0 31 df 78 3d b3 8e a2 bd dc 71 44 bd 80 c5 18 bd
       0.060759727 -0.07937374 -0.047960147 -0.037297726
0001d0 1a 04 19 bd 7c 64 3a bd ca 4e a9 bc 78 ed 5c 3b
       -0.037357427 -0.045505986 -0.020667452 0.0033710878
0001e0 97 3e 88 bc 50 3b 2d bd c0 5b 28 bd fe c9 6e bd
       -0.016631408 -0.042292893 -0.041103125 -0.058298104
0001f0 34 ba bd bd 2c b1 00 3d c7 b4 61 bc f5 f7 2e 3d
       -0.09264031 0.031418964 -0.013776011 0.04271694
000200 8b e6 bb 3e 48 f2 a3 be c3 ef 55 3c 7a 7d 04 3c
       0.36699328 -0.32020783 0.013057652 0.008086557
000210 50 56 25 be 8f 27 b1 be 89 8a f7 3d f1 78 db 3d
       -0.16146207 -0.34600493 0.1208697 0.10716427
000220 4c 00 53 be 0d 34 4f 3e e0 ff f7 be c2 21 44 3d
       -0.20605582 0.202347 -0.48437405 0.047883756
000230 d1 c7 07 3e e3 11 34 bd ba 16 26 3e 0b a0 9e be
       0.13259818 -0.04396237 0.16219607 -0.30981478
000240 32 e0 00 3f 3b 8a bb be 02 d2 20 bf ce 53 03 be
       0.50342095 -0.366289 -0.62820446 -0.12824938
000250 61 82 ba be 45 77 70 bd 72 ad 01 3e 64 dc 8c 3e
       -0.36427596 -0.058707494 0.1266382 0.27511895
000260 7c 3c cd 3e 7f 74 f1 be 33 03 47 be 12 fe 08 bf
       0.40085208 -0.47159192 -0.19434814 -0.5351268
000270 29 21 bc 3d 7b 7b 00 3f 63 13 29 bf d0 09 09 bf
       0.09186012 0.50188416 -0.66045207 -0.535306
000280 31 44 40 3e 1c e3 34 3e 49 fa b2 3d 96 9a fe 3c
       0.18776013 0.1766476 0.08739144 0.031079572
000290 e5 82 04 be 51 5d ff be da 63 bb be 9f 88 b4 be
       -0.12940557 -0.49875882 -0.36599618 -0.35260484
0002a0 72 fa 30 3c e6 c3 82 be 5b 0a 6e 3f 9e 1e 57 3d
       0.010801898 -0.25540084 0.9298455 0.052519433
0002b0 46 7d 10 3f 41 1b 1f be 7f 4f e5 be f0 71 a0 bd
       0.5644115 -0.1553774 -0.44787213 -0.07834232
0002c0 d5 1e 16 bf 65 77 39 3f f2 25 2a bf e8 55 01 bf
       -0.58640796 0.72447807 -0.6646415 -0.5052171
0002d0 e5 ca 0e 3f 62 79 92 3c fb 48 0c 3e 09 f8 82 be
       0.5577834 0.017880145 0.13699715 -0.2557986
0002e0 3a 3b 01 3f 5a 23 72 be 45 18 49 bf b4 35 2f be
       0.50481 -0.23646298 -0.7855266 -0.1711033
0002f0 03 fe 69 be e8 6f c8 be dc f9 20 3f 4b dc 54 bf
       -0.22850804 -0.39147878 0.62881255 -0.8314864
000300 79 eb 74 bd 03 58 cd 3e cc b5 af be 1b 8d c7 bd
       -0.059794877 0.4010621 -0.34318388 -0.097437106
000310 0e f5 2e bf 95 fb ee be a0 aa ec bd 18 8e 23 be
       -0.68342674 -0.46676317 -0.11555982 -0.15972173
000320 fc e6 5d 3e 21 0d 79 be 8e d9 d9 be 03 be 08 3f
       0.21670145 -0.24321415 -0.42548794 0.53414935
000330 51 d2 f9 be 6d 60 10 3f 07 20 24 3e a8 e6 87 be
       -0.4879327 0.56397134 0.16027842 -0.26543164
000340 7b a3 fc 3e 80 cb ba be 01 79 96 be dc 64 75 be
       0.49343476 -0.36483383 -0.29389194 -0.23964256
000350 5f 00 4b 3e 9d 7c 2c be 20 ae 80 3d c0 85 73 3f
       0.1982436 -0.16844411 0.06283212 0.9512596
000360 76 9c b8 be 42 ef 57 bf 8c a2 fd bd d3 d2 95 3e
       -0.3605687 -0.84349453 -0.12384519 0.2926241
000370 a1 fa 93 3e 49 12 e7 be ea e3 ad bd fc 4e f5 be
       0.28902152 -0.45131138 -0.08490737 -0.47911823
000380 d1 73 d7 3d 4e 8d 66 bd 9b cc 4b 3e 49 3f 10 be
       0.10520137 -0.056287102 0.1990227 -0.14086641
000390 e1 c6 81 be aa f3 bf be 79 bf ec bd d5 fb 82 be
       -0.25347045 -0.37490588 -0.11559958 -0.25582758
0003a0 c3 ad 7d 3e fa 69 f0 3e d9 1a a9 3e 5d 78 29 3d
       0.24773316 0.46955854 0.33028296 0.041374553
0003b0 21 e8 f8 bb 3a 04 82 bd d0 13 1a 3f 41 c2 07 bf
       -0.0075960313 -0.063484624 0.6018648 -0.5303078
0003c0 30 a5 57 bd 76 b3 5a bd 61 63 97 bd 38 1c 14 bf
       -0.05264777 -0.053393804 -0.07392002 -0.5785556
0003d0 01 32 09 bf a2 41 14 bf d5 83 2a be 61 6d 9c 3c
       -0.53591925 -0.5791265 -0.16651852 0.019095125
0003e0 69 20 35 be 63 38 35 3e 23 e2 85 3d 9a 7a 88 3e
       -0.17688145 0.17697291 0.06537273 0.26656038
0003f0 d8 92 ba bc 4e d0 f6 bb 09 1b 25 be 12 30 80 bf
       -0.022775099 -0.007532156 -0.16123594 -1.001467

seq.2.bias f4 [32]
000000 10 f1 21 3d c6 93 99 3f 40 5d 9f bd 7e 52 a8 3f
       0.039536536 1.1998222 -0.07781458 1.3150175
000010 e3 1d 85 bc ab 14 b2 3f f0 aa 40 3f 0a 75 3a bd
       -0.016249603 1.3912557 0.7526083 -0.045521773
000020 01 f9 b0 3f 31 5e 9c 3f 22 04 55 3f 6d c7 70 bd
       1.382599 1.2216245 0.8320943 -0.058783937
000030 88 46 97 bd c1 fb a5 3f 06 27 f8 3e d2 a2 bd 3f
       -0.073865 1.2967454 0.48467273 1.4815314
000040 c4 e2 9a 3f 54 b5 b4 3f df 27 b7 3f c4 48 e2 bd
       1.2100453 1.4117837 1.4309043 -0.11049035
000050 b6 8b b9 3f 8d 55 9e 3f b8 14 82 3f 22 a2 c3 bd
       1.4495761 1.2369858 1.0162573 -0.09552409
000060 47 75 ed bd 31 d7 b8 3f ee 86 86 3f 74 a3 ae 3f
       -0.115946345 1.4440671 1.0509927 1.3643632
000070 c5 20 ed 3a d4 6f 7f 3c f7 e4 a6 3f df 4b c0 bd
       0.0018091431 0.015590627 1.3038625 -0.09389471

seq.4.weight f4 [8, 32]
000000 0c b0 6f 3d 26 2c b9 3c 1f 5c d2 3c c6 9b 39 be
       0.0585175 0.02260406 0.025678692 -0.18125829
000010 9a 95 31 3e 1a 36 13 be bd 63 41 be fc 32 7b 3d
       0.17342225 -0.14376107 -0.18885703 0.06132792
000020 c0 a8 8b bd 7f 83 25 be 5c f3 50 bc c4 39 01 3d
       -0.06819296 -0.16163443 -0.012753334 0.03154923
000030 db 99 83 3d 55 57 a6 3d 16 ef a0 3d 81 1a e8 3d
       0.0642583 0.08122126 0.07858102 0.1133318
000040 46 a4 3e bc 1b b8 90 bc 18 17 21 be 1f b7 ce bd
       -0.0116358455 -0.017665913 -0.15731466 -0.10093521
000050 2d d0 39 bc 1f a6 ef 3d 8e 0a 3a 3d a9 c7 25 3e
       -0.011341137 0.11701607 0.045420222 0.16189446
000060 c3 14 20 3e e8 23 80 bd 11 b4 06 be 5f 7c 01 3e
       0.1563292 -0.062568486 -0.13154627 0.126451
000070 1b 76 18 be f6 0d 97 3d b3 21 d8 bd d4 0d 5b 3d
       -0.14888804 0.0737571 -0.105533026 0.053479984
000080 ef 26 27 be 6f c3 f9 bd c1 72 86 bd 98 46 b3 3e
       -0.16323446 -0.12195479 -0.06564856 0.35014796
000090 d7 d0 9a bb 0e 89 a6 3e f9 01 ab bc 35 23 bd bb
       -0.0047246027 0.3252644 -0.020874964 -0.0057720193
0000a0 fc aa 75 3e 39 9e b8 3e 88 ef 11 3f b4 89 f1 3b
       0.23991007 0.36058214 0.5700612 0.007371152
0000b0 d6 7a 0b bb 81 d9 ce 3e c4 7d 00 bf fc f1 b9 bd
       -0.0021282933 0.40400317 -0.50191903 -0.09079358
0000c0 4f ff 05 3f 2f 50 29 bd 08 ec c7 bd c8 b6 2b be
       0.52342695 -0.041336235 -0.09761816 -0.16768944
0000d0 31 22 94 3e b9 32 80 be 06 a1 86 3e 2e 92 fe 3c
       0.28932336 -0.25038698 0.26294726 0.031075563
0000e0 cf 72 d3 bd 8e 0b c0 3e 1a a6 60 3e e8 38 dd b8
       -0.103246324 0.37508816 0.21938363 -0.00010548701
0000f0 57 25 33 3e e4 7c 93 3d 3d 6e a2 3e eb 6f 14 be
       0.17494713 0.07201555 0.3172473 -0.14495818
000100 42 57 d1 3d 12 c1 b4 3e 6f 72 ae 3c ba 06 8d 3d
       0.10221721 0.3530355 0.0212948 0.068860486
000110 d4 90 10 bd e4 fa 76 be d8 44 56 3f 6d d7 04 bd
       -0.03529437 -0.24119145 0.836988 -0.03243201
000120 15 f1 06 3f ee 55 b0 be 2f 13 37 be 7f 16 be 3d
       0.5271161 -0.3444056 -0.17878412 0.092816345
000130 c4 0b 22 bd 1d ed 77 be 68 40 0a 3f ad ae 6f 3e
       -0.039562 -0.24211545 0.54004526 0.23406477
000140 8d 9f 2d 3f 19 7a ca 3e 1e 1d 87 be c9 87 63 3b
       0.6782158 0.39546278 -0.26389402 0.0034718385
000150 2c 18 18 bd f2 89 23 bf 32 aa be be e8 f0 f4 3d
       -0.037132427 -0.6388236 -0.37239224 0.11960012
000160 54 bf f0 3d 39 45 49 3e b4 4e d5 bb e7 37 bc 3d
       0.11755243 0.19655313 -0.0065096263 0.0919035
000170 6e a5 09 3e 42 a3 db 3d 81 b1 9d be 7c 84 3e 3d
       0.13442013 0.10724498 -0.30799487 0.046513066
000180 9c e3 99 3a 88 6c 97 bc 19 1e 4c bd 89 e9 af b9
       0.0011740807 -0.018484369 -0.04983339 -0.00033552598
000190 2f 5c d7 3d dd 4b c3 3d 88 51 e0 3a d5 30 d1 bc
       0.105156295 0.09535954 0.0017114142 -0.02553598
0001a0 9a 47 0b be fe 7f 04 be fa 85 05 3d d4 4a 0a 3d
       -0.13601533 -0.1293945 0.032598473 0.033762768
0001b0 10 b8 36 bc 0a d2 c5 3d 48 28 bc 3d 45 99 26 be
       -0.011152282 0.096592024 0.091873705 -0.16269405
0001c0 b0 c3 b3 bd 53 f1 39 bd df e0 9e 3d fe 1c bd bd
       -0.08777559 -0.04539616 0.077577345 -0.092340454
0001d0 b9 85 dc 3d fb be 0a bd f0 ce ff bd 8d 7b 28 be
       0.10767693 -0.03387354 -0.12490642 -0.16453381
0001e0 0c 9d 6f 3d 50 b6 88 bd dc c1 22 3d 73 ac b0 3c
       0.05849938 -0.06675398 0.03973566 0.021566605
0001f0 59 40 cc 3d 4a ae 8e 3d ba 06 11 bd e8 5e f1 3d
       0.09973211 0.06966837 -0.035406806 0.1178568
000200 c8 b2 69 3d e4 b9 02 bd e7 be cf bd 62 e1 ca 3d
       0.057055265 -0.03191556 -0.101438336 0.099062696
000210 a6 d8 28 be 67 d4 c7 bd a0 6b cb bc 5b dd 12 3e
       -0.16488895 -0.097573094 -0.024831593 0.14342253
000220 cc cc 80 bd 79 3d cc bd a6 c1 1e be f8 ac 9b bd
       -0.06289062 -0.099726625 -0.15503559 -0.076013505
000230 62 c0 d3 3d 68 46 77 bd 4d dc 16 3e b6 51 7d bd
       0.103394285 -0.06036988 0.14732476 -0.061845504
000240 c4 04 13 be bb cb 33 be 8c 9b 51 3d 85 98 2b 3e
       -0.14357287 -0.17558186 0.05117373 0.167574
000250 e0 4c 64 bd 1c 2d 52 3d 58 2c bb bc b1 ae 0a 3e
       -0.055737376 0.05131255 -0.022848293 0.13543202
000260 80 50 ea bc a8 98 a8 3c b6 0f d9 3d 88 86 de bd
       -0.028602839 0.020580605 0.105987 -0.108655035
000270 f1 b6 00 3e 2e a0 fa 3d a1 e6 2b be e7 3b 12 3e
       0.12569787 0.12237583 -0.16787197 0.14280663
000280 d3 ac bc bb 78 ff c2 3c 45 71 53 bd c8 d8 8a 3e
       -0.005757907 0.023803458 -0.051621694 0.27118516
000290 30 c8 26 3e a5 e8 05 3f 1d bf 2a 3d de e6 c1 bd
       0.16287303 0.5230811 0.041686166 -0.094678625
0002a0 d5 b2 17 3f f2 8d 24 bc a1 f4 35 be 79 71 6e bd
       0.5925725 -0.010043608 -0.177691 -0.058213685
0002b0 6a 21 d0 bd d5 1c d0 3e 54 d9 48 be d0 ee 02 3f
       -0.10162623 0.40646997 -0.19614154 0.5114565
0002c0 1e 83 06 3e 12 b8 23 3f d7 a7 38 3f 14 a8 dc bd
       0.13135955 0.63952744 0.72131103 -0.10774246
0002d0 74 d5 03 3f b2 74 9e 3d 88 89 f0 3e ae 45 b0 bd
       0.5149758 0.077371016 0.46979928 -0.0860704
0002e0 1c 6b ff 3d ae 2f af 3e 7f 56 29 be e2 f4 10 3f
       0.12471601 0.34216064 -0.16536902 0.5662366
0002f0 4d d0 d3 bd 25 a3 91 bb a8 f0 dd 3e 46 47 c0 3d
       -0.103424646 -0.004444497 0.4334767 0.09388594
000300 a0 78 df 3b 18 82 df 3e 6f c5 c1 3d 5c 8a a9 3e
       0.0068197995 0.4365394 0.094614856 0.33113372
000310 0d c0 08 be 01 28 a0 3e 73 13 49 3e ed 4c 46 bd
       -0.13354512 0.3128052 0.19636326 -0.048413206
000320 42 7b 43 3d 9a 40 d8 3e 4b 7c ae bd 7e 64 1c 3e
       0.04772497 0.42236787 -0.08519801 0.1527271
000330 0b 2a 5e 3d 38 a9 d3 bc 0d d0 84 bd 98 68 08 3f
       0.054239314 -0.025837526 -0.06484995 0.532846
000340 b9 cf 98 bd 0c 7a cf 3e 22 c1 bb 3e b8 60 b0 3d
       -0.07461495 0.40522802 0.36670786 0.08612198
000350 1c 1e 96 3e 92 ee 10 3f a8 eb dd be e3 f1 51 3d
       0.29319847 0.5661403 -0.43343854 0.05125607
000360 ad aa 85 bd 57 18 e9 3e f2 17 bc 3d 67 e3 f0 3e
       -0.065266944 0.45526382 0.09184255 0.47048494
000370 ee a8 58 bd f8 b7 33 be 44 5c de 3e e1 7d 9a 3c
       -0.05289548 -0.17550647 0.43429768 0.018858852
000380 f9 12 94 bd d0 c9 63 3d 5e 13 0a 3e 93 42 c4 3c
       -0.07230181 0.055612385 0.1348395 0.023957526
000390 6f 87 15 3e 29 41 81 bd 17 ce 3d 3c d6 a0 e2 3d
       0.14602445 -0.063112564 0.01158478 0.11065833
0003a0 f3 38 23 be 84 02 39 3d ed c4 d3 3d 67 b3 9a bd
       -0.15939693 0.045168415 0.10340295 -0.075537495
0003b0 23 d2 11 3d 5e ac 07 3e 8b 98 c7 bd e9 c5 20 bd
       0.035600793 0.13249347 -0.09745892 -0.03925124
0003c0 30 59 bb bd 06 8a ca 3d e3 eb c6 bd 7e fc dd bd
       -0.091478705 0.09889607 -0.097129606 -0.10839175
0003d0 b2 c3 9e 3d 7d 12 91 bd a9 2d ba bd a7 88 e9 bd
       0.0775217 -0.070836045 -0.0909074 -0.114030175
0003e0 b3 a9 de 3d c1 fd b1 bc b3 e4 25 be 55 47 aa bc
       0.10872211 -0.021727445 -0.16200523 -0.020785967
0003f0 0b b7 e5 3c a2 06 6f bd eb d2 cf bd b7 6f 57 3d
       0.028041383 -0.058355935 -0.10147651 0.052596774

seq.4.bias f4 [8]
000000 0e f0 24 be ff f8 9a 3f f6 60 0b 3f 4d 50 c4 3d
       -0.16107199 1.2107238 0.54444826 0.09585629
000010 80 5b 96 bc 4d 04 d8 3f 7f 55 b9 3f 8e 14 aa bd
       -0.018354177 1.6876312 1.4479216 -0.08304702

seq.6.weight f4 [4, 8]
000000 30 3d a3 3c 81 4f 8d be ce d4 83 bd 4a 53 91 3e
       0.019926637 -0.2759972 -0.06437074 0.28383857
000010 b0 ec 6a be 4e a8 e4 be ff ce 1d bf ee af 4f 3e
       -0.22941852 -0.44659656 -0.61643976 0.20281956
000020 ab b1 0c bd 1d bf 9b be 14 a9 85 3e 7f 7f 0c 3e
       -0.034349125 -0.30419245 0.2610556 0.13720511
000030 d0 68 c1 3d 31 68 0d bf 74 77 02 bf 08 54 b1 3e
       0.094438195 -0.5523711 -0.5096352 0.34634423
000040 7d 1c ef bc 32 ab 75 be 3b 3a 7a bd 3d 93 b4 3d
       -0.029188389 -0.23991087 -0.06109069 0.08817146
000050 48 d1 e7 3d 80 86 39 bf f5 9d 79 be 48 79 88 3d
       0.11319214 -0.72470856 -0.24376662 0.066637576
000060 6b a2 98 3e f6 fc 3d bf 0b a4 f3 bc da 70 bf 3d
       0.29811415 -0.7421411 -0.029741308 0.093476966
000070 18 8a 22 3d 7d 59 bf be d1 9a fd be ae 55 0e be
       0.039682478 -0.37372962 -0.49532178 -0.13899872

seq.6.bias f4 [4]
000000 8f 10 e3 bf 1f 13 53 bf cf 70 ad bf 2b 62 53 bf
       -1.7739428 -0.8245105 -1.3550051 -0.8257167
