training/models/environment_traffic_lights/1638899442/checkpoints/ep00050.pt (torch, 28751 bytes, 8 tensors)

seq.0.weight f4 [128, 16]
0	0x3e0fe306	0.14051446
1	0x3e0d960b	0.13826768
2	0x3e9624c5	0.29324928
3	0xbe0eca75	-0.13944419
4	0xbe11ae51	-0.14226653
5	0xbd970dc3	-0.07375672
6	0xbce61c60	-0.028089702
7	0xbe174f7a	-0.14776412
8	0x3e45f049	0.19329943
9	0xbb7ae077	-0.0038280764
10	0xbd47efc1	-0.04881263
11	0xbd8c8b5a	-0.06862517
12	0x3e2e9103	0.17047505
13	0x3dd90472	0.10596551
14	0xbe272047	-0.16320907
15	0xbdca4f3c	-0.09878394
16	0xbd534828	-0.051582485
17	0x3da3912d	0.079866745
18	0xbd2a7468	-0.04161492
19	0x3dadb6b2	0.08482112
20	0xbe92a337	-0.28640148
21	0x3e6a6e9e	0.2289376
22	0x3d755188	0.059892207
23	0x3dcc64a4	0.09980133
24	0xbddfd1d3	-0.10928693
25	0x3e0b6c07	0.13615428
26	0x3dbf82cb	0.09351119
27	0x3e2285c5	0.15871342
28	0xbe21c958	-0.15799463
29	0x3e1ef168	0.15521777
30	0xbd1939d6	-0.037408672
31	0x3df7bc41	0.120964535
32	0xbe97134f	-0.2950692
33	0x3e482bd6	0.19547972
34	0x3e7a4f24	0.24444252
35	0xbd7a0a59	-0.061045025
36	0xbc706770	-0.014673099
37	0xbdcd76a2	-0.10032393
38	0x3dd7b2ee	0.10532175
39	0xbc2e0edd	-0.010623661
40	0x3e5302f8	0.20606601
41	0xbd14041a	-0.036136724
42	0x3e3b6a79	0.18302335
43	0xbdc7d0e6	-0.09756641
44	0xbddd5229	-0.108066864
45	0xbe1fad88	-0.1559354
46	0x3e16769d	0.14693685
47	0xbd8e239e	-0.06940387
48	0xbd693e50	-0.05694419
49	0xbcfb94e1	-0.03071064
50	0x3e184598	0.14870298
51	0x3dd0aebe	0.101895794
52	0x3dcb5e4a	0.099300936
53	0xbe243037	-0.16034018
54	0x3dc942b1	0.098271735
55	0x3e3ba436	0.1832436
56	0x3c91409d	0.017731005
57	0xbe0e720e	-0.13910696
58	0xbd22a8d0	-0.039711773
59	0x3df5f5c2	0.12009765
60	0xbe2ce497	-0.16884075
61	0x3e44d260	0.19220877
62	0xbe10743b	-0.14106838
63	0xbdc28e3f	-0.094997875
64	0x3c611ed5	0.013740261
65	0x3e54ff2d	0.20800467
66	0x3e5beb59	0.21476497
67	0xbdd61929	-0.10454018
68	0xbdd813a6	-0.10550623
69	0x3dfb152d	0.12259898
70	0xbd9be72a	-0.076124504
71	0x3dcb5219	0.09927768
72	0x3e13fc35	0.14451678
73	0x3e69b2ef	0.22822164
74	0x3d83f8ee	0.06443964
75	0x3d28da29	0.04122368
76	0xbdf6e9ef	-0.12056338
77	0x3d84beb9	0.0648169
78	0x3e0f71e0	0.14008284
79	0xbe233806	-0.1593934
80	0x3dff306f	0.1246041
81	0x3cf0f12a	0.029411871
82	0x3e399a5a	0.18125287
83	0xbd058854	-0.032600716
84	0x3e127ab0	0.14304614
85	0xbd741550	-0.059590638
86	0x3daf846b	0.085701786
87	0xbdb3e09f	-0.087830774
88	0x3e54fe90	0.20800233
89	0x3dff146e	0.124550685
90	0x3e396a7b	0.18107025
91	0x3cc6ab47	0.024251593
92	0x3e5b91bc	0.21442312
93	0x3c644057	0.013931355
94	0xbdbcd990	-0.09221184
95	0xbe0b1a5f	-0.13584279
96	0x3e9af95d	0.30268374
97	0x3e86afb9	0.2630594
98	0xbda96c32	-0.0827259
99	0x3c89a69f	0.016803084
100	0x3d958b27	0.07301932
101	0xbdcfe69b	-0.101514064
102	0xbcb18a01	-0.02167225
103	0xbe0e874b	-0.13918798
104	0xbe17d056	-0.14825568
105	0xbd9b3d0a	-0.07580002
106	0xbe083e2d	-0.13304968
107	0xbd8e04d1	-0.069345124
108	0xbdd4b055	-0.10385195
109	0x3e06baa8	0.13157141
110	0x3e28a020	0.16467333
111	0xbe0ca39b	-0.13734286
112	0x3d43b253	0.047777485
113	0xbd699bf8	-0.05703351
114	0xbd854f2c	-0.065092415
115	0xba8acee8	-0.0010590227
116	0x3c718a8d	0.014742506
117	0x3db77218	0.089573085
118	0x3e3e58c3	0.18588547
119	0xbe6d19c5	-0.23154362
120	0x3cfe7d48	0.031065598
121	0x3e1668c1	0.14688398
122	0xbe00a82a	-0.1256415
123	0x3dd2f62f	0.10300862
124	0xbe3eff63	-0.1865211
125	0xbcd5b096	-0.02608518
126	0xbb39aaa6	-0.0028330474
127	0x3db3cb6e	0.087790355
128	0xbe26486a	-0.16238561
129	0x3ded423b	0.11584898
130	0x3e169304	0.1470452
131	0x3ddc933e	0.10770272
132	0xbe6fe76e	-0.23428127
133	0x3e60d771	0.21957184
134	0xbd1930e6	-0.03740015
135	0x3b92d364	0.004480766
136	0x3e60a72f	0.21938775
137	0xbe28e8d4	-0.16495067
138	0xbe0c5886	-0.13705644
139	0xbd8d02dc	-0.06885311
140	0x3db8fead	0.090329506
141	0x3d215e1d	0.039396394
142	0x3e0cee2c	0.1376273
143	0xbe047edf	-0.12939022
144	0xbd01e4cb	-0.031712335
145	0x3e1eeb18	0.15519369
146	0xbe63eec2	-0.22259048
147	0x3dc45082	0.09585668
148	0xbbcbaa63	-0.00621538
149	0xbc2003b2	-0.009766506
150	0xbc12e7d6	-0.008966407
151	0x3ec1ad15	0.37827364
152	0x3dfa98b9	0.12236161
153	0xbd9b68e5	-0.075883664
154	0xbd73f408	-0.0595589
155	0xbc9c02f4	-0.019044377
156	0xbd968761	-0.0735004
157	0x3d8dabbf	0.069175236
158	0xbd70f36e	-0.058825903
159	0xbc9263f7	-0.017869933
160	0xbd271322	-0.04078973
161	0x3d8753f4	0.0660781
162	0x3d6b2dd7	0.057416763
163	0xbe6dd416	-0.23225436
164	0x3e53732e	0.20649406
165	0xbe051ffb	-0.13000481
166	0xbd1981ce	-0.037477307
167	0x3eae4034	0.34033358
168	0xbdf3f10b	-0.1191121
169	0x3ceb88f4	0.028751828
170	0x3d0350c7	0.032059457
171	0x3bc53e69	0.0060194028
172	0x3e0ed113	0.13946943
173	0x3df7f634	0.121075064
174	0x3e86eb0a	0.26351196
175	0x3eb932f2	0.3617168
176	0xbd42d3d7	-0.047565307
177	0xbd994983	-0.074847244
178	0xbd1eceba	-0.03877137
179	0xbdf4875d	-0.11939881
180	0xbc6a82f1	-0.014313445
181	0xbe23e695	-0.16005929
182	0x3ded3145	0.11581663
183	0xbd9b7e6f	-0.07592475
184	0x3e367470	0.17817855
185	0x3da239ae	0.07921158
186	0xbe293b8e	-0.16526625
187	0xbd92d5a9	-0.07169659
188	0x3d32f3f4	0.043689683
189	0x3dbc32a2	0.09189345
190	0xbbe9d596	-0.007136057
191	0xbd1af411	-0.037830416
192	0x3e41ed91	0.1893828
193	0xbe1057ce	-0.14095995
194	0xbd94ff99	-0.07275314
195	0xbcf6ba7b	-0.030118218
196	0xbdac1b9b	-0.08403703
197	0xbde546a8	-0.11195117
198	0xbdc3651c	-0.095407695
199	0x3e09cfd5	0.13458188
200	0xbe06ea3d	-0.13175292
201	0x3d062404	0.03274919
202	0x3baba551	0.005238213
203	0xbe0294f2	-0.1275213
204	0x3dea4be4	0.11440256
205	0x3e2630f4	0.16229612
206	0x3e58957a	0.21150771
207	0x3e128f35	0.14312442
208	0xbdf5da1a	-0.1200449
209	0xbe1b15d7	-0.1514505
210	0xbda7a56b	-0.08185848
211	0xbdd0596a	-0.101733044
212	0x3e52aea3	0.20574431
213	0xbc7c06cd	-0.015382481
214	0xbe2052a4	-0.15656525
215	0x3e9a3851	0.3012109
216	0x3e5c49b8	0.21512496
217	0xbd90d9ce	-0.07072793
218	0x3e093df2	0.13402537
219	0xbe01ffa6	-0.12695178
220	0xbe2204f7	-0.15822206
221	0xbaba3c1a	-0.0014208585
222	0x3e246fb0	0.1605823
223	0x3e73a33f	0.23792742
224	0x3e75572a	0.23959032
225	0xbda3643e	-0.07978104
226	0x3e4b898b	0.19876687
227	0x3e1a9e57	0.15099464
228	0xbd198ef2	-0.03748984
229	0x3c897e51	0.016783865
230	0x3dfbc66e	0.12293707
231	0xbcd9ea78	-0.026601061
232	0x3e61a184	0.2203427
233	0x3e689f20	0.22716951
234	0xbcf69e87	-0.030104889
235	0xbd804623	-0.062633775
236	0xbdda44d6	-0.10657661
237	0x3dd91d0b	0.10601243
238	0xbd1cf185	-0.03831627
239	0xbe47fa50	-0.1952908
240	0xbe459c3e	-0.19297883
241	0x3db18d38	0.086695135
242	0x3e60b11b	0.2194256
243	0xbdd030bb	-0.101655446
244	0xbe5c973d	-0.21542068
245	0xbd30a73f	-0.04312825
246	0x3e2db650	0.16964078
247	0x3d0f8703	0.035040867
248	0xbe6baa40	-0.23014164
249	0x3e45f676	0.19332299
250	0x3d92bc31	0.07164801
251	0x3db1d3c5	0.0868297
252	0x3e652337	0.22376715
253	0xbd3dccc0	-0.046337843
254	0x3d16ec58	0.03684649
255	0xbc0f888d	-0.008760584

seq.0.bias f4 [128]
0	0x3f93c8e6	1.1545684
1	0x3f3850fc	0.7199857
2	0x3f74e4ac	0.95661426
3	0x3f8a226a	1.0791752
4	0x3f718e79	0.9435802
5	0x3f838b8a	1.0276959
6	0x3f96f595	1.1793696
7	0x3f2f68e1	0.6851941
8	0x3f5ce9bf	0.8629417
9	0x3f420c2d	0.7579983
10	0x3f6553e0	0.8958111
11	0x3f4101ee	0.7539357
12	0x3f926bd8	1.1439161
13	0x3f809a4d	1.0047089
14	0x3f682ead	0.9069622
15	0x3f458482	0.77155316
16	0xbf84ab41	-1.0364763
17	0x3f5ba5e8	0.8580003
18	0x3ebdd03b	0.3707293
19	0x3f8e2f9c	1.1108279
20	0xbe8045bf	-0.25053212
21	0x3f808451	1.004038
22	0x3f770376	0.96489656
23	0x3f8dc631	1.1076108
24	0x3f932dbe	1.1498334
25	0x3f48ba15	0.7840894
26	0x3f810c58	1.0081892
27	0x3f52ce4f	0.8234605
28	0x3f725d40	0.9467354
29	0x3fb2d405	1.3970953
30	0x3eb621b8	0.355726
31	0x3ed26f00	0.4110031
32	0x3f262185	0.64894897
33	0x3f668a72	0.90055
34	0x3f0cc3e4	0.54986405
35	0x3f6e4b8b	0.9308402
36	0x3f7785a9	0.96688324
37	0x3f75190e	0.95741355
38	0x3f071831	0.5277129
39	0x3eca30b2	0.39490277
40	0x3f607fb0	0.87694836
41	0x3f4fe7ef	0.8121328
42	0x3fb07c3a	1.3787911
43	0x3f884f85	1.0649267
44	0x3f9a3e3a	1.205024
45	0x3f5dc49e	0.8662814
46	0x3f427453	0.75958747
47	0x3f10f961	0.5663052
48	0x3f41912b	0.75612134
49	0x3f186933	0.5953552
50	0x3f1ef102	0.620865
51	0x3f320032	0.6953155
52	0x3ed6fa3b	0.41987786
53	0x3f3df4d9	0.7420173
54	0x3f1aad8c	0.6042106
55	0x3f82d972	1.0222609
56	0x3f935819	1.151126
57	0x3f729fd9	0.9477516
58	0x3f0b96ef	0.5452718
59	0x3f659261	0.8967648
60	0x3f5c70c7	0.86109585
61	0x3f5dca15	0.8663648
62	0x3fa6a24b	1.3018278
63	0x3f36a793	0.7134945
64	0x3f757ab0	0.9589033
65	0x3b854aec	0.0040677693
66	0x3f640968	0.8907685
67	0x3f98fdef	1.1952494
68	0x3f15255a	0.5826012
69	0x3f108405	0.56451446
70	0x3f5d6ce7	0.86494297
71	0x3f6f434a	0.9346205
72	0x3f0987b3	0.53722686
73	0x3f500dd1	0.8127108
74	0x3f142a53	0.5787708
75	0x3f1ce801	0.6129151
76	0x3f6c9a0d	0.9242256
77	0x3f976f20	1.1830788
78	0x3f8de601	1.1085817
79	0x3f798c11	0.9747935
80	0x3fa37e94	1.2773004
81	0x3f53c082	0.8271562
82	0x3f3e6035	0.7436555
83	0x3f5717f9	0.84020954
84	0x3f86bd0d	1.0526444
85	0x3f3f34f5	0.7469018
86	0x3f6a83fa	0.9160763
87	0x3fadfea6	1.3593338
88	0x3f2ead71	0.682334
89	0x3f01a68f	0.50644773
90	0x3e9b2b55	0.30306497
91	0x3f8cbc00	1.0994873
92	0x3f7478e8	0.9549699
93	0x3f68f781	0.9100266
94	0x3f89100f	1.0708026
95	0x3f73a4d8	0.95173407
96	0x3f1953c7	0.5989346
97	0x3f811a52	1.0086157
98	0x3ec56d68	0.38560033
99	0x3f2a9276	0.6662973
100	0x3f663f68	0.899405
101	0x3f3eae12	0.7448436
102	0x3f30242d	0.688052
103	0x3f15eb7e	0.5856246
104	0x3f82662f	1.0187434
105	0x3f5fdae1	0.8744336
106	0x3f9474ed	1.1598183
107	0x3f711014	0.9416516
108	0x3f526c77	0.82196754
109	0x3f7459c7	0.9544949
110	0x3f648a7f	0.8927383
111	0x3f801562	1.0006526
112	0x3f81d995	1.0144526
113	0x3f571402	0.84014904
114	0x3f830f63	1.0239071
115	0x3ebbfc4d	0.36715928
116	0x3f11f86f	0.57019705
117	0x3f3e7056	0.7439016
118	0x3f866b11	1.0501424
119	0x3f801d0d	1.0008866
120	0x3f3d4095	0.7392667
121	0x3f963974	1.1736283
122	0x3f76e073	0.9643623
123	0x3f9810c8	1.1880121
124	0x3f8720e0	1.0556908
125	0x3f878991	1.0588857
126	0x3f8cd6a9	1.1003009
127	0x3e8f6674	0.28007853

seq.2.weight f4 [32, 128]
0	0x3d03a1d6	0.03213676
1	0xbd3f217e	-0.0466628
2	0xbd868ee3	-0.06570222
3	0xbc221e9c	-0.009894993
4	0xbd23bf5b	-0.039977413
5	0x39af3056	0.00033414614
6	0x3d2c507e	0.04206895
7	0xbd1c271a	-0.038123228
8	0x3ccb6c47	0.024831904
9	0xbd45fb1d	-0.048335183
10	0xbd63a0a2	-0.055573113
11	0x3d9cf057	0.07663029
12	0x3d7a7591	0.061147276
13	0xbdbb0619	-0.091320224
14	0xbd32d749	-0.043662343
15	0xbb59adac	-0.0033215089
16	0xbd250963	-0.040292155
17	0xbdb4d6d7	-0.0883004
18	0x3d8f3936	0.06993334
19	0x3d7ea4e2	0.062168963
20	0xbd79ce8d	-0.060987998
21	0xbd31808b	-0.04333548
22	0xbd354ccc	-0.044262692
23	0xbb6c911b	-0.0036097232
24	0xbcdfc677	-0.027316315
25	0x3d2de189	0.042451415
26	0x3d9d2421	0.07672907
27	0x3c4f0632	0.012635754
28	0xbc50007c	-0.012695428
29	0xbc4a9131	-0.012363718
30	0x3dab44f1	0.08362759
31	0xbd38dbd6	-0.045131527
32	0xbad49500	-0.0016218722
33	0x3d80715f	0.06271624
34	0xbdc18232	-0.09448661
35	0xbcb5a79d	-0.02217465
36	0xbd0e39de	-0.034723155
37	0x3bd43f7b	0.006477294
38	0xbdc0a6ab	-0.094067894
39	0xbd1e0adf	-0.038584586
40	0xbdafbc7e	-0.08580874
41	0x3d1b23b3	0.037875842
42	0x3d96bb22	0.073599115
43	0x3d1f2bd1	0.038860146
44	0xbd913c54	-0.07091585
45	0xbd89e829	-0.06733734
46	0x3d28a3a1	0.041171674
47	0x3cd00f9d	0.02539807
48	0xbd1ad8bd	-0.037804354
49	0x3d602b00	0.054728508
50	0xbcf92d7b	-0.030417195
51	0x3d2da482	0.042393215
52	0xbc6fd50b	-0.014638196
53	0xbcc2b6c2	-0.023768786
54	0xbd5fa511	-0.05460078
55	0x3d8dc18f	0.06921684
56	0xbccb2bc3	-0.02480114
57	0xbd71f682	-0.05907298
58	0xbdba8cbb	-0.091088735
59	0x3d8c1ecf	0.06841814
60	0x3d02a020	0.03189099
61	0x3cd90431	0.026491256
62	0x3d29f558	0.041493744
63	0x3d0f534e	0.034991555
64	0xbdb8ed94	-0.090296894
65	0x3bf111b0	0.007356845
66	0x3d98ea1a	0.07466526
67	0x3d8cd02d	0.06875644
68	0xbd5b6fcb	-0.05357341
69	0xbdb71be3	-0.08940866
70	0xbd462aba	-0.04838059
71	0x3d16f983	0.036859047
72	0xbdb1203d	-0.08648727
73	0xbd5c0d32	-0.05372352
74	0x3cecd25f	0.028908907
75	0x3c800aa1	0.015630068
76	0x3c69b0bb	0.014263327
77	0xbc0a689d	-0.008447793
78	0xbcb98e21	-0.02265078
79	0x3cda4e19	0.026648568
80	0xbd8079b6	-0.062732145
81	0xbd5e42fc	-0.0542631
82	0xbc5af6d5	-0.013364513
83	0x3d26aa12	0.040689535
84	0x3c902d9f	0.017599879
85	0xbd11fb68	-0.03564015
86	0x3c58c75e	0.013231127
87	0xbd90e850	-0.0707556
88	0x3d8f532c	0.06998286
89	0xbda3d2a7	-0.07999163
90	0xbb7e7649	-0.0038827828
91	0xbcfd96fd	-0.030955786
92	0xbdacb118	-0.084322155
93	0xbbbe7e3d	-0.0058133886
94	0xba8b3db4	-0.0010623247
95	0xbd3576c9	-0.044302735
96	0x3d869510	0.065714
97	0xbd8eb2fa	-0.06967731
98	0x3c3387f8	0.01095771
99	0x3d253af2	0.040339418
100	0xbc92a353	-0.017900145
101	0xbd32c9f0	-0.043649614
102	0xbc16d97c	-0.009207126
103	0xbcb9013a	-0.022583593
104	0xbdaaf573	-0.08347597
105	0xbdbc282c	-0.0918735
106	0xbd4fc0c7	-0.050720956
107	0x3d00282f	0.031288322
108	0xbd05b8d6	-0.032646976
109	0x3d253a2f	0.04033869
110	0xbdbdcd28	-0.09267646
111	0xbd8f1882	-0.06987096
112	0x3d78df31	0.060759727
113	0xbda28eb3	-0.07937374
114	0xbd4471dc	-0.047960147
115	0xbd18c580	-0.037297726
116	0xbd19041a	-0.037357427
117	0xbd3a647c	-0.045505986
118	0xbca94eca	-0.020667452
119	0x3b5ced78	0.0033710878
120	0xbc883e97	-0.016631408
121	0xbd2d3b50	-0.042292893
122	0xbd285bc0	-0.041103125
123	0xbd6ec9fe	-0.058298104
124	0xbdbdba34	-0.09264031
125	0x3d00b12c	0.031418964
126	0xbc61b4c7	-0.013776011
127	0x3d2ef7f5	0.04271694
128	0x3ef74b30	0.4829955
129	0x3b9e2e19	0.0048272726
130	0x3eba5ce8	0.36399007
131	0x3e7cc299	0.24683608
132	0x3e804cf8	0.25058722
133	0x3da0338c	0.07822332
134	0x3e9048ff	0.28180692
135	0x3e5667d0	0.20938039
136	0x3d972310	0.073797345
137	0x3f0f9f91	0.56102854
138	0x3d94d4fc	0.07267186
139	0x3dde7340	0.10861826
140	0x3ea15612	0.3151098
141	0x3e31e5d3	0.17372827
142	0x3e00a5ef	0.12563299
143	0x3e52bd7f	0.205801
144	0x3eec95d8	0.46208072
145	0x3d45552d	0.048176933
146	0xbcf4d27f	-0.029885529
147	0x3e11f0a8	0.1425196
148	0xbede684a	-0.4343894
149	0x3e8750d3	0.2642885
150	0x3ecbe5b7	0.39823696
151	0x3eed696b	0.4636949
152	0x3f088b38	0.5333743
153	0xbd420352	-0.047366448
154	0x3e0f215c	0.1397757
155	0xbd5b76c0	-0.053580046
156	0x3e99e612	0.30058342
157	0x3f185bc6	0.59515035
158	0xbcd46a49	-0.025929587
159	0x3ca887a4	0.020572491
160	0x3e929299	0.2862747
161	0x3eed6482	0.46365744
162	0x3c58cc3d	0.013232288
163	0x3edb3ed4	0.42821372
164	0x3e789cc7	0.24278556
165	0xbdba1ef5	-0.09087936
166	0xbdce794f	-0.100817315
167	0xbe32faf0	-0.17478538
168	0x3eaf9853	0.34295902
169	0x3d693fae	0.056945495
170	0x3f7b15fe	0.9808043
171	0x3e83b3ef	0.25723216
172	0x3f352f2a	0.7077509
173	0x3e5ce21f	0.21570633
174	0x3dc63cdf	0.09679579
175	0x3db124d0	0.086495996
176	0xbd7be35a	-0.061496116
177	0x3e3dba59	0.18528117
178	0xbdebc35e	-0.11511873
179	0xbd5353a6	-0.051593445
180	0x3d978dcc	0.074000925
181	0x3d8532f7	0.065038614
182	0xbcbee128	-0.023300722
183	0x3d8d74f1	0.069070704
184	0x3f21f410	0.63263035
185	0x3da8db7c	0.08244988
186	0xbf00ae1f	-0.5026569
187	0x3e89d8d7	0.26923248
188	0xbbc4d0c4	-0.006006332
189	0x3d495cc0	0.04916072
190	0x3f3b45aa	0.73153174
191	0xbe8653e2	-0.26235873
192	0x3e108574	0.14113408
193	0x3d743e86	0.05962994
194	0x3d27782b	0.040886085
195	0x3df4d8bb	0.119554006
196	0xbe91a7dc	-0.2844838
197	0xbd1eb2f6	-0.03874489
198	0x3dd2f421	0.1030047
199	0x3e418e8b	0.18902032
200	0x3e016dd1	0.12639548
201	0x3e4925b7	0.19643293
202	0x3e1b43a5	0.15162523
203	0x3e79067c	0.2431888
204	0xbdc2efce	-0.09518395
205	0x3f32cf41	0.69847494
206	0x3ea7af97	0.32751152
207	0x3dc8574b	0.09782275
208	0x3f13a4ef	0.57673544
209	0x3d9b89ee	0.075946674
210	0x3d4d5056	0.050125442
211	0x3e0410fc	0.12897104
212	0x3eda4fa4	0.42638886
213	0x3e67b630	0.22628093
214	0x3e9c344f	0.30508658
215	0x3f83b670	1.029005
216	0xbd8408e2	-0.06447007
217	0xbdf862a9	-0.12128193
218	0xbdbd58d1	-0.09245456
219	0x3ed721a2	0.42017847
220	0x3f0e98fb	0.5570218
221	0x3ccfa5ce	0.025347617
222	0x3e4b907c	0.19879335
223	0xbd08644c	-0.033298776
224	0x3d62a6fa	0.055335023
225	0x3e842bbb	0.25814614
226	0xbc4a62d1	-0.012352661
227	0x3d52a6f9	0.05142877
228	0x3dbf922f	0.09354054
229	0xbd4b040b	-0.049564403
230	0x3ccb352f	0.024805633
231	0xbc2cd89f	-0.010549693
232	0x3edaa7db	0.4270619
233	0x3eb61d42	0.35569197
234	0x3ef177a3	0.47161588
235	0x3e34dcef	0.17662404
236	0x3eb64990	0.35603
237	0x3eab16a7	0.3341572
238	0x3e61b399	0.22041167
239	0xbc23748b	-0.0099765165
240	0x3e756556	0.23964438
241	0x3db04426	0.08606748
242	0x3e4fadcc	0.20281142
243	0xbe66eccd	-0.2255127
244	0xbd92f8cc	-0.071763605
245	0xbe20bf1e	-0.15697905
246	0x3e22a50f	0.15883277
247	0x3ea87c36	0.32907265
248	0x3e035e28	0.12828887
249	0x3ebbefdd	0.3670644
250	0x3eac997b	0.33710846
251	0x3ebf0a8d	0.37312737
252	0x3e78b71a	0.24288598
253	0x3e933091	0.2874799
254	0x3e191496	0.14949259
255	0xbcf272fe	-0.029595848

seq.2.bias f4 [32]
0	0x3d21f110	0.039536536
1	0x3f4d0564	0.8008635
2	0xbd83b59d	-0.06431124
3	0x3f479bb5	0.77971965
4	0xbc851de3	-0.016249603
5	0x3f4b1ad5	0.7933782
6	0x3f1d1366	0.61357725
7	0xbca4c0d4	-0.020111479
8	0x3f55cce4	0.83515763
9	0x3f4ac286	0.7920307
10	0x3f2e935d	0.6819361
11	0xbd08b850	-0.0333789
12	0xbd974688	-0.073865
13	0x3f55056b	0.8321139
14	0x3f3512cf	0.70731825
15	0x3f6330c9	0.88746315
16	0x3f583452	0.84454834
17	0x3f4d3701	0.80162054
18	0x3f529f65	0.82274467
19	0xbde248c4	-0.11049035
20	0x3f5c9050	0.86157703
21	0x3f57ec7c	0.8434522
22	0x3f3dd439	0.7415195
23	0xbdc3a222	-0.09552409
24	0xbdb96c69	-0.09053881
25	0x3f5a8ab7	0.8536791
26	0x3f4ae195	0.7925046
27	0x3f41f7fd	0.75769025
28	0x3ccc4891	0.024936946
29	0x3c7f6fd4	0.015590627
30	0x3f34d472	0.70636666
31	0xbda0aeb2	-0.078458205

seq.4.weight f4 [8, 32]
0	0x3d6fb00c	0.0585175
1	0x3cb92c26	0.02260406
2	0x3cd25c1f	0.025678692
3	0xbe399bc6	-0.18125829
4	0x3e31959a	0.17342225
5	0xbe13361a	-0.14376107
6	0xbe4163bd	-0.18885703
7	0x3d7b32fc	0.06132792
8	0xbd8ba8c0	-0.06819296
9	0xbe25837f	-0.16163443
10	0xbc50f35c	-0.012753334
11	0x3d0139c4	0.03154923
12	0x3d8399db	0.0642583
13	0x3da65755	0.08122126
14	0x3da0ef16	0.07858102
15	0x3de81a81	0.1133318
16	0xbc3ea446	-0.0116358455
17	0xbc90b81b	-0.017665913
18	0xbe211718	-0.15731466
19	0xbdceb71f	-0.10093521
20	0xbc39d02d	-0.011341137
21	0x3defa61f	0.11701607
22	0x3d3a0a8e	0.045420222
23	0x3e25c7a9	0.16189446
24	0x3e2014c3	0.1563292
25	0xbd8023e8	-0.062568486
26	0xbe06b411	-0.13154627
27	0x3e017c5f	0.126451
28	0xbe18761b	-0.14888804
29	0x3d970df6	0.0737571
30	0xbdd821b3	-0.105533026
31	0x3d5b0dd4	0.053479984
32	0xbe2726ef	-0.16323446
33	0x3e436277	0.1908053
34	0xbd93ef01	-0.07223321
35	0x3ee1cf8c	0.44103658
36	0xbb9ad0d7	-0.0047246027
37	0x3ec4d420	0.3844309
38	0x3eade217	0.33961555
39	0xbcfed111	-0.03110555
40	0x3ebbb640	0.36662483
41	0x3edaeaf5	0.42757383
42	0x3f0ee980	0.5582504
43	0xbc938358	-0.018006966
44	0xbb0b7ad6	-0.0021282933
45	0x3ef46a6d	0.47737446
46	0x3ea9d49c	0.3317002
47	0x3d57a5ed	0.052648474
48	0x3f253672	0.645362
49	0x3dd0afd5	0.10189787
50	0x3ce40be9	0.02783771
51	0xbe2bb6c8	-0.16768944
52	0x3eb7bc87	0.35886022
53	0x3b3d01fc	0.0028840294
54	0x3eef5af0	0.46749067
55	0x3cfe922e	0.031075563
56	0xbe03bb4a	-0.12864414
57	0x3ee6e3ce	0.45095676
58	0x3edf3c2e	0.436006
59	0x3ded5b9c	0.11589739
60	0x3e0cc082	0.13745311
61	0x3d937ce4	0.07201555
62	0x3ebc9459	0.3683193
63	0xbdca9a9e	-0.09892772
64	0x3dd15742	0.10221721
65	0x3e9441e7	0.2895653
66	0x3ca2ba1d	0.019864136
67	0x3df53eac	0.11974844
68	0xbd1090d4	-0.03529437
69	0xbda4c3cf	-0.0804516
70	0x3ee11978	0.43964744
71	0xbd04d76d	-0.03243201
72	0x3ec58c36	0.38583535
73	0xbdb8b874	-0.09019557
74	0xbe4d855e	-0.20070407
75	0x3dbe167f	0.092816345
76	0xbd220bc4	-0.039562
77	0xbdcdb389	-0.10044009
78	0x3d54b634	0.051931575
79	0x3e8044db	0.25052533
80	0x3ebea7d0	0.37237406
81	0x3eb34b14	0.35018218
82	0xbd8f88ea	-0.07008536
83	0x3b6387c9	0.0034718385
84	0x3d52788b	0.05138449
85	0xbe018a18	-0.12650335
86	0xbe22bc8a	-0.15892234
87	0x3df4f0e8	0.11960012
88	0x3df0bf54	0.11755243
89	0x3e5b9f4c	0.21447486
90	0x3d5e6e79	0.054304574
91	0x3e18c5e2	0.14919236
92	0x3e18d713	0.14925794
93	0x3ddba342	0.10724498
94	0xbdedb662	-0.116070524
95	0x3d3edc09	0.04659656
96	0x3a99e39c	0.0011740807
97	0xbc976c88	-0.018484369
98	0xbd4c1e19	-0.04983339
99	0xb9afe989	-0.00033552598
100	0x3dd75c2f	0.105156295
101	0x3dc34bdd	0.09535954
102	0x3ae05188	0.0017114142
103	0xbcd130d5	-0.02553598
104	0xbe0b479a	-0.13601533
105	0xbe047ffe	-0.1293945
106	0x3d0585fa	0.032598473
107	0x3d0a4ad4	0.033762768
108	0xbc36b810	-0.011152282
109	0x3dc5d20a	0.096592024
110	0x3dbc2848	0.091873705
111	0xbe269945	-0.16269405
112	0xbdb3c3b0	-0.08777559
113	0xbd39f153	-0.04539616
114	0x3d9ee0df	0.077577345
115	0xbdbd1cfe	-0.092340454
116	0x3ddc85b9	0.10767693
117	0xbd0abefb	-0.03387354
118	0xbdffcef0	-0.12490642
119	0xbe287b8d	-0.16453381
120	0x3d6f9d0c	0.05849938
121	0xbd88b650	-0.06675398
122	0x3d22c1dc	0.03973566
123	0x3cb0ac73	0.021566605
124	0x3dcc4059	0.09973211
125	0x3d8eae4a	0.06966837
126	0xbd1106ba	-0.035406806
127	0x3df15ee8	0.1178568
128	0x3d69b2c8	0.057055265
129	0xbd02b9e4	-0.03191556
130	0xbdcfbee7	-0.101438336
131	0x3dcae162	0.099062696
132	0xbe28d8a6	-0.16488895
133	0xbdc7d467	-0.097573094
134	0xbccb6ba0	-0.024831593
135	0x3e12dd5b	0.14342253
136	0xbd80cccc	-0.06289062
137	0xbdcc3d79	-0.099726625
138	0xbe1ec1a6	-0.15503559
139	0xbd9bacf8	-0.076013505
140	0x3dd3c062	0.103394285
141	0xbd774668	-0.06036988
142	0x3e16dc4d	0.14732476
143	0xbd7d51b6	-0.061845504
144	0xbe1304c4	-0.14357287
145	0xbe33cbbb	-0.17558186
146	0x3d519b8c	0.05117373
147	0x3e2b9885	0.167574
148	0xbd644ce0	-0.055737376
149	0x3d522d1c	0.05131255
150	0xbcbb2c58	-0.022848293
151	0x3e0aaeb1	0.13543202
152	0xbcea5080	-0.028602839
153	0x3ca898a8	0.020580605
154	0x3dd90fb6	0.105987
155	0xbdde8688	-0.108655035
156	0x3e00b6f1	0.12569787
157	0x3dfaa02e	0.12237583
158	0xbe2be6a1	-0.16787197
159	0x3e123be7	0.14280663
160	0xbbbcacd3	-0.005757907
161	0x3e3988b4	0.18118554
162	0xbd31487d	-0.04328202
163	0x3e9a752a	0.30167514
164	0x3e26c830	0.16287303
165	0x3ef526a0	0.4788103
166	0x3e159811	0.1460879
167	0xbdf5e410	-0.1200639
168	0x3f07acb4	0.529979
169	0x3de2ff60	0.11083865
170	0x3d37866c	0.04480593
171	0xbdab3e2c	-0.08361468
172	0xbdd0216a	-0.10162623
173	0x3ed0a552	0.4075113
174	0xbdad8d75	-0.084742464
175	0x3ee95a9d	0.45576945
176	0x3e6255fc	0.22103113
177	0x3f10ee44	0.56613564
178	0x3f1fab77	0.6237101
179	0xbddca814	-0.10774246
180	0x3eeeea2c	0.46663034
181	0x3e446678	0.19179714
182	0x3f04038c	0.5156791
183	0xbdb045ae	-0.0860704
184	0x3dcb653f	0.099314205
185	0x3eacfb21	0.33785346
186	0x3de8fd78	0.1137647
187	0x3f005fb7	0.5014605
188	0xbe175916	-0.14780077
189	0xbb91a325	-0.004444497
190	0x3ed20c93	0.41025218
191	0x3e2d1de2	0.1690593
192	0x3bdf78a0	0.0068197995
193	0x3f08bde7	0.5341477
194	0x3ddcae9b	0.10775491
195	0x3eb6efbb	0.35729775
196	0xbe08c00d	-0.13354512
197	0x3e9daa2a	0.30793887
198	0x3ea27b17	0.31734535
199	0xbd970612	-0.07374205
200	0x3d904550	0.0704447
201	0x3ef19dac	0.47190607
202	0x3e16f7e7	0.14743005
203	0x3e0267f3	0.12734966
204	0x3d5e2a0b	0.054239314
205	0x3d373bb8	0.044734687
206	0x3eff4d9e	0.49863905
207	0x3f00541e	0.5012835
208	0x3c66b2af	0.014080687
209	0x3ec47b82	0.3837548
210	0x3eb213ec	0.34780824
211	0x3db060b8	0.08612198
212	0x3e92bb4c	0.2865852
213	0x3f21a35d	0.631399
214	0xbe5f224b	-0.21790425
215	0x3d51f1e3	0.05125607
216	0xbdb9b28d	-0.09067259
217	0x3ee5b17a	0.44861966
218	0x3eb3468a	0.35014755
219	0x3ee30ae2	0.4434424
220	0xbd9ca7a9	-0.07649166
221	0xbe33b7f8	-0.17550647
222	0x3ed97571	0.42472413
223	0x3da0d61b	0.078533374
224	0xbd9412f9	-0.07230181
225	0x3d98e2f7	0.07465165
226	0x3e0a135e	0.1348395
227	0x3d2f9f3f	0.04287648
228	0x3e15876f	0.14602445
229	0xbd34669c	-0.04404317
230	0x3cff9633	0.03119955
231	0x3de2a0d6	0.11065833
232	0xbe0f0cd6	-0.1396974
233	0x3d8208ef	0.0634936
234	0x3df35827	0.11882048
235	0xbd9ab367	-0.075537495
236	0x3d11d223	0.035600793
237	0x3e1b5e27	0.15172635
238	0xbda8f147	-0.08249145
239	0xbca310d2	-0.019905481
240	0xbd93f71c	-0.07224867
241	0x3df27761	0.11839176
242	0xbd9f0b6b	-0.0776585
243	0xbdddfc7e	-0.10839175
244	0x3dc5feb3	0.09667721
245	0xbd54b3b8	-0.051929206
246	0xbd91ca8a	-0.071187094
247	0xbde988a7	-0.114030175
248	0x3ddea9b3	0.10872211
249	0xbb335f9c	-0.002737022
250	0xbe131b03	-0.14365773
251	0xbabf2921	-0.0014584401
252	0x3ce5b70b	0.028041383
253	0xbd6f06a2	-0.058355935
254	0xbda8f923	-0.08250644
255	0x3d576fb7	0.052596774

seq.4.bias f4 [8]
0	0xbe24f00e	-0.16107199
1	0x3eec7021	0.46179298
2	0x3e93b162	0.2884627
3	0x3dc4504d	0.09585629
4	0xbc965b80	-0.018354177
5	0x3f50d924	0.8158133
6	0x3f1f63c6	0.6226162
7	0xbd82d2be	-0.06387852

seq.6.weight f4 [4, 8]
0	0x3ca33d30	0.019926637
1	0xbe58fa44	-0.21189219
2	0xbf044a76	-0.5167612
3	0x3e91534a	0.28383857
4	0xbe6aecb0	-0.22941852
5	0xbe73631b	-0.23768274
6	0xbf02c89b	-0.5108735
7	0x3e69b5a0	0.2282319
8	0xbd0cb1ab	-0.034349125
9	0xbea0e480	-0.31424332
10	0x3ea40605	0.32035843
11	0x3e0c7f7f	0.13720511
12	0x3dc168d0	0.094438195
13	0xbece8954	-0.40339148
14	0xbeed530e	-0.46352428
15	0x3ea45162	0.3209334
16	0xbcef1c7d	-0.029188389
17	0xbe44d8a9	-0.19223274
18	0xbe88001c	-0.26562583
19	0x3db4933d	0.08817146
20	0x3de7d148	0.11319214
21	0xbf2ace80	-0.66721344
22	0xbded761b	-0.115947925
23	0x3db29d67	0.08721428
24	0x3e98a26b	0.29811415
25	0xbf1da87a	-0.615852
26	0xbe118e54	-0.1421445
27	0x3dbf70da	0.093476966
28	0x3d228a18	0.039682478
29	0xbe0ad649	-0.13558306
30	0xbea89654	-0.3292719
31	0xbde8a092	-0.11358751

seq.6.bias f4 [4]
0	0xbf58e1f3	-0.8471977
1	0xbea3e783	-0.32012567
2	0xbefb8307	-0.49123403
3	0xbda8d65d	-0.082440116
