training/models/environment_traffic_lights/1638899442/checkpoints/ep00125.pt (torch, 28751 bytes, 8 tensors)

seq.0.weight f4 [128, 16]
00000000: 8d60 253e 2b96 1c3e c2fd a53e 24d2 fcbd
00000010: 3e9a 00be 1b93 96bd 3583 77bc 89f2 0cbe
00000020: 07ab 6c3e 50c9 cb3c d127 09bd cc12 3fbd
00000030: 307c 323e fccf cd3d 4674 36be 9999 c5bd
00000040: 9e6d 19be 76c9 b63d bd61 5a3d 6286 cb3d
00000050: 6840 91be 4880 9a3e ca67 443e 86cb 59bd
00000060: 930d 5abd 1f84 393e e5fc 1d3e a71f 4a3e
00000070: 138d b7bd d2a8 dd3c 1a0f 4ebc 41c4 1dbb
00000080: 8c88 f7be 2ec1 503e 96f8 6b3e bdb0 15be
00000090: 48dd 93bd ba27 623d a314 133e 37a3 8bbd
000000a0: 62a9 1f3e 45da 0b3c a159 813e 104b 0cbe
000000b0: f4b8 0dbe b6a7 4abe be24 673e 0311 0fbe
000000c0: 1d82 4fbd 2a82 c5bc 2d43 263e a9c2 be3d
000000d0: b746 c23d 583e 26be ba58 d13d ce30 3e3e
000000e0: ca51 ff3c 0d3b 02be 8936 03bd 8684 003e
000000f0: 8dd8 29be 3f3e 3d3e be36 22be b0ee acbd
00000100: 3af0 493c e4f7 4c3e 199a 6d3e 8f22 f4bd
00000110: bef3 d8bd 46d6 d03d 5eb4 9bbd 8a46 ad3d
00000120: 1ed0 1c3e bc94 693e 7644 7f3d 7e47 323d
00000130: 1b54 f0bd 28f7 493d b48e eb3d 8307 2cbe
00000140: 50ed da3d eebb 523c dfe0 3b3e 304c 55bd
00000150: fdd0 023e 925c 90bd ef85 ba3d 9642 d8bd
00000160: f23e 543e 7457 f83d 4a94 333e 1c52 8d3c
00000170: 3452 4d3e acc3 9a3b f5bd bfbd aeca 24be
00000180: 5d26 a33e 93c0 893e 2f4d 78bd 3fe7 ed3c
00000190: f101 ca3d 4821 a5bd 4aa4 043c a5f3 04be
000001a0: db60 cdbd dd19 1abd ecce dabd cb56 39bd
000001b0: b08d 9abd 43b4 133e 8edd 313e 4f6c 0fbe
000001c0: edaa 0cbe b852 80be e3cd 9cbe 0ea9 a93d
000001d0: a69e c1bc c39d dd3d 12d8 173e 4aa8 a4be
000001e0: eb55 cbbd a8d5 01be 08c9 43be f405 eebd
000001f0: 4d24 7abe 0eec bebc f255 15be 5d55 2fbe
00000200: 9e7a 75be 98be ba3d 70ea 0c3e 50ee d53d
00000210: dd50 a9be d0e4 873e 8e0d b13c bd97 b9bd
00000220: ddbc 463e 3dbe 55be 6984 2cbe 77fa f9bd
00000230: 264d e03d 8139 163d 82ad 473e 8b30 2abe
00000240: 41dd 34bd 0253 1e3e 0680 53be 698d 883d
00000250: f4a8 05bd be43 16bd 8d26 ddbc e4e5 c73e
00000260: 870e d83d 8a15 babd f3d0 8abd 47fa c0bc
00000270: ac3c d4bd d341 323d 0433 c9bd 82c7 843c
00000280: e410 59bd 55e3 5d3d d4a0 df3c 23aa 7dbe
00000290: e882 3b3e e0ac 03be 868c eebc 1a15 a73e
000002a0: e5d3 dabd 83eb a2bb d356 813c 4363 47bd
000002b0: b109 e93d 77b6 073e bc86 863e 4003 b33e
000002c0: a42d 9fbd de66 cfbd a799 32bd b7be 0fbe
000002d0: 3415 20bd 99e8 2cbe 02b8 ff3d 8e25 cabd
000002e0: d43d 123e feed 473d 8d49 35be 1981 cebd
000002f0: 7035 653c 7bc5 9c3d 2d5a 77bc 0cee 76bd
00000300: 3529 473e a991 05be d1a6 91bd 8880 39bd
00000310: 8def 92bd 128a d8bd 1f5b b4bd 039a 183e
00000320: 1224 e6bd 5dcf 1c3d 2f7d db3b 506f fdbd
00000330: f9c1 f93d 174f 303e 0adc 543e f277 1f3e
00000340: 2448 bfbd 697a 0bbe 56e8 aabd 3c11 ddbd
00000350: 6505 4e3e 0f0e 21bc 824e 1cbe e551 9f3e
00000360: 6b0e 6a3e 5d18 9ebd 085e 063e 5c8c eebd
00000370: a1c5 1dbe 112a 4b3b 23c1 193e e69b 7d3e
00000380: a36e 583e 7a44 c4bd 8a1e 5b3e 619b fb3d
00000390: a37d 6abd f891 e8bb 3fd4 e13d f457 26bd
000003a0: c271 553e 88dd 5e3e 4f52 0abd 0f58 6cbd
000003b0: cd7a edbd d28b a93d 5efc 86bd cea4 51be
000003c0: af16 94be a781 1a3e 2048 3b3e b63b 92bd
000003d0: 8fae b1be 1803 de3c 18ef eb3d c584 b5bd
000003e0: cb48 b1be 3b6b d33d c5d5 193e 61e1 bebd
000003f0: 934b e33d e3e8 16bc 929c bebd 0da9 82bd
0.16150112 0.1529166 0.32420164 -0.12344769 -0.12558839 -0.07352277 -0.015106966 -0.13764395
0.23112117 0.024876267 -0.033485238 -0.046648785 0.17430186 0.100494355 -0.17817792 -0.09648437
-0.14983222 0.089251444 0.053315867 0.09937741 -0.2836945 0.30175996 0.19180217 -0.05317261
-0.0532356 0.18116806 0.15428503 0.19738637 -0.08962455 0.027058039 -0.012576843 -0.0024073275
-0.48346364 0.20386192 0.23044047 -0.14618202 -0.072199404 0.055213667 0.14363341 -0.0681824
0.15591958 0.008535926 0.25263694 -0.13700509 -0.13840085 -0.19790539 0.2257261 -0.13971333
-0.050661195 -0.024109919 0.16236563 0.09314472 0.09486144 -0.1623472 0.102220014 0.18573305
0.03116693 -0.12717839 -0.03203443 0.12550554 -0.16586514 0.18480776 -0.15841195 -0.084439635
0.012325341 0.20016438 0.23203315 -0.11920654 -0.10593365 0.101971194 -0.07602762 0.0846072
0.15313765 0.22810644 0.06232115 0.04352521 -0.11734792 0.049307972 0.11501828 -0.1679974
0.10689795 0.012862189 0.183475 -0.05207461 0.12775035 -0.070489064 0.09107577 -0.10559575
0.20727137 0.12126055 0.17537037 0.017251067 0.20050889 0.004723033 -0.09362403 -0.16092941
0.31865206 0.26904735 -0.060620483 0.02904093 0.098636515 -0.080629885 0.00809581 -0.12983568
-0.10028239 -0.03762232 -0.106839985 -0.045248788 -0.07546556 0.14424233 0.17369673 -0.1400616
-0.13737078 -0.2506311 -0.3062583 0.08284198 -0.02363522 0.10821106 0.14828518 -0.32159644
-0.09928497 -0.1267916 -0.19119656 -0.11622229 -0.2442791 -0.023305919 -0.14583567 -0.17122407
-0.23972556 0.09118384 0.13761306 0.10445845 -0.33069506 0.26541758 0.021612909 -0.09062145
0.19407983 -0.20873351 -0.16847385 -0.122059755 0.10952215 0.036675934 0.19499782 -0.1662008
-0.044156317 0.15461352 -0.20654306 0.06667597 -0.03263183 -0.036685698 -0.026995922 0.3904258
0.10549646 -0.090861395 -0.06778135 -0.023556842 -0.10363135 0.043519806 -0.098241836 0.016208414
-0.052994624 0.05417188 0.027298369 -0.24771933 0.18311656 -0.12858915 -0.029119741 0.32633287
-0.10684947 -0.004971923 0.015788471 -0.048678648 0.113788016 0.13253199 0.2627467 0.34963417
-0.07772377 -0.10127042 -0.043603566 -0.14037596 -0.03908272 -0.16885604 0.124862686 -0.09870444
0.14281398 0.04881095 -0.17703839 -0.10083217 0.013989791 0.07654854 -0.015097183 -0.060285613
0.19449313 -0.13043846 -0.07111896 -0.045288593 -0.07174597 -0.1057321 -0.088064425 0.14902501
-0.112373486 0.038283695 0.0066982727 -0.12374747 0.121952005 0.1721767 0.20787063 0.155731
-0.093399316 -0.13620915 -0.08345096 -0.10794303 0.20119245 -0.009830012 -0.15264323 0.31117168
0.22857063 -0.07719491 0.13121808 -0.11647865 -0.1540742 0.0031000415 0.15015082 0.24766502
0.21135955 -0.09583373 0.21398368 0.122854955 -0.057248723 -0.007097479 0.11026811 -0.040611222
0.20844176 0.21764195 -0.0337699 -0.057701167 -0.11595688 0.08278622 -0.06591104 -0.20473024
-0.28923556 0.15088521 0.18289232 -0.07140295 -0.3470349 0.027101085 0.11520213 -0.088632144
-0.3462585 0.10323187 0.15022953 -0.09320331 0.11098399 -0.009210798 -0.09307207 -0.063799

seq.0.bias f4 [128]
00000000: 32dd 993f 5603 f93e e082 6e3f 6437 903f
00000010: c7b9 733f e7b7 813f 6fb5 9d3f 4229 073f
00000020: e94d 563f df3c 513f 034b 653f 5fc0 343f
00000030: 8411 993f 9b4e 863f 8510 653f 7993 383f
00000040: a7d4 52bf 2eb1 5c3f a36b a63e fc6c 943f
00000050: 1903 5e3d 03af 813f 3b32 823f 7291 963f
00000060: 2cb0 9b3f 092f 353f 812d 873f e61f 513f
00000070: 3cc7 773f fdb5 bc3f 869d 073e 9de9 053f
00000080: 6984 da3e dd32 723f b587 bd3e dbef 733f
00000090: fc99 813f a8b6 7d3f 03fc 503f 7a87 eb3e
000000a0: e839 713f 8843 503f e66e ba3f 9244 903f
000000b0: 8f5e a33f 682e 643f e6ea 2d3f 70dd 313e
000000c0: 1d62 133f 8f2b 7c3e eb18 373e 3580 243f
000000d0: 41b2 d53e 1760 3b3f dafc c53e 957f 883f
000000e0: 7023 9c3f 23a4 7c3f 56bf 393f 213f 5f3f
000000f0: 4a8d 5d3f 0421 5f3f ceb4 b03f 4caa 1b3f
00000100: bfd6 773f 6698 c2be 2b55 5f3f 0f30 a03f
00000110: 613c 083f 0173 a23e d11e 5e3f 8588 713f
00000120: 10da f13e 5406 453f a669 573e 85b1 f33e
00000130: 9e37 6f3f 029b a03f 12aa 963f 7ffe 7f3f
00000140: 6456 ad3f deb2 583f d0f1 3b3f e170 563f
00000150: b5c7 8c3f ab8e 343f 466e 6e3f 6210 b83f
00000160: 08c1 933e 6b86 9a3e bc9f 923e f46b 933f
00000170: 2d07 833f bab0 673f 20a8 8d3f cbca 7a3f
00000180: 1af3 3a3e 311d 853f 1336 343f 9d07 023f
00000190: 26d3 6a3f 5676 0b3f d365 e03e 104a 993e
000001a0: b10e 853f d2fb 5c3f eaa9 9d3f e88f 713f
000001b0: 0088 543f 59aa 763f 1ce2 5f3f 713c 7a3f
000001c0: fba3 863f 1b49 523f 681d 873f 8d03 e63e
000001d0: 4f69 213f 61e8 3c3f f0a6 863f 7965 843f
000001e0: 0159 263f b857 9e3f 9db6 7e3f 91e8 9f3f
000001f0: a807 8c3f 930f 8d3f b6a5 913f 5615 d73e
1.2020628 0.48635358 0.9316845 1.1266904 0.9520535 1.0134248 1.2320994 0.5279733
0.8371263 0.81733507 0.89567584 0.70606035 1.195847 1.0492738 0.8947833 0.72100025
-0.8235573 0.86207855 0.32503995 1.1595759 0.054202173 1.0131534 1.0171579 1.1763136
1.2163138 0.70774895 1.0560762 0.816893 0.9678838 1.4743038 0.13243684 0.5230959
0.42679146 0.9460886 0.370176 0.95287865 1.0125117 0.99106836 0.8163454 0.46001798
0.9422898 0.81353045 1.4565094 1.1270926 1.2763232 0.8913331 0.6793655 0.17369628
0.57571584 0.24625991 0.17880599 0.6425813 0.4173756 0.73193496 0.38669473 1.0663935
1.2198315 0.9868795 0.7255758 0.872057 0.86543715 0.8715975 1.3805177 0.6080673
0.9681205 -0.38006896 0.8723933 1.2514666 0.5321713 0.31728366 0.8676577 0.9434894
0.4723668 0.7696278 0.21036395 0.47596374 0.9344424 1.2547305 1.1770651 0.99997705
1.3541989 0.8464793 0.7341585 0.8376599 1.0998446 0.70530194 0.93137014 1.438
0.2885821 0.30180678 0.28637493 1.151732 1.0236565 0.9050404 1.1066933 0.9796569
0.18256798 1.0399534 0.7039501 0.50792867 0.91728437 0.5447744 0.43827686 0.29939318
1.0395108 0.8632175 1.2317479 0.9436021 0.8302002 0.9635368 0.8745439 0.97748476
1.0518793 0.821428 1.0555849 0.44924584 0.63051313 0.7379208 1.0519695 1.0343467
0.6497956 1.237052 0.99497396 1.2492849 1.0939837 1.1020378 1.1378696 0.42008466

seq.2.weight f4 [32, 128]
00000000: d6a1 033d 7e21 3fbd e38e 86bd 9c1e 22bc
00000010: 5bbf 23bd 5630 af39 7e50 2c3d 1a27 1cbd
00000020: 476c cb3c 1dfb 45bd a2a0 63bd 57f0 9c3d
00000030: 9175 7a3d 1906 bbbd 49d7 32bd acad 59bb
00000040: 6309 25bd d7d6 b4bd 3639 8f3d e2a4 7e3d
00000050: 8dce 79bd 8b80 31bd cc4c 35bd 1b91 6cbb
00000060: 77c6 dfbc 89e1 2d3d 2124 9d3d 3206 4f3c
00000070: 7c00 50bc 3191 4abc f144 ab3d d6db 38bd
00000080: 0095 d4ba 5f71 803d 3282 c1bd 9da7 b5bc
00000090: de39 0ebd 7b3f d43b aba6 c0bd df0a 1ebd
000000a0: 7ebc afbd b323 1b3d 22bb 963d d12b 1f3d
000000b0: 543c 91bd 29e8 89bd a1a3 283d 9d0f d03c
000000c0: bdd8 1abd 002b 603d 7b2d f9bc 82a4 2d3d
000000d0: 0bd5 6fbc c2b6 c2bc 11a5 5fbd 8fc1 8d3d
000000e0: c32b cbbc 82f6 71bd bb8c babd cf1e 8c3d
000000f0: 20a0 023d 3104 d93c 58f5 293d 4e53 0f3d
00000100: 94ed b8bd b011 f13b 1aea 983d 2dd0 8c3d
00000110: cb6f 5bbd e31b b7bd ba2a 46bd 83f9 163d
00000120: 3d20 b1bd 320d 5cbd 5fd2 ec3c a10a 803c
00000130: bbb0 693c 9d68 0abc 218e b9bc 194e da3c
00000140: b679 80bd fc42 5ebd d5f6 5abc 12aa 263d
00000150: 9f2d 903c 68fb 11bd 5ec7 583c 50e8 90bd
00000160: 2c53 8f3d a7d2 a3bd 4976 7ebb fd96 fdbc
00000170: 18b1 acbd 3d7e bebb b43d 8bba c976 35bd
00000180: 1095 863d fab2 8ebd f887 333c f23a 253d
00000190: 53a3 92bc f0c9 32bd 7cd9 16bc 3a01 b9bc
000001a0: 73f5 aabd 2c28 bcbd c7c0 4fbd 2f28 003d
000001b0: d6b8 05bd 2f3a 253d 28cd bdbd 8218 8fbd
000001c0: 31df 783d b38e a2bd dc71 44bd 80c5 18bd
000001d0: 1a04 19bd 7c64 3abd ca4e a9bc 78ed 5c3b
000001e0: 973e 88bc 503b 2dbd c05b 28bd fec9 6ebd
000001f0: 34ba bdbd 2cb1 003d c7b4 61bc f5f7 2e3d
00000200: 20c5 f03e 8f9a 59bd a11e a63e 3b13 623e
00000210: 6aad 5e3e 2742 403d f812 843e 76cf cf3d
00000220: 4012 be3c a716 ff3e b75a ab3c 3c69 9a3c
00000230: e78a 933e 21d0 113e bb96 b33d 0238 113e
00000240: e4f0 de3e cb76 17bc cd1a c3bd 4d3d cd3d
00000250: 28e2 dbbe 036e 753e 83b8 b63e ffcb e23e
00000260: 2e93 033f 2ace 0bbe f0be cd3d 1755 fabd
00000270: 1696 8a3e e1f4 163f f244 1bbe 3aad 88bd
00000280: 2a5a 853e 924d d83e b2bd ff3c 08a0 bb3e
00000290: 6665 473e 1f3b 12be 57b7 93be fd68 5fbe
000002a0: 225f 963e 814c 01bc 3c2c 7a3f 0ac6 673e
000002b0: 15c8 2f3f 0109 2f3e 5dd3 133d e246 503e
000002c0: 369c 10be 2933 073e ff66 37be 7ff4 14be
000002d0: ee4b c03d 7882 17bc 78c5 f7bc c7e9 d03c
000002e0: 7f6d 1d3f 9107 1b3d 280a 01bf 59ec 613e
000002f0: 28d9 8dbd edad 32bb 111f 393f a3ba 14bf
00000300: e767 b73d a02d 193e 4226 abbc b24e b23d
00000310: cfa8 b1be 3c49 9ebe 194b 673d 56a6 083e
00000320: 0a1b 883d 09d0 053e 251b 823d 7f28 973e
00000330: 0424 18be a7c9 2d3f ed0f 9e3e b401 833d
00000340: 7d75 113f 7b6d da3b 6083 31bd 6987 b13d
00000350: 69e8 c83e 804d 363e bf86 8d3e 35d6 823f
00000360: d5b5 21be ebb4 7dbe 632f 8cbd 87c1 d13e
00000370: c6df 023f 72f4 1abd f8c4 2e3e 04e6 babd
00000380: 80ee d1bc 4354 683e 1da4 ae3d 6fe9 44bd
00000390: 051c c03c 13a0 02be bedf dbbc 58ff ca3c
000003a0: 3400 d43e 94c6 a43e aaa6 e83e 8332 163e
000003b0: dcbc a03e c242 9a3e 7e0a 3d3e e94b 33bd
000003c0: 89f4 503e 3195 c03c 70f0 2b3e dd4a 9fbe
000003d0: 1dc4 fcbd 7f4f 68be 421b ec3d 2b6a 993e
000003e0: 18c7 113d c726 af3e 08d7 993e a76d b73e
000003f0: decb 583e fe7b 813e 7851 d93d 10d5 52be
0.03213676 -0.0466628 -0.06570222 -0.009894993 -0.039977413 0.00033414614 0.04206895 -0.038123228
0.024831904 -0.048335183 -0.055573113 0.07663029 0.061147276 -0.091320224 -0.043662343 -0.0033215089
-0.040292155 -0.0883004 0.06993334 0.062168963 -0.060987998 -0.04333548 -0.044262692 -0.0036097232
-0.027316315 0.042451415 0.07672907 0.012635754 -0.012695428 -0.012363718 0.08362759 -0.045131527
-0.0016218722 0.06271624 -0.09448661 -0.02217465 -0.034723155 0.006477294 -0.094067894 -0.038584586
-0.08580874 0.037875842 0.073599115 0.038860146 -0.07091585 -0.06733734 0.041171674 0.02539807
-0.037804354 0.054728508 -0.030417195 0.042393215 -0.014638196 -0.023768786 -0.05460078 0.06921684
-0.02480114 -0.05907298 -0.091088735 0.06841814 0.03189099 0.026491256 0.041493744 0.034991555
-0.090296894 0.007356845 0.07466526 0.06875644 -0.05357341 -0.08940866 -0.04838059 0.036859047
-0.08648727 -0.05372352 0.028908907 0.015630068 0.014263327 -0.008447793 -0.02265078 0.026648568
-0.062732145 -0.0542631 -0.013364513 0.040689535 0.017599879 -0.03564015 0.013231127 -0.0707556
0.06998286 -0.07999163 -0.0038827828 -0.030955786 -0.084322155 -0.0058133886 -0.0010623247 -0.044302735
0.065714 -0.06967731 0.01095771 0.040339418 -0.017900145 -0.043649614 -0.009207126 -0.022583593
-0.08347597 -0.0918735 -0.050720956 0.031288322 -0.032646976 0.04033869 -0.09267646 -0.06987096
0.060759727 -0.07937374 -0.047960147 -0.037297726 -0.037357427 -0.045505986 -0.020667452 0.0033710878
-0.016631408 -0.042292893 -0.041103125 -0.058298104 -0.09264031 0.031418964 -0.013776011 0.04271694
0.47025394 -0.053125914 0.32445243 0.22077648 0.2174584 0.046938088 0.25795722 0.10146992
0.023202062 0.4982197 0.02091728 0.018849008 0.28816912 0.14239551 0.08768984 0.14181522
0.4354316 -0.009244631 -0.09526596 0.10021458 -0.4294598 0.23967747 0.35687646 0.44296262
0.51396453 -0.13652864 0.10046184 -0.12223261 0.2706763 0.58967406 -0.1516302 -0.06673665
0.26045352 0.4224668 0.031218383 0.36645532 0.19472274 -0.14280365 -0.28850815 -0.21817394
0.29369456 -0.007891775 0.97723746 0.2263414 0.68664676 0.17093278 0.036090244 0.2033954
-0.1412209 0.1320311 -0.17910384 -0.14546393 0.093894824 -0.009247415 -0.030245528 0.025502099
0.614952 0.037849013 -0.5040612 0.22062816 -0.06926185 -0.0027264312 0.7231303 -0.58097285
0.08955365 0.14958811 -0.020892266 0.08706416 -0.34699103 -0.30915248 0.056468103 0.13344702
0.06645782 0.1306764 0.06352834 0.29523084 -0.14857489 0.6788582 0.30871525 0.06396809
0.568199 0.006665883 -0.04333818 0.086684056 0.39239815 0.17803001 0.27641866 1.0221621
-0.1579202 -0.24776046 -0.06844976 0.40967962 0.511227 -0.037830777 0.17067325 -0.09125903
-0.025626421 0.22688393 0.08527396 -0.048074182 0.02345086 -0.12756376 -0.026840087 0.02477996
0.41406405 0.32182753 0.45439655 0.14667706 0.31394088 0.30129057 0.18461034 -0.043773565
0.20405783 0.02350864 0.16790938 -0.31111804 -0.12342093 -0.22686575 0.115286365 0.29963812
0.03559026 0.34209272 0.30046868 0.35825846 0.21171519 0.2528991 0.10611242 -0.2058909

seq.2.bias f4 [32]
00000000: 10f1 213d 94ef 633f 9db5 83bd 07f5 5f3f
00000010: e31d 85bc 5535 643f 0eef 313f d4c0 a4bc
00000020: 959c 6e3f 489b 5e3f ba0a 323f 50b8 08bd
00000030: 8846 97bd 8772 683f 0de0 403f 2a42 7d3f
00000040: ec2a 6d3f 5303 683f 1a81 6b3f c448 e2bd
00000050: 83c2 753f 5fb2 6a3f 4bdf 4a3f 22a2 c3bd
00000060: 696c b9bd f8f7 743f f8c8 5d3f 9525 5c3f
00000070: 9148 cc3c d46f 7f3c 90fc 4d3f b2ae a0bd
0.039536536 0.8903744 -0.06431124 0.8748326 -0.016249603 0.8914388 0.69505394 -0.020111479
0.93207675 0.8695569 0.6954762 -0.0333789 -0.073865 0.90799755 0.75341874 0.98929083
0.9264362 0.9063007 0.9199387 -0.11049035 0.95999926 0.9167842 0.7924697 -0.09552409
-0.09053881 0.9569087 0.8663478 0.85994846 0.024936946 0.015590627 0.80463505 -0.078458205

seq.4.weight f4 [8, 32]
00000000: 0cb0 6f3d 262c b93c 1f5c d23c c69b 39be
00000010: 9a95 313e 1a36 13be bd63 41be fc32 7b3d
00000020: c0a8 8bbd 7f83 25be 5cf3 50bc c439 013d
00000030: db99 833d 5557 a63d 16ef a03d 811a e83d
00000040: 46a4 3ebc 1bb8 90bc 1817 21be 1fb7 cebd
00000050: 2dd0 39bc 1fa6 ef3d 8e0a 3a3d a9c7 253e
00000060: c314 203e e823 80bd 11b4 06be 5f7c 013e
00000070: 1b76 18be f60d 973d b321 d8bd d40d 5b3d
00000080: ef26 27be 488e 0e3e 01ef 93bd f278 d33e
00000090: d7d0 9abb 294b b83e f5fc 8a3e 11d1 febc
000000a0: 55da ab3e fa43 ce3e 07f3 0a3f 5883 93bc
000000b0: d67a 0bbb 6317 e93e e898 8e3e 95b1 4f3c
000000c0: c3c0 1f3f 46e6 7d3d 8c55 3fbc c8b6 2bbe
000000d0: 6189 aa3e dc61 47bd cf8f e13e 2e92 fe3c
000000e0: 4abb 03be 42d0 d83e 7582 ce3e d585 a33d
000000f0: 82c0 0c3e e47c 933d 5e5e b03e 9e9a cabd
00000100: 4257 d13d 7e04 823e 1dba a23c 62c7 b03d
00000110: d490 10bd 031f 00be 488f da3e 6dd7 04bd
00000120: 4e61 bc3e 16a0 07be 6a5c 6fbe 7f16 be3d
00000130: c40b 22bd ef77 0abe 6dde 5a3c 1ba6 563e
00000140: 4211 c03e 18c2 a13e 1573 01be c987 633b
00000150: 45b6 4d3c 3a0b 49be 0d83 4dbe e8f0 f43d
00000160: 54bf f03d 01a5 3c3e 89a8 c83c 2725 db3d
00000170: 13d7 183e 42a3 db3d 5556 26be 09dc 3e3d
00000180: 9ce3 993a 886c 97bc 191e 4cbd 89e9 afb9
00000190: 2f5c d73d dd4b c33d 8851 e03a d530 d1bc
000001a0: 9a47 0bbe fe7f 04be fa85 053d d44a 0a3d
000001b0: 10b8 36bc 0ad2 c53d 4828 bc3d 4599 26be
000001c0: b0c3 b3bd 53f1 39bd dfe0 9e3d fe1c bdbd
000001d0: b985 dc3d fbbe 0abd f0ce ffbd 8d7b 28be
000001e0: 0c9d 6f3d 50b6 88bd dcc1 223d 73ac b03c
000001f0: 5940 cc3d 4aae 8e3d ba06 11bd e85e f13d
00000200: c8b2 693d e4b9 02bd e7be cfbd 62e1 ca3d
00000210: a6d8 28be 67d4 c7bd a06b cbbc 5bdd 123e
00000220: cccc 80bd 793d ccbd a6c1 1ebe f8ac 9bbd
00000230: 62c0 d33d 6846 77bd 4ddc 163e b651 7dbd
00000240: c404 13be bbcb 33be 8c9b 513d 8598 2b3e
00000250: e04c 64bd 1c2d 523d 582c bbbc b1ae 0a3e
00000260: 8050 eabc a898 a83c b60f d93d 8886 debd
00000270: f1b6 003e 2ea0 fa3d a1e6 2bbe e73b 123e
00000280: d3ac bcbb b450 1e3e 7d48 31bd fd85 903e
00000290: 30c8 263e f212 f23e 3e20 d53d 10e4 f5bd
000002a0: aa50 073f cb30 a73d 17ca 06bc 2c3e abbd
000002b0: 6a21 d0bd 2416 ca3e af24 17be 32a8 e83e
000002c0: 06da 493e 3f6a 113f 8fa4 213f 14a8 dcbd
000002d0: 0f05 ec3e 2948 313e 2634 023f ae45 b0bd
000002e0: 3f65 cb3d a47a a53e 089e 9e3d bdf0 ff3e
000002f0: 1659 17be 25a3 91bb a486 cc3e e21d 2d3e
00000300: a078 df3b 1369 033f 9bae dc3d 73fe ac3e
00000310: 0dc0 08be ff69 993e 4091 863e 1206 97bd
00000320: 344b 303d 69b6 eb3e 8102 e23d f367 023e
00000330: 0b2a 5e3d 954b be3c 3a7a ec3e f008 fe3e
00000340: a877 febc 4e3c bf3e c607 b33e b860 b03d
00000350: de89 8c3e 87c7 233f 5f78 80be e3f1 513d
00000360: 8db2 b9bd e388 de3e 3b4c a53e 4a98 e03e
00000370: a9a7 9cbd f8b7 33be 994b d63e 1bd6 a03d
00000380: f912 94bd f7e2 983d 5e13 0a3e 3f9f 2f3d
00000390: 6f87 153e 9c66 34bd 3396 ff3c d6a0 e23d
000003a0: d60c 0fbe ef08 823d 2758 f33d 67b3 9abd
000003b0: 23d2 113d 275e 1b3e 47f1 a8bd d210 a3bc
000003c0: 1cf7 93bd 6177 f23d 6b0b 9fbd 7efc ddbd
000003d0: b3fe c53d b8b3 54bd 8aca 91bd a788 e9bd
000003e0: b3a9 de3d 9c5f 33bb 031b 13be 2129 bfba
000003f0: 0bb7 e53c a206 6fbd 23f9 a8bd b76f 573d
0.0585175 0.02260406 0.025678692 -0.18125829 0.17342225 -0.14376107 -0.18885703 0.06132792
-0.06819296 -0.16163443 -0.012753334 0.03154923 0.0642583 0.08122126 0.07858102 0.1133318
-0.0116358455 -0.017665913 -0.15731466 -0.10093521 -0.011341137 0.11701607 0.045420222 0.16189446
0.1563292 -0.062568486 -0.13154627 0.126451 -0.14888804 0.0737571 -0.105533026 0.053479984
-0.16323446 0.13921463 -0.07223321 0.4130321 -0.0047246027 0.35994843 0.27146116 -0.03110555
0.33565012 0.40286237 0.5427708 -0.018006966 -0.0021282933 0.45525655 0.27851033 0.012676616
0.62403506 0.061987184 -0.011678111 -0.16768944 0.33307937 -0.04867731 0.4405503 0.031075563
-0.12864414 0.42346388 0.40333906 0.07984511 0.13745311 0.07201555 0.34446996 -0.09892772
0.10221721 0.25394052 0.019864136 0.08631779 -0.03529437 -0.1251183 0.4268744 -0.03243201
0.36792988 -0.13244662 -0.23375097 0.092816345 -0.039562 -0.13522314 0.0133586945 0.20961802
0.37513167 0.31593394 -0.12641557 0.0034718385 0.0125556635 -0.19633189 -0.20069523 0.11960012
0.11755243 0.18422319 0.024494426 0.107004456 0.14925794 0.10724498 -0.1624387 0.04659656
0.0011740807 -0.018484369 -0.04983339 -0.00033552598 0.105156295 0.09535954 0.0017114142 -0.02553598
-0.13601533 -0.1293945 0.032598473 0.033762768 -0.011152282 0.096592024 0.091873705 -0.16269405
-0.08777559 -0.04539616 0.077577345 -0.092340454 0.10767693 -0.03387354 -0.12490642 -0.16453381
0.05849938 -0.06675398 0.03973566 0.021566605 0.09973211 0.06966837 -0.035406806 0.1178568
0.057055265 -0.03191556 -0.101438336 0.099062696 -0.16488895 -0.097573094 -0.024831593 0.14342253
-0.06289062 -0.099726625 -0.15503559 -0.076013505 0.103394285 -0.06036988 0.14732476 -0.061845504
-0.14357287 -0.17558186 0.05117373 0.167574 -0.055737376 0.05131255 -0.022848293 0.13543202
-0.028602839 0.020580605 0.105987 -0.108655035 0.12569787 0.12237583 -0.16787197 0.14280663
-0.005757907 0.15460473 -0.04328202 0.28227225 0.16287303 0.4728008 0.1040654 -0.1200639
0.5285746 0.081636034 -0.008226893 -0.08361468 -0.10162623 0.39470017 -0.14760087 0.45440823
0.19712076 0.56802744 0.6314172 -0.10774246 0.4609761 0.17312683 0.5086082 -0.0860704
0.099314205 0.3232013 0.07744986 0.49988356 -0.14780077 -0.004444497 0.39946473 0.1690593
0.0068197995 0.51332206 0.10775491 0.3378788 -0.13354512 0.2996368 0.26282692 -0.07374205
0.04304047 0.46037605 0.11035634 0.12734966 0.054239314 0.0232294 0.46187 0.49616194
-0.031062916 0.37350696 0.34966868 0.08612198 0.27448934 0.6397633 -0.25091836 0.05125607
-0.09067259 0.4346381 0.32284722 0.43866187 -0.07649166 -0.17550647 0.4185455 0.078533374
-0.07230181 0.07465165 0.1348395 0.04287648 0.14602445 -0.04404317 0.03119955 0.11065833
-0.1396974 0.0634936 0.11882048 -0.075537495 0.035600793 0.15172635 -0.08249145 -0.019905481
-0.07224867 0.11839176 -0.0776585 -0.10839175 0.09667721 -0.051929206 -0.071187094 -0.114030175
0.10872211 -0.002737022 -0.14365773 -0.0014584401 0.028041383 -0.058355935 -0.08250644 0.052596774

seq.4.bias f4 [8]
00000000: 0ef0 24be afd5 173f 42b5 c63e 4d50 c43d
00000010: 805b 96bc faf3 753f 7103 443f bed2 82bd
-0.16107199 0.5931043 0.38810164 0.09585629 -0.018354177 0.96075404 0.7656775 -0.06387852

seq.6.weight f4 [4, 8]
00000000: 303d a33c d95e 74be d7e9 c2be 4a53 913e
00000010: b0ec 6abe 8328 8ebe 7872 08bf a0b5 693e
00000020: abb1 0cbd 4a0e 94be 9abe 8c3e 7f7f 0c3e
00000030: d068 c13d 73ef d2be 2d06 efbe 6251 a43e
00000040: 7d1c efbc ca86 55be 0a9e 59be 3d93 b43d
00000050: 48d1 e73d 46b5 2bbf 3aa1 08be 679d b23d
00000060: 6ba2 983e 9ee5 24bf c3cd 0cbe da70 bf3d
00000070: 188a 223d a3ad 2bbe c09e b0be 92a0 e8bd
0.019926637 -0.23864307 -0.3806903 0.28383857 -0.22941852 -0.27765283 -0.53299665 0.2282319
-0.034349125 -0.28917152 0.27489167 0.13720511 0.094438195 -0.4119831 -0.466844 0.3209334
-0.029188389 -0.20852199 -0.21251693 0.08817146 0.11319214 -0.67073476 -0.13342753 0.08721428
0.29811415 -0.6441287 -0.13750367 0.093476966 0.039682478 -0.16765456 -0.34496117 -0.11358751

seq.6.bias f4 [4]
00000000: e0c3 82bf 70c2 ccbe 3633 25bf d2a9 5abe
-1.0216026 -0.39992094 -0.64531267 -0.21353844
