training/models/environment_traffic_lights/1639342829/checkpoints/ep00025.pt (torch, 28751 bytes, 8 tensors)

seq.0.weight f4 [128, 16]
00000000: 239f bf41 d123 b941 bc11 b641 1865 9741
00000010: c354 bf41 1ec1 b641 8928 b341 2533 a441
00000020: f367 bd41 1b74 ba41 ae15 b441 6d5e 9841
00000030: 0f6a bc41 4c3d b741 79da b341 d1a6 a541
00000040: 4285 be41 0a21 b841 3d63 b241 1cb9 9541
00000050: 1a4a bf41 f855 b741 36d3 b341 ed97 a541
00000060: d482 be41 3468 b741 71dd b341 65f4 9a41
00000070: 9c47 bd41 0c43 b741 dcbc b541 4b0d a441
00000080: 7d09 be41 28f0 b641 c664 b241 4be5 9641
00000090: 50ca bc41 86d6 b641 456a b541 4f1f a641
000000a0: 6671 bc41 d9b5 b841 793d b341 8261 9941
000000b0: d7a4 be41 d7f6 b841 8e4b b641 05b4 a341
000000c0: cd48 be41 4e78 b741 3a31 b341 05b3 9641
000000d0: 6eef bc41 7c15 b841 1582 b241 372b a341
000000e0: 4820 bd41 1fa6 b741 2bba b441 9329 9741
000000f0: 3a10 be41 6caa b741 ef5e b241 e732 a541
00000100: 93ec bd41 0ba8 b741 9eeb b241 773e 9941
00000110: 23ac bc41 cb60 b741 2a96 b241 4f81 a341
00000120: 05a7 bf41 e1de b841 e324 b341 68bf 9841
00000130: 2a22 bf41 f6c9 b841 87f2 b441 7fdb a441
00000140: ced5 bc41 0b04 b941 17a8 b441 d41e 9841
00000150: d1cb bd41 a0bd b641 7f34 b541 d278 a441
00000160: 9b2a c041 7ed1 b841 6aab b641 423e 9941
00000170: ee38 bd41 6724 b841 e6d1 b441 b8c7 a341
00000180: 746b bd41 0d7c b841 79af b241 5cdc 9741
00000190: 1472 bd41 d0b6 b641 a43e b241 0414 a641
000001a0: 14e6 bc41 9503 b841 cd69 b341 d685 9941
000001b0: 521d bf41 7efe b641 a47c b441 3f28 a241
000001c0: 5839 be41 e03f b941 c52f b441 12d5 9841
000001d0: 463c bc41 4878 b841 03dd b341 78b5 a641
000001e0: 583a be41 d6ab b941 5d8c b641 b5fb 9741
000001f0: 8fe4 bf41 b3d7 b941 20c4 b341 32b7 a241
00000200: 455d be41 4dc5 b841 4b41 b541 c9a0 9841
00000210: 8b67 bd41 d0ad b841 0e17 b341 678f a341
00000220: 07f9 be41 97cc b841 eb5a b641 e0b9 9a41
00000230: c047 be41 47da b841 3df7 b541 8090 a541
00000240: a565 be41 0d8c b641 e413 b341 7d72 9941
00000250: dfa1 bf41 1410 b641 9c0a b541 b641 a641
00000260: 1ffb bd41 b673 b841 7dd5 b541 9f4c 9b41
00000270: 9668 bf41 c6b5 b941 14f0 b541 92c0 a241
00000280: 7b96 bd41 edc1 b641 e77d b541 300c 9841
00000290: d274 bd41 1731 b641 2075 b241 ab06 a641
000002a0: 3325 be41 5e97 b641 cb32 b641 7014 9741
000002b0: a978 bc41 2983 b741 a795 b441 4d5c a541
000002c0: 05a6 bd41 382d b741 6e83 b241 76ec 9841
000002d0: 3259 bc41 6879 b841 fa86 b441 5841 a541
000002e0: 3b25 be41 a909 ba41 bf46 b441 fa39 9941
000002f0: 6b6c be41 f354 b941 0daf b441 67c1 a341
00000300: 79cf bc41 e7eb b741 e16e b241 73cc 9841
00000310: 6b78 bf41 c3dd b741 15e7 b541 df1d a441
00000320: 633f bf41 72f8 b841 4b30 b541 a9d8 9841
00000330: dab2 bf41 1fab ba41 4eb6 b541 5bd6 a541
00000340: f57f bc41 ffa0 b741 e12b b341 e34e 9941
00000350: 94cf bf41 83f1 b641 0af9 b541 b85b a341
00000360: 4aa5 bc41 d8f6 b841 4e95 b641 12ac 9841
00000370: 75d6 bd41 586d b841 1860 b441 abd2 a341
00000380: f9ae be41 affc b841 a516 b541 2cba 9741
00000390: e1d7 bf41 ce5d b741 ee40 b441 7325 a341
000003a0: b0e6 bc41 964a b941 21a9 b541 3e73 9841
000003b0: 37f8 bb41 1cd4 b741 4054 b641 7677 a341
000003c0: a98e bd41 c1e9 b641 ac07 b441 5485 9741
000003d0: ef29 bf41 849e b841 1295 b341 f981 a641
000003e0: e860 bf41 5542 ba41 04f9 b541 cdb7 9841
000003f0: a471 be41 1673 ba41 345f b341 d093 a241
23.952703 23.142488 22.75866 18.924362 23.916388 22.844296 22.394793 20.524973
23.675756 23.306692 22.510586 19.046106 23.551786 22.90493 22.481676 20.706453
23.815067 23.016132 22.298456 18.715385 23.911182 22.916977 22.47813 20.699183
23.81388 22.92588 22.483126 19.369333 23.659966 22.907738 22.717216 20.50649
23.754633 22.867264 22.299206 18.86196 23.598785 22.854748 22.67689 20.765287
23.55537 23.088793 22.405016 19.172611 23.830488 23.120527 22.786892 20.4629
23.785547 22.933743 22.399036 18.837412 23.616909 23.01049 22.313517 20.396101
23.640762 22.956114 22.590902 18.8953 23.757923 22.958214 22.296354 20.649855
23.740515 22.957052 22.365047 19.1555 23.584051 22.922262 22.323322 20.438139
23.956553 23.108828 22.393011 19.09346 23.891682 23.098614 22.618422 20.607176
23.604397 23.126974 22.582075 19.015053 23.72452 22.84259 22.650633 20.558994
24.020803 23.102291 22.833698 19.1554 23.652798 23.017775 22.60249 20.472519
23.677467 23.060572 22.33568 18.982597 23.680702 22.839264 22.280586 20.759773
23.612343 23.001749 22.42666 19.19035 23.889317 22.874264 22.56086 20.269651
23.778 23.156189 22.523325 19.104038 23.52943 23.058731 22.482916 20.838608
23.778488 23.208904 22.818537 18.997904 23.9866 23.230322 22.470764 20.33945
23.795542 23.096338 22.656881 19.078508 23.675558 23.08487 22.386257 20.44502
23.871595 23.099897 22.794394 19.34076 23.785034 23.10658 22.745722 20.695557
23.799631 22.818384 22.384712 19.180902 23.954039 22.75785 22.63018 20.782085
23.747618 23.0565 22.729242 19.412413 23.926067 23.213757 22.742226 20.344028
23.698477 22.84469 22.686476 19.00595 23.682041 22.77397 22.30719 20.753256
23.768164 22.82391 22.774801 18.88498 23.558916 22.939043 22.573072 20.670069
23.706064 22.89708 22.314175 19.11546 23.543552 23.05928 22.565907 20.656906
23.768179 23.254717 22.534544 19.153309 23.802938 23.16648 22.585474 20.469435
23.601305 22.990187 22.30414 19.099829 23.933798 22.983282 22.737833 20.514585
23.90595 23.121311 22.64858 19.105791 23.96233 23.333555 22.714016 20.729666
23.562479 22.953611 22.396425 19.163519 23.976357 22.867926 22.746601 20.419785
23.580708 23.12053 22.822903 19.084019 23.729715 23.05339 22.54692 20.477865
23.835436 23.12338 22.636057 18.965904 23.98041 22.920803 22.531704 20.393286
23.61264 23.161419 22.707582 19.05627 23.496199 22.978569 22.791138 20.43333
23.694658 22.864138 22.503746 18.940102 23.895475 23.0774 22.447788 20.813463
23.922318 23.282389 22.74659 19.089746 23.805489 23.306194 22.421486 20.322174

seq.0.bias f4 [128]
00000000: 494a c441 b2b2 c741 49ed c341 cb86 c341
00000010: 7139 c441 ad49 c441 a30d c541 e51c c641
00000020: 2e32 c641 9eae c741 5724 c741 1252 c541
00000030: 158d c641 a546 c641 cf15 c441 2704 c441
00000040: 050b c541 3081 c741 d848 c741 2577 c441
00000050: e96e c541 ba6e c541 317f c641 9bd0 c641
00000060: db85 c741 a885 c641 38f8 c641 e539 c541
00000070: b8ca c441 6a21 c641 ca7f c541 2c19 c441
00000080: 4ba4 c441 fab5 c441 1662 c641 b4b6 c541
00000090: 163e c741 049c c741 2a9b c341 3798 c641
000000a0: 84a0 c641 83d8 c241 de8c c541 f5d1 c441
000000b0: c92c c641 43b2 c341 7d8a c641 bb64 c541
000000c0: 0183 c541 bdb1 c641 c169 c541 f79c c541
000000d0: a87c c541 3048 c541 cdc5 c641 74ab c541
000000e0: d488 c641 29d1 c541 17dc c341 d299 c541
000000f0: faf7 c641 51ad c441 7791 c541 6a6d c541
00000100: f3a7 c341 29ed c541 f4a8 c641 8565 c341
00000110: 6215 c441 92e8 c641 b55c c341 5965 c641
00000120: c31e c541 1d53 c741 5973 c541 f49b c341
00000130: e8e8 c241 9a12 c441 7d79 c641 0246 c541
00000140: 53e8 c441 e98e c441 011b c741 4eef c341
00000150: bb64 c441 4deb c641 3eb1 c641 b900 c441
00000160: ec14 c741 6b7e c641 5cd0 c641 2482 c541
00000170: d9d6 c641 e09c c541 e8e7 c641 d52e c541
00000180: 4c00 c541 b658 c741 82c4 c641 6d31 c641
00000190: 1a42 c741 f4fc c341 be34 c641 414a c441
000001a0: 6ac9 c341 c727 c441 e082 c641 526e c541
000001b0: eca3 c641 faaa c741 9637 c541 5fc6 c341
000001c0: 9545 c541 52c0 c341 2fc5 c341 55ee c441
000001d0: 594b c741 9e90 c641 5942 c641 2c59 c241
000001e0: daf3 c241 bf8d c541 4193 c541 f89a c641
000001f0: 1325 c541 3006 c541 3241 c541 a2f8 c441
24.536272 24.962254 24.490862 24.440817 24.528048 24.535975 24.631659 24.764109
24.774502 24.960262 24.892744 24.665073 24.818888 24.784494 24.510649 24.502028
24.63038 24.93808 24.910568 24.558176 24.679155 24.679066 24.812105 24.851858
24.94036 24.815262 24.8712 24.653269 24.598984 24.766315 24.687397 24.512291
24.580221 24.588856 24.797894 24.71421 24.905315 24.95118 24.450764 24.824324
24.828377 24.355719 24.693783 24.602518 24.771868 24.462042 24.817621 24.674185
24.688967 24.836786 24.676638 24.701643 24.685867 24.660248 24.846582 24.708717
24.81681 24.727129 24.482466 24.700108 24.871082 24.584627 24.696028 24.678425
24.457006 24.7408 24.832497 24.42457 24.51044 24.86356 24.420267 24.799486
24.64002 24.915583 24.681322 24.451149 24.363724 24.509083 24.80932 24.659184
24.61344 24.56978 24.888186 24.491848 24.549185 24.864893 24.836544 24.500353
24.885216 24.811728 24.851738 24.688545 24.854906 24.7016 24.863235 24.647867
24.625145 24.918316 24.845951 24.774134 24.907276 24.498512 24.775753 24.536257
24.473347 24.519423 24.813904 24.678867 24.83004 24.958485 24.652142 24.47186
24.658976 24.468906 24.471281 24.616373 24.91179 24.820614 24.782396 24.293541
24.369068 24.694212 24.696901 24.825668 24.643103 24.628021 24.656834 24.621403

seq.2.weight f4 [32, 128]
00000000: 8004 c441 b6f7 c441 e85a c541 9339 c441
00000010: f707 c541 f732 c441 3826 c441 dc29 c541
00000020: 93ca c441 8695 c441 3459 c441 eb2e c541
00000030: f1ff c341 663c c441 a947 c541 7a46 c541
00000040: 824e c441 8231 c541 65e3 c441 8dd7 c441
00000050: 861b c541 c7ae c441 93ac c441 bba3 c441
00000060: 6e33 c441 702e c541 b77a c441 89f4 c441
00000070: 2009 c441 c3bb c441 0135 c541 fe57 c441
00000080: b2d4 c441 732b c541 f050 c541 91be c441
00000090: 831a c441 690c c441 e119 c541 e490 c541
000000a0: fc43 c541 d64e c541 0f61 c441 f086 c441
000000b0: a8a1 c441 354d c441 4c12 c541 0886 c441
000000c0: 8c16 c541 27b4 c441 2bf7 c341 fc41 c541
000000d0: ac36 c541 a2af c441 8eef c441 993f c441
000000e0: 3075 c441 e18b c441 0b86 c541 7133 c441
000000f0: a10b c541 114f c441 4a89 c441 f0c9 c441
00000100: 4eca c441 d352 c441 b976 c541 cb32 c441
00000110: 989f c441 ab1c c541 7ad3 c441 8225 c541
00000120: 044c c441 6c76 c441 2ba8 c441 49ea c441
00000130: dfe5 c441 6652 c541 bc97 c441 f729 c441
00000140: b75e c441 ae1b c441 0ab1 c441 234e c541
00000150: 167a c441 03fc c441 8423 c541 3971 c441
00000160: 1e34 c541 9c5d c441 8bce c441 fb7f c441
00000170: bd6d c441 9239 c541 0d67 c441 b99e c441
00000180: 48df c441 8247 c541 650c c441 eb36 c441
00000190: 5007 c441 4b4c c541 d288 c441 1c1c c541
000001a0: d970 c441 fa46 c541 b6c4 c441 9b7a c541
000001b0: f9ab c441 37b3 c341 73b6 c441 76cc c441
000001c0: b4a5 c441 f343 c541 2e42 c441 97f2 c441
000001d0: 1a63 c541 d66a c441 ae32 c541 e6b4 c341
000001e0: c45a c441 3027 c441 0425 c441 76aa c441
000001f0: fb13 c541 c73a c541 4722 c541 ecbb c441
00000200: 3cdc c441 2375 c541 6489 c541 2c33 c441
00000210: 28b6 c441 0a45 c541 ff33 c541 dd7d c441
00000220: 3eac c441 55d4 c441 df0d c441 9f3e c541
00000230: e3a6 c441 cb7f c541 5119 c541 eace c441
00000240: 3526 c541 fd88 c541 9648 c441 e685 c441
00000250: 4d00 c541 f999 c441 839d c441 8241 c441
00000260: 59c5 c441 da6f c441 7767 c541 5f8b c441
00000270: 3992 c441 8d05 c541 1b98 c441 decd c441
00000280: 7250 c441 ffde c441 81c3 c441 7267 c441
00000290: ebea c441 e834 c541 9882 c441 90e3 c441
000002a0: 1d25 c541 074f c441 0388 c441 2d15 c541
000002b0: 6f0f c541 9a42 c541 164f c541 950a c541
000002c0: 4b58 c541 8ea5 c441 ecff c441 ef01 c441
000002d0: e121 c541 0777 c441 81c2 c441 1dcc c441
000002e0: 2bce c441 209e c441 7628 c541 e5d4 c441
000002f0: 9b66 c441 63a6 c441 6f3d c541 9cf7 c441
00000300: 840d c441 439f c541 d672 c541 15cb c441
00000310: 0e2d c541 e8fe c441 2b74 c441 9c2e c541
00000320: 9d2b c541 a22b c541 cc38 c441 bce8 c341
00000330: 6cb8 c441 5d73 c441 7567 c541 79dd c441
00000340: 5f65 c441 67bb c441 29d7 c441 1082 c441
00000350: 2a17 c541 772b c541 0352 c441 d5b7 c441
00000360: 9278 c441 5621 c541 ba43 c541 f6f1 c441
00000370: 5a3c c541 2161 c441 5b94 c441 0f0b c441
00000380: f7ee c441 b571 c441 e6f7 c341 8371 c441
00000390: 2437 c541 ca52 c441 6997 c441 8598 c541
000003a0: 2ea9 c441 ace3 c441 3161 c541 46bf c441
000003b0: 7c63 c541 7b2e c541 119d c541 3496 c441
000003c0: 1e67 c541 1931 c541 0442 c541 694a c441
000003d0: 16ef c441 29fe c441 b76e c541 50f3 c341
000003e0: 2761 c441 8d82 c441 9e71 c541 4647 c441
000003f0: ad92 c441 7b44 c541 c731 c541 71b3 c441
24.502197 24.620953 24.669388 24.528112 24.62889 24.524885 24.518661 24.64544
24.598913 24.57301 24.543556 24.64791 24.499971 24.529491 24.65999 24.659412
24.538334 24.649174 24.611032 24.60525 24.63844 24.58534 24.584265 24.579947
24.525112 24.647675 24.55992 24.619402 24.504456 24.59168 24.65088 24.542965
24.603855 24.646215 24.66452 24.59305 24.512945 24.50606 24.637636 24.695747
24.658195 24.663494 24.547392 24.565887 24.578934 24.537699 24.633934 24.565445
24.63601 24.587965 24.495687 24.657219 24.651695 24.585758 24.61697 24.531054
24.55722 24.5683 24.69045 24.525118 24.630678 24.538607 24.567036 24.598602
24.598782 24.540442 24.68297 24.524801 24.577927 24.638998 24.60326 24.643314
24.537117 24.557823 24.582113 24.614397 24.612242 24.665234 24.57409 24.52049
24.546247 24.513515 24.586445 24.663153 24.559612 24.623053 24.642342 24.555285
24.650448 24.545708 24.600851 24.56249 24.553583 24.65311 24.550318 24.577501
24.609024 24.659916 24.506052 24.526815 24.50357 24.662252 24.566807 24.638725
24.555101 24.659657 24.59605 24.684866 24.583971 24.462507 24.589087 24.599834
24.58091 24.658178 24.532314 24.618452 24.67339 24.552166 24.649746 24.46333
24.54432 24.519135 24.518074 24.583233 24.634756 24.6537 24.641737 24.591759
24.607536 24.682196 24.692085 24.524986 24.588943 24.65871 24.650389 24.561457
24.584103 24.603678 24.506773 24.655577 24.581488 24.687399 24.637362 24.601032
24.643656 24.691889 24.535442 24.56538 24.625147 24.575182 24.57691 24.531986
24.596361 24.554615 24.67552 24.568052 24.571398 24.62771 24.57427 24.600521
24.53928 24.608885 24.59546 24.55051 24.614706 24.650833 24.563766 24.611115
24.643122 24.538588 24.566412 24.63534 24.632536 24.65752 24.663616 24.630167
24.668112 24.580837 24.624962 24.500944 24.641542 24.558119 24.594973 24.599665
24.600668 24.57721 24.644756 24.603952 24.5501 24.581244 24.654997 24.620903
24.5066 24.702765 24.681072 24.599161 24.647 24.624466 24.556723 24.647758
24.646296 24.646305 24.527733 24.48864 24.59005 24.55633 24.675516 24.60814
24.549498 24.591505 24.605059 24.563507 24.63631 24.646223 24.540045 24.589762
24.558872 24.641277 24.65807 24.618145 24.654469 24.547426 24.57244 24.5054
24.616682 24.555521 24.496044 24.555426 24.651924 24.540424 24.57393 24.699472
24.582607 24.611168 24.672457 24.593395 24.673576 24.647696 24.701693 24.573341
24.67535 24.648973 24.657234 24.536333 24.616741 24.624102 24.67906 24.493805
24.547438 24.563745 24.680477 24.534801 24.571619 24.658438 24.649305 24.587618

seq.2.bias f4 [32]
00000000: 1e0d b841 f6a2 b841 1ea6 3b3d b45b b841
00000010: 018b b841 f771 6ebd 6686 b4bd 7243 b841
00000020: 86f4 b741 22b8 903d 1529 b841 4da0 053d
00000030: 0632 b841 6559 2a3d 6816 b841 af6d 543d
00000040: 84f6 9fbd 83fa b841 a9b1 1cbd 3bec b741
00000050: 8bc2 b741 e317 3a3d b827 b841 6679 b841
00000060: 3611 b841 4e02 7f3d 1765 2b3d 01f0 b741
00000070: cd2a 893d 8505 623d 9f5f b841 41c7 833d
23.006405 23.07957 0.04581272 23.044777 23.067873 -0.058214154 -0.08814697 23.032932
22.994396 0.070663705 23.02006 0.032623578 23.024426 0.04158916 23.01094 0.051862415
-0.07810691 23.12232 -0.038255367 22.990347 22.969992 0.045432936 23.019394 23.059277
23.008404 0.062258057 0.041844454 22.99219 0.06697617 0.055181045 23.04669 0.06434489

seq.4.weight f4 [8, 32]
00000000: 4a57 af3d caf1 69bd 1926 23be 3862 2ebe
00000010: 91bb e63d 105d 2a3e 8ace 353e 2ab4 40be
00000020: 0f48 ea3c 6fad ddbd f267 a3bd 2736 133e
00000030: 0a45 48be 66ba 313e bf83 d83d 89a1 613d
00000040: 804b e73d ef10 53be 9b11 dcbd 2730 1dbc
00000050: 558e f43d b811 e2bd 7d76 ef3d b518 863d
00000060: 7e01 153e 5cf9 d8bd e7fd 1dbe 8562 a2bd
00000070: a9ab 36bd 8430 463d fe80 cabc 6dc6 543d
00000080: 0b79 25be 6cd0 a0bc b882 06be 2952 0a3e
00000090: 4de2 b2bd abcf 9c3d 8f1d 2fbe debc 4c3d
000000a0: 95a4 1d3d 516d a83d 19ce 03be 1459 613c
000000b0: efda 1d3d 42b0 8fbd 9a4b bc3d fd64 ccbd
000000c0: d9de 1bbb de36 20bb 2a86 373e df84 d1bc
000000d0: f8df 01be ffd9 f23d 50d5 b8bb e40f 853d
000000e0: 754d 03be a079 193e 8329 70bd b0f0 25be
000000f0: 683c a13d 2569 9d3d 174d 003e 816a c8bd
00000100: c6a4 c541 67f6 c541 8b7b c43c 987e c641
00000110: 4a56 c541 acc3 08bd 3304 e3bd 8224 c641
00000120: c04f c541 590a b5bd be3b c641 1c9d f03b
00000130: 1679 c541 193e 52bd 3c17 c641 b42b 27be
00000140: ded6 08be dd87 c541 8073 abbc 4792 c541
00000150: c369 c641 a4c7 06be 953f c541 6325 c641
00000160: 29f8 c541 2f73 2e3e b8b7 53bd e3b9 c541
00000170: 1f57 8cbd 1e5d 1ebe a5bf c241 b4cd e83d
00000180: c2c1 b53d 39c9 2dbe 6439 533d 5fb8 dc3d
00000190: b448 1bbe b088 f5bd ef19 093e 7afe c7bc
000001a0: c49f 30be cb4a f63d a386 e13d 6c96 bcba
000001b0: d376 1ebe 21f3 07be a1ac b33c 328e b33d
000001c0: 7bce 2fbe 42a8 0fbe 9883 23be 73e1 01be
000001d0: cdae fd3d 5d07 83bd 03f4 12be a0ec 2bbe
000001e0: df66 313e 873a 213d 4be7 da3d 11c4 2abe
000001f0: cad3 84bd 69a2 abbd 18fc 0cbe 019f 66bd
00000200: 66a3 c541 68ed c541 7eef 893c 53d8 c341
00000210: 0295 c541 dcf1 b8bd 1902 dbbd 45bb c341
00000220: 8e20 c641 0ee0 2ebe 5ea6 c341 085c 66bd
00000230: e8ec c441 1c9f 2cbe 90ca c441 1fa6 033b
00000240: 4f9d 1ebe a1cf c441 6d55 8fbd effe c541
00000250: 260b c441 d459 a93c 975c c441 70e4 c441
00000260: c55b c441 37a5 14bd c1ee 92bd 5044 c541
00000270: 5c89 b33d c13d abbd 4ead c541 cd27 8abd
00000280: 5ce9 dabd 0447 c73d addf 1bbe 13ef e4bd
00000290: 44c2 f33d 5d9f ad3d b9aa 8fbd 7e54 29be
000002a0: 928c 5c3c 9ed0 2b3e 2f81 973c 3fb8 933c
000002b0: 37aa 33be 1e12 813d b836 06be da3a 0dbe
000002c0: 9629 4abc e9fc a13d ff7a 08be 7213 273d
000002d0: a206 37be 6b36 1d3d dc5f a7bd 2ccc 47bc
000002e0: aa27 4fbc 1c22 32bc b76f 07be 47e3 283e
000002f0: 9fbf a73d ba83 0ebe fdb7 babd 2f8d 14be
00000300: 5ab9 c541 cb1b c441 cf50 bcbd 71e6 c341
00000310: 75eb c441 584e ccbc 8135 cb3c 2bad c341
00000320: 519d c341 da29 a23d 822b c441 2440 293d
00000330: 2207 c441 5b52 f1bd b8b2 c541 699c b43d
00000340: 598f dcbd c6a2 c541 938f 29be 45f9 c441
00000350: 80d9 c541 66f5 18be f12c c441 5979 c541
00000360: 4ab1 c441 2cf6 483c cb94 21be 41a1 c541
00000370: 1371 ba3d c28b 17be 84ce c441 0a6e b7bd
00000380: 01d1 abbc f4bd 6a3d beb7 afbc 7adc dbbd
00000390: aaff bc3c 973d 9e3d 15d5 bf3d 0d81 98bd
000003a0: 739b 31be 92db 2abe c790 26be 0e5b 2d3d
000003b0: 9174 823d 1b85 bcbd a494 31bb 4edc 183e
000003c0: ecef 983d bdb7 c83b 414c 323d f5c6 35bd
000003d0: 6d20 ffbc c233 04be 10e3 ab3d 1d56 80bd
000003e0: c51e 123c a16a 8dbc 7663 253e 05f8 94bc
000003f0: 9109 a73d 1e2a bd3d c860 77bd 7d80 0dbd
0.08561571 -0.057115354 -0.15932502 -0.17029655 0.11266244 0.16637063 0.1775457 -0.18818727
0.028598813 -0.108240955 -0.0797881 0.14376126 -0.19557586 0.17356262 0.105720036 0.055085693
0.11293697 -0.20611928 -0.107455455 -0.009594 0.1194121 -0.11038536 0.11692522 0.06547681
0.1455135 -0.105944365 -0.15428887 -0.07928947 -0.0445973 0.04838611 -0.024719711 0.051947046
-0.16159455 -0.019630633 -0.13135803 0.13507904 -0.0873457 0.07656797 -0.1710112 0.049984805
0.038487036 0.082239754 -0.12871589 0.013754148 0.03853887 -0.070160404 0.09194107 -0.099801995
-0.002378395 -0.0024446766 0.17922273 -0.025576053 -0.12683094 0.11857986 -0.005640663 0.064971715
-0.12822516 0.14987803 -0.05863334 -0.16205096 0.0787285 0.0768607 0.12529407 -0.09785939
24.705456 24.745314 0.023984691 24.811813 24.667133 -0.033389732 -0.11084785 24.767826
24.66394 -0.08839864 24.779171 0.0073429476 24.684124 -0.051328752 24.761345 -0.16325265
-0.13363215 24.69134 -0.020929098 24.696424 24.801641 -0.13162094 24.656046 24.768255
24.746172 0.17036127 -0.05168888 24.715765 -0.068525545 -0.15465209 24.343576 0.1136736
0.08874847 -0.16971292 0.051568404 0.107773535 -0.15164453 -0.11988962 0.13388799 -0.024413336
-0.17248446 0.120259844 0.11012008 -0.0014388091 -0.15475015 -0.1327634 0.021932902 0.08767356
-0.1716861 -0.14029029 -0.15968168 -0.12683658 0.12386856 -0.06397889 -0.14350896 -0.16789484
0.17324398 0.039362457 0.10688647 -0.16676356 -0.06485708 -0.08380587 -0.13768041 -0.05630398
24.704784 24.740921 0.016837832 24.480627 24.697758 -0.09030506 -0.106937595 24.46644
24.765896 -0.17077658 24.456234 -0.05624011 24.615677 -0.1685757 24.598907 0.002008803
-0.15489696 24.601381 -0.069987155 24.74948 24.505444 0.020672716 24.54521 24.611542
24.54481 -0.036290374 -0.07174445 24.658356 0.087664336 -0.08361388 24.709621 -0.06745873
-0.10689041 0.09730342 -0.15222044 -0.11178412 0.119022876 0.08477662 -0.07014985 -0.16536137
0.013461249 0.167788 0.018494217 0.018032191 -0.175454 0.06302284 -0.13106811 -0.13791981
-0.012339016 0.07909567 -0.1332817 0.04079003 -0.17873624 0.038381975 -0.081725806 -0.012194674
-0.012643734 -0.01087239 -0.1322621 0.1649295 0.08190846 -0.13917437 -0.09117124 -0.14506982
24.715504 24.51357 -0.091951005 24.48752 24.61497 -0.024939701 0.024805786 24.459555
24.451815 0.07918139 24.521244 0.041320935 24.503483 -0.11783286 24.712265 0.08818895
-0.10769529 24.70448 -0.16558675 24.621714 24.731201 -0.14937362 24.521944 24.684252
24.586567 0.012265723 -0.15779416 24.703737 0.091035984 -0.14799407 24.600838 -0.08956535
-0.020973684 0.05731006 -0.02144992 -0.10735412 0.023071129 0.07726591 0.09366814 -0.074464895
-0.17344455 -0.16685322 -0.16266166 0.042323165 0.063698895 -0.09205075 -0.0027096653 0.1492779
0.074676365 0.006125419 0.043529753 -0.044379193 -0.031143392 -0.12910369 0.08392918 -0.06266425
0.008918469 -0.017262759 0.16151223 -0.018184671 0.081561215 0.09236549 -0.060395032 -0.034546364

seq.4.bias f4 [8]
00000000: eb35 053e ca4e 1b3d ef73 a741 fbd8 a33c
00000010: 13d3 a741 1383 0ebe 0cca a941 812f 9fbc
0.1300885 0.037916936 20.931608 0.020000925 20.978064 -0.13917188 21.223656 -0.019431831

seq.6.weight f4 [4, 8]
00000000: 6c88 113e e84d 263e 68c3 6a41 c2c8 ebbd
00000010: 055d 6b41 9478 a2bd a6ef 6041 cb31 1bbe
00000020: fe51 99be 188d a63d 53c8 b641 c14b 423d
00000030: e2f4 b641 0d20 33be e44f b741 6836 a43e
00000040: 39f4 5cbd a73f 95be 32cc 6b41 6702 4b3e
00000050: 092d 6541 de6f 80be 4282 6841 ade2 013e
00000060: 8a1c ae3b ecb1 bcbe 9296 b841 37e7 2abd
00000070: 2a3b bd41 09cd 53bd 6aa2 ba41 d353 183e
0.14212197 0.16240656 14.672707 -0.11512901 14.71021 -0.07933155 14.058508 -0.15155713
-0.29945368 0.0813238 22.847815 0.047435526 22.869572 -0.17492695 22.91401 0.3207276
-0.053943846 -0.29150125 14.737352 0.19825135 14.323495 -0.25085348 14.531801 0.12684126
0.0053134607 -0.36854494 23.07352 -0.04172441 23.653889 -0.05170921 23.329304 0.14875726

seq.6.bias f4 [4]
00000000: 654a 5941 cf1a 8e41 0f26 5a41 42c9 8e41
13.580663 17.76309 13.634292 17.84827
