training/models/environment_traffic_lights/1639342829/checkpoints/ep00050.pt (torch, 28751 bytes, 8 tensors)

seq.0.weight f4 [128, 16]
000000 f8 d9 33 42 f9 8b 30 42 35 e0 2e 42 07 43 0c 42
       44.96286 44.136692 43.718952 35.065456
000010 9d e4 33 42 c8 eb 2f 42 56 0d 2e 42 57 dd 1d 42
       44.973255 43.980255 43.513023 39.466152
000020 b1 70 32 42 3d fa 30 42 41 b3 2d 42 aa 92 0d 42
       44.61005 44.244373 43.425053 35.393227
000030 0e a4 32 42 08 21 30 42 21 61 2e 42 57 b4 1f 42
       44.66021 44.032257 43.594852 39.926113
000040 98 4c 33 42 16 0a 30 42 5f 08 2d 42 bd 6c 0b 42
       44.8248 44.00985 43.258175 34.85619
000050 d0 de 33 42 c5 35 30 42 2d 62 2e 42 52 8f 1e 42
       44.96759 44.05251 43.595875 39.63996
000060 ac fd 32 42 db 73 2f 42 ad 96 2d 42 4e dd 0e 42
       44.747726 43.86314 43.397144 35.716118
000070 61 12 33 42 6e 23 30 42 f4 51 2f 42 23 e7 1e 42
       44.76795 44.0346 43.830032 39.72572
000080 74 0e 33 42 69 71 2f 42 e9 08 2d 42 a1 02 0c 42
       44.764114 43.860752 43.2587 35.002567
000090 a1 9e 32 42 da f5 2f 42 83 2d 2f 42 d9 d2 1e 42
       44.65491 43.99009 43.794445 39.705906
0000a0 ba f4 31 42 7b 1a 30 42 7f 46 2d 42 ae 13 0e 42
       44.48899 44.02586 43.318844 35.51922
0000b0 c9 c0 33 42 1c fd 30 42 0b 99 2f 42 4d ba 1e 42
       44.938267 44.247177 43.899456 39.681934
0000c0 c9 2e 33 42 2e b6 2f 42 df 6f 2d 42 f9 e9 0b 42
       44.79569 43.92791 43.35925 34.97849
0000d0 ea b1 32 42 ea 95 30 42 0d ba 2d 42 5a 59 1d 42
       44.673744 44.1464 43.43169 39.337257
0000e0 d2 4c 32 42 31 93 2f 42 7a 05 2e 42 43 f8 0c 42
       44.57502 43.89374 43.50535 35.242443
0000f0 15 77 33 42 8e 57 30 42 52 a3 2d 42 58 7a 1f 42
       44.86629 44.085503 43.409492 39.869476
000100 74 00 33 42 c8 cd 2f 42 d3 4c 2d 42 82 2f 0d 42
       44.750443 43.95096 43.325024 35.296394
000110 00 90 32 42 55 3b 30 42 d6 c3 2d 42 28 84 1d 42
       44.640625 44.05794 43.441246 39.37906
000120 ed 8f 33 42 5b 2f 30 42 90 3a 2d 42 f2 c2 0d 42
       44.890553 44.046246 43.30719 35.440376
000130 c9 ff 33 42 10 e7 30 42 ef ec 2e 42 68 4e 1f 42
       44.99979 44.225647 43.73138 39.82657
000140 61 75 32 42 3c 7c 30 42 76 2b 2e 42 f5 9f 0c 42
       44.614628 44.121323 43.542442 35.156208
000150 44 20 33 42 2c ea 2f 42 76 13 2f 42 46 00 1e 42
       44.78151 43.978683 43.769005 39.500267
000160 24 d2 33 42 06 29 30 42 37 fe 2e 42 ae 02 0e 42
       44.955215 44.040062 43.748257 35.502617
000170 9e 0b 33 42 b9 94 30 42 fe dc 2e 42 d9 c4 1e 42
       44.761345 44.145237 43.715813 39.692234
000180 fe bf 32 42 fa 37 30 42 df 2e 2d 42 8f 7e 0c 42
       44.687492 44.054665 43.295773 35.123592
000190 21 f3 32 42 7e e6 2f 42 3a 98 2d 42 aa cd 1e 42
       44.73743 43.97509 43.39866 39.700844
0001a0 9b 2f 32 42 d7 c1 2f 42 2d 5d 2d 42 3f 26 0e 42
       44.54649 43.939297 43.340992 35.53735
0001b0 81 fd 33 42 7c 01 30 42 17 b2 2e 42 ea f4 1d 42
       44.997562 44.00145 43.673916 39.489174
0001c0 ef 26 33 42 e0 99 30 42 0f ef 2d 42 e2 fa 0c 42
       44.78802 44.15027 43.483456 35.245003
0001d0 30 58 32 42 35 c7 30 42 67 67 2e 42 63 1e 1f 42
       44.58612 44.19454 43.60098 39.779675
0001e0 bc d9 32 42 f6 95 30 42 73 ee 2e 42 37 61 0d 42
       44.71263 44.146446 43.73286 35.344936
0001f0 1c 61 34 42 14 6e 31 42 d2 55 2e 42 5d 3c 1e 42
       45.094833 44.3575 43.58381 39.55895
000200 d6 38 33 42 78 5c 30 42 ba 77 2e 42 b0 e0 0c 42
       44.805504 44.0903 43.61692 35.21942
000210 c4 ed 32 42 e1 e1 30 42 53 04 2e 42 41 8b 1d 42
       44.732193 44.220585 43.504223 39.38599
000220 fe 38 33 42 40 26 30 42 a4 d5 2e 42 32 c0 0e 42
       44.805656 44.037354 43.708633 35.68769
000230 a1 92 33 42 47 ef 30 42 53 6f 2f 42 f7 a8 1f 42
       44.893192 44.23367 43.858715 39.915005
000240 42 3d 33 42 2a 40 2f 42 49 61 2d 42 b8 49 0d 42
       44.809822 43.81266 43.345005 35.32199
000250 3d 0b 34 42 50 93 2f 42 70 fe 2e 42 af e4 1e 42
       45.010975 43.89386 43.748474 39.723324
000260 51 ba 32 42 13 fa 2f 42 33 93 2e 42 c9 09 0f 42
       44.68195 43.994213 43.64375 35.759556
000270 58 23 34 42 52 5d 31 42 fd 6b 2f 42 3f 41 1e 42
       45.034515 44.341133 43.855457 39.563717
000280 68 d5 32 42 b4 5a 2f 42 fc 95 2e 42 5e 96 0c 42
       44.708405 43.838577 43.64647 35.146843
000290 5b f4 32 42 77 a3 2f 42 51 b3 2d 42 dd c6 1e 42
       44.73863 43.909634 43.425114 39.694202
0002a0 04 cf 32 42 a0 0b 2f 42 86 c1 2e 42 89 ed 0c 42
       44.702164 43.761353 43.688988 35.231968
0002b0 0f ab 32 42 a6 43 30 42 7c be 2e 42 cf 8e 1f 42
       44.66705 44.066063 43.68602 39.88946
0002c0 ad dc 32 42 e0 8f 2f 42 32 18 2d 42 26 06 0d 42
       44.715504 43.890503 43.27363 35.256004
0002d0 0a 66 32 42 3f c7 30 42 d3 bb 2e 42 d0 63 1e 42
       44.599648 44.194576 43.683422 39.597473
0002e0 98 ce 32 42 58 c4 30 42 1b cb 2d 42 e1 ff 0d 42
       44.70175 44.191742 43.448345 35.49988
0002f0 83 a4 33 42 1c 2c 31 42 c6 ca 2e 42 f5 c0 1e 42
       44.910656 44.293076 43.69802 39.688435
000300 7f 72 32 42 78 f0 2f 42 0c 0f 2d 42 ea f6 0c 42
       44.611813 43.984833 43.264694 35.241127
000310 e2 f6 33 42 7c 7a 30 42 f7 6c 2f 42 07 d3 1d 42
       44.991096 44.119614 43.85641 39.45608
000320 be 5c 33 42 c3 3c 30 42 e3 40 2e 42 0e d0 0d 42
       44.84057 44.059338 43.563366 35.45318
000330 c7 48 34 42 53 d8 31 42 78 4f 2f 42 72 cc 1f 42
       45.07107 44.461254 43.827606 39.949654
000340 07 4a 32 42 26 ca 2f 42 cd 6c 2d 42 a3 37 0d 42
       44.572292 43.94741 43.35625 35.304333
000350 a3 21 34 42 9f 03 30 42 31 75 2f 42 49 71 1d 42
       45.03285 44.003536 43.864445 39.36063
000360 fa 0e 32 42 43 3b 30 42 af f2 2e 42 39 b9 0d 42
       44.514626 44.057873 43.736996 35.43088
000370 dd 59 33 42 ac b8 30 42 9c a3 2e 42 df c9 1e 42
       44.837757 44.180344 43.659775 39.69714
000380 a5 61 33 42 12 78 30 42 58 62 2e 42 5d 6d 0c 42
       44.845356 44.117256 43.59604 35.1068
000390 de 25 34 42 d5 39 30 42 3d 99 2e 42 39 56 1d 42
       45.03698 44.056477 43.649647 39.3342
0003a0 bf 2f 32 42 38 65 30 42 af 7c 2e 42 de 9c 0d 42
       44.546627 44.098846 43.62176 35.40319
0003b0 d6 6a 32 42 1d 6c 30 42 c5 9d 2f 42 55 9c 1e 42
       44.604332 44.10558 43.90407 39.652668
0003c0 8c d1 32 42 b3 6e 2f 42 ed da 2d 42 01 53 0c 42
       44.704636 43.858105 43.463795 35.08106
0003d0 f7 ce 33 42 41 da 30 42 5c 43 2e 42 95 04 1f 42
       44.952114 44.21314 43.56578 39.754475
0003e0 ec 6c 33 42 25 e1 30 42 b7 a4 2e 42 2e bf 0d 42
       44.85637 44.219868 43.660854 35.4367
0003f0 94 a7 33 42 b3 bb 31 42 49 23 2e 42 9f 2a 1e 42
       44.91365 44.4333 43.53446 39.541622

seq.0.bias f4 [128]
000000 c2 40 34 42 72 f4 35 42 73 11 34 42 fe de 33 42
       45.06324 45.488716 45.01704 44.967766
000010 02 38 34 42 99 40 34 42 45 a2 34 42 df 29 35 42
       45.054695 45.063084 45.158466 45.29089
000020 6f 34 35 42 fc f2 35 42 71 ad 35 42 c9 c3 34 42
       45.301205 45.48729 45.419376 45.191196
000030 7d 62 35 42 7c 3e 35 42 31 26 34 42 71 1d 34 42
       45.34618 45.31102 45.037296 45.02875
000040 64 a1 34 42 97 db 35 42 e9 bf 35 42 50 57 34 42
       45.157608 45.464443 45.437412 45.085266
000050 f5 d2 34 42 6b d2 34 42 9a 5a 35 42 d4 83 35 42
       45.206013 45.205486 45.338478 45.37874
000060 16 de 35 42 49 5e 35 42 71 97 35 42 45 b8 34 42
       45.46688 45.342075 45.397892 45.17995
000070 dc 80 34 42 82 2c 35 42 37 db 34 42 17 28 34 42
       45.12584 45.293465 45.214077 45.03915
000080 8e 6d 34 42 cb 75 34 42 29 4c 35 42 bd f6 34 42
       45.106987 45.115032 45.324375 45.240955
000090 4a ba 35 42 67 e9 35 42 b7 e8 33 42 4a 67 35 42
       45.431923 45.477932 44.97726 45.35087
0000a0 b7 6b 35 42 0a 87 33 42 52 e1 34 42 67 84 34 42
       45.35519 44.881874 45.22004 45.1293
0000b0 b9 31 35 42 e3 f3 33 42 fb 5f 35 42 9e cd 34 42
       45.298557 44.98817 45.34373 45.200798
0000c0 92 dc 34 42 2f 74 35 42 1e d0 34 42 de e9 34 42
       45.2154 45.36346 45.20324 45.228386
0000d0 d5 d9 34 42 68 bf 34 42 1e 7e 35 42 a0 f1 34 42
       45.212727 45.18692 45.37316 45.235962
0000e0 91 5f 35 42 dd 03 35 42 ef 08 34 42 23 e8 34 42
       45.343327 45.253773 45.008724 45.226696
0000f0 52 97 35 42 ca 71 34 42 11 e4 34 42 10 d2 34 42
       45.397774 45.111122 45.22272 45.20514
000100 6d ef 33 42 87 11 35 42 a6 6f 35 42 1b ce 33 42
       44.983814 45.267117 45.35903 44.951275
000110 2d 26 34 42 a4 8f 35 42 88 c9 33 42 e7 4d 35 42
       45.03728 45.390274 44.946808 45.326077
000120 79 aa 34 42 b8 c4 35 42 f1 d4 34 42 48 e9 33 42
       45.166477 45.44211 45.20795 44.977814
000130 15 90 33 42 d1 24 34 42 70 57 35 42 89 be 34 42
       44.890705 45.035954 45.33539 45.18607
000140 ca 8f 34 42 ba 62 34 42 57 a8 35 42 d0 12 34 42
       45.14042 45.096413 45.414394 45.01837
000150 4f 4d 34 42 ed 90 35 42 10 74 35 42 9a 1b 34 42
       45.075497 45.39153 45.363342 45.026955
000160 05 a6 35 42 5d 5a 35 42 59 83 35 42 30 dc 34 42
       45.41213 45.338245 45.37827 45.215027
000170 8e 86 35 42 3c ea 34 42 fa 8f 35 42 e6 b2 34 42
       45.3814 45.228745 45.390602 45.174706
000180 0a 9b 34 42 9a c7 35 42 07 7e 35 42 d7 33 35 42
       45.151405 45.444923 45.373074 45.300625
000190 9e bc 35 42 9c 19 34 42 ba 35 35 42 fb 3f 34 42
       45.434196 45.02501 45.302467 45.06248
0001a0 fd ff 33 42 08 2f 34 42 4e 5c 35 42 51 d2 34 42
       44.99999 45.04593 45.34014 45.205387
0001b0 4c 6d 35 42 60 f1 35 42 aa b6 34 42 ac fe 33 42
       45.356735 45.485718 45.178383 44.998703
0001c0 10 be 34 42 f1 fa 33 42 be fd 33 42 68 92 34 42
       45.185608 44.99506 44.997795 45.142975
0001d0 dc c0 35 42 65 63 35 42 95 3b 35 42 3b 49 33 42
       45.43834 45.347065 45.308186 44.821514
0001e0 12 96 33 42 06 e2 34 42 96 e4 34 42 29 69 35 42
       44.896553 45.220726 45.22323 45.352695
0001f0 8f ad 34 42 07 9e 34 42 64 bb 34 42 a9 97 34 42
       45.16949 45.154324 45.183 45.148106

seq.2.weight f4 [32, 128]
000000 02 4f 38 42 da c8 38 42 32 fb 38 42 db 6a 38 42
       46.077156 46.196144 46.245308 46.10435
000010 31 d1 38 42 fe 65 38 42 25 61 38 42 17 e1 38 42
       46.20429 46.0996 46.094868 46.219814
000020 50 b1 38 42 dc 96 38 42 45 7a 38 42 c4 e4 38 42
       46.173157 46.147324 46.119404 46.223404
000030 a4 4b 38 42 2a 6b 38 42 69 f0 38 42 5d ef 38 42
       46.073868 46.104652 46.234776 46.233753
000040 d8 72 38 42 be e5 38 42 30 be 38 42 03 b8 38 42
       46.112152 46.224358 46.18573 46.1797
000050 83 da 38 42 34 a4 38 42 bf a3 38 42 38 9e 38 42
       46.21339 46.160355 46.15991 46.15451
000060 7b 66 38 42 4f e4 38 42 a5 89 38 42 9d c6 38 42
       46.10008 46.222958 46.13442 46.19396
000070 35 51 38 42 66 a9 38 42 14 e7 38 42 45 78 38 42
       46.079304 46.16543 46.225662 46.11745
000080 ff b6 38 42 0b e4 38 42 3e f5 38 42 4c ab 38 42
       46.178707 46.2227 46.239494 46.167282
000090 e7 59 38 42 46 52 38 42 02 db 38 42 65 15 39 42
       46.087795 46.080345 46.213875 46.270893
0000a0 ff ee 38 42 15 f8 38 42 58 7f 38 42 0d 90 38 42
       46.233395 46.242268 46.12436 46.140675
0000b0 c9 9d 38 42 96 76 38 42 27 d6 38 42 ae 90 38 42
       46.154087 46.115807 46.209133 46.14129
0000c0 43 d8 38 42 2e a7 38 42 fa 47 38 42 62 ed 38 42
       46.211193 46.16326 46.07029 46.23182
0000d0 70 e7 38 42 5e a5 38 42 4e c4 38 42 61 6b 38 42
       46.226013 46.16149 46.191704 46.104862
0000e0 c3 87 38 42 1b 93 38 42 d8 12 39 42 11 66 38 42
       46.13258 46.143658 46.268402 46.099674
0000f0 f7 d1 38 42 69 74 38 42 b0 91 38 42 32 b2 38 42
       46.205044 46.11368 46.142273 46.17402
000100 18 b5 38 42 3e 76 38 42 fd 07 39 42 5d 67 38 42
       46.17685 46.11547 46.2578 46.10094
000110 fc 9d 38 42 4e db 38 42 a3 b8 38 42 87 df 38 42
       46.15428 46.214165 46.18031 46.21829
000120 bf 72 38 42 60 87 38 42 f2 a1 38 42 22 c5 38 42
       46.112057 46.132202 46.15815 46.192513
000130 ea c2 38 42 18 f6 38 42 0b 99 38 42 da 61 38 42
       46.190346 46.240326 46.149456 46.09556
000140 0f 7d 38 42 87 5a 38 42 f7 a5 38 42 93 f3 38 42
       46.122128 46.088406 46.162075 46.237865
000150 aa 8b 38 42 7f ca 38 42 9c dd 38 42 92 85 38 42
       46.13639 46.19775 46.216415 46.13044
000160 28 e6 38 42 db 7b 38 42 14 b4 38 42 82 8d 38 42
       46.224762 46.120953 46.175858 46.13819
000170 ef 83 38 42 90 e8 38 42 84 7e 38 42 0e 9c 38 42
       46.12884 46.22711 46.12355 46.152397
000180 bb bf 38 42 7a f0 38 42 0a 52 38 42 85 69 38 42
       46.187237 46.23484 46.080116 46.103046
000190 d0 4f 38 42 2a f3 38 42 e3 90 38 42 6b dc 38 42
       46.07794 46.237465 46.14149 46.215252
0001a0 03 87 38 42 aa f1 38 42 63 af 38 42 fa 09 39 42
       46.131847 46.236 46.171276 46.259743
0001b0 5e a2 38 42 2a 25 38 42 8f a8 38 42 8d b4 38 42
       46.15856 46.036293 46.164608 46.17632
0001c0 35 a0 38 42 48 f1 38 42 0d 6e 38 42 d3 c5 38 42
       46.156452 46.235626 46.10747 46.193188
0001d0 90 fe 38 42 5b 82 38 42 17 e7 38 42 30 2b 38 42
       46.248596 46.1273 46.225674 46.042175
0001e0 f7 7d 38 42 88 61 38 42 43 61 38 42 3a a2 38 42
       46.123013 46.095245 46.094982 46.158424
0001f0 13 d7 38 42 25 eb 38 42 bb de 38 42 57 aa 38 42
       46.210033 46.229633 46.21751 46.166348
000200 68 bb 38 42 08 08 39 42 ef 12 39 42 3e 68 38 42
       46.183014 46.257843 46.26849 46.1018
000210 d4 a8 38 42 7d ef 38 42 9a e8 38 42 a7 8b 38 42
       46.16487 46.233875 46.22715 46.13638
000220 a0 a2 38 42 cf b6 38 42 32 55 38 42 14 ed 38 42
       46.158813 46.178524 46.0832 46.23152
000230 a6 9f 38 42 66 0d 39 42 c7 d9 38 42 1b b4 38 42
       46.155907 46.263084 46.212673 46.175884
000240 49 df 38 42 07 12 39 42 59 71 38 42 cb 8f 38 42
       46.218052 46.267605 46.11069 46.140423
000250 72 cd 38 42 5d 9a 38 42 c2 9c 38 42 a6 6d 38 42
       46.20063 46.150745 46.153084 46.10708
000260 0c b0 38 42 7d 85 38 42 87 00 39 42 9d 92 38 42
       46.17192 46.13036 46.250515 46.143177
000270 5d 96 38 42 d4 ce 38 42 29 99 38 42 c8 b3 38 42
       46.14684 46.20198 46.14957 46.175568
000280 66 75 38 42 57 be 38 42 0a af 38 42 4a 80 38 42
       46.114647 46.18588 46.170937 46.125282
000290 a0 c2 38 42 0c e7 38 42 db 8f 38 42 4e bf 38 42
       46.190063 46.22563 46.140484 46.18682
0002a0 10 e0 38 42 a8 78 38 42 60 93 38 42 c1 d7 38 42
       46.21881 46.11783 46.14392 46.210697
0002b0 3b d5 38 42 e4 f1 38 42 26 f5 38 42 86 d3 38 42
       46.208233 46.23622 46.239403 46.206566
0002c0 ab f9 38 42 60 a0 38 42 e4 cc 38 42 e4 4d 38 42
       46.243816 46.156616 46.20009 46.076065
0002d0 9b dd 38 42 9e 89 38 42 56 ae 38 42 29 b2 38 42
       46.21641 46.13439 46.17025 46.173985
0002e0 ce b4 38 42 c8 9c 38 42 89 e4 38 42 4f b7 38 42
       46.176567 46.153107 46.22318 46.179012
0002f0 f0 7f 38 42 af a0 38 42 5a ec 38 42 90 c9 38 42
       46.12494 46.156918 46.230812 46.19684
000300 3c 57 38 42 14 1d 39 42 95 06 39 42 0e b4 38 42
       46.08519 46.278397 46.256428 46.175835
000310 39 e5 38 42 eb cc 38 42 82 89 38 42 a6 e4 38 42
       46.22385 46.200115 46.134285 46.22329
000320 0c e3 38 42 8e e2 38 42 d8 6a 38 42 f5 44 38 42
       46.221725 46.221245 46.10434 46.06734
000330 b0 ac 38 42 11 87 38 42 72 01 39 42 23 bc 38 42
       46.16864 46.1319 46.25141 46.183727
000340 f5 80 38 42 e0 aa 38 42 a1 b9 38 42 2a 8e 38 42
       46.125935 46.16687 46.18128 46.138832
000350 bc da 38 42 b6 e2 38 42 5a 75 38 42 73 a9 38 42
       46.213608 46.221397 46.1146 46.165478
000360 de 88 38 42 50 de 38 42 3e ef 38 42 0a c7 38 42
       46.13366 46.217102 46.233635 46.194374
000370 c8 eb 38 42 e5 7c 38 42 b4 95 38 42 b3 52 38 42
       46.230255 46.121967 46.146194 46.08076
000380 1f c8 38 42 18 86 38 42 52 48 38 42 5e 87 38 42
       46.19543 46.13095 46.070625 46.132195
000390 46 e8 38 42 ff 76 38 42 c9 98 38 42 2c 1b 39 42
       46.22683 46.116207 46.149204 46.276535
0003a0 b2 a3 38 42 9f c0 38 42 39 fe 38 42 d4 ac 38 42
       46.15986 46.188107 46.248264 46.168777
0003b0 c4 fe 38 42 62 e3 38 42 60 1c 39 42 f9 99 38 42
       46.248795 46.222054 46.27771 46.150364
0003c0 6e 01 39 42 77 e8 38 42 80 ee 38 42 44 72 38 42
       46.251396 46.227016 46.23291 46.111588
0003d0 1a c5 38 42 95 cc 38 42 9f 05 39 42 fb 4a 38 42
       46.192482 46.199787 46.25549 46.073223
0003e0 c4 81 38 42 ca 8f 38 42 1a 08 39 42 2b 71 38 42
       46.126724 46.14042 46.25791 46.110516
0003f0 09 97 38 42 8c f0 38 42 1d e7 38 42 a6 a6 38 42
       46.147495 46.23491 46.225697 46.162743

seq.2.bias f4 [32]
000000 f3 41 2c 42 8c 8d 2c 42 1e a6 3b 3d f8 6a 2c 42
       43.064404 43.13823 0.04581272 43.10446
000010 b3 81 2c 42 f7 71 6e bd 66 86 b4 bd 4e 5f 2c 42
       43.12666 -0.058214154 -0.08814697 43.09307
000020 ef 36 2c 42 22 b8 90 3d cc 51 2c 42 4d a0 05 3d
       43.053646 0.070663705 43.07988 0.032623578
000030 ff 55 2c 42 65 59 2a 3d ec 46 2c 42 af 6d 54 3d
       43.08398 0.04158916 43.06926 0.051862415
000040 84 f6 9f bd 54 b9 2c 42 a9 b1 1c bd d4 31 2c 42
       -0.07810691 43.180984 -0.038255367 43.04866
000050 27 1d 2c 42 e3 17 3a 3d 42 51 2c 42 72 78 2c 42
       43.02847 0.045432936 43.079353 43.117622
000060 54 45 2c 42 4e 02 7f 3d 17 65 2b 3d ac 33 2c 42
       43.067703 0.062258057 0.041844454 43.05046
000070 cd 2a 89 3d 85 05 62 3d 7f 6d 2c 42 41 c7 83 3d
       0.06697617 0.055181045 43.10693 0.06434489

seq.4.weight f4 [8, 32]
000000 4a 57 af 3d ca f1 69 bd 19 26 23 be 38 62 2e be
       0.08561571 -0.057115354 -0.15932502 -0.17029655
000010 91 bb e6 3d 10 5d 2a 3e 8a ce 35 3e 2a b4 40 be
       0.11266244 0.16637063 0.1775457 -0.18818727
000020 0f 48 ea 3c 6f ad dd bd f2 67 a3 bd 27 36 13 3e
       0.028598813 -0.108240955 -0.0797881 0.14376126
000030 0a 45 48 be 66 ba 31 3e bf 83 d8 3d 89 a1 61 3d
       -0.19557586 0.17356262 0.105720036 0.055085693
000040 80 4b e7 3d ef 10 53 be 9b 11 dc bd 27 30 1d bc
       0.11293697 -0.20611928 -0.107455455 -0.009594
000050 55 8e f4 3d b8 11 e2 bd 7d 76 ef 3d b5 18 86 3d
       0.1194121 -0.11038536 0.11692522 0.06547681
000060 7e 01 15 3e 5c f9 d8 bd e7 fd 1d be 85 62 a2 bd
       0.1455135 -0.105944365 -0.15428887 -0.07928947
000070 a9 ab 36 bd 84 30 46 3d fe 80 ca bc 6d c6 54 3d
       -0.0445973 0.04838611 -0.024719711 0.051947046
000080 0b 79 25 be 6c d0 a0 bc b8 82 06 be 29 52 0a 3e
       -0.16159455 -0.019630633 -0.13135803 0.13507904
000090 4d e2 b2 bd ab cf 9c 3d 8f 1d 2f be de bc 4c 3d
       -0.0873457 0.07656797 -0.1710112 0.049984805
0000a0 95 a4 1d 3d 51 6d a8 3d 19 ce 03 be 14 59 61 3c
       0.038487036 0.082239754 -0.12871589 0.013754148
0000b0 ef da 1d 3d 42 b0 8f bd 9a 4b bc 3d fd 64 cc bd
       0.03853887 -0.070160404 0.09194107 -0.099801995
0000c0 d9 de 1b bb de 36 20 bb 2a 86 37 3e df 84 d1 bc
       -0.002378395 -0.0024446766 0.17922273 -0.025576053
0000d0 f8 df 01 be ff d9 f2 3d 50 d5 b8 bb e4 0f 85 3d
       -0.12683094 0.11857986 -0.005640663 0.064971715
0000e0 75 4d 03 be a0 79 19 3e 83 29 70 bd b0 f0 25 be
       -0.12822516 0.14987803 -0.05863334 -0.16205096
0000f0 68 3c a1 3d 25 69 9d 3d 17 4d 00 3e 81 6a c8 bd
       0.0787285 0.0768607 0.12529407 -0.09785939
000100 9f 2b 39 42 3e 54 39 42 8b 7b c4 3c 41 99 39 42
       46.2926 46.332268 0.023984691 46.399662
000110 36 04 39 42 ac c3 08 bd 33 04 e3 bd e0 6c 39 42
       46.254112 -0.033389732 -0.11084785 46.356323
000120 df 00 39 42 59 0a b5 bd 09 78 39 42 1c 9d f0 3b
       46.25085 -0.08839864 46.36722 0.0073429476
000130 08 15 39 42 19 3e 52 bd ee 64 39 42 b4 2b 27 be
       46.27054 -0.051328752 46.348564 -0.16325265
000140 de d6 08 be d5 1c 39 42 80 73 ab bc 2c 22 39 42
       -0.13363215 46.278156 -0.020929098 46.28337
000150 b7 8e 39 42 a4 c7 06 be 41 f9 38 42 e3 6b 39 42
       46.38937 -0.13162094 46.243412 46.35536
000160 b5 55 39 42 2f 73 2e 3e b8 b7 53 bd 02 36 39 42
       46.3337 0.17036127 -0.05168888 46.302742
000170 1f 57 8c bd 1e 5d 1e be a0 b8 37 42 b4 cd e8 3d
       -0.068525545 -0.15465209 45.930298 0.1136736
000180 c2 c1 b5 3d 39 c9 2d be 64 39 53 3d 5f b8 dc 3d
       0.08874847 -0.16971292 0.051568404 0.107773535
000190 b4 48 1b be b0 88 f5 bd ef 19 09 3e 7a fe c7 bc
       -0.15164453 -0.11988962 0.13388799 -0.024413336
0001a0 c4 9f 30 be cb 4a f6 3d a3 86 e1 3d 6c 96 bc ba
       -0.17248446 0.120259844 0.11012008 -0.0014388091
0001b0 d3 76 1e be 21 f3 07 be a1 ac b3 3c 32 8e b3 3d
       -0.15475015 -0.1327634 0.021932902 0.08767356
0001c0 7b ce 2f be 42 a8 0f be 98 83 23 be 73 e1 01 be
       -0.1716861 -0.14029029 -0.15968168 -0.12683658
0001d0 cd ae fd 3d 5d 07 83 bd 03 f4 12 be a0 ec 2b be
       0.12386856 -0.06397889 -0.14350896 -0.16789484
0001e0 df 66 31 3e 87 3a 21 3d 4b e7 da 3d 11 c4 2a be
       0.17324398 0.039362457 0.10688647 -0.16676356
0001f0 ca d3 84 bd 69 a2 ab bd 18 fc 0c be 01 9f 66 bd
       -0.06485708 -0.08380587 -0.13768041 -0.05630398
000200 09 19 39 42 d8 3d 39 42 7e ef 89 3c 28 34 38 42
       46.27445 46.310394 0.016837832 46.050934
000210 b4 11 39 42 dc f1 b8 bd 19 02 db bd 4d 26 38 42
       46.26729 -0.09030506 -0.106937595 46.037403
000220 60 57 39 42 0e e0 2e be 61 1b 38 42 08 5c 66 bd
       46.335327 -0.17077658 46.026737 -0.05624011
000230 1a bd 38 42 1c 9f 2c be ae ac 38 42 1f a6 03 3b
       46.18467 -0.1685757 46.168633 0.002008803
000240 4f 9d 1e be dc ae 38 42 6d 55 8f bd a1 46 39 42
       -0.15489696 46.17076 -0.069987155 46.318974
000250 7b 4d 38 42 d4 59 a9 3c df 75 38 42 81 b9 38 42
       46.075665 0.020672716 46.11511 46.181156
000260 8f 75 38 42 37 a5 14 bd c1 ee 92 bd 58 e9 38 42
       46.114803 -0.036290374 -0.07174445 46.227875
000270 5c 89 b3 3d c1 3d ab bd 8e 1d 39 42 cd 27 8a bd
       0.087664336 -0.08361388 46.278862 -0.06745873
000280 5c e9 da bd 04 47 c7 3d ad df 1b be 13 ef e4 bd
       -0.10689041 0.09730342 -0.15222044 -0.11178412
000290 44 c2 f3 3d 5d 9f ad 3d b9 aa 8f bd 7e 54 29 be
       0.119022876 0.08477662 -0.07014985 -0.16536137
0002a0 92 8c 5c 3c 9e d0 2b 3e 2f 81 97 3c 3f b8 93 3c
       0.013461249 0.167788 0.018494217 0.018032191
0002b0 37 aa 33 be 1e 12 81 3d b8 36 06 be da 3a 0d be
       -0.175454 0.06302284 -0.13106811 -0.13791981
0002c0 96 29 4a bc e9 fc a1 3d ff 7a 08 be 72 13 27 3d
       -0.012339016 0.07909567 -0.1332817 0.04079003
0002d0 a2 06 37 be 6b 36 1d 3d dc 5f a7 bd 2c cc 47 bc
       -0.17873624 0.038381975 -0.081725806 -0.012194674
0002e0 aa 27 4f bc 1c 22 32 bc b7 6f 07 be 47 e3 28 3e
       -0.012643734 -0.01087239 -0.1322621 0.1649295
0002f0 9f bf a7 3d ba 83 0e be fd b7 ba bd 2f 8d 14 be
       0.08190846 -0.13917437 -0.09117124 -0.14506982
000300 52 28 39 42 5a 59 38 42 cf 50 bc bd 76 3f 38 42
       46.289375 46.087257 -0.091951005 46.061974
000310 3d c1 38 42 58 4e cc bc 81 35 cb 3c 8d 23 38 42
       46.18871 -0.024939701 0.024805786 46.034718
000320 15 1a 38 42 da 29 a2 3d 3b 62 38 42 24 40 29 3d
       46.02547 0.07918139 46.09593 0.041320935
000330 8f 4e 38 42 5b 52 f1 bd 13 25 39 42 69 9c b4 3d
       46.076717 -0.11783286 46.286205 0.08818895
000340 59 8f dc bd ba 1c 39 42 93 8f 29 be 1d c8 38 42
       -0.10769529 46.278053 -0.16558675 46.195423
000350 e7 38 39 42 66 f5 18 be 52 62 38 42 43 08 39 42
       46.30557 -0.14937362 46.096016 46.258068
000360 9c a4 38 42 2c f6 48 3c cb 94 21 be 1e 1c 39 42
       46.16075 0.012265723 -0.15779416 46.27746
000370 13 71 ba 3d c2 8b 17 be 77 b2 38 42 0a 6e b7 bd
       0.091035984 -0.14799407 46.174282 -0.08956535
000380 01 d1 ab bc f4 bd 6a 3d be b7 af bc 7a dc db bd
       -0.020973684 0.05731006 -0.02144992 -0.10735412
000390 aa ff bc 3c 97 3d 9e 3d 15 d5 bf 3d 0d 81 98 bd
       0.023071129 0.07726591 0.09366814 -0.074464895
0003a0 73 9b 31 be 92 db 2a be c7 90 26 be 0e 5b 2d 3d
       -0.17344455 -0.16685322 -0.16266166 0.042323165
0003b0 91 74 82 3d 1b 85 bc bd a4 94 31 bb 4e dc 18 3e
       0.063698895 -0.09205075 -0.0027096653 0.1492779
0003c0 ec ef 98 3d bd b7 c8 3b 41 4c 32 3d f5 c6 35 bd
       0.074676365 0.006125419 0.043529753 -0.044379193
0003d0 6d 20 ff bc c2 33 04 be 10 e3 ab 3d 1d 56 80 bd
       -0.031143392 -0.12910369 0.08392918 -0.06266425
0003e0 c5 1e 12 3c a1 6a 8d bc 76 63 25 3e 05 f8 94 bc
       0.008918469 -0.017262759 0.16151223 -0.018184671
0003f0 91 09 a7 3d 1e 2a bd 3d c8 60 77 bd 7d 80 0d bd
       0.081561215 0.09236549 -0.060395032 -0.034546364

seq.4.bias f4 [8]
000000 eb 35 05 3e ca 4e 1b 3d de 11 22 42 fb d8 a3 3c
       0.1300885 0.037916936 40.51745 0.020000925
000010 9d 34 22 42 13 83 0e be d8 33 23 42 81 2f 9f bc
       40.55138 -0.13917188 40.80063 -0.019431831

seq.6.weight f4 [4, 8]
000000 6c 88 11 3e e8 4d 26 3e 0c 58 06 42 c2 c8 eb bd
       0.14212197 0.16240656 33.585983 -0.11512901
000010 33 7f 06 42 94 78 a2 bd 26 e4 03 42 cb 31 1b be
       33.624218 -0.07933155 32.9728 -0.15155713
000020 fe 51 99 be 18 8d a6 3d d4 27 25 42 c1 4b 42 3d
       -0.29945368 0.0813238 41.288895 0.047435526
000030 f2 3e 25 42 0d 20 33 be ca 6c 25 42 68 36 a4 3e
       41.31147 -0.17492695 41.35624 0.3207276
000040 39 f4 5c bd a7 3f 95 be b0 c2 07 42 67 02 4b 3e
       -0.053943846 -0.29150125 33.940125 0.19825135
000050 9c 1b 06 42 de 6f 80 be 2b f1 06 42 ad e2 01 3e
       33.526962 -0.25085348 33.735516 0.12684126
000060 8a 1c ae 3b ec b1 bc be 1d d4 25 42 37 e7 2a bd
       0.0053134607 -0.36854494 41.45714 -0.04172441
000070 3a 27 28 42 09 cd 53 bd 1a db 26 42 d3 53 18 3e
       42.038307 -0.05170921 41.713966 0.14875726

seq.6.bias f4 [4]
000000 0b 92 ee 41 c2 99 09 42 d5 e9 f1 41 7e fd 0c 42
       29.82131 34.400154 30.239176 35.24755
