training/models/environment_traffic_lights/1639342829/checkpoints/ep00100.pt (torch, 28751 bytes, 8 tensors)

seq.0.weight f4 [128, 16]
00000000: 3404 1442 5be4 1242 4d7a 1142 33ce d841
00000010: f7aa 1342 d406 1242 d222 1042 8347 fe41
00000020: 96e9 1242 1b93 1342 4342 1042 2430 da41
00000030: e747 1242 7d17 1242 ab83 1042 76da 0042
00000040: 9176 1342 2e62 1242 32a2 0f42 2321 d741
00000050: dda4 1342 8450 1242 6377 1042 c9aa ff41
00000060: 4676 1342 710c 1242 6d25 1042 01c5 dc41
00000070: f6b5 1242 9119 1242 2f74 1142 ea0c 0042
00000080: 4538 1342 55c9 1142 90a2 0f42 874c d841
00000090: 8264 1242 7710 1242 9742 1142 cb18 0042
000000a0: 2c6d 1242 e4b2 1242 17d5 0f42 7a31 db41
000000b0: 2b64 1342 0ff3 1242 21bb 1142 f1bf ff41
000000c0: fe58 1342 820e 1242 f309 1042 081c d841
000000d0: 3978 1242 e7b0 1242 7dcf 0f42 743f fd41
000000e0: acc5 1242 fe2b 1242 7794 1042 39fb d841
000000f0: e51a 1342 f64d 1242 cec5 0f42 6ca0 0042
00000100: 8f2a 1342 f725 1242 c6e6 0f42 c2a6 da41
00000110: 2e56 1242 3156 1242 25d9 0f42 bd94 fd41
00000120: ab08 1442 0bc8 1242 70c9 0f42 6990 da41
00000130: 73a3 1342 4edd 1242 470f 1142 5474 0042
00000140: b09f 1242 aed4 1242 a3c5 1042 2988 d941
00000150: b5e6 1242 4a05 1242 0229 1142 8f8d fe41
00000160: 1a4b 1442 f6c1 1242 4c8d 1142 5010 db41
00000170: 89af 1242 468b 1242 a3ff 1042 28d6 ff41
00000180: 26ea 1242 3f90 1242 e4c8 0f42 0945 d941
00000190: 5eb9 1242 6701 1242 9dad 0f42 ef13 0042
000001a0: 67a8 1242 945a 1242 1cec 0f42 2b57 db41
000001b0: 3ea1 1342 cef7 1142 81d4 1042 d135 fe41
000001c0: 1c51 1342 2ef2 1242 1c89 1042 b43d da41
000001d0: 781e 1242 28e2 1242 cf7c 1042 ad64 0042
000001e0: 9052 1342 bd2e 1342 6a7d 1142 0acd d941
000001f0: e304 1442 7364 1342 4278 1042 c7c4 fe41
00000200: fb62 1342 b9b4 1242 bc11 1142 3a09 da41
00000210: f9b3 1242 c8fc 1242 b119 1042 08a3 fd41
00000220: c9b1 1342 f9be 1242 9164 1142 108b dc41
00000230: 5a36 1342 97e5 1242 bc91 1142 f6ce 0042
00000240: 8967 1342 9698 1142 70fb 0f42 9fdb da41
00000250: a5d1 1342 67ae 1142 f713 1142 242b 0042
00000260: 4033 1342 0093 1242 4022 1142 891e dd41
00000270: 3ac7 1342 d253 1342 978e 1142 cfce fe41
00000280: 80ff 1242 e1b2 1142 eb2f 1142 7474 d941
00000290: 82ba 1242 50be 1142 a0c8 0f42 090d 0042
000002a0: b947 1342 4ba4 1142 5f50 1142 81e5 d841
000002b0: b44e 1242 df39 1242 d2e0 1042 b4b4 0042
000002c0: 7b06 1342 c4e7 1142 d6b1 0f42 7353 da41
000002d0: e72b 1242 d4e1 1242 e3d0 1042 7653 ff41
000002e0: 0a47 1342 bb5c 1342 ac59 1042 cc09 db41
000002f0: e147 1342 0d22 1342 d6ec 1042 3dcd ff41
00000300: f89c 1242 1d49 1242 67a9 0f42 5f36 da41
00000310: 74bd 1342 c495 1242 ad82 1142 7633 fe41
00000320: ddd5 1342 dcd5 1242 25d0 1042 5bab da41
00000330: dbec 1342 1ecf 1342 4e72 1142 cbf2 0042
00000340: 1074 1242 4c22 1242 af06 1042 e3b6 da41
00000350: c5e7 1342 6d1e 1242 778a 1142 e16e fd41
00000360: a387 1242 e5d3 1242 8281 1142 d87c da41
00000370: 7bfd 1242 d9ae 1242 e7c5 1042 77df ff41
00000380: c18b 1342 43d0 1242 4afc 1042 8722 d941
00000390: 0bec 1342 b454 1242 8dae 1042 e138 fd41
000003a0: 7aa8 1242 eafd 1242 8e0b 1142 3b44 da41
000003b0: 810e 1242 5962 1242 1dc0 1142 8684 ff41
000003c0: b3fb 1242 f4c6 1142 f174 1042 e8ed d841
000003d0: 3395 1342 2af5 1242 b958 1042 d64a 0042
000003e0: b4e5 1342 e279 1342 a733 1142 f888 da41
000003f0: 4a4b 1342 06b2 1342 b145 1042 35a1 fe41
37.004105 36.723003 36.369434 27.100683 36.916958 36.506668 36.034004 31.784918
36.72811 36.893658 36.06471 27.273506 36.570217 36.522938 36.128582 32.21334
36.865788 36.59588 35.908394 26.89118 36.911 36.57863 36.11659 31.958391
36.8655 36.51215 36.03655 27.596193 36.677696 36.524967 36.36346 32.01261
36.80495 36.446613 35.908752 27.037367 36.598152 36.51608 36.31503 32.02421
36.606613 36.674698 35.958096 27.399158 36.84782 36.737362 36.432743 31.968721
36.836906 36.514168 36.009716 27.013687 36.617405 36.672756 35.952625 31.655983
36.69304 36.54296 36.144985 27.122667 36.776264 36.576134 35.94317 32.156662
36.79156 36.537075 35.975365 27.331425 36.58416 36.58417 35.962055 31.697626
37.008465 36.695354 35.946716 27.320513 36.90962 36.716118 36.26492 32.1136
36.655945 36.707695 36.193005 27.191484 36.7253 36.505165 36.290047 31.81912
37.07334 36.689415 36.387985 27.382965 36.67142 36.63601 36.249645 31.979568
36.72866 36.640865 35.946182 27.158709 36.681023 36.50137 35.919544 32.019466
36.664455 36.588455 35.980576 27.417562 36.907463 36.491997 36.207523 31.776278
36.82921 36.736504 36.133896 27.280128 36.529755 36.720856 36.121883 32.098316
36.830627 36.795643 36.372475 27.225117 37.004772 36.848095 36.11744 31.846083
36.84666 36.676487 36.26732 27.254505 36.675755 36.746857 36.02509 31.704605
36.92362 36.686497 36.34821 27.567902 36.803078 36.72421 36.39232 32.20211
36.85111 36.39901 35.995544 27.357237 36.95473 36.420315 36.269497 32.04213
36.80005 36.643555 36.283447 27.63991 36.944557 36.831856 36.389248 31.85098
36.74951 36.424686 36.296795 27.181862 36.682137 36.435852 35.945923 32.01273
36.82004 36.410442 36.328487 27.112062 36.57686 36.556515 36.21955 32.176468
36.75633 36.476334 35.923668 27.290747 36.542873 36.720535 36.20399 31.915752
36.819374 36.840557 36.08757 27.379784 36.820194 36.783253 36.231285 31.975214
36.65329 36.5714 35.915432 27.276548 36.935013 36.646255 36.377613 31.775127
36.95885 36.708847 36.203266 27.33367 36.981304 36.952263 36.361626 32.237103
36.613342 36.533493 36.006527 27.3393 36.976337 36.529713 36.38522 31.67914
36.632458 36.70693 36.376472 27.310959 36.74754 36.67075 36.193264 31.984114
36.88648 36.70338 36.246376 27.14186 36.98051 36.582718 36.17046 31.652773
36.664528 36.747963 36.261284 27.283316 36.514164 36.596043 36.43761 31.939709
36.7458 36.44429 36.1142 27.116165 36.895702 36.739418 36.086643 32.073082
36.97432 36.869026 36.30044 27.31688 36.823524 36.92385 36.068058 31.828714

seq.0.bias f4 [128]
00000000: 20b0 2042 7463 2242 5080 2042 4e4e 2042
00000010: 26a7 2042 0db0 2042 8111 2142 2699 2142
00000020: a7a3 2142 6562 2242 901c 2242 a032 2142
00000030: 25d2 2142 91ad 2142 5495 2042 a98c 2042
00000040: fe10 2142 8a4a 2242 322f 2242 c5c6 2042
00000050: 3e42 2142 6841 2142 8ec9 2142 2af3 2142
00000060: 234d 2242 8fcd 2142 a506 2242 7627 2142
00000070: 2df0 2042 0e9c 2142 644a 2142 6697 2042
00000080: cedc 2042 a1e4 2042 2bbb 2142 fa65 2142
00000090: 6e29 2242 a558 2242 b857 2042 63d6 2142
000000a0: 04db 2142 d4f5 1f42 3150 2142 abf3 2042
000000b0: e9a0 2142 ab62 2042 d2ce 2142 bc3c 2142
000000c0: 8f4b 2142 5ce3 2142 3b3f 2142 1859 2142
000000d0: 2849 2142 8c2e 2142 3bed 2142 3961 2142
000000e0: 9fce 2142 0373 2142 cb77 2042 4157 2142
000000f0: 8606 2242 cfe0 2042 3c53 2142 4441 2142
00000100: 9f5e 2042 7580 2142 bdde 2142 423d 2042
00000110: 6895 2042 dafe 2142 8a38 2042 02bd 2142
00000120: 7919 2142 d133 2242 0f44 2142 5958 2042
00000130: 5eff 1f42 1f94 2042 40c6 2142 dd2d 2142
00000140: 25ff 2042 ded1 2042 3717 2242 e281 2042
00000150: 35bc 2042 1100 2242 5be3 2142 b38a 2042
00000160: 6115 2242 69c9 2142 6af2 2142 2f4b 2142
00000170: 93f5 2142 c459 2142 afff 2142 2e22 2142
00000180: e709 2142 bd36 2242 8ced 2142 d8a2 2142
00000190: f82b 2242 a188 2042 f3a4 2142 d8ae 2042
000001a0: 136f 2042 099e 2042 34cb 2142 5f41 2142
000001b0: 87dc 2142 fb60 2242 8f25 2142 e96d 2042
000001c0: 312d 2142 be69 2042 c86c 2042 8701 2142
000001d0: f22f 2242 66d2 2142 48aa 2142 24b9 1f42
000001e0: b705 2042 0951 2142 7d53 2142 8ed8 2142
000001f0: 851c 2142 ee0c 2142 3a2a 2142 dd06 2142
40.171997 40.597122 40.125305 40.07647 40.16323 40.171925 40.267094 40.39956
40.409817 40.59609 40.527893 40.29944 40.45522 40.4195 40.14583 40.137363
40.266594 40.572792 40.54609 40.19411 40.31469 40.313873 40.44683 40.487465
40.57533 40.45074 40.50649 40.288536 40.234547 40.402397 40.322647 40.14785
40.21563 40.22327 40.43278 40.349586 40.54046 40.586567 40.085663 40.459362
40.463882 39.990067 40.328312 40.237957 40.40714 40.096355 40.451973 40.30931
40.323788 40.47203 40.31175 40.337006 40.32144 40.295456 40.48167 40.344944
40.45178 40.362316 40.116985 40.33521 40.50637 40.21954 40.331284 40.313736
40.092403 40.375446 40.467518 40.059822 40.145905 40.49888 40.055214 40.434578
40.274876 40.550602 40.316463 40.086277 39.999382 40.14465 40.443604 40.29479
40.249165 40.20495 40.52267 40.12684 40.183796 40.500065 40.472027 40.13545
40.520878 40.44669 40.486732 40.32342 40.48982 40.33766 40.49969 40.28338
40.25967 40.553455 40.48198 40.409027 40.54294 40.133427 40.411083 40.170746
40.10847 40.15433 40.44844 40.31384 40.46536 40.594707 40.28668 40.107334
40.294132 40.103264 40.10623 40.25149 40.54682 40.455467 40.41629 39.9308
40.00558 40.329136 40.33153 40.46148 40.27785 40.262627 40.291237 40.256702

seq.2.weight f4 [32, 128]
00000000: 72b8 1942 3e32 1a42 ce64 1a42 fed4 1942
00000010: 973a 1a42 5ecf 1942 f4ca 1942 354a 1a42
00000020: 581a 1a42 85ff 1942 3ee4 1942 464e 1a42
00000030: 34b4 1942 a9d4 1942 025a 1a42 5158 1a42
00000040: 61db 1942 484f 1a42 5027 1a42 2f21 1a42
00000050: e843 1a42 8e0d 1a42 7d0d 1a42 2f07 1a42
00000060: 12d0 1942 dc4d 1a42 28f3 1942 d22f 1a42
00000070: 0fba 1942 2e12 1a42 0150 1a42 4ee1 1942
00000080: 6920 1a42 1f4e 1a42 ba5e 1a42 7a14 1a42
00000090: 54c3 1942 9bbb 1942 9f44 1a42 da7e 1a42
000000a0: 2f58 1a42 2263 1a42 2dea 1942 bdf8 1942
000000b0: 0f07 1a42 6fe1 1942 e63f 1a42 89fa 1942
000000c0: f441 1a42 f210 1a42 dab0 1942 fb55 1a42
000000d0: 6d50 1a42 970e 1a42 d62d 1a42 1ed4 1942
000000e0: b1f1 1942 bcfc 1942 867d 1a42 70cf 1942
000000f0: 763b 1a42 84dd 1942 f4fa 1942 ba1b 1a42
00000100: 9220 1a42 eadf 1942 8c71 1a42 08d1 1942
00000110: 7c07 1a42 6544 1a42 df22 1a42 5249 1a42
00000120: 88dc 1942 9ef0 1942 e60b 1a42 3c30 1a42
00000130: cf2d 1a42 515f 1a42 f902 1a42 5ccb 1942
00000140: 72e6 1942 e2c3 1942 2f10 1a42 e65c 1a42
00000150: 23f6 1942 f933 1a42 aa46 1a42 cfee 1942
00000160: 804f 1a42 66e5 1942 9b1d 1a42 58f7 1942
00000170: bbed 1942 5e51 1a42 1fe7 1942 9f05 1a42
00000180: f72a 1a42 335a 1a42 27bb 1942 b7d3 1942
00000190: efb8 1942 865c 1a42 3efa 1942 9446 1a42
000001a0: 62f1 1942 125c 1a42 ed18 1a42 3973 1a42
000001b0: 760b 1a42 bf8d 1942 6b12 1a42 901e 1a42
000001c0: 5309 1a42 615c 1a42 39d7 1942 852f 1a42
000001d0: f567 1a42 b2eb 1942 7d51 1a42 f996 1942
000001e0: d9e9 1942 d4cb 1942 52cb 1942 b80b 1a42
000001f0: 3740 1a42 d754 1a42 a348 1a42 6313 1a42
00000200: 2e25 1a42 c771 1a42 e67c 1a42 bed2 1942
00000210: 8c12 1a42 3959 1a42 b852 1a42 1cf5 1942
00000220: fc0b 1a42 cb1f 1a42 92bf 1942 e756 1a42
00000230: 8d08 1a42 4677 1a42 ae43 1a42 6f1d 1a42
00000240: 2d48 1a42 e67b 1a42 cdda 1942 4cf9 1942
00000250: 2037 1a42 1404 1a42 ea06 1a42 f7d6 1942
00000260: f219 1a42 5def 1942 536a 1a42 28fc 1942
00000270: 87ff 1942 e237 1a42 6c02 1a42 1f1d 1a42
00000280: 21df 1942 c228 1a42 d618 1a42 c8e9 1942
00000290: 662c 1a42 b250 1a42 c3f9 1942 0d29 1a42
000002a0: a949 1a42 0de4 1942 84fe 1942 be40 1a42
000002b0: cf3e 1a42 195d 1a42 315f 1a42 b13d 1a42
000002c0: b863 1a42 840a 1a42 1136 1a42 ceb6 1942
000002d0: e646 1a42 29f3 1942 2a18 1a42 481b 1a42
000002e0: 0a1f 1a42 c206 1a42 834f 1a42 0521 1a42
000002f0: bee9 1942 260a 1a42 e755 1a42 6d33 1a42
00000300: 07c3 1942 1287 1a42 7e70 1a42 081e 1a42
00000310: 144f 1a42 5436 1a42 04f4 1942 bf4e 1a42
00000320: 264d 1a42 2b4c 1a42 2ad5 1942 64b0 1942
00000330: f717 1a42 a0f0 1942 b16b 1a42 fd25 1a42
00000340: b8ea 1942 9314 1a42 2924 1a42 c2f7 1942
00000350: 8d45 1a42 8d4c 1a42 b9de 1942 0d13 1a42
00000360: 91f2 1942 2f48 1a42 1159 1a42 3231 1a42
00000370: e455 1a42 fae5 1942 a1fe 1942 98bc 1942
00000380: b833 1a42 0bf0 1942 c4b1 1942 e6f1 1942
00000390: b751 1a42 abe0 1942 8702 1a42 c285 1a42
000003a0: 650e 1a42 622b 1a42 1368 1a42 5f16 1a42
000003b0: 2f68 1a42 444c 1a42 8f86 1a42 4204 1a42
000003c0: ea6a 1a42 e353 1a42 0458 1a42 53dc 1942
000003d0: e12e 1a42 3f36 1a42 5970 1a42 0eb7 1942
000003e0: f5ed 1942 6bfa 1942 7f72 1a42 06db 1942
000003f0: 9800 1a42 935a 1a42 5d51 1a42 0710 1a42
38.430122 38.549065 38.598442 38.458 38.557217 38.452507 38.448196 38.572468
38.525726 38.49953 38.472893 38.57644 38.42598 38.457676 38.5879 38.586246
38.464237 38.577423 38.53839 38.532406 38.566315 38.513237 38.513172 38.507015
38.453194 38.576035 38.487457 38.5467 38.431698 38.517754 38.57813 38.470024
38.53165 38.57629 38.592506 38.519997 38.44075 38.43321 38.567013 38.62388
38.586117 38.59681 38.478687 38.49291 38.506893 38.47015 38.5624 38.494663
38.564407 38.51655 38.422707 38.583965 38.57854 38.514248 38.54476 38.457146
38.486027 38.49681 38.62258 38.452576 38.558067 38.466324 38.49507 38.527077
38.531807 38.468666 38.610886 38.454132 38.50731 38.56679 38.534054 38.5716
38.465363 38.484978 38.51162 38.547104 38.544735 38.593082 38.502903 38.448593
38.475044 38.44129 38.515804 38.59072 38.490368 38.550755 38.569008 38.48321
38.577637 38.474022 38.52891 38.491547 38.48216 38.57946 38.475704 38.50549
38.541958 38.588085 38.432766 38.456753 38.4306 38.590355 38.494377 38.568924
38.485725 38.589912 38.52434 38.612522 38.511192 38.388424 38.517986 38.529846
38.509106 38.590214 38.46018 38.546406 38.60152 38.48017 38.57958 38.397434
38.478367 38.44905 38.448555 38.511444 38.56271 38.58285 38.570934 38.518932
38.53631 38.61111 38.62197 38.455803 38.518112 38.58713 38.58078 38.489365
38.511703 38.531048 38.43708 38.584866 38.50835 38.616478 38.566093 38.528744
38.570484 38.620995 38.463673 38.493454 38.553833 38.503983 38.506752 38.459927
38.525337 38.483753 38.603832 38.496246 38.49954 38.554573 38.502365 38.52844
38.4679 38.539803 38.524254 38.478302 38.543358 38.578804 38.493908 38.54009
38.571934 38.472706 38.49855 38.563225 38.561337 38.590916 38.59296 38.560246
38.59738 38.51027 38.5528 38.42852 38.569237 38.48746 38.523598 38.52664
38.53031 38.5066 38.57765 38.532246 38.478264 38.50991 38.58389 38.55022
38.440456 38.631905 38.609856 38.529327 38.577225 38.553055 38.488297 38.5769
38.57534 38.574383 38.458168 38.422256 38.523403 38.484985 38.605167 38.537098
38.479218 38.520092 38.535313 38.49195 38.56792 38.574757 38.467503 38.518604
38.48688 38.57049 38.58698 38.548042 38.583878 38.474586 38.49866 38.434174
38.550507 38.484417 38.4236 38.48623 38.5798 38.469402 38.50247 38.630623
38.514057 38.542366 38.601635 38.521847 38.60174 38.57448 38.631405 38.504158
38.60441 38.58192 38.585953 38.46516 38.54578 38.552975 38.609715 38.428764
38.48238 38.49455 38.611813 38.46389 38.50058 38.58845 38.579456 38.51565

seq.2.bias f4 [32]
00000000: 4a2f 1742 457b 1742 1ea6 3b3d 4459 1742
00000010: 7a6f 1742 f771 6ebd 6686 b4bd d94d 1742
00000020: f124 1742 22b8 903d 2d40 1742 4da0 053d
00000030: 3b44 1742 6559 2a3d 7434 1742 af6d 543d
00000040: 84f6 9fbd 0ea7 1742 a9b1 1cbd 5c1f 1742
00000050: cc0a 1742 e317 3a3d b63f 1742 fd65 1742
00000060: 5c33 1742 4e02 7f3d 1765 2b3d 3021 1742
00000070: cd2a 893d 8505 623d 185c 1742 41c7 833d
37.79618 37.87038 0.04581272 37.837173 37.858864 -0.058214154 -0.08814697 37.826023
37.786076 0.070663705 37.81267 0.032623578 37.81663 0.04158916 37.801224 0.051862415
-0.07810691 37.91314 -0.038255367 37.780624 37.760544 0.045432936 37.812218 37.849598
37.800156 0.062258057 0.041844454 37.78241 0.06697617 0.055181045 37.839935 0.06434489

seq.4.weight f4 [8, 32]
00000000: 4a57 af3d caf1 69bd 1926 23be 3862 2ebe
00000010: 91bb e63d 105d 2a3e 8ace 353e 2ab4 40be
00000020: 0f48 ea3c 6fad ddbd f267 a3bd 2736 133e
00000030: 0a45 48be 66ba 313e bf83 d83d 89a1 613d
00000040: 804b e73d ef10 53be 9b11 dcbd 2730 1dbc
00000050: 558e f43d b811 e2bd 7d76 ef3d b518 863d
00000060: 7e01 153e 5cf9 d8bd e7fd 1dbe 8562 a2bd
00000070: a9ab 36bd 8430 463d fe80 cabc 6dc6 543d
00000080: 0b79 25be 6cd0 a0bc b882 06be 2952 0a3e
00000090: 4de2 b2bd abcf 9c3d 8f1d 2fbe debc 4c3d
000000a0: 95a4 1d3d 516d a83d 19ce 03be 1459 613c
000000b0: efda 1d3d 42b0 8fbd 9a4b bc3d fd64 ccbd
000000c0: d9de 1bbb de36 20bb 2a86 373e df84 d1bc
000000d0: f8df 01be ffd9 f23d 50d5 b8bb e40f 853d
000000e0: 754d 03be a079 193e 8329 70bd b0f0 25be
000000f0: 683c a13d 2569 9d3d 174d 003e 816a c8bd
00000100: 2ca2 1a42 aeca 1a42 8b7b c43c 1d10 1b42
00000110: ad7a 1a42 acc3 08bd 3304 e3bd 16e4 1a42
00000120: 4477 1a42 590a b5bd fdee 1a42 1c9d f03b
00000130: 0c8b 1a42 193e 52bd 85db 1a42 b42b 27be
00000140: ded6 08be 2d93 1a42 8073 abbc a198 1a42
00000150: 9105 1b42 a4c7 06be e96f 1a42 6ae2 1a42
00000160: 6fcc 1a42 2f73 2e3e b8b7 53bd 7dac 1a42
00000170: 1f57 8cbd 1e5d 1ebe d02e 1942 b4cd e83d
00000180: c2c1 b53d 39c9 2dbe 6439 533d 5fb8 dc3d
00000190: b448 1bbe b088 f5bd ef19 093e 7afe c7bc
000001a0: c49f 30be cb4a f63d a386 e13d 6c96 bcba
000001b0: d376 1ebe 21f3 07be a1ac b33c 328e b33d
000001c0: 7bce 2fbe 42a8 0fbe 9883 23be 73e1 01be
000001d0: cdae fd3d 5d07 83bd 03f4 12be a0ec 2bbe
000001e0: df66 313e 873a 213d 4be7 da3d 11c4 2abe
000001f0: cad3 84bd 69a2 abbd 18fc 0cbe 019f 66bd
00000200: 117c 1a42 c2a0 1a42 7eef 893c 9097 1942
00000210: aa74 1a42 dcf1 b8bd 1902 dbbd 238a 1942
00000220: 44ba 1a42 0ee0 2ebe e97e 1942 085c 66bd
00000230: ba1f 1a42 1c9f 2cbe c00f 1a42 1fa6 033b
00000240: 4f9d 1ebe b711 1a42 6d55 8fbd 93a9 1a42
00000250: dbb0 1942 d459 a93c 0ad9 1942 831c 1a42
00000260: d1d8 1942 37a5 14bd c1ee 92bd 4c4c 1a42
00000270: 5c89 b33d c13d abbd 5080 1a42 cd27 8abd
00000280: 5ce9 dabd 0447 c73d addf 1bbe 13ef e4bd
00000290: 44c2 f33d 5d9f ad3d b9aa 8fbd 7e54 29be
000002a0: 928c 5c3c 9ed0 2b3e 2f81 973c 3fb8 933c
000002b0: 37aa 33be 1e12 813d b836 06be da3a 0dbe
000002c0: 9629 4abc e9fc a13d ff7a 08be 7213 273d
000002d0: a206 37be 6b36 1d3d dc5f a7bd 2ccc 47bc
000002e0: aa27 4fbc 1c22 32bc b76f 07be 47e3 283e
000002f0: 9fbf a73d ba83 0ebe fdb7 babd 2f8d 14be
00000300: e48e 1a42 cebf 1942 cf50 bcbd 53a6 1942
00000310: b727 1a42 584e ccbc 8135 cb3c be8a 1942
00000320: 8380 1942 da29 a23d 32c9 1942 2440 293d
00000330: b4b4 1942 5b52 f1bd ab8b 1a42 699c b43d
00000340: 598f dcbd 1e83 1a42 938f 29be 942e 1a42
00000350: be9f 1a42 66f5 18be f6c8 1942 cb6e 1a42
00000360: 580b 1a42 2cf6 483c cb94 21be 9882 1a42
00000370: 1371 ba3d c28b 17be bc18 1a42 0a6e b7bd
00000380: 01d1 abbc f4bd 6a3d beb7 afbc 7adc dbbd
00000390: aaff bc3c 973d 9e3d 15d5 bf3d 0d81 98bd
000003a0: 739b 31be 92db 2abe c790 26be 0e5b 2d3d
000003b0: 9174 823d 1b85 bcbd a494 31bb 4edc 183e
000003c0: ecef 983d bdb7 c83b 414c 323d f5c6 35bd
000003d0: 6d20 ffbc c233 04be 10e3 ab3d 1d56 80bd
000003e0: c51e 123c a16a 8dbc 7663 253e 05f8 94bc
000003f0: 9109 a73d 1e2a bd3d c860 77bd 7d80 0dbd
0.08561571 -0.057115354 -0.15932502 -0.17029655 0.11266244 0.16637063 0.1775457 -0.18818727
0.028598813 -0.108240955 -0.0797881 0.14376126 -0.19557586 0.17356262 0.105720036 0.055085693
0.11293697 -0.20611928 -0.107455455 -0.009594 0.1194121 -0.11038536 0.11692522 0.06547681
0.1455135 -0.105944365 -0.15428887 -0.07928947 -0.0445973 0.04838611 -0.024719711 0.051947046
-0.16159455 -0.019630633 -0.13135803 0.13507904 -0.0873457 0.07656797 -0.1710112 0.049984805
0.038487036 0.082239754 -0.12871589 0.013754148 0.03853887 -0.070160404 0.09194107 -0.099801995
-0.002378395 -0.0024446766 0.17922273 -0.025576053 -0.12683094 0.11857986 -0.005640663 0.064971715
-0.12822516 0.14987803 -0.05863334 -0.16205096 0.0787285 0.0768607 0.12529407 -0.09785939
38.65837 38.69793 0.023984691 38.765736 38.6198 -0.033389732 -0.11084785 38.72274
38.61647 -0.08839864 38.733387 0.0073429476 38.635788 -0.051328752 38.714375 -0.16325265
-0.13363215 38.643726 -0.020929098 38.64905 38.755436 -0.13162094 38.609287 38.721107
38.699642 0.17036127 -0.05168888 38.668446 -0.068525545 -0.15465209 38.295715 0.1136736
0.08874847 -0.16971292 0.051568404 0.107773535 -0.15164453 -0.11988962 0.13388799 -0.024413336
-0.17248446 0.120259844 0.11012008 -0.0014388091 -0.15475015 -0.1327634 0.021932902 0.08767356
-0.1716861 -0.14029029 -0.15968168 -0.12683658 0.12386856 -0.06397889 -0.14350896 -0.16789484
0.17324398 0.039362457 0.10688647 -0.16676356 -0.06485708 -0.08380587 -0.13768041 -0.05630398
38.62116 38.65699 0.016837832 38.39801 38.61393 -0.09030506 -0.106937595 38.3849
38.6819 -0.17077658 38.373936 -0.05624011 38.530983 -0.1685757 38.51538 0.002008803
-0.15489696 38.5173 -0.069987155 38.6656 38.42271 0.020672716 38.461952 38.527843
38.461735 -0.036290374 -0.07174445 38.57451 0.087664336 -0.08361388 38.625305 -0.06745873
-0.10689041 0.09730342 -0.15222044 -0.11178412 0.119022876 0.08477662 -0.07014985 -0.16536137
0.013461249 0.167788 0.018494217 0.018032191 -0.175454 0.06302284 -0.13106811 -0.13791981
-0.012339016 0.07909567 -0.1332817 0.04079003 -0.17873624 0.038381975 -0.081725806 -0.012194674
-0.012643734 -0.01087239 -0.1322621 0.1649295 0.08190846 -0.13917437 -0.09117124 -0.14506982
38.63954 38.43731 -0.091951005 38.412426 38.538784 -0.024939701 0.024805786 38.38549
38.3755 0.07918139 38.44648 0.041320935 38.426468 -0.11783286 38.636395 0.08818895
-0.10769529 38.628044 -0.16558675 38.545486 38.656 -0.14937362 38.44625 38.608196
38.511078 0.012265723 -0.15779416 38.627533 0.091035984 -0.14799407 38.524155 -0.08956535
-0.020973684 0.05731006 -0.02144992 -0.10735412 0.023071129 0.07726591 0.09366814 -0.074464895
-0.17344455 -0.16685322 -0.16266166 0.042323165 0.063698895 -0.09205075 -0.0027096653 0.1492779
0.074676365 0.006125419 0.043529753 -0.044379193 -0.031143392 -0.12910369 0.08392918 -0.06266425
0.008918469 -0.017262759 0.16151223 -0.018184671 0.081561215 0.09236549 -0.060395032 -0.034546364

seq.4.bias f4 [8]
00000000: eb35 053e ca4e 1b3d 5384 0b42 fbd8 a33c
00000010: dd9e 0b42 1383 0ebe 8aa1 0c42 812f 9fbc
0.1300885 0.037916936 34.879223 0.020000925 34.90514 -0.13917188 35.157753 -0.019431831

seq.6.weight f4 [4, 8]
00000000: 6c88 113e e84d 263e 819d 0342 c2c8 ebbd
00000010: 31c5 0342 9478 a2bd 422a 0142 cb31 1bbe
00000020: fe51 99be 188d a63d b4a8 0242 c14b 423d
00000030: 79c0 0242 0d20 33be 64ee 0242 6836 a43e
00000040: 39f4 5cbd a73f 95be 6593 0342 6702 4b3e
00000050: cbec 0142 de6f 80be 7bc2 0242 ade2 013e
00000060: 8a1c ae3b ecb1 bcbe b6b8 0142 37e7 2abd
00000070: 660c 0442 09cd 53bd 5cc0 0242 d353 183e
0.14212197 0.16240656 32.903812 -0.11512901 32.94257 -0.07933155 32.291267 -0.15155713
-0.29945368 0.0813238 32.66475 0.047435526 32.68796 -0.17492695 32.732803 0.3207276
-0.053943846 -0.29150125 32.89394 0.19825135 32.481243 -0.25085348 32.689922 0.12684126
0.0053134607 -0.36854494 32.43038 -0.04172441 33.012108 -0.05170921 32.68785 0.14875726

seq.6.bias f4 [4]
00000000: 1f3e e441 043d db41 52b9 e441 b991 ea41
28.530333 27.404793 28.590488 29.321154
