training/models/environment_traffic_lights/1639342829/checkpoints/final.pt (torch, 28751 bytes, 8 tensors)

seq.0.weight f4 [128, 16]
0	0x419e315d	19.774103
1	0x419bd243	19.477667
2	0x41985a75	19.044168
3	0x411dc48c	9.860485
4	0x419da867	19.707228
5	0x419a5ffa	19.296864
6	0x4195f814	18.746132
7	0x41688ebc	14.534847
8	0x419c1d4a	19.514301
9	0x419d4ee5	19.663523
10	0x419603ff	18.751951
11	0x412082be	10.0319195
12	0x419ae431	19.361422
13	0x419a7555	19.307291
14	0x4196af4f	18.8356
15	0x416f9641	14.974183
16	0x419d14f2	19.635227
17	0x419accd1	19.350008
18	0x4194a906	18.582531
19	0x411a6827	9.650428
20	0x419d9b0b	19.700705
21	0x419af21c	19.368217
22	0x4196a008	18.82814
23	0x416b529c	14.707668
24	0x419d3563	19.651068
25	0x419a4037	19.281355
26	0x4195c930	18.723236
27	0x4125a9f0	10.353989
28	0x419bbf0d	19.468287
29	0x419a784b	19.308737
30	0x41988f02	19.069828
31	0x416c5dca	14.772898
32	0x419c97a7	19.574049
33	0x41999a74	19.200417
34	0x4194a90d	18.582544
35	0x411cbda5	9.7963
36	0x419b1996	19.387493
37	0x419a7152	19.305332
38	0x41983596	19.026165
39	0x416c5f35	14.773244
40	0x419b227a	19.391834
41	0x419b8cab	19.443686
42	0x419527d1	18.644442
43	0x412281c2	10.156679
44	0x419d1adf	19.63812
45	0x419c2aa6	19.520824
46	0x41991c29	19.13875
47	0x416ba8d7	14.728721
48	0x419cdaa9	19.606768
49	0x419a2649	19.268694
50	0x4195796d	18.68429
51	0x411c5f96	9.773336
52	0x419b4290	19.407501
53	0x419bb3c8	19.462784
54	0x41955122	18.664616
55	0x41667e03	14.405765
56	0x419bd51a	19.479053
57	0x419a8042	19.312626
58	0x4196a7ff	18.83203
59	0x411e182b	9.8809
60	0x419c89ed	19.567347
61	0x419ae1d7	19.360273
62	0x41953332	18.649998
63	0x416ead7e	14.9173565
64	0x419c7d60	19.561218
65	0x419a54cf	19.29141
66	0x419532a1	18.649721
67	0x41217457	10.090903
68	0x419afe2c	19.374107
69	0x419afdee	19.37399
70	0x419563fa	18.673817
71	0x41672788	14.447151
72	0x419e5a89	19.794207
73	0x419bb7f0	19.464813
74	0x41951198	18.63359
75	0x412141b9	10.078546
76	0x419d9a8f	19.700468
77	0x419c001d	19.500055
78	0x4197c5ab	18.971518
79	0x416dfc3a	14.874079
80	0x419b68bb	19.426138
81	0x419bb337	19.462507
82	0x4196f16a	18.867878
83	0x411f3939	9.95147
84	0x419c2035	19.515726
85	0x419a5d4d	19.295557
86	0x419804bc	19.002312
87	0x41691b72	14.5692005
88	0x419ee0a8	19.859695
89	0x419bacfb	19.459463
90	0x41989a45	19.075327
91	0x412243c1	10.1415415
92	0x419bb3cd	19.462793
93	0x419b5d46	19.420544
94	0x4197a79c	18.95684
95	0x416bd983	14.740603
96	0x419bfcd2	19.498447
97	0x419b297b	19.395254
98	0x4194f70d	18.62063
99	0x411eb136	9.918264
100	0x419bc4ad	19.471033
101	0x419a547f	19.291258
102	0x41950d28	18.631424
103	0x416c4e5f	14.769134
104	0x419b9a54	19.450356
105	0x419add3d	19.358027
106	0x41955724	18.66755
107	0x4122cfab	10.1757
108	0x419d9665	19.698435
109	0x419a3564	19.27607
110	0x4197505c	18.914238
111	0x41689701	14.536866
112	0x419ccaf6	19.599102
113	0x419beda2	19.491032
114	0x419677db	18.808523
115	0x4120a31c	10.039822
116	0x419a8f2f	19.319914
117	0x419c165f	19.510923
118	0x4196abcf	18.83389
119	0x416d9201	14.8481455
120	0x419ceef0	19.616669
121	0x419c85e4	19.565376
122	0x419879f8	19.059555
123	0x411fbbfb	9.983394
124	0x419e5df3	19.795874
125	0x419d0ee7	19.632277
126	0x41969831	18.824312
127	0x4169b57c	14.606808
128	0x419cee85	19.616465
129	0x419b7288	19.430923
130	0x419788dd	18.941828
131	0x412039df	10.014129
132	0x419bb9ff	19.465818
133	0x419c4b7a	19.536854
134	0x4195e576	18.737041
135	0x416744fa	14.45434
136	0x419dad37	19.709578
137	0x419ba635	19.456156
138	0x41984819	19.035204
139	0x412537c0	10.326111
140	0x419cc0c9	19.594133
141	0x419c1102	19.508305
142	0x4198caf4	19.099098
143	0x416f6774	14.962757
144	0x419cf853	19.621252
145	0x41993b09	19.153826
146	0x41955cf2	18.670383
147	0x4121e00d	10.1172
148	0x419df610	19.745148
149	0x4199af7a	19.210682
150	0x4197da95	18.98173
151	0x416cacd7	14.792197
152	0x419cb0e7	19.586378
153	0x419b4ef4	19.413551
154	0x4197c422	18.970768
155	0x41266003	10.39844
156	0x419de334	19.735939
157	0x419cee4f	19.616362
158	0x4198c56c	19.096397
159	0x4169ca98	14.611961
160	0x419c2731	19.519136
161	0x41996e9f	19.179014
162	0x4197c4bb	18.97106
163	0x411f0f77	9.941276
164	0x419bc6af	19.472013
165	0x4199ce03	19.225592
166	0x419542db	18.657644
167	0x416c31ef	14.762191
168	0x419cd895	19.605753
169	0x41997036	19.17979
170	0x41981f4f	19.015287
171	0x411deba2	9.870028
172	0x419af0d9	19.367601
173	0x419ab931	19.340425
174	0x419768a4	18.926094
175	0x416efd75	14.936879
176	0x419c341e	19.525448
177	0x4199d74c	19.230125
178	0x4194c795	18.597452
179	0x4120cb77	10.049674
180	0x419aa864	19.332222
181	0x419c1416	19.509808
182	0x41975245	18.91517
183	0x416aa2db	14.66476
184	0x419cd62b	19.604574
185	0x419ce04c	19.60952
186	0x419630f0	18.773895
187	0x41223264	10.137302
188	0x419ce23e	19.61047
189	0x419c88a3	19.566717
190	0x41977f8e	18.937283
191	0x416bc36d	14.735211
192	0x419b6411	19.42386
193	0x419a9cdb	19.32659
194	0x4194b9c7	18.590712
195	0x4120972c	10.036907
196	0x419dce89	19.725847
197	0x419b7f07	19.437025
198	0x4198b8df	19.09027
199	0x41686897	14.525535
200	0x419df6f7	19.745588
201	0x419bd57d	19.479242
202	0x419720cd	18.891016
203	0x41217b2e	10.092573
204	0x419e2f45	19.77308
205	0x419de5c2	19.737186
206	0x41988dc6	19.069225
207	0x416ff9e6	14.99851
208	0x419b103e	19.38293
209	0x419a4d51	19.287752
210	0x41957236	18.680767
211	0x41219438	10.098686
212	0x419e211e	19.76617
213	0x419a8e27	19.31941
214	0x4198c65a	19.096851
215	0x4166db40	14.428528
216	0x419b585c	19.418144
217	0x419bcf6b	19.476278
218	0x41988182	19.063236
219	0x41211a34	10.068897
220	0x419c4e57	19.538252
221	0x419ba305	19.4546
222	0x419732b2	18.899754
223	0x416be980	14.744507
224	0x419d3fd1	19.65616
225	0x419ba960	19.457703
226	0x41975da5	18.920725
227	0x411e6be1	9.901338
228	0x419e29e2	19.77045
229	0x419afb02	19.372562
230	0x41970ed5	18.882242
231	0x41666fed	14.402326
232	0x419b9a48	19.450333
233	0x419c23b8	19.51744
234	0x419795cf	18.948149
235	0x4120a96d	10.041364
236	0x419a70a7	19.305006
237	0x419b0a39	19.379992
238	0x4199275d	19.14422
239	0x416b3415	14.700215
240	0x419c2001	19.515627
241	0x4199971a	19.19878
242	0x41964f4c	18.78872
243	0x411e0332	9.87578
244	0x419d7c77	19.685774
245	0x419c3c37	19.529402
246	0x4196637e	18.79858
247	0x416d2a36	14.822805
248	0x419e14f9	19.76024
249	0x419d1c04	19.63868
250	0x4197e64c	18.98745
251	0x41213395	10.075093
252	0x419ceaab	19.614584
253	0x419da9dd	19.707941
254	0x419632df	18.77484
255	0x41696df7	14.589347

seq.0.bias f4 [128]
0	0x41b6ae10	22.834991
1	0x41ba138c	23.259544
2	0x41b64ca6	22.787426
3	0x41b5ea1a	22.739307
4	0x41b69b5c	22.82586
5	0x41b6ae44	22.83509
6	0x41b77043	22.929815
7	0x41b87fd7	23.062422
8	0x41b894b8	23.072617
9	0x41ba12db	23.259207
10	0x41b98610	23.19046
11	0x41b7b13a	22.961536
12	0x41b8f33f	23.118773
13	0x41b8a7f7	23.082014
14	0x41b677c4	22.80848
15	0x41b666b7	22.800154
16	0x41b770c3	22.93006
17	0x41b9e18e	23.235134
18	0x41b9abed	23.208948
19	0x41b6dbbc	22.857292
20	0x41b7d203	22.977545
21	0x41b7cf67	22.97627
22	0x41b8df94	23.109169
23	0x41b93419	23.150438
24	0x41b9e713	23.23783
25	0x41b8e89e	23.113583
26	0x41b95a8c	23.169212
27	0x41b79c2c	22.951256
28	0x41b72e04	22.897469
29	0x41b886ab	23.065756
30	0x41b7e201	22.985353
31	0x41b67c79	22.810778
32	0x41b70710	22.878448
33	0x41b71525	22.885324
34	0x41b8c319	23.095263
35	0x41b81960	23.01239
36	0x41b99fe1	23.203066
37	0x41b9feb2	23.249363
38	0x41b5fc1a	22.748096
39	0x41b8f9b7	23.121931
40	0x41b90398	23.126755
41	0x41b5372d	22.651941
42	0x41b7ec42	22.99036
43	0x41b734e6	22.90083
44	0x41b88f0a	23.069843
45	0x41b610d1	22.758211
46	0x41b8e99a	23.114063
47	0x41b7c669	22.97188
48	0x41b7e3b6	22.986187
49	0x41b913d7	23.134687
50	0x41b7cb9a	22.974415
51	0x41b7ff9d	22.999811
52	0x41b7dffc	22.984367
53	0x41b7aa2c	22.958092
54	0x41b92773	23.144262
55	0x41b81136	23.008404
56	0x41b8ea05	23.114267
57	0x41b83313	23.024939
58	0x41b63b7a	22.779041
59	0x41b7fb8b	22.997824
60	0x41b95a45	23.169077
61	0x41b70e6a	22.882038
62	0x41b7f3a5	22.993967
63	0x41b7cfc0	22.97644
64	0x41b60a2d	22.754969
65	0x41b84d42	23.037724
66	0x41b90a63	23.130072
67	0x41b5c793	22.722448
68	0x41b6783a	22.808704
69	0x41b94b03	23.161627
70	0x41b5bda1	22.717592
71	0x41b8c701	23.09717
72	0x41b77f8c	22.937279
73	0x41b9b49e	23.213192
74	0x41b7d509	22.979021
75	0x41b5fd52	22.748692
76	0x41b54c13	22.662146
77	0x41b675eb	22.807577
78	0x41b8d85b	23.105642
79	0x41b7a949	22.957659
80	0x41b74c00	22.91211
81	0x41b6f0d0	22.867584
82	0x41b97a73	23.18479
83	0x41b6509f	22.789366
84	0x41b6c482	22.845951
85	0x41b94d37	23.162703
86	0x41b91450	23.134918
87	0x41b6626e	22.798061
88	0x41b9788a	23.183857
89	0x41b8df9c	23.109184
90	0x41b931ae	23.149258
91	0x41b7e2fe	22.985836
92	0x41b937e1	23.152285
93	0x41b801fb	23.000967
94	0x41b94e92	23.163364
95	0x41b791e2	22.946232
96	0x41b75f94	22.921669
97	0x41b9ba82	23.216068
98	0x41b9297c	23.145256
99	0x41b8922f	23.071379
100	0x41b9a5c3	23.205938
101	0x41b65dfa	22.795887
102	0x41b89731	23.073824
103	0x41b6a9a7	22.832838
104	0x41b62afa	22.770985
105	0x41b688a0	22.816711
106	0x41b8e2ac	23.11068
107	0x41b7cf8e	22.976345
108	0x41b9065b	23.128103
109	0x41ba10d0	23.25821
110	0x41b7973f	22.94885
111	0x41b6291e	22.770077
112	0x41b7a768	22.956741
113	0x41b61f26	22.76521
114	0x41b62669	22.768755
115	0x41b75016	22.914104
116	0x41b9acc4	23.209358
117	0x41b8f177	23.117903
118	0x41b89fab	23.077963
119	0x41b4c1c7	22.594618
120	0x41b559c5	22.668833
121	0x41b7eeac	22.991539
122	0x41b7f324	22.993721
123	0x41b8ff04	23.12452
124	0x41b78587	22.940199
125	0x41b76616	22.924847
126	0x41b7a066	22.95332
127	0x41b75b11	22.919466

seq.2.weight f4 [32, 128]
0	0x41a8b0f3	21.086401
1	0x41a9a57f	21.205809
2	0x41aa0b1a	21.25542
3	0x41a8ee6a	21.116413
4	0x41a9b65f	21.214048
5	0x41a8de00	21.108398
6	0x41a8d929	21.106035
7	0x41a9d2b4	21.227882
8	0x41a9720f	21.180693
9	0x41a93caa	21.154621
10	0x41a90af5	21.13035
11	0x41a9dce9	21.232866
12	0x41a8a59b	21.080862
13	0x41a8e9d8	21.114182
14	0x41a9f42c	21.244225
15	0x41a9ef5c	21.241875
16	0x41a8f334	21.118752
17	0x41a9de99	21.23369
18	0x41a98e4d	21.194483
19	0x41a9816c	21.188194
20	0x41a9c8cc	21.223045
21	0x41a95b6e	21.169643
22	0x41a95aeb	21.169394
23	0x41a94d93	21.162878
24	0x41a8e101	21.109865
25	0x41a9dbe5	21.23237
26	0x41a926a1	21.143862
27	0x41a99ee3	21.202581
28	0x41a8b29c	21.087212
29	0x41a9617c	21.1726
30	0x41a9de6a	21.2336
31	0x41a900cc	21.12539
32	0x41a9806c	21.187706
33	0x41a9e121	21.234926
34	0x41a9fc8a	21.24831
35	0x41a968c7	21.17616
36	0x41a8c76a	21.09737
37	0x41a8b79f	21.089659
38	0x41a9ca35	21.223734
39	0x41aa3dfb	21.280264
40	0x41a9efea	21.242146
41	0x41aa0dc6	21.256725
42	0x41a91bef	21.13864
43	0x41a92f2a	21.14803
44	0x41a94d22	21.162663
45	0x41a90afc	21.130363
46	0x41a9c0d1	21.219149
47	0x41a9360d	21.151392
48	0x41a9c4c1	21.221071
49	0x41a962ef	21.173307
50	0x41a89e6f	21.07736
51	0x41a9eb3f	21.239866
52	0x41a9e02f	21.234465
53	0x41a95cf7	21.170393
54	0x41a99c2a	21.201252
55	0x41a8e622	21.11237
56	0x41a92499	21.14287
57	0x41a939d8	21.153244
58	0x41aa4079	21.28148
59	0x41a8deea	21.108845
60	0x41a9b71c	21.214409
61	0x41a8fb07	21.122572
62	0x41a93615	21.151407
63	0x41a977dd	21.183527
64	0x41a98b0b	21.192892
65	0x41a900be	21.125362
66	0x41aa22b9	21.266954
67	0x41a8e421	21.111391
68	0x41a94fef	21.16403
69	0x41a9c7c5	21.222544
70	0x41a98a00	21.192383
71	0x41a9d30f	21.228056
72	0x41a8fa77	21.122297
73	0x41a91fcd	21.140528
74	0x41a959bd	21.168818
75	0x41a9a8ed	21.207483
76	0x41a9a23d	21.204218
77	0x41a9fccc	21.248436
78	0x41a94706	21.15968
79	0x41a8d80e	21.105495
80	0x41a90ed7	21.132246
81	0x41a8c838	21.097763
82	0x41a96324	21.173409
83	0x41a9f9ff	21.247068
84	0x41a930e6	21.148876
85	0x41a9a86e	21.207241
86	0x41a9cba8	21.224442
87	0x41a91cba	21.139027
88	0x41a9de56	21.233562
89	0x41a90baa	21.130695
90	0x41a97cac	21.185875
91	0x41a92fc7	21.148329
92	0x41a91c4a	21.138813
93	0x41a9e11f	21.234922
94	0x41a90b60	21.130554
95	0x41a94b4d	21.161768
96	0x41a99d8e	21.201931
97	0x41a9f50d	21.244654
98	0x41a8b4f1	21.08835
99	0x41a8eb95	21.11503
100	0x41a8af8d	21.085718
101	0x41a9f9f2	21.247044
102	0x41a934fd	21.150873
103	0x41a9d0c1	21.22693
104	0x41a926d0	21.143951
105	0x41a9fbca	21.247944
106	0x41a971a0	21.180481
107	0x41aa2683	21.268805
108	0x41a9571c	21.167534
109	0x41a856b6	21.04234
110	0x41a966f9	21.17528
111	0x41a980f6	21.18797
112	0x41a952cf	21.165434
113	0x41a9ffb4	21.249855
114	0x41a8eda1	21.11603
115	0x41a99fe4	21.203072
116	0x41aa10e8	21.258255
117	0x41a91756	21.136395
118	0x41a9e735	21.237894
119	0x41a879a3	21.059393
120	0x41a91fa6	21.140453
121	0x41a8daf4	21.10691
122	0x41a8d9e3	21.10639
123	0x41a957f3	21.167944
124	0x41a9c0ab	21.219076
125	0x41a9eba7	21.240065
126	0x41a9d383	21.228277
127	0x41a96501	21.174318
128	0x41a98be9	21.193316
129	0x41aa25fe	21.26855
130	0x41aa3ca7	21.279615
131	0x41a8eb5f	21.114927
132	0x41a967ba	21.175648
133	0x41a9f2fe	21.243649
134	0x41a9ea12	21.239292
135	0x41a92a02	21.145512
136	0x41a956b7	21.167341
137	0x41a97eb4	21.186867
138	0x41a8c2dd	21.095148
139	0x41a9ef91	21.241976
140	0x41a94fb8	21.163925
141	0x41aa3052	21.273594
142	0x41a9c8e7	21.223097
143	0x41a97b28	21.185135
144	0x41a9ce30	21.225677
145	0x41aa3926	21.277905
146	0x41a8f6a7	21.120436
147	0x41a932f9	21.149889
148	0x41a9b0b5	21.211283
149	0x41a949d5	21.16105
150	0x41a94f33	21.163671
151	0x41a8ee8d	21.11648
152	0x41a97620	21.182678
153	0x41a9204d	21.140772
154	0x41aa1650	21.260895
155	0x41a93905	21.152842
156	0x41a93f04	21.15577
157	0x41a9ae54	21.210121
158	0x41a944aa	21.158527
159	0x41a979d9	21.184496
160	0x41a8ff28	21.124588
161	0x41a997d5	21.199137
162	0x41a9723d	21.18078
163	0x41a914d5	21.135172
164	0x41a99adf	21.20062
165	0x41a9e318	21.235886
166	0x41a935eb	21.151327
167	0x41a993c5	21.197153
168	0x41a9d44d	21.228662
169	0x41a91136	21.133404
170	0x41a94619	21.159227
171	0x41a9c086	21.219006
172	0x41a9bdfd	21.217768
173	0x41aa03a6	21.251781
174	0x41aa00de	21.250423
175	0x41a9bdc7	21.217665
176	0x41aa0991	21.254671
177	0x41a9575a	21.167652
178	0x41a9aa52	21.208164
179	0x41a8ae48	21.085098
180	0x41a9ce89	21.225847
181	0x41a92763	21.144232
182	0x41a97234	21.180763
183	0x41a975db	21.182547
184	0x41a980a9	21.187822
185	0x41a94f50	21.163727
186	0x41a9e600	21.237305
187	0x41a98373	21.189184
188	0x41a9150b	21.135275
189	0x41a955a5	21.166819
190	0x41a9ed48	21.24086
191	0x41a9a8ab	21.207357
192	0x41a8d17a	21.102283
193	0x41aa507d	21.2893
194	0x41aa2203	21.266607
195	0x41a97f6d	21.18722
196	0x41a9e065	21.234568
197	0x41a9acdf	21.20941
198	0x41a92dd1	21.147371
199	0x41a9df32	21.233982
200	0x41a9dcf2	21.232883
201	0x41a9d846	21.230602
202	0x41a8edb7	21.116072
203	0x41a8aaa4	21.08332
204	0x41a9780e	21.18362
205	0x41a9210a	21.141132
206	0x41aa19c4	21.26258
207	0x41a98eb4	21.19468
208	0x41a918b5	21.137064
209	0x41a96adb	21.177176
210	0x41a98c84	21.193611
211	0x41a9311d	21.148981
212	0x41a9d117	21.227095
213	0x41a9dae9	21.23189
214	0x41a8fd2c	21.12362
215	0x41a96683	21.175055
216	0x41a92609	21.143572
217	0x41a9d29c	21.227837
218	0x41a9f51d	21.244684
219	0x41a9a4bf	21.205442
220	0x41a9edd9	21.241137
221	0x41a90bd7	21.130781
222	0x41a93bd2	21.15421
223	0x41a8bab1	21.091158
224	0x41a9b09a	21.211231
225	0x41a92228	21.141678
226	0x41a8a37d	21.079828
227	0x41a92978	21.145248
228	0x41a9e285	21.235605
229	0x41a903a7	21.126783
230	0x41a946ed	21.159632
231	0x41aa5058	21.28923
232	0x41a96225	21.172922
233	0x41a99bbe	21.201046
234	0x41aa114c	21.258446
235	0x41a96e1d	21.178766
236	0x41aa11db	21.258718
237	0x41a9d527	21.229078
238	0x41aa5083	21.289312
239	0x41a94dbe	21.16296
240	0x41aa1748	21.261368
241	0x41a9f04b	21.24233
242	0x41a9f07e	21.242428
243	0x41a8fae4	21.122505
244	0x41a9a01e	21.203182
245	0x41a9add0	21.20987
246	0x41aa264a	21.268696
247	0x41a8bb3b	21.091421
248	0x41a9293a	21.14513
249	0x41a9396e	21.153042
250	0x41aa298d	21.270288
251	0x41a8f804	21.121101
252	0x41a942ba	21.157581
253	0x41a9f85e	21.246273
254	0x41a9e64b	21.237448
255	0x41a95fb0	21.171722

seq.2.bias f4 [32]
0	0x419ffc47	19.998182
1	0x41a09595	20.073038
2	0x3d3ba61e	0.04581272
3	0x41a053d6	20.040936
4	0x41a07e33	20.06162
5	0xbd6e71f7	-0.058214154
6	0xbdb48666	-0.08814697
7	0x41a03dd8	20.030197
8	0x419fea40	19.98938
9	0x3d90b822	0.070663705
10	0x41a021e5	20.01655
11	0x3d05a04d	0.032623578
12	0x41a029b7	20.020369
13	0x3d2a5965	0.04158916
14	0x41a0072f	20.003508
15	0x3d546daf	0.051862415
16	0xbd9ff684	-0.07810691
17	0x41a0ed2d	20.115808
18	0xbd1cb1a9	-0.038255367
19	0x419fdd00	19.98291
20	0x419fb42d	19.962976
21	0x3d3a17e3	0.045432936
22	0x41a0215a	20.016285
23	0x41a06a54	20.051918
24	0x41a0070f	20.003447
25	0x3d7f024e	0.062258057
26	0x3d2b6517	0.041844454
27	0x419fe098	19.984665
28	0x3d892acd	0.06697617
29	0x3d620585	0.055181045
30	0x41a05b0a	20.044453
31	0x3d83c741	0.06434489

seq.4.weight f4 [8, 32]
0	0x3daf574a	0.08561571
1	0xbd69f1ca	-0.057115354
2	0xbe232619	-0.15932502
3	0xbe2e6238	-0.17029655
4	0x3de6bb91	0.11266244
5	0x3e2a5d10	0.16637063
6	0x3e35ce8a	0.1775457
7	0xbe40b42a	-0.18818727
8	0x3cea480f	0.028598813
9	0xbdddad6f	-0.108240955
10	0xbda367f2	-0.0797881
11	0x3e133627	0.14376126
12	0xbe48450a	-0.19557586
13	0x3e31ba66	0.17356262
14	0x3dd883bf	0.105720036
15	0x3d61a189	0.055085693
16	0x3de74b80	0.11293697
17	0xbe5310ef	-0.20611928
18	0xbddc119b	-0.107455455
19	0xbc1d3027	-0.009594
20	0x3df48e55	0.1194121
21	0xbde211b8	-0.11038536
22	0x3def767d	0.11692522
23	0x3d8618b5	0.06547681
24	0x3e15017e	0.1455135
25	0xbdd8f95c	-0.105944365
26	0xbe1dfde7	-0.15428887
27	0xbda26285	-0.07928947
28	0xbd36aba9	-0.0445973
29	0x3d463084	0.04838611
30	0xbcca80fe	-0.024719711
31	0x3d54c66d	0.051947046
32	0xbe25790b	-0.16159455
33	0xbca0d06c	-0.019630633
34	0xbe0682b8	-0.13135803
35	0x3e0a5229	0.13507904
36	0xbdb2e24d	-0.0873457
37	0x3d9ccfab	0.07656797
38	0xbe2f1d8f	-0.1710112
39	0x3d4cbcde	0.049984805
40	0x3d1da495	0.038487036
41	0x3da86d51	0.082239754
42	0xbe03ce19	-0.12871589
43	0x3c615914	0.013754148
44	0x3d1ddaef	0.03853887
45	0xbd8fb042	-0.070160404
46	0x3dbc4b9a	0.09194107
47	0xbdcc64fd	-0.099801995
48	0xbb1bded9	-0.002378395
49	0xbb2036de	-0.0024446766
50	0x3e37862a	0.17922273
51	0xbcd184df	-0.025576053
52	0xbe01dff8	-0.12683094
53	0x3df2d9ff	0.11857986
54	0xbbb8d550	-0.005640663
55	0x3d850fe4	0.064971715
56	0xbe034d75	-0.12822516
57	0x3e1979a0	0.14987803
58	0xbd702983	-0.05863334
59	0xbe25f0b0	-0.16205096
60	0x3da13c68	0.0787285
61	0x3d9d6925	0.0768607
62	0x3e004d17	0.12529407
63	0xbdc86a81	-0.09785939
64	0x41aa7fd3	21.312414
65	0x41aad054	21.351723
66	0x3cc47b8b	0.023984691
67	0x41ab5d64	21.4206
68	0x41aa3080	21.273682
69	0xbd08c3ac	-0.033389732
70	0xbde30433	-0.11084785
71	0x41ab06ed	21.378382
72	0x41aa2973	21.270239
73	0xbdb50a59	-0.08839864
74	0x41ab1b93	21.388464
75	0x3bf09d1c	0.0073429476
76	0x41aa4fc9	21.288958
77	0xbd523e19	-0.051328752
78	0x41aaf2a9	21.368486
79	0xbe272bb4	-0.16325265
80	0xbe08d6de	-0.13363215
81	0x41aa6126	21.297436
82	0xbcab7380	-0.020929098
83	0x41aa6c5b	21.302908
84	0x41ab484c	21.410301
85	0xbe06c7a4	-0.13162094
86	0x41aa1bae	21.263515
87	0x41ab0029	21.375078
88	0x41aad53f	21.354124
89	0x3e2e732f	0.17036127
90	0xbd53b7b8	-0.05168888
91	0x41aa9419	21.322313
92	0xbd8c571f	-0.068525545
93	0xbe1e5d1e	-0.15465209
94	0x41a797d2	20.949131
95	0x3de8cdb4	0.1136736
96	0x3db5c1c2	0.08874847
97	0xbe2dc939	-0.16971292
98	0x3d533964	0.051568404
99	0x3ddcb85f	0.107773535
100	0xbe1b48b4	-0.15164453
101	0xbdf588b0	-0.11988962
102	0x3e0919ef	0.13388799
103	0xbcc7fe7a	-0.024413336
104	0xbe309fc4	-0.17248446
105	0x3df64acb	0.120259844
106	0x3de186a3	0.11012008
107	0xbabc966c	-0.0014388091
108	0xbe1e76d3	-0.15475015
109	0xbe07f321	-0.1327634
110	0x3cb3aca1	0.021932902
111	0x3db38e32	0.08767356
112	0xbe2fce7b	-0.1716861
113	0xbe0fa842	-0.14029029
114	0xbe238398	-0.15968168
115	0xbe01e173	-0.12683658
116	0x3dfdaecd	0.12386856
117	0xbd83075d	-0.06397889
118	0xbe12f403	-0.14350896
119	0xbe2beca0	-0.16789484
120	0x3e3166df	0.17324398
121	0x3d213a87	0.039362457
122	0x3ddae74b	0.10688647
123	0xbe2ac411	-0.16676356
124	0xbd84d3ca	-0.06485708
125	0xbdaba269	-0.08380587
126	0xbe0cfc18	-0.13768041
127	0xbd669f01	-0.05630398
128	0x41aa3d7f	21.280027
129	0x41aa865e	21.315609
130	0x3c89ef7e	0.016837832
131	0x41a875df	21.057554
132	0x41aa2e41	21.272585
133	0xbdb8f1dc	-0.09030506
134	0xbddb0219	-0.106937595
135	0x41a85c9c	21.04522
136	0x41aab940	21.340454
137	0xbe2ee00e	-0.17077658
138	0x41a8450b	21.033712
139	0xbd665c08	-0.05624011
140	0x41a982f5	21.188944
141	0xbe2c9f1c	-0.1685757
142	0x41a96504	21.174324
143	0x3b03a61f	0.002008803
144	0xbe1e9d4f	-0.15489696
145	0x41a96814	21.17582
146	0xbd8f556d	-0.069987155
147	0x41aa981f	21.324278
148	0x41a8a873	21.08225
149	0x3ca959d4	0.020672716
150	0x41a8f7b5	21.12095
151	0x41a97e4c	21.186668
152	0x41a8f7be	21.120968
153	0xbd14a537	-0.036290374
154	0xbd92eec1	-0.07174445
155	0x41a9dd96	21.233196
156	0x3db3895c	0.087664336
157	0xbdab3dc1	-0.08361388
158	0x41aa449b	21.283499
159	0xbd8a27cd	-0.06745873
160	0xbddae95c	-0.10689041
161	0x3dc74704	0.09730342
162	0xbe1bdfad	-0.15222044
163	0xbde4ef13	-0.11178412
164	0x3df3c244	0.119022876
165	0x3dad9f5d	0.08477662
166	0xbd8faab9	-0.07014985
167	0xbe29547e	-0.16536137
168	0x3c5c8c92	0.013461249
169	0x3e2bd09e	0.167788
170	0x3c97812f	0.018494217
171	0x3c93b83f	0.018032191
172	0xbe33aa37	-0.175454
173	0x3d81121e	0.06302284
174	0xbe0636b8	-0.13106811
175	0xbe0d3ada	-0.13791981
176	0xbc4a2996	-0.012339016
177	0x3da1fce9	0.07909567
178	0xbe087aff	-0.1332817
179	0x3d271372	0.04079003
180	0xbe3706a2	-0.17873624
181	0x3d1d366b	0.038381975
182	0xbda75fdc	-0.081725806
183	0xbc47cc2c	-0.012194674
184	0xbc4f27aa	-0.012643734
185	0xbc32221c	-0.01087239
186	0xbe076fb7	-0.1322621
187	0x3e28e347	0.1649295
188	0x3da7bf9f	0.08190846
189	0xbe0e83ba	-0.13917437
190	0xbdbab7fd	-0.09117124
191	0xbe148d2f	-0.14506982
192	0x41aa6cd0	21.303131
193	0x41a8ce0c	21.100609
194	0xbdbc50cf	-0.091951005
195	0x41a89d27	21.076735
196	0x41a99df8	21.202133
197	0xbccc4e58	-0.024939701
198	0x3ccb3581	0.024805786
199	0x41a8678d	21.050562
200	0x41a84f49	21.038713
201	0x3da229da	0.07918139
202	0x41a8e35a	21.111012
203	0x3d294024	0.041320935
204	0x41a8b687	21.089125
205	0xbdf1525b	-0.11783286
206	0x41aa668b	21.30007
207	0x3db49c69	0.08818895
208	0xbddc8f59	-0.10769529
209	0x41aa5455	21.291178
210	0xbe298f93	-0.16558675
211	0x41a9abb2	21.208836
212	0x41aa8ff7	21.320295
213	0xbe18f566	-0.14937362
214	0x41a8e14b	21.110006
215	0x41aa2c6c	21.27169
216	0x41a9668e	21.175076
217	0x3c48f62c	0.012265723
218	0xbe2194cb	-0.15779416
219	0x41aa53bc	21.290886
220	0x3dba7113	0.091035984
221	0xbe178bc2	-0.14799407
222	0x41a97f04	21.18702
223	0xbdb76e0a	-0.08956535
224	0xbcabd101	-0.020973684
225	0x3d6abdf4	0.05731006
226	0xbcafb7be	-0.02144992
227	0xbddbdc7a	-0.10735412
228	0x3cbcffaa	0.023071129
229	0x3d9e3d97	0.07726591
230	0x3dbfd515	0.09366814
231	0xbd98810d	-0.074464895
232	0xbe319b73	-0.17344455
233	0xbe2adb92	-0.16685322
234	0xbe2690c7	-0.16266166
235	0x3d2d5b0e	0.042323165
236	0x3d827491	0.063698895
237	0xbdbc851b	-0.09205075
238	0xbb3194a4	-0.0027096653
239	0x3e18dc4e	0.1492779
240	0x3d98efec	0.074676365
241	0x3bc8b7bd	0.006125419
242	0x3d324c41	0.043529753
243	0xbd35c6f5	-0.044379193
244	0xbcff206d	-0.031143392
245	0xbe0433c2	-0.12910369
246	0x3dabe310	0.08392918
247	0xbd80561d	-0.06266425
248	0x3c121ec5	0.008918469
249	0xbc8d6aa1	-0.017262759
250	0x3e256376	0.16151223
251	0xbc94f805	-0.018184671
252	0x3da70991	0.081561215
253	0x3dbd2a1e	0.09236549
254	0xbd7760c8	-0.060395032
255	0xbd0d807d	-0.034546364

seq.4.bias f4 [8]
0	0x3e0535eb	0.1300885
1	0x3d1b4eca	0.037916936
2	0x41850b09	16.630388
3	0x3ca3d8fb	0.020000925
4	0x4185490c	16.660667
5	0xbe0e8313	-0.13917188
6	0x41875715	16.91752
7	0xbc9f2f81	-0.019431831

seq.6.weight f4 [4, 8]
0	0x3e11886c	0.14212197
1	0x3e264de8	0.16240656
2	0x4190be77	18.093
3	0xbdebc8c2	-0.11512901
4	0x41911103	18.133307
5	0xbda27894	-0.07933155
6	0x418bdb1f	17.481993
7	0xbe1b31cb	-0.15155713
8	0xbe9951fe	-0.29945368
9	0x3da68d18	0.0813238
10	0x418f69de	17.926693
11	0x3d424bc1	0.047435526
12	0x418f9ca2	17.95148
13	0xbe33200d	-0.17492695
14	0x418ff887	17.996351
15	0x3ea43668	0.3207276
16	0xbd5cf439	-0.053943846
17	0xbe953fa7	-0.29150125
18	0x4190e6fb	18.112783
19	0x3e4b0267	0.19825135
20	0x418d9cff	17.701658
21	0xbe806fde	-0.25085348
22	0x418f4879	17.910387
23	0x3e01e2ad	0.12684126
24	0x3bae1c8a	0.0053134607
25	0xbebcb1ec	-0.36854494
26	0x418d073d	17.628534
27	0xbd2ae737	-0.04172441
28	0x4191b209	18.211931
29	0xbd53cd09	-0.05170921
30	0x418f1a0d	17.88772
31	0x3e1853d3	0.14875726

seq.6.bias f4 [4]
0	0x414fff52	12.999834
1	0x413e6350	11.899246
2	0x414fec6e	12.995222
3	0x415c0327	13.75077
