training/models/environment_traffic_lights/1639340625/checkpoints/ep00025.pt (torch, 28751 bytes, 8 tensors)

seq.0.weight f4 [128, 16]
00000000: dddf 173e 709f e83d d5e6 5dbe 6ae5 ab3e
00000010: 4d9c 373d 49f3 3c3e 0b63 4f3e 7de0 13be
00000020: e56d a9bc 0a5d 7a3c 143c b83d 635b 773d
00000030: 20be 46be 41c3 e33d f79b c0bd a22a 493e
00000040: 4481 ad3d bb0f 743e 6479 38be 02e6 803d
00000050: c5d2 813d 8a96 5a3e 80ce 803b 175b abbe
00000060: e830 5bbc 5115 423e 6fd1 3f3e ff0a 95bd
00000070: 9caa 1d3e 17d8 f13d 354e b9bd 80ee 35bf
00000080: 28cf 2f3d 0e7d 443d 089f b6bd 3631 0ab9
00000090: 24d1 023e cebe c33d f097 0bbe 724a c2bb
000000a0: 81ba d4bc 72ed 183e 09ca 5ebd eafd 90bb
000000b0: 3f92 f2bb cb42 9eba 6716 0bbc 77e7 03bc
000000c0: cfec 613d f233 4c3d a30d 1cbe 2347 04bc
000000d0: 0a38 093e 5d40 4ebe 0497 16be a93f 70bc
000000e0: 8260 de3d 7dae 4c3e 2a95 78be 7349 563d
000000f0: 3eec 2d3d 0109 0a3e 0287 09bd 0c09 713c
00000100: 6e10 7ebe de87 05bc a086 08be 1152 e93d
00000110: acd3 31bc db1a 44be 8f0e 5d3d c41a 8b3d
00000120: 21fa e03d f186 843c 3e2a b9bd 5d54 48bc
00000130: 5f5c 10be 2ac2 9ebd aaac a93d ce7a 733d
00000140: a094 523d d771 e4bd 7d44 8cbc 7433 8f3d
00000150: c4ac 5fbd 9ffc d03b db9b 8d3b f639 dc3d
00000160: d3f3 d63c f7fe a53c 119e b53d 2888 a23c
00000170: df04 91be 9399 423d 55dd 163e 4004 833d
00000180: 757d 8dbc 01eb 8b3e 5e73 2abe a83c 993a
00000190: 3d35 da3d 5b1b 09be 5336 493e c720 563b
000001a0: 78ff e33d c0a6 c8bd 424a 1d3e 6fd2 dc3c
000001b0: 442c f9bd 3b67 c1bb 0f81 473d 1fbe 2fbc
000001c0: f920 4abc 6163 7bbd 76ed 4a3d 448e a83d
000001d0: b14e 633d cf20 e43d 5daa 0ebe cb17 cbbc
000001e0: b3cf 2abc 1860 323e 4fff 4d3d adfa 8b3b
000001f0: 3e72 853d af57 afbd 152e 353c a197 2f3d
00000200: 93dc 57be af21 06be d0dd 1ebf 34da a7bb
00000210: a590 ea3c 9a62 7dbc cc21 0e3e e539 3d3e
00000220: 1181 c8be fbfd 0cbf c318 3abf f19b b53d
00000230: 2b34 1d3d c1e2 af3b 2c3a 683d 4fc3 a33d
00000240: 80c8 0d3e c8f7 cc3d 4ebf 23be 3f02 fe3d
00000250: bfcc 37bd 5401 46bd 31a8 353c 50ae 74bc
00000260: 1c31 f93c de3f 39be 2663 e83d 82f7 3c3d
00000270: 8609 4a3d aa96 1a3d a837 ab3d 91dd c33d
00000280: ad90 803d f850 94be bbc8 80be fb87 213d
00000290: 36a0 af3c 7d33 00be 6c5c be3d 4164 2fbb
000002a0: 344a 75be 2415 c1be 4a11 46bf c7c7 4e3d
000002b0: 4e15 643c ffe9 863e c0a6 853d 1293 203e
000002c0: 8e74 54bc 90be 6b3e a74a 27be ba38 c93c
000002d0: c126 6fbe 0e09 893d ccad 853d e30a 4d3d
000002e0: 0d7e 033d be54 c8bd 963a a93d 19a4 983b
000002f0: 2b1e 7f3d 3b96 8bbd ba5b b13c 13db c03c
00000300: c4d8 303d c2b5 2abe 35e7 48be 9c27 053e
00000310: 272f 4dbe c208 033d 366a 903d f72c fc3c
00000320: e5a0 74bd 0980 c9bd dd93 b73d 1647 c3be
00000330: 6aca 14be 2749 953d e529 3f3e 432f e83b
00000340: b623 3f3e a627 933d 3e99 b3bd 8ca9 093d
00000350: 60e1 123e 4ebd 83be 30c9 ce3d 0c28 843e
00000360: 283e 51bd 5b86 03be 8ce9 bb3a fe38 bc3c
00000370: 2305 19be bb94 373c bc57 533e 77b4 98be
00000380: 104c 45be 4cd6 98be a2af 293e c0ce 8cbc
00000390: c259 a73d 2076 403d ee39 3cbe 0e83 46be
000003a0: 1c15 9f3d 2b71 b23d a72c d53d 04a2 643e
000003b0: 83d2 873d 9a21 7dba aee8 a7bc 3809 a3bd
000003c0: e9d1 b9be 43e0 44bd e424 243d c6c4 d7bd
000003d0: 6457 f73d 4cb4 4b3b e68f 81be 6ad5 043d
000003e0: 0ed5 dfbe 72a4 63be 2c7d 1abf f22a cf3d
000003f0: fc67 0bbe a7f3 7c3e bfd7 48be 7c5b 29bf
0.14831491 0.11358535 -0.21670087 0.33573467 0.044826794 0.18452181 0.20252626 -0.14441104
-0.020682285 0.015280971 0.08995834 0.060389888 -0.19408464 0.11121226 -0.09404748 0.1964517
0.08471921 0.23834126 -0.18015057 0.062938705 0.06339029 0.21346489 0.0039308667 -0.33467934
-0.013378359 0.18953444 0.18732236 -0.07277488 0.15397114 0.11808794 -0.0904812 -0.7106705
0.04292217 0.047970824 -0.089170516 -0.00013179038 0.12775093 0.095578775 -0.13632178 -0.0059292847
-0.025967838 0.14934328 -0.054391894 -0.0044248 -0.007402688 -0.0012074349 -0.008489228 -0.008050791
0.05515748 0.049854226 -0.15239577 -0.008073601 0.13400283 -0.2014174 -0.14706045 -0.014663615
0.10858251 0.19988437 -0.24275652 0.05231614 0.042461626 0.13479997 -0.03357602 0.01471163
-0.24810955 -0.008150069 -0.13332605 0.11392606 -0.010853689 -0.1915087 0.053968962 0.067922145
0.10985208 0.016177626 -0.0904126 -0.012227145 -0.14097737 -0.077518776 0.08284886 0.059443288
0.05141127 -0.11154526 -0.017122502 0.06992236 -0.05460812 0.006377771 0.004321558 0.10753243
0.026239311 0.020263178 0.088680394 0.019840315 -0.2832403 0.04750974 0.14732869 0.06397295
-0.017271737 0.2732773 -0.16645572 0.0011691051 0.10654686 -0.13389342 0.1964963 0.0032673345
0.11132711 -0.0979743 0.15360358 0.026955811 -0.12166646 -0.0059021986 0.048707064 -0.010726481
-0.012336963 -0.061374072 0.049542867 0.0823026 0.055494968 0.1113907 -0.13932176 -0.024791619
-0.010425496 0.1741947 0.05029231 0.0042718262 0.065159306 -0.08561646 0.01105835 0.042869214
-0.21080236 -0.13098787 -0.6205721 -0.0051224474 0.028633425 -0.015465403 0.1388008 0.18479116
-0.3916097 -0.55075043 -0.72694033 0.08867634 0.03837983 0.0053676073 0.056696102 0.079962365
0.13846016 0.10008198 -0.15990946 0.12402772 -0.044872995 -0.04834111 0.011087463 -0.014934137
0.030418925 -0.1809077 0.11347036 0.04613448 0.04932549 0.03774134 0.08360225 0.09563745
0.06277595 -0.28968024 -0.25153145 0.03943632 0.0214387 -0.12519641 0.09294972 -0.0026762637
-0.23954087 -0.37711442 -0.7737013 0.05048349 0.013921095 0.263504 0.06525946 0.15681103
-0.012967242 0.23021913 -0.16337071 0.024563182 -0.23354627 0.0669118 0.0652729 0.05005921
0.032102633 -0.09781788 0.082631275 0.004658234 0.06228463 -0.068157636 0.021650184 0.023541963
0.043175474 -0.16670898 -0.19619448 0.13003391 -0.20037518 0.031990774 0.07051508 0.03078316
-0.059723753 -0.09838874 0.089637496 -0.38140172 -0.1453034 0.07289343 0.18668325 0.007085712
0.18665966 0.07185297 -0.08769463 0.033608958 0.14343786 -0.25730366 0.10096967 0.25811803
-0.051084667 -0.12844221 0.001433657 0.022976395 -0.14943366 0.011204894 0.20638937 -0.29825184
-0.19267297 -0.29850996 0.16570905 -0.01718843 0.08171417 0.046987653 -0.18381473 -0.19385931
0.07767698 0.08712991 0.104089074 0.22327429 0.06631949 -0.0009656191 -0.020496693 -0.07960743
-0.3629296 -0.048065435 0.040074244 -0.105355784 0.12077215 0.0031082807 -0.25305098 0.03243009
-0.43717235 -0.222307 -0.6034725 0.10115613 -0.13613886 0.24702321 -0.1961355 -0.6615522

seq.0.bias f4 [128]
00000000: 1d9f f3bf 2eb4 2fc0 6932 4240 eb53 3740
00000010: 1594 3340 36f8 4a40 5612 4d40 ccb9 6040
00000020: 896d e03f 0153 5440 7b47 f5bf 034f 3640
00000030: 0247 1d40 ebd9 19c0 e9ec 0ebf c193 ccbf
00000040: 2738 4740 91cc 5140 843e b43f 969a 4f40
00000050: 6021 2ec0 5c4e 22c0 9d71 3ac0 10ec 79bf
00000060: 9611 d3bf ed88 4f40 ae14 4e40 22ce 4540
00000070: 5627 6140 be39 19c0 5d18 6640 ce7a cabf
00000080: 63a5 e8bf b2a1 42c0 0ce1 4840 2569 3040
00000090: 3a7d 1a40 e71e 3040 cc82 5940 3dbc 2b40
000000a0: 68d0 2840 3f2b 2240 5542 4a40 fbea 3e40
000000b0: a99b 06c0 b026 4240 9d6d 3040 e366 4dc0
000000c0: b4ef 4540 7394 4f40 0d45 1b40 ab9e fdbf
000000d0: 8459 5240 df1d 2740 8c6b 5e40 d3a2 4640
000000e0: 9a98 a0bf 5c8d 3740 6dce 3740 fe83 16c0
000000f0: 0880 4840 a202 3fc0 56b4 4840 8fe0 4340
00000100: 7b1f 5140 eabc 3040 210c 19c0 f302 2bc0
00000110: ef58 6440 6ba2 0640 0759 4bc0 930c 3540
00000120: a95a 0240 8126 23c0 fda3 2d40 af9f 2c40
00000130: eb5c 6540 0c8f 1ec0 ccf9 2f40 801f 0ac0
00000140: 0288 f53f 4b49 1a40 3e56 4a40 628a 2a40
00000150: 4465 1fbf c61f 24c0 809d 4e40 095f a7bf
00000160: 2977 12c0 f5c6 cbbf 3655 fdbf a91d 24c0
00000170: 6602 3040 f901 3f40 8319 4540 a162 1f40
00000180: fafb 1640 839e d33e 9ee4 3440 7fb3 c3bf
00000190: 09ff 2a40 2fa3 65bf 602b 3940 6eb3 4d40
000001a0: 1353 eebf a254 5540 f1d0 5b40 2349 5440
000001b0: 3155 1b40 9047 9b3f 599a 84bf d997 4440
000001c0: 51fd 3740 cd88 1fc0 5c9e 4440 8d68 33c0
000001d0: 2143 13c0 fdb7 3c40 7c5b f13f 5a31 423f
000001e0: a00e 2dc0 5622 1d40 8d39 2440 7b32 3e40
000001f0: 8f17 5940 a54c 4e40 9169 fbbf a756 dfbf
-1.9032933 -2.7453723 3.0343268 2.864497 2.8059132 3.1713996 3.2042441 3.5113401
1.7533427 3.3175662 -1.9162439 2.8485725 2.457459 -2.4039257 -0.55830246 -1.5982591
3.1128023 3.2781107 1.4081578 3.2438102 -2.720787 -2.5360327 -2.9131844 -0.9762583
-1.6489742 3.2427323 3.2200122 3.0907063 3.5180259 -2.3941493 3.595237 -1.5818727
-1.8175472 -3.041119 3.1387358 2.7564175 2.4138932 2.7518861 3.3986082 2.6833642
2.63772 2.5338895 3.1602986 2.983092 -2.1032507 3.0336113 2.7566903 -3.2094047
3.0927553 3.2434356 2.4260895 -1.9814047 3.2867136 2.6111982 3.4753141 3.103688
-1.254657 2.868003 2.8719742 -2.3518062 3.1328144 -2.9845357 3.1360068 3.060581
3.2675464 2.7615304 -2.3913653 -2.672055 3.567928 2.1036632 -3.1773088 2.8288925
2.0367835 -2.549225 2.713134 2.6972463 3.5837963 -2.477481 2.7496214 -2.1581726
1.9182131 2.4107234 3.1615138 2.6646962 -0.62263894 -2.5644393 3.228363 -1.3075877
-2.288523 -1.5920092 -1.9791629 -2.5643103 2.7501464 2.9844954 3.079682 2.4903948
2.3591294 0.41331872 2.8264537 -1.5289153 2.671816 -0.89702123 2.8932724 3.2140765
-1.8619102 3.3332906 3.4346278 3.316964 2.4270747 1.2131214 -1.0359603 3.071768
2.8748362 -2.4927247 3.0721655 -2.8032563 -2.3009722 2.9487298 1.8856044 0.75856555
-2.7040176 2.4552207 2.5660126 2.971831 3.392063 3.223428 -1.9641591 -1.7448319

seq.2.weight f4 [32, 128]
00000000: f895 0a3d b4cc a9bd 0755 483c cdfa 5f3c
00000010: cdaf 05bd 2b89 c0bb d829 afbd 3ae6 e03b
00000020: 7357 91bb edca 22bc 940e 52bc b4b6 e23c
00000030: 0587 7e3c de1c 013d 4b84 a3bc 192c eebc
00000040: 485e a5bd 4c17 4d3d 0e6e 803d 3b71 a9bd
00000050: b319 cc3c 3ad2 32bd dfd5 13bd 4ab4 00bd
00000060: f965 7dbc 87fa c5bd 34d0 7ebb 6527 973c
00000070: f07c 1f3c fe4a fbbd 2181 1d3d 34ab 373c
00000080: 9e7a 30bd be33 2bbd d629 7dbd 7186 4c3d
00000090: bd57 b8bd ba6e 423d c30a 3b3c 1697 5bbd
000000a0: a096 e83c 4f37 9a3c 5d5b 973c ef9f 9cbd
000000b0: e19d a3bd fdc7 c93b 3578 97bd 13e2 82bd
000000c0: f790 03bc 5984 92bd a076 10bd e8b1 a1bd
000000d0: c613 d73c 92ce a53d f4af 81bd 7b10 1f3d
000000e0: 351a 6ebd 1c1c 45bd 0b2a 8ebc a1bf dfbd
000000f0: ec9f 88bc 01b4 f4bd 1769 7b3d f48d 1bbd
00000100: 2219 06bc 1e38 a4bd 8d54 04bd f5e4 7dbd
00000110: 9249 843d daeb a93d ca86 533d 060a a43d
00000120: 9b01 1e3a 5cec a5bb 7b10 65bd 5d88 9a3d
00000130: 18e8 7c3b 328d 24bc 93a4 20bc 24a3 793d
00000140: ac6f 143c 0fee 983d f328 d0bd 19e4 363b
00000150: fb60 b13d e813 033d 61c2 90bd bfd3 a43c
00000160: 0228 cd3d 6d70 cebc f8e7 3a3c ab2e d3bd
00000170: 3bc9 b5bd 6272 b73c d2a0 bebc 64af 363d
00000180: 6e4a 763d 18fc dabb df54 bfbc fead 0abe
00000190: 4184 9c3d 2405 18bd 6a71 8b3d 8653 88bd
000001a0: 2ea7 d5bd c2d2 04bb 69ab 9abd 13b2 85bd
000001b0: 0e7e c1bc 5ed0 5bbc c956 0abd c04b aebc
000001c0: 1e14 893c 37ea 0abd 936d 553d db35 98bd
000001d0: b741 0abe 353a 8c3d 7926 56bd 3461 a5bd
000001e0: 6097 c8bd 56c9 473d d7a3 5dbd f481 74bd
000001f0: c829 2d3d ad58 84bd f40d a8bd 0d35 debd
00000200: d887 97bd 2c84 82bc a6ab 9c3c 3ff6 88bd
00000210: 5fa3 b33a 34b7 92bd e879 b6bd 5b14 7bbd
00000220: 5cb0 22bc ba1d b1bd 0cd2 2d3c b1dc 8fbd
00000230: b983 343d a1ba edbd ae74 ec3c bc55 33bc
00000240: 912b 433d 8739 bcbd e1c1 223d c7c1 aebd
00000250: 41cc 4fbd 7f6e 573d d149 f4bd 94c6 bdbd
00000260: c284 22bd 2dc6 013c c5f5 9a3d 1043 a2bd
00000270: 41e6 b2bd d903 87bd 4fe9 1ebd bab5 453c
00000280: 5e38 463d 5b3c 89bd 3267 acbd 5ad6 f2bd
00000290: ce27 c7bc 950f 81bd 7492 d3bd 76b6 1dbd
000002a0: 4390 28bd 09d5 593b abb6 c0bc 7d4c 63bd
000002b0: 50d5 5a3b 049d 23bc 58ad c1bc 7313 c93c
000002c0: 1934 edbd b710 b2bd 94a9 dfbd a8b3 8dbd
000002d0: e327 303d 9033 1b3d e075 0a3d 213f 90bc
000002e0: f2b9 cd3c 7171 fabd a14b 85bd 1ae3 56bd
000002f0: 1338 923c e761 463d fc4a ffbd 720a 96bb
00000300: ca78 0a3d 36a9 8abc c2d1 f33c 023a ef3c
00000310: 6c19 d23c 632f 1a3d e056 083c 8514 febc
00000320: bb7a b63b 6a64 e4bd c161 a5bd 2195 c9bb
00000330: febd a83b 088a 73bd d1c6 43bd 8e62 f4bc
00000340: 3abd b2bd fca6 813c b3b4 83b9 bece 1abb
00000350: bb45 86bd 8ebe 2b3d ed77 17bc 448d a53c
00000360: 946f 053c a661 39bd 2fa2 02bd 7144 86ba
00000370: 7dd3 9bbd 5326 66bd b596 acbd 649a 413d
00000380: 2d30 7b3d 5617 67bd f4b0 853b 275b 8dbd
00000390: 5907 94bd 3486 8bbd d343 7fbd a33c d0bd
000003a0: 93b8 0a3d e7b2 463d 5d43 a0bd b1af febb
000003b0: f29f a9bd 0cd6 b2bd 36aa d33c 240b 3ebc
000003c0: 8347 7f3d e758 ef3c b542 a2bd 6803 5bbd
000003d0: 982e c2bd 098b 183a 246f f1bb 81dd 93bd
000003e0: b085 adbc e0d3 ea3c b596 a0bd 2dca cb3c
000003f0: 8679 ddbd 145f babb 3717 b3bd 3c86 81bd
0.033834428 -0.08290997 0.012227303 0.013670635 -0.03263836 -0.0058757267 -0.08552903 0.0068633826
-0.0044354736 -0.009936077 -0.0128208585 0.02767501 0.015535121 0.03152167 -0.019960543 -0.029073762
-0.08074623 0.050071046 0.06270991 -0.0827355 0.024914598 -0.04365752 -0.036092635 -0.031421937
-0.015466207 -0.09666925 -0.0038881423 0.018451402 0.009734377 -0.12270163 0.038453225 0.011210252
-0.043085687 -0.041797392 -0.061807476 0.0499329 -0.0900111 0.04746888 0.01141614 -0.053610884
0.028392136 0.018825201 0.018476183 -0.076476924 -0.079890974 0.0061578737 -0.073959745 -0.063907765
-0.008030168 -0.071541496 -0.03526938 -0.07895261 0.026254546 0.08096041 -0.063323885 0.038834076
-0.05813046 -0.04812251 -0.017354032 -0.10925222 -0.01667782 -0.119483955 0.06137952 -0.037977174
-0.008184703 -0.08018516 -0.032307196 -0.06198593 0.06459345 0.08296938 0.051642217 0.08009724
0.0006027461 -0.0050635766 -0.05592392 0.075455405 0.0038590487 -0.010043429 -0.009804863 0.0609466
0.009059828 0.07467281 -0.101640604 0.0027906953 0.08661076 0.032001406 -0.07068325 0.0201205
0.100173965 -0.025200093 0.011407845 -0.103116356 -0.08876272 0.02239341 -0.023270044 0.04460086
0.060129575 -0.006682884 -0.0233559 -0.13542935 0.07642413 -0.037114277 0.068087414 -0.06656556
-0.104322776 -0.0020267223 -0.07552225 -0.065281056 -0.023619678 -0.013416378 -0.03377417 -0.021276355
0.016733225 -0.03391477 0.05210645 -0.07432147 -0.1350163 0.068470396 -0.052282784 -0.08075181
-0.097944975 0.048775993 -0.054111328 -0.059694245 0.042276174 -0.06462226 -0.08205786 -0.108499624
-0.07398957 -0.015932165 0.019124817 -0.06687593 0.0013705305 -0.071638495 -0.089099705 -0.06129871
-0.009929743 -0.08648248 0.010609161 -0.070245154 0.044070933 -0.11607862 0.028864231 -0.010945734
0.04764897 -0.0919066 0.03973568 -0.08533054 -0.0507319 0.05259561 -0.11928142 -0.092663914
-0.03967739 0.007920784 0.07566408 -0.079229474 -0.08735324 -0.06592531 -0.03879672 0.012067253
0.0483936 -0.06700965 -0.084181204 -0.118572906 -0.024310973 -0.063018 -0.10330668 -0.038504086
-0.041153204 0.003323855 -0.023524603 -0.055492867 0.0033391304 -0.009986166 -0.023642227 0.024545407
-0.115822025 -0.08694594 -0.10921016 -0.06919032 0.04300679 0.03789097 0.03380382 -0.017608227
0.02511308 -0.122286685 -0.06508566 -0.052462675 0.017849004 0.04843321 -0.12465474 -0.004578882
0.0338066 -0.01692639 0.029763106 0.029202465 0.025646888 0.037642848 0.008321494 -0.031015644
0.00556883 -0.11151965 -0.08075286 -0.0061518108 0.005149602 -0.05945781 -0.047797028 -0.02983215
-0.08727498 0.015826695 -0.00025120898 -0.0023621763 -0.06556269 0.041929774 -0.009244901 0.020208962
0.008144278 -0.04525914 -0.03189295 -0.0010243786 -0.076086976 -0.056188893 -0.084271826 0.04726638
0.06132524 -0.05641874 0.0040799323 -0.069021516 -0.07227964 -0.068127066 -0.06232054 -0.101678155
0.03386743 0.04851046 -0.078253485 -0.007772409 -0.0828246 -0.087322325 0.025837999 -0.011599336
0.06232406 0.029217197 -0.079228796 -0.053470045 -0.09481543 0.00058190577 -0.0073679853 -0.07219983
-0.021181911 0.028665483 -0.07841245 0.024876678 -0.108141944 -0.0056876037 -0.08744662 -0.06324431

seq.2.bias f4 [32]
00000000: 14a7 603e 73f5 2dbd 360e 1740 dbc8 d6be
00000010: 50d8 2940 a470 37bd d10b 3b40 cb79 2f40
00000020: 2be4 c3bf 0ee7 3140 7b0b 663f b541 893f
00000030: 437a 3840 f094 3140 bb48 2540 8791 18bf
00000040: ff61 3e40 7c4c 4440 22ab 59bd 3ba6 2f40
00000050: 3aa2 1abd 670c 0abd adec fa3f 42ee 9d3d
00000060: 2e9b c4bd df8b 0fc0 6f56 7abc 2567 f3bd
00000070: 3658 80bd fdd7 5240 6d0b 2cc0 6449 2140
0.21938735 -0.042470407 2.3602424 -0.41950116 2.6538277 -0.044785157 2.9225962 2.7418087
-1.5304006 2.7797275 0.8986127 1.0723177 2.8824623 2.7747154 2.582564 -0.5959706
2.9747312 3.0671682 -0.05314172 2.744521 -0.037752368 -0.033703234 1.9603478 0.0771146
-0.09599911 -2.242912 -0.015279396 -0.11884908 -0.06266825 3.2944329 -2.6881974 2.5201044

seq.4.weight f4 [8, 32]
00000000: 9b90 2cbe f40f 07be 4113 7a3d 09ca d33d
00000010: a2f9 143e 3455 91bd 9291 90bc edd0 ecbc
00000020: 5ae5 f4bd 4282 50be 564f 8abd 35d4 30be
00000030: 41aa 5dbd 6eeb 8cbd 5f8d 0bbe 0dc7 c0bd
00000040: f33b 79bd ae79 f0bd f265 4b3d c5fc 05bb
00000050: 79d8 26be 3161 dabd 2cf6 dc3d 890e f1bd
00000060: 2c98 35bc f8ae 0d3c a38b c93b 32e4 03be
00000070: 2ac4 c33c b7d2 8a3d ddd5 37be c1a4 b13d
00000080: b9ef d23d be12 58be 755e c9bc 93cb 0c3e
00000090: 4d21 28bd a47e 91bd ac64 b7bc db35 27be
000000a0: d780 3cbe cd15 8a3d 2734 033e 5881 a73c
000000b0: 47b4 6abe 2036 af3d b2ec 7cbd 4840 0dbd
000000c0: 01f0 ecbd 83a2 20be 4c21 c138 80ca ea3d
000000d0: ff00 b13d 7cc2 cbbd 89b9 dd3d b09f da3c
000000e0: b62c 073e e6d6 9b3e 24f2 27be 6d7e 36be
000000f0: 6598 893c f228 25be e1b8 1d3c 3314 fa3d
00000100: 20ad 143e ee7d 6f3d 7018 cd3d 1d24 203e
00000110: 1804 ad3e d5e8 3cbb aa1a ae3e 7981 803e
00000120: 5066 b2bd 1e09 963e 8a47 853e e6df e2bc
00000130: b297 bd3e bb1c c33e 8eb8 c73e 1c7a 99bd
00000140: ad41 083f 60ce da3e 977d 5abd 50c1 a73e
00000150: a758 16be d621 97bd be51 46be e473 21bc
00000160: 8079 a2bc 0bc0 81be de5e 11be fc1c 02bc
00000170: 7e08 18be 388a e13e 513d 05be c99d 873e
00000180: 0cae c33d c4b2 bb3c a7b5 8d3d 91c6 94bc
00000190: 05ec c2bc 85eb 2c3d 4fac 0dbe cdc9 20be
000001a0: 27bc 23be 107c 70be 6111 57bc dd6e efbd
000001b0: 432b 39be f22f 88be e575 7c3d 2fbc cc3d
000001c0: 85b7 373d cce6 69bd 5768 ec3d 232a dd3c
000001d0: 9e06 f53c 8ac0 4c3d bd85 25bd ad40 6f3d
000001e0: db77 053e 7b92 02be 7936 cd3c a8d9 193e
000001f0: bf54 2d3e b201 8ebd e0c5 bf3d 0232 ae3d
00000200: f6c7 e7bc bd74 0cbd b85c ce3e ba5d 7bbe
00000210: ec73 683e 73dd ddbd d69c c93e f057 a23e
00000220: 72f5 b1bd d80e 863e a1a4 30be 586f 9e3d
00000230: 726a 373e 015e 923d fc8c b33e ebdf 44bd
00000240: 85e8 ce3e 1ec3 203f dfd6 063d 2894 863e
00000250: 0710 803d c63d 26be b528 553e 9775 d53d
00000260: 9179 f4bd cde6 99bd 9819 133e ac13 1ebd
00000270: ebfa fd3d e060 603e a141 51be 22ec 82bd
00000280: 3c6c 06be 9fd1 48bd 2451 803e b7f7 933e
00000290: 74ed 663e 6bcc e1bd f25e 813d 3b70 e3bc
000002a0: 90f5 debd c8c1 4a3e ede8 fe3d f635 493e
000002b0: f464 1e3e 0d71 9c3e 8e96 be3e 4ea5 0f3d
000002c0: f757 e13e 86ca b13e be5e e6bd 59ca 503e
000002d0: f825 f7bd ae00 69bd 3777 323d 0c77 0e3b
000002e0: eed6 623d a9c6 5bbd 7e2a 123e 45b4 c5bd
000002f0: 93eb 1ebe 0aac 863e cc91 f3bd 0c20 b53e
00000300: f988 143e 1a74 d93d 50a6 2d3e 57ca 99bd
00000310: d886 ac3e cae0 b8bd 07b8 3f3e 6148 be3e
00000320: 0718 f93d d245 143e afea 10be e3bd 25be
00000330: 3faa 9c3e bf9d 4b3e 9553 873e e6d4 1cbc
00000340: ec66 0f3f f0f7 0b3f 8753 ab3d bc50 1a3c
00000350: 230e 0a3d d4a1 fa3d 5435 5c3d ba16 083c
00000360: 5080 eebb f177 d33d 1a9e 1abd 36b7 343c
00000370: 392e 0d3e 2e16 923e bcc1 61be 8838 243e
00000380: abf3 133e b61a 05be 324e 4f3e ebec 963e
00000390: a651 28be 56c3 d7bd 9292 0abd 0598 403d
000003a0: 9142 6cbe 8866 93be a608 a2be 3a8b c63d
000003b0: d498 8f3d eecc 0abe eb39 80bd df8b 0bbf
000003c0: 5ea6 963c 5281 163e 94fb ef3d 1cc6 1bbe
000003d0: 5ba4 32be 73dc 76bd 1691 8dbe 4dc1 133e
000003e0: 9fab 153e df36 ffbb 0b74 0bbe f470 74bd
000003f0: 079e c3bd e526 ca3b ac63 d6bc 0f60 2a3d
-0.16852038 -0.1318968 0.06105352 0.103412695 0.14548352 -0.07096329 -0.017647538 -0.028908217
-0.11957808 -0.2036219 -0.067534134 -0.1726845 -0.054117445 -0.06880842 -0.13628148 -0.09412966
-0.060848188 -0.117419586 0.04965777 -0.0020444852 -0.16293515 -0.10663069 0.10789141 -0.117703505
-0.011083644 0.008647673 0.006150679 -0.12880018 0.02389725 0.06778472 -0.17952676 0.086740024
0.1029963 -0.211009 -0.024581173 0.13749532 -0.041047383 -0.07104233 -0.022386871 -0.16329138
-0.18408523 0.067424394 0.12812863 0.020447418 -0.22920333 0.085552454 -0.061749168 -0.03448513
-0.115692146 -0.15686993 9.209159e-05 0.11464405 0.08642768 -0.09949204 0.10826404 0.026687473
0.1320065 0.30437392 -0.16400963 -0.17821665 0.0167963 -0.161289 0.009626598 0.12210884
0.14519167 0.058469705 0.10014427 0.15638776 0.33792186 -0.0028825302 0.34004718 0.2509878
-0.08710921 0.2930383 0.26031142 -0.027694654 0.37029797 0.38107857 0.39007992 -0.07493994
0.53225213 0.42735577 -0.053342428 0.32764673 -0.14682256 -0.073795006 -0.1936712 -0.009854291
-0.019833326 -0.2534183 -0.14196345 -0.007941481 -0.1484699 0.44050765 -0.13011672 0.26487568
0.09554681 0.02291239 0.06919413 -0.01816109 -0.023794184 0.042216796 -0.13835262 -0.15701981
-0.15989743 -0.23484826 -0.013126702 -0.11691067 -0.1808291 -0.2659908 0.06163587 0.09996831
0.044852752 -0.05710487 0.11543339 0.026997631 0.029910382 0.049988307 -0.040410746 0.05841129
0.13034002 -0.1275119 0.025050389 0.15024436 0.1692686 -0.06933917 0.093639135 0.08505632
-0.028293591 -0.034291018 0.40305114 -0.24547473 0.2270047 -0.10833254 0.3937747 0.31707716
-0.08689393 0.261832 -0.17250301 0.07736081 0.179117 0.07146836 0.350685 -0.048065107
0.40411773 0.62797725 0.03291976 0.2628491 0.06253057 -0.16234502 0.2081631 0.10422819
-0.119372495 -0.07514725 0.14365232 -0.03859298 0.124013744 0.21911955 -0.20435192 -0.06392695
-0.13127226 -0.049028035 0.25061905 0.2889993 0.22551519 -0.11025318 0.063169375 -0.027763477
-0.10886681 0.19800484 0.12446771 0.1964949 0.15468198 0.30555 0.3722424 0.035069756
0.44012424 0.34724826 -0.112485394 0.2038969 -0.12067789 -0.056885414 0.043570723 0.0021738438
0.055380754 -0.053656254 0.14274022 -0.09653524 -0.15519552 0.2630313 -0.11893043 0.35376012
0.14505376 0.10617848 0.16957974 -0.075092964 0.33696628 -0.0902725 0.18722545 0.37164596
0.12162786 0.1447976 -0.14152025 -0.16185717 0.30598637 0.19884394 0.26430956 -0.009572243
0.5601642 0.546752 0.08365541 0.009418663 0.033704888 0.122378975 0.053761795 0.0083062
-0.0072784796 0.103256114 -0.037748434 0.011030009 0.13787164 0.28532547 -0.2204656 0.1603719
0.1444842 -0.1299847 0.20244673 0.2947763 -0.16437396 -0.10535304 -0.033831187 0.047019977
-0.23072268 -0.28789163 -0.31647223 0.09694524 0.070115715 -0.13554737 -0.06261047 -0.545103
0.018389877 0.1469777 0.117179066 -0.15212291 -0.17445509 -0.06026883 -0.27649754 0.14429207
0.1461625 -0.0077885236 -0.13618486 -0.059678033 -0.09551626 0.0061691874 -0.026170574 0.041595515

seq.4.bias f4 [8]
00000000: 7c34 1d3d a75e 72bf 22cb 0440 0736 4a3c
00000010: d500 2240 5e86 0f40 f8b9 1a40 9547 603c
0.03838013 -0.9467568 2.0748982 0.012341983 2.5313008 2.2425761 2.4176006 0.0136889415

seq.6.weight f4 [4, 8]
00000000: dc7f 89bd e108 90bd 777a 00bf b645 e03d
00000010: a632 62be 6efa 6a3d 9297 31bf 1239 453e
00000020: 2ae9 4cba 9401 ae3d 68be b5be 5166 1f3d
00000030: fee5 4fbe 82a7 0fbf 443f cdbe 32a2 563e
00000040: 1dbd fd3d 2bdb 2e3e 89e4 813d d205 153e
00000050: 47c7 31bf 3b58 13bf b0b1 afbe 95e7 4f3e
00000060: 37e5 163e 5091 083f 41be 14bf 21fe 953e
00000070: c294 a8be 2148 a0be 8c72 38be 4065 18bf
-0.0671384 -0.070329435 -0.50186867 0.10950796 -0.22089633 0.057367735 -0.693719 0.19260052
-0.00078167266 0.08496395 -0.3549683 0.038915936 -0.20302579 -0.5611497 -0.4008733 0.2096031
0.12389586 0.17075793 0.06342418 0.14553002 -0.694447 -0.57556504 -0.34315252 0.20303185
0.14735876 0.5334673 -0.58102804 0.29295447 -0.32925993 -0.3130503 -0.18012446 -0.59529495

seq.6.bias f4 [4]
00000000: 75f9 09c0 d165 a8bf 3c21 05c0 9c96 e2bf
-2.1558506 -1.3156072 -2.0801535 -1.7702212
