training/models/environment_trafic_lights/1638895036/checkpoints/final.pt (torch, 28751 bytes, 8 tensors)

seq.0.weight f4 [128, 16]
000000 45 03 09 3e 0b 93 4c 3e db c9 59 3e 6e 61 95 3e
       0.13380153 0.19977967 0.21268408 0.29175895
000010 5b 07 50 3d 09 1c af 3d 9c 7d 62 3e 4c c7 3f 3e
       0.050788265 0.08550269 0.22118229 0.1872837
000020 d6 3b 6c 3e cf b6 7a 3e c4 93 aa 3e a2 00 c7 3d
       0.230697 0.24483798 0.3331586 0.097169176
000030 45 f9 35 3e 2f 43 b6 bd 77 b7 27 3d 9a de 8a 3e
       0.1777087 -0.08899533 0.04094645 0.27122957
000040 68 55 86 3e 82 1c 85 bd 83 db a6 3e f6 48 50 be
       0.26237035 -0.06499578 0.3258935 -0.20340332
000050 ff f3 44 3e f8 51 8a 3e 70 b3 46 be 74 d3 8d bd
       0.19233702 0.27015662 -0.19404387 -0.06925097
000060 d4 94 d8 bd 78 5f fc bc 40 df 78 3e dc b7 fe bd
       -0.10575262 -0.030807242 0.24303913 -0.12437412
000070 8a 7b 23 be e0 db dd bc 41 a8 5a 3c 93 a5 c9 3d
       -0.15965095 -0.027082384 0.013345779 0.09846034
000080 13 e2 d7 bd 96 77 24 be 7b ce 4b 3b 43 77 ca 3e
       -0.10541167 -0.16061243 0.0031098414 0.39544114
000090 9b 94 21 be f0 fe f6 bc 88 cb 8b 3d b8 cf d5 3e
       -0.15779345 -0.03015086 0.0682593 0.4176004
0000a0 3f ea ff 3c 66 2c 43 3b e4 e7 82 be f0 2f de 3e
       0.031239627 0.0029781102 -0.25567544 0.43395948
0000b0 a6 b8 fd bd ac 61 4b be 3d ee c7 bd 1e 48 da 3e
       -0.123887345 -0.19861478 -0.09762237 0.42633146
0000c0 4d 22 2b be 87 4c 10 be 7e 0b 5f ba 26 38 46 be
       -0.16712303 -0.14091693 -0.00085084874 -0.19357356
0000d0 56 aa 63 3e d9 da 93 3e 94 70 aa bd 47 f2 df bd
       0.22232947 0.28877905 -0.08322254 -0.109348826
0000e0 d8 e3 92 3e 23 3a 32 3e 93 0d 40 3e 36 43 49 be
       0.28689456 0.1740499 0.18755178 -0.19654545
0000f0 aa d9 9b 3e 3a b6 76 3e dc 5c dd bd f0 fd 4e 3e
       0.30439502 0.24092951 -0.10808727 0.20214057
000100 68 7a 4d 3e bf 1b 20 3e e9 9b 25 be 49 39 ad 3e
       0.20066226 0.15635584 -0.16172756 0.33832768
000110 21 17 a6 3e 5c 07 65 3e e3 5f 63 bd f8 cd 81 3e
       0.3243952 0.22366089 -0.055511367 0.25352454
000120 82 52 a1 3e da 12 90 3e a3 ca 6e 3e 42 75 19 bc
       0.3150826 0.28139383 0.23319487 -0.009366335
000130 dc 36 24 3e 4c 55 58 3d 4f 2a 09 be 4d 7f 68 3e
       0.16036552 0.05281572 -0.13395046 0.22704811
000140 52 ca b8 3e 5e 93 65 be 3f c4 c3 bd a4 e3 5e 3e
       0.36091858 -0.22419497 -0.09558915 0.21766526
000150 26 85 bd 3d 17 e1 50 3d 3b b7 b0 3d bf 04 a5 3e
       0.09253912 0.050995912 0.086286984 0.32230183
000160 a2 2a 8c 3b b3 cb 07 be 9e 36 e0 bd 68 fb 8a 3e
       0.004277543 -0.13261299 -0.109479174 0.27144933
000170 19 7f 5f 3e 56 75 94 3e be f5 c4 3d fb b4 3f 3e
       0.21825828 0.2899577 0.09617184 0.18721382
000180 29 a0 13 bb de 35 34 3e 98 9a 08 3e 69 df a3 3d
       -0.0022525883 0.17598674 0.13340223 0.080015965
000190 22 8e 16 3e 0c 15 85 be 25 a2 74 3e 08 6c 57 bc
       0.14702657 -0.2599262 0.23889978 -0.013148315
0001a0 4d 79 36 3d 02 99 e3 3d 68 8f a3 bd b4 c5 42 3e
       0.044549275 0.11113168 -0.07986337 0.1902073
0001b0 00 55 39 be 84 b6 72 bd 72 a6 94 3d 1e 59 04 3e
       -0.18098831 -0.05925609 0.072583094 0.1292462
0001c0 2c ff 2a 3d bc 7a f5 bd b1 a5 86 3d 09 4f 91 be
       0.041747257 -0.119863 0.06574572 -0.28380612
0001d0 43 93 a4 3e e1 3e 87 3e 3f b4 44 bd 8d 16 4f 3e
       0.32143602 0.2641516 -0.04802346 0.20223446
0001e0 91 15 71 bc ec de 74 3e 56 d1 21 3d 4e dd 26 be
       -0.0147146145 0.23913163 0.03950628 -0.16295359
0001f0 c3 e0 82 3e 49 ed 3d bd 2b 2e 28 3e 37 2d f6 3b
       0.25562105 -0.04636887 0.16423862 0.0075127142
000200 21 b9 3f bd eb 56 69 3e e0 02 5b 3e 86 ce 91 3c
       -0.046807412 0.22787063 0.21387815 0.017798673
000210 28 8a bd 3d fc bc 2c bc c7 3f cc bc d3 51 97 bd
       0.09254867 -0.010543104 -0.024932755 -0.073886536
000220 50 65 4a 3c c8 db 04 3e 32 ed ac 3d 18 a5 4c 3e
       0.012353256 0.12974465 0.08443679 0.19984853
000230 00 4a 3c 3e ff 72 2e bd ba 13 28 3e 79 d3 9a bd
       0.18387604 -0.042590138 0.16413775 -0.075598665
000240 25 bf b0 bd 98 c6 2c 3d 24 ac 52 3c 1b 16 91 bd
       -0.08630208 0.04218158 0.012858424 -0.070842944
000250 cd b2 65 3e 10 d4 99 3e 41 c8 58 3e 23 ed 13 be
       0.22431488 0.30044603 0.21170141 -0.14445929
000260 76 a4 a9 bd 51 2b 29 3e e8 b7 b4 bd 28 1d 4e 3c
       -0.082833216 0.1652043 -0.0882414 0.012580194
000270 cf b6 98 3e b3 13 95 ba af b8 f8 3b 57 51 b6 3e
       0.29826972 -0.0011373669 0.0075903754 0.35608932
000280 63 e3 13 bd 87 0a 66 bd fc 59 1f be ea 33 72 bd
       -0.036105525 -0.056162383 -0.1556167 -0.05913154
000290 c9 e7 8a 3e b6 10 f5 3d 60 e2 89 bc c9 04 09 3e
       0.27129963 0.11966078 -0.016831577 0.13380732
0002a0 a3 34 9f 3d 1a b0 83 3e 6a 6f 01 be 18 d5 84 bd
       0.077737115 0.25720292 -0.12640157 -0.06485957
0002b0 24 bc 30 3e 84 1d 9b 3e 81 21 e0 3c 2c 6c 95 3e
       0.1725927 0.30295956 0.027359726 0.2918409
0002c0 91 3f 35 bd e6 57 2b 3e 66 ee 71 3e 57 f7 01 3e
       -0.044250075 0.1673275 0.23626098 0.12692009
0002d0 a7 ed e8 3d 48 1f 56 3e 0f 1a 57 be ef 99 13 be
       0.113734536 0.2091037 -0.21006034 -0.1441419
0002e0 93 77 9b 3e c9 fd c3 3e 6c 19 02 3d 10 93 8f bc
       0.30364665 0.3827956 0.031762525 -0.01752618
0002f0 34 ea 61 be 21 ad 7e 3d 66 6b fd 3d 2d 78 15 3d
       -0.22061998 0.062176827 0.12374 0.03649156
000300 8a 28 92 3d 72 9d 22 3e 98 7c 0b 3e 6e 84 a8 3e
       0.071366385 0.15880373 0.13621747 0.32913536
000310 f0 fb 31 be 38 52 d6 3d b6 a1 5f 3e 75 a9 af 3e
       -0.17381263 0.10464901 0.21839032 0.34308973
000320 b8 96 2c be cf e9 ec bd 3f cb 8b 3c 6a 75 77 3e
       -0.1685437 -0.11568033 0.017064689 0.24165884
000330 7a 36 7a bd c2 a0 80 3e c4 a5 49 3e 01 94 ca bd
       -0.06108711 0.25122648 0.19692141 -0.09891511
000340 05 1a 00 bd 1d 63 1e be 9a 47 96 3e a8 9b 09 be
       -0.031274814 -0.15467496 0.29351503 -0.13438284
000350 63 39 a1 3e 95 ba 07 bd 0d 65 d9 bd 14 15 76 be
       0.31489095 -0.033136923 -0.10614977 -0.24031478
000360 63 27 42 3c 13 f4 07 be cc eb 7d 3e d7 04 17 be
       0.011850211 -0.132767 0.2479698 -0.1474794
000370 3c d5 68 3e 7b a4 fd bc 9b 54 83 bd be 6e a2 3d
       0.22737592 -0.03096222 -0.064126216 0.07931279
000380 6e 75 82 3e 3f d2 fd 3d 2d 67 4a be 27 ac cb 3e
       0.25480217 0.12393617 -0.19765921 0.3977978
000390 4f 4c 1e be 0d 07 a6 3c 9d 3a 98 3e b9 22 cf 3e
       -0.15458797 0.020267034 0.29732218 0.4045618
0003a0 72 58 18 3d 12 ec 57 bb 7e 46 0e 3d 91 b9 bf 3e
       0.037193723 -0.0032947105 0.034735195 0.37446263
0003b0 a1 99 fe bd 8d 3b 3d 3d a7 1e db bd cd d9 07 bd
       -0.12431646 0.04619937 -0.10699206 -0.033166695
0003c0 06 4d 59 3e d0 33 6a 3e 12 3c 06 3e 93 48 8e bd
       0.21220788 0.22871327 0.13108853 -0.06947436
0003d0 54 13 f8 3b cb 6c 62 bd 0c 41 81 bd e4 2b f3 bd
       0.0075706635 -0.055279534 -0.06311235 -0.11873606
0003e0 1b 4b b3 3e 38 2e c2 3c 2e 9b 06 bd 77 40 1c 3e
       0.35018238 0.02370368 -0.032862835 0.15258966
0003f0 a1 e4 92 bd 1b 90 8f 3e 12 fb c6 bc f4 c9 30 3e
       -0.07172514 0.2803963 -0.024289642 0.17264539

seq.0.bias f4 [128]
000000 f1 91 41 3e f0 0c b6 3e 54 90 6c 3f 4a cc e6 3e
       0.18903328 0.35556746 0.9240773 0.45077735
000010 25 32 ac 3e d2 2b f6 3e 89 c7 ac 3e 66 a3 a0 3e
       0.33632007 0.48080307 0.33745983 0.31374663
000020 48 07 15 3f 24 81 ff 3e 64 4d 14 3f 2d fb 43 3d
       0.58214235 0.49903214 0.5793059 0.04784696
000030 2d 8d d2 3e 26 70 d2 3d af c0 85 3e a8 44 e8 3e
       0.41123334 0.10275297 0.26123568 0.4536488
000040 6c 4b 06 3e 2c 25 de 3e 51 c0 ae 3e c6 4c 1f 3f
       0.13114709 0.43387735 0.341311 0.6222652
000050 7d 77 fd 3e a7 94 ae 3e 01 04 99 3e 18 84 f8 3e
       0.49505225 0.34097788 0.29885867 0.4853828
000060 37 b4 64 3e 02 19 03 3f 2e 56 8b 3e ff b1 b6 3d
       0.22334372 0.51210034 0.27214187 0.08920669
000070 31 d9 88 3d 1e c4 e0 3d 0e 9b 7a 3d fa d1 03 3f
       0.06682051 0.109749064 0.061183028 0.51492274
000080 ed 5b dc 3e d4 e7 3f 3e 87 ff fb 3e 26 10 c1 3e
       0.43038884 0.18740779 0.4921839 0.37707633
000090 5e 1a 18 3f a2 94 1e 3f 99 e5 87 bc 82 cd 1e 3f
       0.59415233 0.61945546 -0.016588973 0.6203233
0000a0 ea a6 15 3e da b4 9f 3e 5b 44 88 3e d9 d4 d0 3e
       0.14614454 0.31192666 0.2661465 0.4078739
0000b0 a9 f1 11 3f df ad ad 3e c8 44 eb 3e 44 0c ad 3e
       0.5700937 0.33921716 0.45950913 0.3379842
0000c0 a8 c4 09 3e f7 60 0b 3f ae 64 a6 3e eb 9d a8 3e
       0.13453925 0.5444483 0.32498688 0.32932982
0000d0 24 60 9e 3e 86 79 08 3f 7d f2 81 3e 6b cd d7 3e
       0.30932724 0.5331043 0.25380316 0.4214891
0000e0 9b 6c da 3e 0d 74 20 3f 94 e2 87 3e 01 b5 58 3e
       0.42660984 0.6267708 0.26540053 0.21162798
0000f0 2e 55 fa 3e 82 7f cc 3e c8 a3 24 3f 28 f3 e0 3e
       0.48893112 0.3994103 0.6431241 0.43935513
000100 32 92 1f 3f d2 0e c2 3e 6c 7c 09 3e 89 fd a4 3e
       0.6233245 0.37901932 0.1342637 0.32224682
000110 be f9 96 3e 7f 2d 13 3f 33 02 cf 3e c8 f1 1c 3f
       0.29487413 0.57491297 0.40431365 0.6130643
000120 d2 22 6f 3e 25 38 f7 3e 02 d0 f4 3e a3 c5 28 3f
       0.23353127 0.48285022 0.47814947 0.6592657
000130 50 84 c7 3e c1 0d 61 bc c1 dc 32 3e c9 43 cb 3e
       0.38968134 -0.013736189 0.17467023 0.39700153
000140 10 bd 0f 3f ea df 00 3f 60 67 d1 3e 44 94 6e 3e
       0.5614786 0.50341666 0.4089918 0.23298746
000150 f4 f8 bc 3e 6f 25 90 3e 38 d4 0e 3e 47 f3 2e 3e
       0.36908686 0.2815356 0.13948143 0.1708499
000160 8d 4f ff 3e 2f 3e ba 3e 43 14 48 be 8a 83 3d 3f
       0.4986538 0.36375567 -0.19538979 0.7402884
000170 2c f4 dc 3d 75 ad bf 3d 31 aa 23 bc 0b e0 d7 3e
       0.107887596 0.09359256 -0.009989307 0.4216312
000180 a8 30 30 3f f6 0a c0 3e c0 da 21 3f 53 38 05 3f
       0.68824244 0.37508363 0.6322441 0.5203907
000190 a8 f3 82 3e e4 25 9d 3e 55 e3 8f 3d 12 d8 c2 3e
       0.2557652 0.3069297 0.07025782 0.38055474
0001a0 10 36 c1 3e 32 80 26 3f f3 78 be 3e 67 86 04 3e
       0.3773656 0.6503936 0.37201652 0.12941895
0001b0 62 1e e5 3e b9 76 87 3e 91 cf 88 3e 6a 1c 6c 3f
       0.44749743 0.26457766 0.2672086 0.92230856
0001c0 6f 0f 0f 3f 07 39 b4 3e cc eb 2b 3e a2 3e af 3e
       0.55882925 0.35199758 0.16789168 0.34227473
0001d0 19 9e b3 3e 17 6e a8 3e 19 59 01 3f 72 db 3a 3f
       0.35081556 0.32896492 0.5052658 0.72991097
0001e0 bc 04 f9 3d 4f 10 1f 3f c5 d0 1e 3f 8d 6c 56 3e
       0.12159106 0.6213426 0.6203731 0.20939846
0001f0 0e 9b ce 3d 0d 33 c6 3d ed aa 1d 3e 33 05 21 3f
       0.10088168 0.09677706 0.15397234 0.6289856

seq.2.weight f4 [32, 128]
000000 fa 0c 0f 3e 3f e1 72 3e 29 06 fe 3e 89 7c 5c 3e
       0.13969794 0.23718737 0.49614075 0.21531881
000010 68 dd ed 3d bf a2 75 3d 1f 16 87 3d 06 e1 cf 3d
       0.116144955 0.05996966 0.06596016 0.10150342
000020 00 2e 80 3e 63 68 57 3d 8e 10 35 3e 11 b0 2e 3e
       0.25035095 0.052589785 0.17682096 0.17059352
000030 17 4c 02 3e 60 6c c1 3d 77 81 e1 3d 53 bc 30 3e
       0.12724338 0.09444499 0.110110216 0.1725934
000040 29 dc 82 3d f6 d4 1d 3e 9a 03 6e 3e 18 a4 49 3e
       0.063896485 0.1541327 0.23243561 0.19691503
000050 9b f8 44 3e 2d 49 1a 3e 58 11 23 3e d7 87 9b 3d
       0.1923546 0.15066977 0.15924585 0.07594269
000060 cd e9 ee 3d ec c7 80 3d 03 09 0b 3d 2f 39 43 3e
       0.11665688 0.06288132 0.03394414 0.19064783
000070 3f 2b 64 3d b7 ad 27 3e 1e 86 00 3d 31 fd 55 3e
       0.055705305 0.1637486 0.031377904 0.20897366
000080 a0 e0 18 3e ba ab 1c 3e b8 19 85 3e 56 ff a5 3d
       0.14929438 0.15299883 0.25996184 0.08105342
000090 10 75 eb 3d b2 bd 3c 3e 8e c6 67 3e 87 8b 02 3e
       0.11496937 0.18431738 0.22634336 0.12748538
0000a0 e8 bb 2f 3e 86 c3 ec 3c 85 a3 92 3d 32 d6 82 3d
       0.17161524 0.028901827 0.07160095 0.06388511
0000b0 0b 3d be 3d 20 2d a2 3d 52 61 15 3e 4f 57 08 3e
       0.09288987 0.07918763 0.14587906 0.13314556
0000c0 40 fd 74 3c 42 e9 37 3e 63 1b 95 3c a0 33 75 3d
       0.014952958 0.17960075 0.018201536 0.059863687
0000d0 90 61 41 3e b3 61 ac 3d eb 3b 27 3e 3e d8 d9 3d
       0.18884873 0.08417072 0.1633145 0.10636948
0000e0 bd 0f 54 3e 9a 1e 89 3d a6 4a 70 3d a8 e4 15 3e
       0.20709129 0.0669529 0.05866494 0.14638007
0000f0 90 bc e1 3d b1 76 6c 3e 83 87 39 3e f4 53 d2 3d
       0.110222936 0.23092152 0.181181 0.10269919
000100 0d a3 54 3e 3a 5c 3d 3e 2a 99 03 3e b5 1f 88 3d
       0.20765324 0.18492213 0.12851396 0.06646673
000110 f1 62 66 3c e3 dc 53 3e 3f 3b 28 3e 0e 32 0e 3e
       0.014061675 0.2068973 0.1642885 0.13886282
000120 29 40 0f 3e 37 82 20 3e 9b fa 83 3d 13 66 be 3e
       0.13989319 0.15674673 0.064442836 0.3718725
000130 52 a3 5b 3e a9 be 79 3e 81 09 0d 3e 7c a1 58 3e
       0.2144902 0.24389137 0.13773157 0.21155351
000140 62 9c a3 3e 5b 86 c1 3d 89 77 0c 3e 80 a7 aa 3d
       0.31955248 0.094494544 0.13717474 0.08332729
000150 74 a3 a2 3d 4a da 4d 3e 48 6c 4a 3e af 20 09 3e
       0.079413325 0.20102802 0.19767869 0.13391374
000160 e2 b0 d5 3d c9 f8 86 3d 23 24 87 bd 10 75 b7 3e
       0.10434128 0.06590421 -0.065986894 0.358315
000170 38 b3 92 3d e2 9b 13 3e f8 90 05 bc cb 23 3f 3e
       0.071630895 0.14414933 -0.008152239 0.18665998
000180 14 a3 94 3e ae a9 8b 3d 3d b6 05 3e a6 16 ff 3d
       0.2903067 0.06819473 0.130578 0.12455492
000190 b8 cb 32 3d 1d 7b 92 3d bd fe 22 3d 62 b8 c4 3d
       0.043651313 0.07152388 0.03979372 0.09605481
0001a0 dd f3 8f 3e 98 3d 79 3d 8f 22 1c 3e 08 65 72 3e
       0.2811574 0.060849756 0.15247558 0.23671353
0001b0 af 94 7d 3d 2e 67 78 3e f9 cf 07 3e 77 48 bd 3e
       0.061909374 0.2425811 0.13262929 0.3696935
0001c0 e6 69 23 3e b1 71 c0 3c af 8a 58 3d 40 a1 21 3e
       0.15958366 0.023491712 0.052866634 0.15784168
0001d0 24 6b 96 3d 8b 9b 23 3e a0 92 19 3e d0 ba 8e 3e
       0.07344654 0.15977304 0.14997339 0.27876902
0001e0 50 7d 3b 3d 88 eb 4b 3e 24 fb 3b 3e 44 b9 f4 3d
       0.045773804 0.19914067 0.18357521 0.11949399
0001f0 63 a6 2c 3e 24 b2 f1 3d 08 ef fc 3d 34 90 60 3e
       0.16860346 0.11801556 0.12350279 0.21930009
000200 a4 33 f4 3c 23 6b b3 3c 21 b7 cf ba 3c 07 5a 3d
       0.02980978 0.021901673 -0.0015847423 0.053229555
000210 dc 55 a8 bd 59 71 13 bd e6 c7 84 bc 14 4d dc bb
       -0.082195014 -0.03599677 -0.0162086 -0.0067230556
000220 cd e8 99 bd 4e 40 58 3d 0a a2 5c bd 1f be 98 bd
       -0.07515106 0.0527957 -0.05386547 -0.07458138
000230 82 8e 56 3d 42 c1 e8 3b bf cd 81 bd a8 be 50 bd
       0.052382 0.0071031163 -0.06338071 -0.050963074
000240 7e c4 c9 3c 2b 0e 06 b7 72 f6 cc bd b5 4f 96 bc
       0.024629828 -7.990321e-06 -0.10007943 -0.018348554
000250 7a 25 df bc 66 df 7e bd 50 e0 9c 3b 16 27 c9 bd
       -0.02723955 -0.062224768 0.0047874823 -0.09821908
000260 28 c9 f3 3c 26 d2 80 3a e3 c0 3d 3d c3 98 5b bd
       0.029759005 0.0009828254 0.04632653 -0.05361248
000270 44 b6 4f 3d d0 df 48 bd ac 1e 36 3d af 4c 20 3d
       0.05071093 -0.04904157 0.044462845 0.03913563
000280 52 09 9a 3a a9 44 58 3b a0 e4 94 bc a2 7d cc bd
       0.0011752045 0.003299991 -0.018175423 -0.099849
000290 18 55 19 bc ee 37 8a 3a 67 2d 50 3d 2e 33 15 3a
       -0.009358667 0.0010545233 0.05082455 0.00056915253
0002a0 1f 0b 5f bc 9b 26 80 bd 0e f3 d6 bc 90 bf d1 bd
       -0.013613491 -0.062573634 -0.026238944 -0.10241616
0002b0 4b fe c2 bc dd 04 36 3d 8f f6 1d bd 95 1e a9 bd
       -0.023802897 0.04443823 -0.038565215 -0.08257786
0002c0 08 ad 4d bd b7 54 01 3d ca 88 ac bb 2e 8b 23 bd
       -0.050213844 0.03157493 -0.00526533 -0.039927654
0002d0 6d 25 15 3a 2a 99 6a 3d 4a 1f ff bc c0 54 79 bd
       0.0005689476 0.057274975 -0.03114285 -0.06087184
0002e0 96 81 84 3c ad 1e 3e bd ce ed a0 3c fd 80 5a 3d
       0.016175073 -0.046415973 0.019644644 0.05334567
0002f0 ee 43 8a bd 88 09 6e 3d 9d ae 25 bd 2d 1c 16 bc
       -0.06751238 0.05811456 -0.040449727 -0.009161991
000300 37 57 2e bd 75 3c da 3c d9 77 6a 3d b5 7e 87 bd
       -0.042563643 0.026640156 0.057243202 -0.06615964
000310 1c 62 ac bc bf 0c b0 bd 28 68 49 3c ee 04 0d 3b
       -0.021042876 -0.08596181 0.012292899 0.002151783
000320 86 92 8a 3c 6b 29 4a bb e9 7d fa ba d4 1a 2d 3d
       0.016915571 -0.003084744 -0.001911101 0.042261913
000330 e1 f3 45 bd 4c a5 9f bd c0 dd 97 bd aa 0b b4 bd
       -0.048328284 -0.077952 -0.07415342 -0.08791287
000340 f6 4a 0a bd 79 ab ec 3b 13 77 35 3d eb 30 9c bb
       -0.033762895 0.0072225896 0.04430301 -0.0047665737
000350 43 47 24 bd 50 dc 73 3d 37 eb 66 bd de ac a6 bd
       -0.040107023 0.05953628 -0.056376662 -0.081384405
000360 93 15 4a 3d e9 a5 fc 3c 1c ab d5 bc c6 3d b3 bd
       0.04933698 0.03084083 -0.026082568 -0.08752017
000370 ff 42 61 3d 0f b8 1c 3c 83 67 9f 3c 3f dc 4e 3d
       0.054995533 0.009565367 0.019458538 0.05050301
000380 11 2b 89 3d 88 33 c3 bc 2b aa 20 3d 35 4e b6 3b
       0.066976674 -0.023828283 0.039224785 0.005563522
000390 3f e8 b2 3c fa 53 19 bd 96 51 54 3d b2 dc b1 bd
       0.02183926 -0.037433602 0.05183562 -0.086846724
0003a0 a6 d5 a7 bd a1 a8 b7 bd 19 2e 84 3d fe 99 bb 3b
       -0.08195047 -0.0896771 0.06454105 0.0057251444
0003b0 7e 31 d2 bd ea 4c 57 3d 18 38 7a bd 4f 28 0a bd
       -0.10263346 0.052563585 -0.06108865 -0.033729848
0003c0 cc d6 2a 3c 88 6d 22 3c 0e 06 e1 bc ab 1a d1 bb
       0.010427188 0.00991381 -0.027468707 -0.006381353
0003d0 84 53 4b 3c ed bc 8d 3d b3 d9 82 bd 48 c1 25 bd
       0.012410048 0.069208 -0.06389179 -0.04046753
0003e0 de f0 af bc 64 98 61 3d 7e 4b 12 bd f7 a1 7d 3c
       -0.02147716 0.05507697 -0.035716526 0.01548051
0003f0 7b e3 76 3c 3c d1 8f 3c 1b 3a 9d bd cb 1f 1d 3c
       0.015068884 0.017555825 -0.07677098 0.0095901

seq.2.bias f4 [32]
000000 97 7c 93 3e cc 20 f2 3c 9b 47 c9 3e d9 75 bf 3e
       0.28805992 0.029556654 0.39312443 0.37394598
000010 01 ba e8 bc 65 7e b0 3e 95 89 86 bd af 24 bd 3e
       -0.028409006 0.3447143 -0.065692104 0.3694205
000020 19 cd 15 bc b2 35 be bd 03 86 23 3c b9 8a 9f bd
       -0.009143137 -0.09287585 0.009980681 -0.07790131
000030 71 23 6e 3e 84 4d 56 3d ab 18 a5 3e 47 44 1e bd
       0.23255707 0.05232002 0.32245383 -0.038639333
000040 b8 4f c1 3e 07 bb b5 3e 58 26 cc 3e ba 8a 92 3e
       0.37756133 0.35494253 0.39873004 0.28621465
000050 e9 ae 83 3e c9 1b 9b 3d d9 bc 48 3c aa c5 b5 3e
       0.25719383 0.07573659 0.012252056 0.35502368
000060 b0 b2 8b 3e 32 79 96 bd af a6 a4 3e 13 72 db 3e
       0.27284765 -0.07347335 0.3215842 0.4286047
000070 de ba ba 3e 69 cd 5f bd 35 4b 85 3e 8f 25 2a 3e
       0.36470693 -0.054639254 0.2603394 0.1661589

seq.4.weight f4 [8, 32]
000000 ca 73 9c 3d 37 a0 bb bd fc d8 ba 3d ea a7 03 3c
       0.076392725 -0.09161418 0.09123418 0.008035639
000010 de 54 d5 3d 33 d2 c3 bd f0 fa 94 3c 4c 6d 4c be
       0.10416578 -0.09561577 0.018186063 -0.19963568
000020 ac 02 46 bd 17 ec 2f 3d b8 26 ff bd e6 06 8a 3d
       -0.04834239 0.042949762 -0.12458557 0.06739597
000030 3d 94 88 3d 01 61 0b be ad 49 25 be a9 d8 16 3e
       0.06668899 -0.13611223 -0.16141386 0.14731087
000040 38 24 ab bc 8f 4d 16 be b8 90 94 bc 14 9f 2d be
       -0.020891294 -0.14678024 -0.018135414 -0.16955215
000050 d2 61 35 bd ec 34 24 be d7 ce 22 3e df a3 4a bb
       -0.04428274 -0.16035813 0.15899216 -0.0030920429
000060 61 2c dd 3d fd 34 04 3e 9a 24 c9 bc 44 bb 07 3e
       0.1079948 0.12910838 -0.024553586 0.1325503
000070 e9 26 34 3d 38 48 df bc 0d 9b b4 bd 1f 57 0c 3e
       0.04398242 -0.027256116 -0.08818636 0.13705109
000080 0d 25 ae bc 82 b2 b9 bd 2f 6f 0e 3e e8 fd 61 bd
       -0.021257902 -0.09067251 0.139096 -0.055173784
000090 f6 f9 c0 bd 2d 81 24 be 0e 52 c5 3d c8 b4 13 bd
       -0.09422676 -0.16064902 0.09634791 -0.03606108
0000a0 cc ce 20 be 5c 28 ab 3b 4c 5f ab 3c 7e 0d fb 3d
       -0.15703887 0.005223317 0.020919465 0.12258433
0000b0 a8 f6 7f bd 1b 8f 7c bd 20 f3 00 be da 87 83 bd
       -0.06249109 -0.061659914 -0.12592745 -0.06422396
0000c0 fa 96 23 be c4 5c e4 bd e4 30 4b bd 0b bd c3 bd
       -0.15975562 -0.11150506 -0.049607173 -0.095575415
0000d0 74 6d 24 3e 40 9a e4 3d 4f bb e2 3d dc 3a 9b bd
       0.16057378 0.11162233 0.110708825 -0.07579586
0000e0 5e 76 bd 3d ac 97 11 3e ff 3f 1b bd 48 cb 8a bc
       0.092510924 0.14218014 -0.03790283 -0.016942635
0000f0 48 36 71 bb 40 74 24 3d 68 01 9d bc 71 c7 f9 3c
       -0.0036806036 0.040149927 -0.01916571 0.030490609
000100 df 09 b4 3c b7 dc b4 bc 54 62 af bc da 1d fe bd
       0.021977363 -0.022077901 -0.021409191 -0.124080375
000110 cb 7e 4c 3d 8a 61 29 3d b2 96 e5 3c 7e 4b cf 3d
       0.049925607 0.041352786 0.028025959 0.10121821
000120 11 db f8 3d 16 c4 98 3b df cb 40 3d 88 aa 94 3d
       0.121511586 0.004662047 0.047069427 0.07259089
000130 92 6b 2a 3d 1b b8 24 be 6f bf 9f 3d 98 05 78 3d
       0.041606493 -0.16085856 0.07800185 0.06055221
000140 02 4f 30 be c5 ed 49 bd 3b 78 62 bd 07 49 2a be
       -0.17217639 -0.04929902 -0.055290442 -0.1662942
000150 7c ad ad bd fb d9 7e bd 41 76 41 be 18 da b6 bd
       -0.08480355 -0.0622196 -0.18892767 -0.08928317
000160 0f 2b c8 3d 67 77 ef bd da 45 08 3e 30 fa 0d 3e
       0.09773838 -0.11692696 0.13307896 0.1386497
000170 13 0e 94 bd 1e b1 7b 3d 6e e0 7b bd 9c 7e 4b be
       -0.07229247 0.06144821 -0.06149333 -0.19872516
000180 89 38 83 3e f0 bc 86 bc a1 50 00 bc 4a 60 8b 3d
       0.2562907 -0.016447514 -0.007831723 0.06805475
000190 c5 f0 3f bd db 0a 7e 3e 13 cf 22 3d dc 4a 9e 3e
       -0.046860475 0.24808829 0.039748263 0.30916488
0001a0 35 d9 1d 3e a8 60 8d 3d ad 71 aa 3d 03 cc 24 be
       0.15414889 0.06903201 0.08322463 -0.1609345
0001b0 16 aa 95 be dd 09 2b be 27 eb 5b 3e 2d 1a 27 be
       -0.29231328 -0.16702981 0.21476422 -0.16318579
0001c0 27 52 92 3e 87 6e 22 3e 39 4a 95 3d 7b 93 4b 3e
       0.28578302 0.15862475 0.072895475 0.19880478
0001d0 28 06 c2 bd ad fe b5 be 1c 2c 7e be 04 37 e0 3b
       -0.094738305 -0.35545865 -0.24821514 0.006842496
0001e0 eb 8c eb 3c ea 7d a2 bc 31 7d c3 3d 5a ca 04 bd
       0.028753718 -0.019835431 0.09545363 -0.03241954
0001f0 00 38 31 3e 20 1e 28 be 46 84 e9 bd b5 dc b9 be
       0.17306519 -0.16417742 -0.11402182 -0.363012
000200 3b 54 25 bc d8 48 c7 3d 93 d5 8b 3c 98 4c 28 be
       -0.010090883 0.09730691 0.017069614 -0.16435468
000210 07 c7 2f be 6d 2b 25 3e 1d 5f 02 be 5f e1 0f 3e
       -0.17165767 0.16129847 -0.12731595 0.14050816
000220 05 77 ca 3c ca 08 0d 3d e7 e0 09 3e ae 74 af 3d
       0.024714956 0.03443221 0.134647 0.08567177
000230 9e b6 a4 bd 77 d6 6a 3d 22 d7 c5 bc 88 51 02 be
       -0.08042644 0.057333436 -0.024150435 -0.12726414
000240 ac 44 47 3d cf 56 17 be a4 a1 11 be 31 6e c9 bd
       0.048649475 -0.14779209 -0.14221817 -0.098354705
000250 95 c3 89 bd 69 8c 1f be 40 c9 e9 3d 10 ac 01 bd
       -0.067267574 -0.15580906 0.114153385 -0.031658232
000260 2c 52 e7 3d a9 58 38 bc 70 0c 35 3d f2 cc 71 bd
       0.1129497 -0.011251607 0.044201314 -0.05903334
000270 b4 c1 37 be 13 93 61 3c 55 49 63 3d c4 53 fa 3b
       -0.17944986 0.013767975 0.055489857 0.00763938
000280 61 34 ad bd 3f 65 11 bd 7e 3f 56 bd d2 51 16 3c
       -0.08457256 -0.035496946 -0.052306645 0.009174781
000290 40 c2 d3 3d 1b a5 12 3e 9b 75 1f be d4 c6 91 bd
       0.103397846 0.14320795 -0.15572207 -0.071180016
0002a0 38 98 8e 3c 1f 30 f4 3c 20 92 98 bc 6e 85 15 3e
       0.017406568 0.029808102 -0.018624365 0.1460168
0002b0 03 e5 da bc 86 47 2c 3d 35 0a e9 bd 36 00 d5 3d
       -0.02672053 0.042060398 -0.113789 0.10400431
0002c0 c8 01 18 be 36 79 bb 3d 18 f7 0f 3e ce 0a b6 3c
       -0.1484443 0.091539785 0.14059103 0.022221949
0002d0 1a aa 32 be 54 8b a7 bd a4 40 2c be 4d 06 af 3d
       -0.17447701 -0.081808716 -0.16821533 0.08546124
0002e0 b4 b5 45 be ec e1 fd 3b a4 55 00 3e 16 20 69 3d
       -0.19307595 0.0077478793 0.1253267 0.056915365
0002f0 f9 54 09 3c bd ca e9 3d a6 16 dd 3d b8 f2 28 be
       0.0083820755 0.114156224 0.107953355 -0.1649884
000300 8c c4 77 3e 01 93 15 be c9 90 07 3e aa 89 bb 3d
       0.2419607 -0.14606859 0.13238825 0.09157117
000310 45 74 99 bd d0 d2 90 3e ec 79 5e bd c2 b3 71 3e
       -0.0749288 0.28285837 -0.054315493 0.23603728
000320 81 e9 aa bd ef bf f7 bc 07 8b e4 3c ad f8 63 bd
       -0.083453186 -0.030242888 0.027898325 -0.055657078
000330 d2 27 1d 3d ba 59 c5 bc 8d ee 9a 3e 3d 68 07 be
       0.038368054 -0.024090637 0.30260125 -0.13223357
000340 86 6c 93 3e 68 f8 9e 3e e5 e7 07 3e 57 0e 17 3e
       0.28793734 0.31048894 0.13272054 0.14751564
000350 6b 39 01 3e e1 34 ed 3c f0 af 1b be 7c a6 8e 3d
       0.1261956 0.028955879 -0.15203834 0.06965348
000360 9d a9 8b 3e 49 d6 93 bd 41 1a 21 3e 12 8d a4 3e
       0.27277842 -0.07218606 0.15732671 0.32138878
000370 64 06 5c 3e a9 e6 15 3d b2 51 a5 3e b7 4d b9 3e
       0.21486813 0.036596928 0.3228889 0.36192104
000380 a9 fe 96 3e fa c4 0b 3e 52 bd 3b 3e 35 a9 53 3e
       0.29491165 0.1364936 0.18333939 0.20670016
000390 ee 89 90 3c 3b 66 29 3e d2 64 20 bd cd 87 9e bd
       0.017643895 0.16542904 -0.03915865 -0.07740746
0003a0 06 d5 93 3d a2 df d2 3c 74 b5 85 bd be b1 59 3c
       0.07218365 0.025741402 -0.0652875 0.013287006
0003b0 ee 52 9b 3e 0a 23 21 be 53 d0 a3 bc 6e 14 13 be
       0.30336708 -0.15736023 -0.019996798 -0.14363262
0003c0 32 eb 45 3e ed f6 58 3e 2d f2 50 3e 36 53 2a 3e
       0.19328001 0.21187945 0.20404883 0.16633305
0003d0 46 0f 9e 3e 83 ef 30 3e 8c 52 b1 3e f1 7b 8e 3e
       0.30871028 0.17278866 0.3463329 0.27828935
0003e0 d9 89 d2 3d b2 21 55 3d 00 85 9c 3e df 67 44 bd
       0.102801986 0.052034087 0.3057022 -0.04795062
0003f0 94 87 b0 3d ac c9 d1 bd f7 84 21 3e 5c 6c bf be
       0.086196095 -0.10243544 0.15773378 -0.3738736

seq.4.bias f4 [8]
000000 91 ac db bd 2f a7 92 bd 5f fa 5f bd 9e 32 17 3e
       -0.10726274 -0.07160794 -0.05468213 0.14765403
000010 b3 59 ba bd bb 17 14 3d 58 d7 b3 3e 93 a2 d3 3e
       -0.0909914 0.036155444 0.35125232 0.41334972

seq.6.weight f4 [4, 8]
000000 cf 84 88 3e b8 14 52 be 7d 0c 79 3e cd a9 a5 be
       0.26663825 -0.20515716 0.2432117 -0.3235611
000010 a9 96 65 3d de 33 25 3e b9 ac 8f be 93 ec d0 3c
       0.056051884 0.16133067 -0.28061464 0.025503432
000020 96 6b 6e bc dd d6 99 3d ef cd 27 bd bf cf 0f be
       -0.014552018 0.07511685 -0.040967878 -0.14044093
000030 8f 09 2b 3e 32 5a 52 3e 3b 7a 82 be f4 b2 7b be
       0.16702865 0.2054222 -0.2548388 -0.24579984
000040 c3 1c 77 bd 89 e4 ac be 98 d7 71 3e 4c 38 8d 3e
       -0.060330164 -0.33768108 0.23617399 0.27582014
000050 33 13 56 3c 36 a1 92 3e 68 81 8c be 5b 3f 50 be
       0.013066101 0.2863862 -0.2744248 -0.20336668
000060 f7 eb 6b 3e 56 8a 8d 3d a1 96 f7 bd 1f bb 17 be
       0.23039232 0.06911151 -0.12089277 -0.14817475
000070 2b 24 06 be 47 d2 a7 be ce ea 78 be 04 69 7e be
       -0.13099734 -0.32777616 -0.24308321 -0.24844748

seq.6.bias f4 [4]
000000 d6 3f 21 3d 03 93 d7 be 7c 28 ac bd 24 71 14 be
       0.03936752 -0.4210435 -0.08406159 -0.14496285
