training/models/environment_traffic_lights/1639337024/checkpoints/ep00125.pt (torch, 28751 bytes, 8 tensors)

seq.0.weight f4 [128, 16]
-0.18122315 0.24768494 -0.02205302 0.097714424 0.280891 0.0041343705 0.14306511 -0.36482894
0.049954142 0.14487341 0.24737456 0.20119254 0.06419533 0.30788937 0.05072724 -0.46414644
-0.14289196 -0.1314804 -0.12794465 -0.12223481 -0.3868451 -0.9126001 -0.4221184 0.11035401
-0.12065329 -0.20218429 -0.3391518 -0.43993738 -0.40975133 -0.5258252 -0.4746458 -0.024207238
0.50614524 0.53093374 0.41399154 0.23462968 -1.1383071 -1.5046219 -1.5880023 0.3634574
0.443399 0.39230624 0.501272 0.31247845 -1.2821766 -1.5202311 -1.5183517 0.5604879
-0.009137334 -0.75417626 -0.19161032 0.61564046 -0.10250152 -0.16172318 -0.24316415 -0.43354648
-0.30964434 -1.0477006 -1.16341 0.5357613 0.19997014 -0.17412385 -0.025134433 -0.8118609
-0.30787295 -0.41433284 -0.42026073 -0.7231302 0.23363893 0.63985485 0.24323212 0.13656302
-0.30470607 -0.313125 -0.21490763 -0.60390633 0.4260176 0.5354742 0.30086043 -0.19389825
-0.15595223 -0.27883938 -0.15243627 0.0288944 0.024993518 -0.012910528 0.017272562 -0.02784524
-0.025221543 0.042598613 0.00028689526 -0.058306124 -0.15690327 0.21794581 0.14367971 0.25900197
-0.911804 -0.6422043 -1.0445124 0.3412763 -0.10268282 -0.012297786 -0.07123693 -0.15348488
-0.7771579 -1.2219002 -1.7737538 0.31655878 0.2301038 0.04562237 -0.21726169 0.061784893
-0.5775987 -0.7830659 -0.704755 0.14907354 0.4063722 0.3978024 0.32232788 -0.097495824
-0.46624717 -0.47544476 -0.32951945 0.038510006 0.49841708 0.40807065 0.43782055 0.007254093
0.0024153437 0.0014643925 -0.15038943 -0.29829082 0.38167155 0.29596657 -0.053457063 0.06948467
-0.16110732 0.05981096 0.2598197 -0.06592544 0.15050192 0.3520595 -0.018572237 -0.052591164
-0.010262001 0.04769578 0.14409478 0.19390592 0.2792195 -0.09233145 0.18551406 -0.0752354
-0.20944978 -0.49867442 -0.16929774 0.080840625 0.14692384 0.3858188 0.46742725 -0.14120269
-0.02429353 0.22304809 -0.051648006 -0.30054402 0.13697407 0.29600102 0.19031909 0.027951049
-0.0087046875 0.2704759 0.042405106 -0.33348608 0.11295572 0.30864483 0.18477368 -0.097187035
-0.33489102 -0.010398664 -0.19135259 -0.20911257 0.12392008 0.19024234 0.251136 -0.16995278
-0.61712325 -1.0143694 -0.6899376 0.026454682 0.2117194 0.32291016 0.23491107 -0.24258134
-0.6163014 0.13781138 -0.5130087 0.6619957 -0.5772449 -0.63538283 -0.65913343 -0.053432845
-0.55019647 -0.19961794 -0.44058934 0.7277974 -0.43889335 -0.7587393 -0.69097984 -0.12173006
-0.27579656 0.0069915736 0.0032118685 0.07869758 0.17461984 -0.097766586 -0.06671159 0.29117605
-0.09773511 -0.4086618 0.013493842 0.036412537 -0.23639153 0.049804956 -0.09242898 0.2658148
-0.2581802 -0.18393491 -0.08419422 0.51322675 -0.29682562 -0.32347637 -0.12535307 -1.1389982
-0.34611428 -0.7620263 -0.37454224 0.66937387 -0.26342767 -0.16816327 -0.31357217 -1.2308943
-0.014934971 0.04773505 -0.112453744 -0.085145116 -0.15020314 0.1022362 -0.2324397 -0.39771873
-0.030157672 0.4079841 0.10381662 0.17526847 -0.11341366 -0.109050274 0.005858279 -0.20179804
00000000: 9092 39be 1fa1 7d3e 89a8 b4bc 801e c83d
00000010: f2d0 8f3e 9d79 873b a97f 123e dcca babe
00000020: b79c 4c3d b259 143e c24f 7d3e 6b05 4e3e
00000030: d778 833d ada3 9d3e 5ec7 4f3d 9aa4 edbe
00000040: 4552 12be cca2 06be ec03 03be 3e56 fabd
00000050: 9010 c6be 29a0 69bf e71f d8be 4801 e23d
00000060: 1219 f7bd 6609 4fbe 4ea5 adbe 793f e1be
00000070: edca d1be 7b9c 06bf c604 f3be 424e c6bc
00000080: bc92 013f 46eb 073f b3f6 d33e c342 703e
00000090: 0cb4 91bf 7397 c0bf a943 cbbf 1717 ba3e
000000a0: 3205 e33e 5ddc c83e 5d53 003f 2dfd 9f3e
000000b0: 5d1e a4bf ef96 c2bf 5959 c2bf 237c 0f3f
000000c0: c2b4 15bc b211 41bf 7f35 44be 9d9a 1d3f
000000d0: 51ec d1bd c39a 25be 0600 79be cef9 ddbe
000000e0: b489 9ebe 0e1b 86bf 9eea 94bf a727 093f
000000f0: f9c4 4c3e 864d 32be bae6 cdbc 1ed6 4fbf
00000100: 86a1 9dbe 6f23 d4be 6a2c d7be 101f 39bf
00000110: 0b3f 6f3e 87cd 233f d711 793e 2dd7 0b3e
00000120: 6f02 9cbe ec51 a0be bf10 5cbe 9b99 1abf
00000130: fb1e da3e d614 093f 610a 9a3e 438d 46be
00000140: f1b1 1fbe 09c4 8ebe 4118 1cbe f3b3 ec3c
00000150: 35bf cc3c ae86 53bc 307f 8d3c b31b e4bc
00000160: 699d cebc e27b 2e3d 6e6a 9639 67d2 6ebd
00000170: 40ab 20be 302d 5f3e c620 133e e89b 843e
00000180: fd6b 69bf 8067 24bf 95b2 85bf c4bb ae3e
00000190: 5f4b d2bd a77c 49bc abe4 91bd 242b 1dbe
000001a0: d2f3 46bf 3a67 9cbf 5d0a e3bf fe13 a23e
000001b0: 55a0 6b3e 86de 3a3d d979 5ebe 2812 7d3d
000001c0: 82dd 13bf 0277 48bf d36a 34bf bca6 183e
000001d0: 0410 d03e c2ac cb3e 2908 a53e e4ab c7bd
000001e0: f3b7 eebe 7f6d f3be c6b6 a8be abbc 1d3d
000001f0: 8630 ff3e a3ee d03e 042a e03e beb3 ed3b
00000200: be4a 1e3b dcf0 bf3a b0ff 19be 93b9 98be
00000210: 746a c33e ee88 973e cbf5 5abd fb4d 8e3d
00000220: 51f9 24be 56fc 743d 1607 853e eb03 87bd
00000230: 2d1d 1a3e 2541 b43e ce24 98bc d569 57bd
00000240: f421 28bc a65c 433d 958d 133e 468f 463e
00000250: dcf5 8e3e 4518 bdbd 66f7 3d3e 0415 9abd
00000260: 017a 56be 4152 ffbe 635c 2dbe c58f a53d
00000270: 3473 163e 0b8a c53e a052 ef3e 7097 10be
00000280: 3a03 c7bc b866 643e dc8c 53bd e8e0 99be
00000290: ee42 0c3e 728d 973e 02e3 423e 99f9 e43c
000002a0: 1b9e 0ebc d17b 8a3e fab0 2d3d b0be aabe
000002b0: 5455 e73d b206 9e3e 5035 3d3e ff09 c7bd
000002c0: d676 abbe 285f 2abc eff1 43be 9b21 56be
000002d0: d0c9 fd3d e3ce 423e e694 803e 1a08 2ebe
000002e0: cafb 1dbf dbd6 81bf c09f 30bf 7db7 d83c
000002f0: f8cc 583e 7b54 a53e 878c 703e 3e67 78be
00000300: eec5 1dbf 6d1e 0d3e 8a54 03bf 8d78 293f
00000310: 52c6 13bf 73a8 22bf f8bc 28bf 66dc 5abd
00000320: add9 0cbf a568 4cbe ed94 e1be ee50 3a3f
00000330: a1b6 e0be bd3c 42bf 0ee4 30bf 9c4d f9bd
00000340: 3535 8dbe 9219 e53b 367e 523b 322c a13d
00000350: 8bcf 323e d939 c8bd 16a0 88bd 0715 953e
00000360: 5829 c8bd 1f3c d1be 4715 5d3c 5025 153d
00000370: 9f10 72be 4800 4c3d 684b bdbd e118 883e
00000380: 3230 84be 6f59 3cbe 056e acbd d462 033f
00000390: 87f9 97be b29e a5be 8e5c 00be b1ca 91bf
000003a0: e435 b1be 2814 43bf 00c4 bfbe 165c 2b3f
000003b0: fedf 86be fe32 2cbe 888c a0be f28d 9dbf
000003c0: cfb1 74bc d485 433d 264e e6bd 9060 aebd
000003d0: dace 19be 3661 d13d ac04 6ebe caa1 cbbe
000003e0: 390d f7bc 4be3 d03e cf9d d43d 9479 333e
000003f0: 6c45 e8bd c055 dfbd cef6 bf3b 25a4 4ebe

seq.0.bias f4 [128]
0.9742158 1.6529084 -0.0338491 1.0317644 1.0189613 1.2275592 0.99025416 1.3030072
1.1444696 1.0796365 1.2582401 1.4078426 1.214028 1.4773431 1.1100969 1.0330789
1.2887487 1.0099161 1.1810824 0.44198874 1.2893041 1.078506 1.0872343 1.3243937
1.052786 1.0969665 1.4695127 1.2858999 0.6833775 0.9272808 1.1340761 1.2188593
0.8462138 1.047158 0.87746954 1.1841736 1.2636415 0.78182894 0.9848895 1.0724727
1.1042752 0.95100224 0.8892856 0.7727367 0.9777787 1.3841691 1.2663331 0.8655638
1.3984215 0.86666054 1.2561274 1.0300933 1.2650089 0.86543703 0.74884224 0.90052885
0.9808213 1.1651244 1.0846041 0.84302765 1.1337675 0.8442817 1.1479077 1.0126737
0.8194735 1.1562747 1.053675 1.2467653 0.4420553 1.1522107 1.2242403 1.369924
1.078885 0.9083277 0.98215485 0.98151475 1.1385123 1.3684422 1.2490162 0.64459085
1.0680786 1.0860221 0.78513175 0.9938783 1.0437872 0.7944255 1.0241919 0.7902726
1.0153408 1.2489187 1.2619679 1.0669402 1.190369 1.3590441 0.99243355 0.7006194
0.91892034 0.94219756 0.7983603 1.3711427 1.0443131 1.2221192 1.0523164 1.2470046
0.7842009 1.0477545 1.0963867 0.8899215 0.88764787 1.3051696 1.0494082 0.8127282
1.0643795 0.90569 0.8508494 1.2089511 1.186741 1.5189104 0.8281452 1.0743783
0.8210926 1.0634456 0.8781448 1.0480365 0.9799936 0.9393348 0.96191746 0.98906523
00000000: 3566 793f 8192 d33f 5ba5 0abd db10 843f
00000010: 536d 823f a920 9d3f 4c81 7d3f f1c8 a63f
00000020: fb7d 923f 8731 8a3f 030e a13f 3034 b43f
00000030: 4565 9b3f 9419 bd3f a817 8e3f ee3b 843f
00000040: b8f5 a43f ee44 813f b52d 973f 594c e23e
00000050: eb07 a53f 7c0c 8a3f 7e2a 8b3f bc85 a93f
00000060: b1c1 863f 6669 8c3f fe18 bc3f 5e98 a43f
00000070: d4f1 2e3f 4662 6d3f 6829 913f 9503 9c3f
00000080: 78a1 583f 4609 863f d8a1 603f 0093 973f
00000090: 01bf a13f f125 483f b821 7c3f c946 893f
000000a0: e458 8d3f e274 733f 39a8 633f 13d2 453f
000000b0: b44f 7a3f 742c b13f 3417 a23f 9795 5d3f
000000c0: 7aff b23f 77dd 5d3f c8c8 a03f 19da 833f
000000d0: d0eb a13f 488d 5d3f 20b4 3f3f 0f89 663f
000000e0: 1b17 7b3f cc22 953f 4fd4 8a3f a9d0 573f
000000f0: 4b1f 913f d822 583f a4ee 923f 4b9f 813f
00000100: 04c9 513f cf00 943f d3de 863f 0196 9f3f
00000110: 1355 e23e a47b 933f e8b3 9c3f ab59 af3f
00000120: e718 8a3f 2a88 683f 806e 7b3f 8d44 7b3f
00000130: c5ba 913f 1d29 af3f c3df 9f3f e803 253f
00000140: cdb6 883f c602 8b3f 65fe 483f cf6e 7e3f
00000150: d29a 853f 785f 4b3f b818 833f 4e4f 4a3f
00000160: b0f6 813f 91dc 9f3f 2a88 a13f 7f91 883f
00000170: 035e 983f 28f5 ad3f 2010 7e3f cb5b 333f
00000180: 5d3e 6b3f dc33 713f 5761 4c3f 9b81 af3f
00000190: 0dac 853f 676e 9c3f 4eb2 863f d99d 9f3f
000001a0: 64c1 483f d21c 863f 6656 8c3f e5d1 633f
000001b0: e43c 633f cc0f a73f 0253 863f f50e 503f
000001c0: 963d 883f 4ddb 673f 44d1 593f e9be 9a3f
000001d0: 21e7 973f a86b c23f 5301 543f 3a85 893f
000001e0: 2033 523f fc1e 883f 19ce 603f 0f26 863f
000001f0: dce0 7a3f 3f78 703f 3940 763f 6133 7d3f

seq.2.weight f4 [32, 128]
-0.043689556 0.03424615 -0.02405052 0.027202206 -0.05604766 -0.01942165 -0.008508685 -0.087101
-0.08275693 -0.06990929 -0.014508854 -0.02891862 -0.06773211 -0.016210206 -0.036966197 0.06963702
-0.04912594 -0.099577986 -0.052303877 -0.018797658 0.039642397 -0.07553364 -0.0963407 -0.0699647
0.006790123 0.03293544 -0.06478077 -0.056614634 -0.041286875 -0.017116744 -0.068724856 -0.0321426
0.06941104 -0.056687254 0.0031952737 0.060341433 0.003932818 0.06511361 0.055401366 -0.05109408
-0.0429657 -0.007712734 -0.04366901 0.05802104 -0.0710515 0.0292197 -0.038165398 -0.09476215
0.044193253 0.06402621 0.02866359 -0.040039785 -0.089845166 0.062758796 0.031458106 0.01563526
0.05240186 0.043577403 0.05769853 0.007283196 -0.040137764 0.018041387 -0.017979441 -0.067371696
-0.09135519 0.06523523 0.05418501 0.036724646 -0.0117994035 0.021588903 0.03058477 0.075828284
-0.06706105 -0.03138841 -0.076543294 -0.09990022 0.064757906 -0.012916011 0.00066191657 -0.06355461
-0.0632219 -0.066547416 0.011617934 0.027221896 -0.0030013933 0.038043372 -0.069722325 -0.08179305
-0.051118575 0.06775387 -0.022965023 -0.05636857 -0.0390412 -0.07281247 0.016937122 0.05825398
0.049754735 -0.06452157 0.02970004 0.059444267 -0.016133301 -0.04687082 0.03810055 -0.029713146
-0.052063882 -0.03721574 -0.03712887 -0.062249627 -0.090499304 0.040495172 -0.028359136 -0.07208831
0.035761986 0.009731844 -0.07378574 -0.010273524 -0.035741933 -0.021317985 -0.050869137 -0.058084957
-0.09291712 0.03263718 0.033667598 0.029832724 0.03743572 0.067227595 0.042194758 0.025676968
-0.21574728 0.6415519 0.71061546 -0.008075389 0.20114313 -0.045945488 0.2602519 0.42551962
-0.087265834 -0.13366312 -0.045074303 0.3302884 0.2401354 -0.020857178 0.45662713 -0.0050182445
0.120404705 0.24020654 -0.09993542 0.43919012 0.0044516018 -0.09907735 0.5563533 0.11281442
-0.1811099 0.13719304 0.27677184 -0.00051151577 0.42304528 0.04640837 -0.030682731 -0.027547568
-0.19977123 -0.1699921 -0.07525449 0.22562398 0.10971697 -0.09838857 -0.1054955 0.18941791
-0.4687957 -0.04396788 0.42536777 -0.06855765 -9.910994e-05 0.31444988 -0.02262893 -0.13107836
0.41821873 -0.114238836 0.013452505 -0.012479599 -0.075610146 -0.19659708 0.40001836 -0.026388569
-0.122271165 -0.13146986 -0.0014420116 -0.09246109 0.019197775 -0.098974556 -0.28754407 0.08349339
0.26196855 -0.01379469 -0.10299595 -0.15117507 0.7149594 -0.14214844 0.3187005 0.16524051
0.4567382 0.037808124 -0.15160921 -0.4655724 0.37528846 0.5440138 0.14490458 0.26084277
-0.059608404 -0.042487137 0.2851504 -0.03368524 0.33054185 -0.08664074 -0.025449313 0.5759665
-0.15871395 0.32192555 -0.10773226 -0.18077993 0.3208972 0.4770408 -0.056008216 0.69843435
-0.01600785 0.4166104 0.25278732 -0.01815836 0.39063853 0.2163446 -0.39477658 0.0016065927
0.1761473 -0.022558091 0.06585354 -0.0048975567 -0.13281901 -0.094165914 -0.069317356 0.20658122
-0.008435005 -0.11654118 0.16022874 0.043076348 -0.14094248 0.061292812 -0.16527829 -0.17039338
-0.17938863 0.08392361 -0.032373656 -0.0751103 0.34007892 0.0072564026 -0.0722218 -0.13551076
00000000: d2f3 32bd b145 0c3d 9905 c5bc 29d7 de3c
00000010: 3b92 65bd 271a 9fbc 0368 0bbc 0262 b2bd
00000020: 777c a9bd 9a2c 8fbd 8bb6 6dbc bee6 ecbc
00000030: 22b7 8abd 44cb 84bc de69 17bd db9d 8e3d
00000040: 4838 49bd 8bef cbbd 973c 56bd 8cfd 99bc
00000050: 1160 223d 62b1 9abd 464e c5bd a749 8fbd
00000060: ae7f de3b 50e7 063d c8ab 84bd bfe4 67bd
00000070: 6d1c 29bd 6a38 8cbc 9ebf 8cbd f5a7 03bd
00000080: 6027 8e3d e530 68bd cc67 513b 9428 773d
00000090: dede 803b 495a 853d 8bec 623d 0748 51bd
000000a0: cdfc 2fbd 1abb fcbb 47de 32bd 78a7 6d3d
000000b0: 7383 91bd 275e ef3c 5253 1cbd a812 c2bd
000000c0: fc03 353d 2c20 833d e8cf ea3c c200 24bd
000000d0: be00 b8bd af87 803d 37da 003d 8415 803c
000000e0: 55a3 563d 387e 323d 4b55 6c3d e0a7 ee3b
000000f0: 7f67 24bd 88cb 933c 9f49 93bc 2cfa 89bd
00000100: 6e18 bbbd 0c9a 853d 1af1 5d3d 956c 163d
00000110: 4952 41bc 36db b03c e98c fa3c dc4b 9b3d
00000120: 4e57 89bd 2291 00bd bbc2 9cbd 7d98 ccbd
00000130: cb9f 843d ad9d 53bc 7884 2d3a eb28 82bd
00000140: 7c7a 81bd 034a 88bd 2659 3e3c 7400 df3c
00000150: 06b3 44bb 5ed3 1b3d 94ca 8ebd 1d83 a7bd
00000160: b661 51bd 8ac2 8a3d 2521 bcbc bbe2 66bd
00000170: aae9 1fbd b41e 95bd b8bf 8a3c ba9b 6e3d
00000180: 9fcb 4b3d e323 84bd 804d f33c d57b 733d
00000190: fc29 84bc 9efb 3fbd 530f 1c3d fc68 f3bc
000001a0: f040 55bd 886f 18bd 7114 18bd 77f9 7ebd
000001b0: b357 b9bd 44de 253d 6b51 e8bc 09a3 93bd
000001c0: 297b 123d 5072 1f3c fa1c 97bd 4852 28bc
000001d0: 2266 12bd 0ea3 aebc 285c 50bd 7eea 6dbd
000001e0: 554b bebd 90ae 053d 09e7 093d c263 f43c
000001f0: 3356 193d 9fae 893d 69d4 2c3d 8158 d23c
00000200: dbec 5cbe bf3c 243f e5ea 353f a34e 04bc
00000210: 77f8 4d3e 5631 3cbd bd3f 853e b5dd d93e
00000220: 6eb8 b2bd fcde 08be d59f 38bd 901b a93e
00000230: 0ee6 753e acdc aabc 08cb e93e 1670 a4bb
00000240: be96 f63d b4f8 753e f1aa ccbd 87dd e03e
00000250: bede 913b 11e9 cabd 2b6d 0e3f 3f0b e73d
00000260: e074 39be 557c 0c3e 0ab5 8d3e 3e17 06ba
00000270: 6499 d83e b416 3e3d 5a5a fbbc 70ab e1bc
00000280: d490 4cbe 6912 2ebe 071f 9abd f909 673e
00000290: 4ab3 e03d f27f c9bd 060e d8bd c5f6 413e
000002a0: fd05 f0be aa17 34bd cec9 d93e f467 8cbd
000002b0: 3ed9 cfb8 93ff a03e 4e60 b9bc 6839 06be
000002c0: c420 d63e 0df6 e9bd e567 5c3c 3b77 4cbc
000002d0: 7ed9 9abd bf50 49be 35cf cc3e d72c d8bc
000002e0: 4e69 fabd 09a0 06be e101 bdba 3d5c bdbd
000002f0: a744 9d3c 2cb3 cabd fa38 93be 95fe aa3d
00000300: be20 863e 2003 62bc 8aef d2bd a3cd 1abe
00000310: 9407 373f 5c8f 11be b62c a33e cf34 293e
00000320: 97d9 e93e b1dc 1a3d 723f 1bbe 815f eebe
00000330: cf25 c03e 7d44 0b3f de61 143e 2f8d 853e
00000340: f127 74bd fe06 2ebd 3cff 913e 89f9 09bd
00000350: c83c a93e b370 b1bd 147b d0bc 8a72 133f
00000360: e985 22be 6dd3 a43e bba2 dcbd 601e 39be
00000370: a34c a43e b13e f43e df68 65bd 98cc 323f
00000380: e522 83bc f54d d53e 576d 813e d7c0 94bc
00000390: c601 c83e 7089 5d3e 2820 cabe 4e94 d23a
000003a0: f55f 343e bfcb b8bc 39de 863d af7b a0bb
000003b0: b501 08be 0fda c0bd 42f6 8dbd 078a 533e
000003c0: fa32 0abc 24ad eebd 0113 243e d370 303d
000003d0: 3a53 10be 2c0e 7b3d b63e 29be 9a7b 2ebe
000003e0: a7b1 37be 24e0 ab3d 3d9a 04bd 6ed3 99bd
000003f0: d31e ae3e 1ec7 ed3b 06e9 93bd 55c3 0abe

seq.2.bias f4 [32]
-0.102184646 0.9137878 -0.10005195 0.85276 0.008735584 0.87467855 1.0676703 1.3212608
-0.08115477 1.0025567 -0.074357316 1.0638807 0.9545222 0.9470699 0.6608456 -0.090358764
0.6702396 -0.058796965 0.79722583 0.9231333 0.025715359 0.902161 1.2156216 0.6504115
0.8816504 1.0958656 1.0566374 0.86570644 -0.07023323 0.96942526 0.029280791 1.1773503
00000000: 2f46 d1bd ffed 693f 09e8 ccbd 7b4e 5a3f
00000010: b21f 0f3c efea 5f3f 6ca9 883f 131f a93f
00000020: 7934 a6bd c753 803f a648 98bd 3e2d 883f
00000030: 915b 743f 2c73 723f 2d2d 293f 040e b9bd
00000040: d394 2b3f 16d5 70bd fe16 4c3f 7752 6c3f
00000050: 04a9 d23c 06f4 663f 7d99 9b3f 5e81 263f
00000060: d7b3 613f 5345 8c3f e53f 873f f09e 5d3f
00000070: 71d6 8fbd 412c 783f 45de ef3c 6ab3 963f

seq.4.weight f4 [8, 32]
-0.1651438 -0.026883904 -0.1457786 0.044072665 -0.06931447 0.0059383935 0.18693979 -0.20252022
-0.06551354 0.065941714 -0.16475756 0.12634869 -0.14694883 0.003854122 0.013317727 -0.14397871
-0.2382291 -0.054383155 -0.17647272 -0.29573086 -0.14967309 0.11270582 -0.35216022 -0.12938529
-0.1084465 -0.011672244 0.1694204 0.11379131 0.087660745 -0.08132183 0.028932286 0.14305303
-0.019948713 -0.211735 -0.10123869 0.025896566 0.017666914 0.13020113 -0.03846139 -0.062751316
-0.020118333 -0.14019659 -0.016911633 0.15135139 -0.104324885 -0.06596296 0.054575093 -0.09616431
-0.088516094 0.014261713 -0.07237163 -0.043893877 0.014356715 -0.017796887 0.1012914 -0.120621316
-0.06267774 -0.067593135 -0.021730792 -0.112052195 0.017064141 -0.15668316 -0.13110259 0.015100633
-0.15401542 0.33705243 0.048517443 -0.106033005 0.049015373 0.44074258 -0.5030872 -0.48388618
-0.0550581 -0.1628128 0.11092914 -0.43341804 0.003091053 0.07826334 0.4438374 0.0185943
0.49227464 0.014507044 0.13242382 0.24616157 0.07438896 0.15042484 0.39346656 0.14825985
0.31805792 0.08631242 0.27454245 0.25724652 -0.20025864 0.22802255 0.052195996 0.23956487
-0.088811114 0.11671406 -0.061879504 -0.007799354 -0.16316485 0.4857502 0.27317092 -0.45041996
-0.11442709 0.31042814 -0.17389116 0.39195284 0.27514118 -0.17784949 -0.03837012 0.07503028
-0.04434839 -0.08668191 0.039348934 -0.7791112 -0.05705432 -0.13408092 0.024670029 -0.07905588
0.21522446 0.45362633 0.056422494 -0.08911105 -0.048688818 0.3010271 -0.05503926 0.4736751
-0.023496978 0.124752045 0.040259406 -0.08327257 0.004638262 0.031031081 -0.011309682 0.118626826
0.14203046 0.13907856 0.07987832 -0.19529928 -0.07898764 -0.07671594 -0.10767926 -0.14942713
-0.17745154 0.062229026 0.030521072 -0.07297643 -0.054822944 -0.19791865 -0.05474331 0.0139724165
-0.025527675 -0.07826215 -0.050697707 -0.114237316 -0.08561709 0.030748362 0.05288858 -0.16607709
-0.09416061 0.14709674 0.09192272 0.3652848 -0.1362416 0.4149376 -0.060336556 -0.42265654
-0.06977283 -0.056778453 -0.1422069 -0.05765027 0.43073267 -0.18052045 0.41913748 0.011592164
0.5922055 -0.04131099 0.4396809 -0.13160612 -0.13159463 -0.015429254 -0.45069644 0.48720318
0.23902115 0.1556182 -0.16261739 -0.09551632 0.13556983 0.37856522 0.023458518 -0.19473344
0.15802419 0.37829843 0.016221078 0.3809747 -0.043116592 0.09312921 0.24912125 -0.0044144504
0.1726651 0.1804738 -0.048072092 0.23182002 0.16355188 0.42528826 0.24816963 -0.106619716
0.13362193 -0.028418666 0.17935738 -0.02035708 0.043784264 0.46054873 -0.20111227 0.24983506
0.359987 0.3664027 -0.06285728 0.3073178 -0.087649964 0.24038967 0.17688465 0.57648516
0.08332173 0.084918454 -0.051507916 -0.01572857 -0.13691925 -0.20665807 -0.20649843 0.13250762
-0.08054525 -0.124728546 0.16328852 -0.0032748627 -0.23128895 0.040591147 -0.16973314 -0.17688532
-0.07869282 0.14203915 0.06337934 0.11314276 0.16630541 -0.025703598 -0.106830694 0.09788141
0.010141557 -0.2020066 -0.07600411 -0.1420973 -0.15898693 -0.22090279 0.16279924 0.05947983
00000000: 751b 29be a23b dcbc fc46 15be 8a85 343d
00000010: bff4 8dbd db96 c23b 256d 3f3e 7661 4fbe
00000020: f62b 86bd 730c 873d 35b6 28be 8d61 013e
00000030: c179 16be 7095 7c3b 9832 5a3c 286f 13be
00000040: 54f2 73be dfc0 5ebd 44b5 34be 096a 97be
00000050: e743 19be 4fd2 e63d 584e b4be 947d 04be
00000060: 3319 debd f13c 3fbc 8b7c 2d3e 6b0b e93d
00000070: 7a87 b33d 0f8c a6bd 6703 ed3c 7e7c 123e
00000080: 7c6b a3bc 0fd1 58be 3b56 cfbd 0925 d43c
00000090: 34ba 903c 7253 053e b189 1dbd c383 80bd
000000a0: 34cf a4bc b28f 0fbe 448a 8abc dcfb 1a3e
000000b0: 49a8 d5bd 9717 87bd 228a 5f3d cbf1 c4bd
000000c0: ed47 b5bd f6a9 693c 9437 94bd 11ca 33bd
000000d0: 6d38 6b3c c7ca 91bc de71 cf3d 4f08 f7bd
000000e0: 305d 80bd 456e 8abd c604 b2bc 9f7b e5bd
000000f0: 19ca 8b3c 8d71 20be c23f 06be a568 773c
00000100: 38b6 1dbe 2392 ac3e 3aba 463d d527 d9bd
00000110: 58c4 483d 03a9 e13e 53ca 00bf eebf f7be
00000120: 9a84 61bd 66b8 26be d12e e33d f8e8 ddbe
00000130: 4493 4a3b 8848 a03d a83e e33e 1353 983c
00000140: 6c0b fc3e f4ae 6d3c 1c9a 073e c711 7c3e
00000150: 3d59 983d f808 1a3e 7374 c93e 6ed1 173e
00000160: 7dd8 a23e 91c4 b03d d490 8c3e d1b5 833e
00000170: 9a10 4dbe be7e 693e 78cb 553d 7e50 753e
00000180: 9ae2 b5bd c807 ef3d 5d75 7dbd b991 ffbb
00000190: b014 27be 40b4 f83e 0fdd 8b3e 729d e6be
000001a0: c058 eabd 70f0 9e3e 8610 32be 0bae c83e
000001b0: 4edf 8c3e 2d1e 36be fd29 1dbd 7aa9 993d
000001c0: a8a6 35bd 4986 b1bd 592c 213d d573 47bf
000001d0: cab1 69bd 824c 09be cd18 ca3c 0de8 a1bd
000001e0: cd63 5c3e b641 e83e 461b 673d db7f b6bd
000001f0: ed6d 47bd 3920 9a3e d970 61bd 8b85 f23e
00000200: bc7c c0bc 007e ff3d 0ce7 243d cf8a aabd
00000210: 90fc 973b e534 fe3c 3f4c 39bc 9ff2 f23d
00000220: 6f70 113e 9c6a 0e3e 3f97 a33d 89fc 47be
00000230: 46c4 a1bd 3f1d 9dbd f286 dcbd 6d03 19be
00000240: dbb5 35be dde3 7e3d 5407 fa3c ab74 95bd
00000250: 068e 60bd 30ab 4abe 853a 60bd 90ec 643c
00000260: 6a1f d1bc e847 a0bd 66a8 4fbd 41f5 e9bd
00000270: 0358 afbd fde3 fb3c b2a1 583d 1d10 2abe
00000280: 47d7 c0bd 87a0 163e fb41 bc3d 9c06 bb3e
00000290: eb82 0bbe b372 d43e 7723 77bd 7066 d8be
000002a0: 0fe5 8ebd 8690 68bd b09e 11be b122 6cbd
000002b0: fe88 dc3e 5ada 38be 3099 d63e 0fed 3d3c
000002c0: c89a 173f b635 29bd db1d e13e c1c3 06be
000002d0: bec0 06be fbca 7cbc afc1 e6be b272 f93e
000002e0: f6c1 743e 615a 1f3e 2c85 26be 0f9e c3bd
000002f0: d1d2 0a3e 4dd3 c13e 142c c03c 3468 47be
00000300: 18d1 213e 55b0 c13e 11e2 843c 1e0f c33e
00000310: 069b 30bd 87ba be3d a419 7f3e 18a7 90bb
00000320: 1fcf 303e 20ce 383e 3ee7 44bd 3a62 6d3e
00000330: 257a 273e 62bf d93e 2e20 7e3e 705b dabd
00000340: 30d4 083e 43ce e8bc 76a9 373e e4c3 a6bc
00000350: 2157 333d 0bcd eb3e 60f0 4dbe c3d4 7f3e
00000360: 3750 b83e 2299 bb3e 51bb 80bd c258 9d3e
00000370: d381 b3bd b628 763e 4021 353e 8894 133f
00000380: 95a4 aa3d bae9 ad3d f7f9 52bd 34d9 80bc
00000390: 8f34 0cbe 2c9e 53be 5374 53be 14b0 073e
000003a0: e8f4 a4bd ae71 ffbd 1b35 273e 149f 56bb
000003b0: 03d7 6cbe e742 263d 86ce 2dbe 6d21 35be
000003c0: b429 a1bd b672 113e 07cd 813d 64b7 e73d
000003d0: f74b 2a3e 5a90 d2bc 0dca dabd 0c76 c83d
000003e0: c628 263c d1da 4ebe 0ba8 9bbd f481 11be
000003f0: 78cd 22be 5734 62be d8b4 263e 1fa1 733d

seq.4.bias f4 [8]
0.04017537 -0.19604185 0.23868729 0.7756153 -0.06720933 0.040592927 0.9114075 0.032008555
00000000: ee8e 243d 32bf 48be 716a 743e b98e 463f
00000010: 0ca5 89bd c544 263d 0052 693f 671b 033d

seq.6.weight f4 [4, 8]
0.1617584 0.34125355 -0.31727996 0.33702928 -0.12752712 0.4723762 0.35540915 0.063713424
-0.28256065 0.07119177 0.2146795 0.52226865 0.078822896 -0.18829021 0.25113058 0.22891672
-0.14909902 -0.31543005 0.29208162 -0.13716024 0.08477493 0.6648814 0.124459155 0.02153393
-0.11259942 0.23433001 -0.2864697 -0.2840615 0.29724795 0.12602183 0.715273 0.31932965
00000000: fea3 253e c9b8 ae3e 8572 a2be 1a8f ac3e
00000010: 7896 02be 4bdb f13e 30f8 b53e 2f7c 823d
00000020: caab 90be fecc 913d f1d4 5b3e 66b3 053f
00000030: e66d a13d 26cf 40be 3094 803e 2569 6a3e
00000040: 6aad 18be 0c80 a1be b98b 953e bc73 0cbe
00000050: 7a9e ad3d ab35 2a3f 71e4 fe3d ed67 b03c
00000060: 869a e6bd 35f4 6f3e 28ac 92be 8270 91be
00000070: e230 983e de0b 013e 221c 373f 2d7f a33e

seq.6.bias f4 [4]
0.13011296 0.55165774 -0.0026178341 0.86468905
00000000: 553c 053e 7139 0d3f f88f 2bbb 435c 5d3f
