training/models/environment_traffic_lights/1639337024/checkpoints/ep00025.pt (torch, 28751 bytes, 8 tensors)

seq.0.weight f4 [128, 16]
0	0xbe1a42f3	-0.15064602
1	0x3e7fa49f	0.24965142
2	0xbdf4c6cc	-0.1195198
3	0xbd05834a	-0.03259591
4	0x3e8c3047	0.27380583
5	0x3d168bc0	0.03675437
6	0x3e07a78e	0.13247511
7	0xbdaaf6d1	-0.08347858
8	0x3ccea908	0.025227085
9	0x3dccf6ea	0.100080326
10	0x3e1936e8	0.14962351
11	0x3d6479a4	0.055780068
12	0x3de15564	0.11002615
13	0x3e886fe0	0.26647854
14	0xbd9bcff3	-0.076080225
15	0xbe39212d	-0.18079062
16	0x3cc0b595	0.023524085
17	0xbdf962ea	-0.121770695
18	0xbdd0fcd4	-0.10204473
19	0x3e1c7153	0.15277605
20	0xbe36641f	-0.1781163
21	0xbf2330bd	-0.63746244
22	0xbf2494d8	-0.6428962
23	0x3e135067	0.1438614
24	0x3da922c3	0.082585834
25	0x3d560b34	0.052256778
26	0xbd6acec2	-0.057326086
27	0x3b8fc9f3	0.004388088
28	0xbe838d65	-0.25693813
29	0xbe91e086	-0.2849161
30	0xbf6396b5	-0.88901836
31	0x3dbf934a	0.09354265
32	0x3e9a81c3	0.30177125
33	0x3ef0a60a	0.47001678
34	0x3e978236	0.2959153
35	0x3dd2ba30	0.10289419
36	0xbdd4173c	-0.10355994
37	0xbf53617d	-0.8257063
38	0xbf38dfd3	-0.7221653
39	0xbe7163ea	-0.2357327
40	0x3df20a73	0.11818399
41	0x3ddd3e17	0.10802858
42	0x3ec1cf0d	0.3785328
43	0xbcab1b20	-0.020886958
44	0xbf11a716	-0.5689558
45	0xbf65e081	-0.8979569
46	0xbf3f2396	-0.74663675
47	0x3e187619	0.148888
48	0x3e3c7223	0.18402915
49	0xbdbcf5ef	-0.092265956
50	0x3d59741a	0.05308924
51	0x3de80056	0.11328189
52	0xbdd8f69a	-0.105939105
53	0x3d24ad70	0.040204465
54	0xbe3475fc	-0.17623132
55	0xbca6ca42	-0.020360116
56	0xbd268cca	-0.04066161
57	0xbe96a20d	-0.2942051
58	0xbe48ec7b	-0.1962146
59	0x3dc55bfc	0.09636685
60	0x3e56fa29	0.20993866
61	0x3e42b166	0.19012985
62	0x3e5f06c5	0.21779926
63	0xbe52f87b	-0.206026
64	0xbeaead3e	-0.34116548
65	0xbe138473	-0.14405994
66	0xbed66d44	-0.41880238
67	0xbe049dad	-0.12950774
68	0x3d9c5d74	0.07635012
69	0x3f04a82d	0.51819116
70	0x3d78b995	0.06072386
71	0x3c94ecf1	0.018179389
72	0xbd256a45	-0.04038455
73	0xbeccb7ee	-0.39984077
74	0xbe91e11d	-0.2849206
75	0xbf0caf5f	-0.54955095
76	0x3e9a1e96	0.3010146
77	0x3edb3379	0.42812708
78	0x3e49f2fe	0.197216
79	0xbe9b861e	-0.3037576
80	0xbd303bd7	-0.043025818
81	0xbe28962c	-0.16463536
82	0xbcd8b55e	-0.02645367
83	0x3dac96da	0.0842721
84	0xbd316b4b	-0.043315213
85	0xbd4766c3	-0.048681986
86	0xbc5df504	-0.013547186
87	0xbd5b38f5	-0.053521115
88	0x3d430149	0.047608647
89	0x3e2657cc	0.1624443
90	0x3d38f4fc	0.04515551
91	0xbd66826d	-0.056276727
92	0xbe19b6b3	-0.150111
93	0x3e69f1ad	0.22846098
94	0x3d961050	0.0732733
95	0x3e42bee8	0.19018137
96	0xbd39ed51	-0.04539234
97	0xbe086a37	-0.13321768
98	0x3d495722	0.049155362
99	0x3dd10d69	0.10207636
100	0xbe039b65	-0.12852247
101	0xbd189515	-0.03725155
102	0xbbd50be8	-0.0065016635
103	0x3cd5ae95	0.026084224
104	0xbe80bdd8	-0.2514484
105	0xbed8ecb8	-0.42368102
106	0xbef2ca09	-0.47419766
107	0x3e87f5cb	0.26554713
108	0x3e35e6b7	0.17763792
109	0x3e1668aa	0.14688364
110	0x3d80d4a9	0.06290562
111	0x3e582b62	0.21110299
112	0xbf094fe7	-0.53637546
113	0xbf42b5cb	-0.76058644
114	0xbf8671e7	-1.050351
115	0x3e912880	0.28351212
116	0x3e9b7ba1	0.3036776
117	0x3df2ec34	0.118614584
118	0x3ddd3f80	0.10803127
119	0x3e823e1e	0.25438017
120	0xbf147a3a	-0.57999
121	0xbf4af634	-0.79281926
122	0xbf207a41	-0.62686545
123	0x3e800657	0.25004837
124	0x3ec2fec5	0.38085
125	0x3db9d7cc	0.09074363
126	0x3e4a113f	0.19733141
127	0x3e7bf00f	0.24603294
128	0xbb31aa6f	-0.0027109643
129	0xbc55869c	-0.013032582
130	0xbdef4eae	-0.11684929
131	0xbe4e4255	-0.20142491
132	0x3ea29cee	0.31760353
133	0x3e38da35	0.1805199
134	0xbdaff323	-0.085912965
135	0x3dd4f775	0.10398761
136	0xbe13a980	-0.14420128
137	0x3d8ea817	0.06965654
138	0x3e7b91b4	0.245673
139	0x3ca98c72	0.020696852
140	0x3dc080a0	0.09399533
141	0x3e9347dc	0.28765762
142	0xbda11fe9	-0.078674145
143	0xbd6e0fe3	-0.05812062
144	0x3c883772	0.016628
145	0x3df2a195	0.118472256
146	0x3e833bec	0.25631654
147	0x3dd6639a	0.10468216
148	0x3e099e63	0.13439326
149	0xbdbca2e3	-0.09210756
150	0xbbe10cb3	-0.006867969
151	0xbd81f849	-0.06346185
152	0xbe3f99e1	-0.18711044
153	0xbea7c4d2	-0.3276735
154	0xbe334327	-0.17506085
155	0xbcdc20df	-0.026871143
156	0x3e1059e2	0.14096788
157	0x3e9a9d24	0.30198014
158	0x3e75f099	0.24017562
159	0x3a19d2bd	0.0005867889
160	0xbdba6c43	-0.091026805
161	0x3df39094	0.118928105
162	0xbcfebc42	-0.031095628
163	0xbe316b84	-0.1732617
164	0x3de549ba	0.11195703
165	0x3e2e4cc2	0.17021468
166	0x3e8a0ad5	0.2696139
167	0x3d75f018	0.060043424
168	0xbd9f2b8a	-0.07771976
169	0x3e201f97	0.1563705
170	0x3cb982bc	0.022645347
171	0xbe7be5c6	-0.2459937
172	0x3ce857ca	0.028362174
173	0x3e728fb3	0.2368763
174	0x3e4001ec	0.18750733
175	0xbe39dbd0	-0.18150258
176	0xbc1fb3af	-0.00974743
177	0xbf14333f	-0.57890695
178	0xbe40f56e	-0.18843624
179	0x3c774517	0.015092156
180	0xbc9b499c	-0.018955998
181	0x3de56b3e	0.112020954
182	0x3e9941b0	0.29932928
183	0x3e5961e7	0.21228753
184	0xbef33627	-0.47502252
185	0xbf5a65b3	-0.8531143
186	0xbf5f661c	-0.8726518
187	0x3e54407b	0.20727722
188	0xbdc320b8	-0.09527725
189	0x3e661cc3	0.22471909
190	0x3da1c320	0.07898545
191	0x3deedeaf	0.11663567
192	0xbd9673e8	-0.07346326
193	0xbdaf9961	-0.085741766
194	0x3d11853f	0.035527464
195	0x3e967f18	0.2939384
196	0xbdb52b2e	-0.088461265
197	0xbe69def4	-0.22838956
198	0xbe812042	-0.25219923
199	0xbe2cea6a	-0.16886297
200	0xbdd61397	-0.10452955
201	0xbd9df166	-0.07712059
202	0x3df4a8cf	0.1194626
203	0x3ec79831	0.389833
204	0xbd7f5f08	-0.06234649
205	0xbe279e41	-0.16368963
206	0xbeb1bf4c	-0.3471626
207	0x3ea6779b	0.32513127
208	0xbe3ea59f	-0.18617867
209	0x3e0eb6f7	0.13936983
210	0x3de927d4	0.1138455
211	0x3dda2cf3	0.10653105
212	0x3e2b5cdf	0.16734646
213	0xbd37613d	-0.044770468
214	0xbdc5a17d	-0.09649942
215	0x3e1d911c	0.15387386
216	0xbc3862b4	-0.011254001
217	0xbe825c3d	-0.25460997
218	0xbb828f2a	-0.0039843516
219	0xbc51a8ab	-0.012796561
220	0xbe58227a	-0.21106902
221	0x3db5e3d1	0.08881343
222	0xbe1b10d0	-0.15143132
223	0x3df68a2e	0.120380744
224	0xbda7a577	-0.08185857
225	0xbe04435b	-0.12916319
226	0xbca9f0c3	-0.020744687
227	0xbd6a51b5	-0.05720683
228	0x3d6b39cc	0.057428166
229	0xbd1ac43d	-0.037784804
230	0xbe7c8d9f	-0.24663399
231	0xbdeb8298	-0.11499518
232	0x3e54208c	0.2071554
233	0xbe7cabbd	-0.24674888
234	0x3e61b9ad	0.22043486
235	0x3e64148b	0.22273462
236	0xbe1c08d7	-0.15237747
237	0x3dc3e6de	0.09565519
238	0x3e2c94ce	0.1685364
239	0xbe78ece4	-0.24309117
240	0x3e30e0a2	0.1727319
241	0xbda6e62d	-0.08149371
242	0xbe1d5ff6	-0.15368637
243	0xbe3690b9	-0.17828645
244	0xbd683797	-0.05669364
245	0x3e095b14	0.1341365
246	0xbd3582b2	-0.044314094
247	0xbe51199c	-0.20419925
248	0x3d63f178	0.055650204
249	0x3e79063b	0.24318783
250	0x3d889330	0.06668699
251	0x3d913a56	0.07091205
252	0xbd58cca4	-0.052929536
253	0xbe16f845	-0.14743145
254	0x3dbda7a2	0.09260489
255	0xbde0512f	-0.109529845

seq.0.bias f4 [128]
0	0x3fc8a227	1.5674485
1	0x3fe1df48	1.7646265
2	0x3f70a4e6	0.94001615
3	0x3fcd6804	1.6047368
4	0x3f90ed1a	1.1322358
5	0x3fde174e	1.7350862
6	0x3fcf451c	1.6192966
7	0x3fa442d5	1.2832896
8	0x3fd05508	1.627595
9	0x3fc3c655	1.5294901
10	0x3fd55049	1.6665126
11	0x3fb1bbb9	1.3885413
12	0x3fd75c5c	1.6825061
13	0x3fe32200	1.7744751
14	0x3fc0a45d	1.505016
15	0x3fe49861	1.7859002
16	0x3fc8ce47	1.5687951
17	0x3fa25b7f	1.2684172
18	0x3fde2724	1.7355695
19	0x3f5a2fce	0.85229194
20	0x3fdb8e2f	1.7152766
21	0x3fc020f6	1.5010059
22	0x3f8ede70	1.1161633
23	0x3fe2778d	1.7692734
24	0x3fca0ac2	1.5784533
25	0x3fea17cb	1.8288511
26	0x3fc7c08e	1.5605638
27	0x3fe8b003	1.8178715
28	0x3f9919a4	1.196095
29	0x3fa9e38e	1.3272569
30	0x3fe04dcd	1.7523743
31	0x3fe77c83	1.8084873
32	0x3faabeda	1.3339493
33	0x3fafd7a2	1.3737681
34	0x3fa7ba15	1.3103663
35	0x3fd7bb29	1.6853992
36	0x3fe5d19b	1.7954592
37	0x3fc19608	1.5123911
38	0x3fb54ca9	1.416402
39	0x3fe1dd8e	1.7645738
40	0x3fada7fa	1.3566887
41	0x3fa15873	1.2605118
42	0x3f85bda5	1.04485
43	0x3fdd0569	1.7267276
44	0x3fd1b965	1.6384703
45	0x3fe0be54	1.7558084
46	0x3fd870c6	1.6909416
47	0x3fb73e0e	1.4315813
48	0x3fc7cac5	1.5608755
49	0x3fa4c6df	1.2873191
50	0x3fe3411f	1.7754248
51	0x3fe303b3	1.7735504
52	0x3fdb2b48	1.7122583
53	0x3fb121eb	1.3838476
54	0x3f901e98	1.1259336
55	0x3fc6be0e	1.552675
56	0x3faf6830	1.370367
57	0x3fbcd812	1.475344
58	0x3fd443e9	1.6583225
59	0x3f92ea20	1.1477699
60	0x3fdc3eb7	1.7206639
61	0x3fc93aab	1.5721029
62	0x3fc2c12a	1.5215199
63	0x3fe6dc3f	1.8035964
64	0x3f99ed52	1.202555
65	0x3fccc5cc	1.5997863
66	0x3fca601e	1.5810583
67	0x3fd252e3	1.6431545
68	0x3fa024ce	1.2511232
69	0x3fc1b7be	1.5134199
70	0x3fbca8be	1.4738996
71	0x3fee0e2c	1.8598075
72	0x3f92ad55	1.1459147
73	0x3fc1db55	1.514506
74	0x3fb09066	1.3794067
75	0x3fa2e184	1.2725072
76	0x3f986a39	1.1907417
77	0x3fb7b73b	1.4352793
78	0x3fb95431	1.4478818
79	0x3f92513d	1.1431042
80	0x3fb7da1a	1.4363434
81	0x3fd15b9e	1.6356084
82	0x3f87bebc	1.0605083
83	0x3fcc3131	1.5952512
84	0x3f9edb15	1.2410609
85	0x3fb05ede	1.3778951
86	0x3fb58067	1.417981
87	0x3f928d54	1.144938
88	0x3fbe6334	1.4874024
89	0x3fede4dd	1.8585469
90	0x3fe52a5f	1.7903556
91	0x3fc16b3c	1.511085
92	0x3fc64bf7	1.5491933
93	0x3fd1b18a	1.6382306
94	0x3fbb2148	1.4619532
95	0x3fadf60e	1.3590715
96	0x3faf8baf	1.3714503
97	0x3f9bd687	1.2174844
98	0x3f813f2d	1.0097405
99	0x3fec6be7	1.8470429
100	0x3f8c5f37	1.0966557
101	0x3fe240ac	1.7675986
102	0x3fb7c169	1.4355899
103	0x3feca924	1.8489118
104	0x3fa98412	1.324343
105	0x3fd0bd3d	1.6307751
106	0x3fd576a3	1.667683
107	0x3f9d2a7e	1.2278593
108	0x3fbd0a94	1.4768853
109	0x3fdb1a7d	1.7117459
110	0x3fd8f96c	1.6951118
111	0x3fa0af6d	1.2553536
112	0x3fd411c9	1.6567928
113	0x3fb0e2e8	1.3819246
114	0x3fbca890	1.4738941
115	0x3fd9951d	1.6998631
116	0x3fc246ce	1.5177858
117	0x3fda7e1c	1.7069736
118	0x3f8f3751	1.1188756
119	0x3fc5e191	1.5459462
120	0x3fa30401	1.2735597
121	0x3fe22e7b	1.7670435
122	0x3fe07fe4	1.7539029
123	0x3fb8f740	1.4450455
124	0x3fb1930c	1.3873
125	0x3fac4119	1.3457366
126	0x3fc5e36b	1.5460027
127	0x3fc1772c	1.5114493

seq.2.weight f4 [32, 128]
0	0xbd32f3d2	-0.043689556
1	0x3d0c45b1	0.03424615
2	0xbcc50599	-0.02405052
3	0x3cded729	0.027202206
4	0xbd65923b	-0.05604766
5	0xbc9f1a27	-0.01942165
6	0xbc0b6803	-0.008508685
7	0xbdb26202	-0.087101
8	0xbda97c77	-0.08275693
9	0xbd8f2c9a	-0.06990929
10	0xbc6db68b	-0.014508854
11	0xbcece6be	-0.02891862
12	0xbd8ab722	-0.06773211
13	0xbc84cb44	-0.016210206
14	0xbd1769de	-0.036966197
15	0x3d8e9ddb	0.06963702
16	0xbd493848	-0.04912594
17	0xbdcbef8b	-0.099577986
18	0xbd563c97	-0.052303877
19	0xbc99fd8c	-0.018797658
20	0x3d226011	0.039642397
21	0xbd9ab162	-0.07553364
22	0xbdc54e46	-0.0963407
23	0xbd8f49a7	-0.0699647
24	0x3bde7fae	0.006790123
25	0x3d06e750	0.03293544
26	0xbd84abc8	-0.06478077
27	0xbd67e4bf	-0.056614634
28	0xbd291c6d	-0.041286875
29	0xbc8c386a	-0.017116744
30	0xbd8cbf9e	-0.068724856
31	0xbd03a7f5	-0.0321426
32	0x3d8e2760	0.06941104
33	0xbd6830e5	-0.056687254
34	0x3b5167cc	0.0031952737
35	0x3d772894	0.060341433
36	0x3b80dede	0.003932818
37	0x3d855a49	0.06511361
38	0x3d62ec8b	0.055401366
39	0xbd514807	-0.05109408
40	0xbd2ffccd	-0.0429657
41	0xbbfcbb1a	-0.007712734
42	0xbd32de47	-0.04366901
43	0x3d6da778	0.05802104
44	0xbd918373	-0.0710515
45	0x3cef5e27	0.0292197
46	0xbd1c5352	-0.038165398
47	0xbdc212a8	-0.09476215
48	0x3d3503fc	0.044193253
49	0x3d83202c	0.06402621
50	0x3ceacfe8	0.02866359
51	0xbd2400c2	-0.040039785
52	0xbdb800be	-0.089845166
53	0x3d8087af	0.062758796
54	0x3d00da37	0.031458106
55	0x3c801584	0.01563526
56	0x3d56a355	0.05240186
57	0x3d327e38	0.043577403
58	0x3d6c554b	0.05769853
59	0x3beea7e0	0.007283196
60	0xbd24677f	-0.040137764
61	0x3c93cb88	0.018041387
62	0xbc93499f	-0.017979441
63	0xbd89fa2c	-0.067371696
64	0xbdbb186e	-0.09135519
65	0x3d859a0c	0.06523523
66	0x3d5df11a	0.05418501
67	0x3d166c95	0.036724646
68	0xbc415249	-0.0117994035
69	0x3cb0db36	0.021588903
70	0x3cfa8ce9	0.03058477
71	0x3d9b4bdc	0.075828284
72	0xbd89574e	-0.06706105
73	0xbd009122	-0.03138841
74	0xbd9cc2bb	-0.076543294
75	0xbdcc987d	-0.09990022
76	0x3d849fcb	0.064757906
77	0xbc539dad	-0.012916011
78	0x3a2d8478	0.00066191657
79	0xbd8228eb	-0.06355461
80	0xbd817a7c	-0.0632219
81	0xbd884a03	-0.066547416
82	0x3c3e5926	0.011617934
83	0x3cdf0074	0.027221896
84	0xbb44b306	-0.0030013933
85	0x3d1bd35e	0.038043372
86	0xbd8eca94	-0.069722325
87	0xbda7831d	-0.08179305
88	0xbd5161b6	-0.051118575
89	0x3d8ac28a	0.06775387
90	0xbcbc2125	-0.022965023
91	0xbd66e2bb	-0.05636857
92	0xbd1fe9aa	-0.0390412
93	0xbd951eb4	-0.07281247
94	0x3c8abfb8	0.016937122
95	0x3d6e9bba	0.05825398
96	0x3d4bcb9f	0.049754735
97	0xbd8423e3	-0.06452157
98	0x3cf34d80	0.02970004
99	0x3d737bd5	0.059444267
100	0xbc8429fc	-0.016133301
101	0xbd3ffb9e	-0.04687082
102	0x3d1c0f53	0.03810055
103	0xbcf368fc	-0.029713146
104	0xbd5540f0	-0.052063882
105	0xbd186f88	-0.03721574
106	0xbd181471	-0.03712887
107	0xbd7ef977	-0.062249627
108	0xbdb957b3	-0.090499304
109	0x3d25de44	0.040495172
110	0xbce8516b	-0.028359136
111	0xbd93a309	-0.07208831
112	0x3d127b29	0.035761986
113	0x3c1f7250	0.009731844
114	0xbd971cfa	-0.07378574
115	0xbc285248	-0.010273524
116	0xbd126622	-0.035741933
117	0xbcaea30e	-0.021317985
118	0xbd505c28	-0.050869137
119	0xbd6dea7e	-0.058084957
120	0xbdbe4b55	-0.09291712
121	0x3d05ae90	0.03263718
122	0x3d09e709	0.033667598
123	0x3cf463c2	0.029832724
124	0x3d195633	0.03743572
125	0x3d89ae9f	0.067227595
126	0x3d2cd469	0.042194758
127	0x3cd25881	0.025676968
128	0x3e8b4e2b	0.27208075
129	0x3f52ed91	0.8239375
130	0x3f099cd9	0.53754956
131	0x3e99f738	0.30071425
132	0x3e855728	0.26043057
133	0x3ed81af4	0.42208064
134	0x3ee98c3b	0.456148
135	0x3f02ca3d	0.5108984
136	0x3ec9a8e9	0.3938668
137	0x3ec5e56b	0.38651595
138	0x3ef74914	0.48297942
139	0x3edf429d	0.4360551
140	0x3f0be44f	0.54645246
141	0x3eeca189	0.46216992
142	0x3e724318	0.23658407
143	0x3eeef056	0.46667737
144	0x3f08a732	0.5338012
145	0x3eec5b83	0.46163568
146	0x3ede5aab	0.4342855
147	0x3e361adb	0.17783682
148	0x3ef84cc7	0.48496076
149	0x3eaeb92b	0.34125647
150	0x3f73a658	0.95175695
151	0x3f050dfc	0.51974463
152	0x3ea98162	0.33106524
153	0x3f19d29b	0.60086983
154	0x3ed0b3ac	0.4076208
155	0x3eea32e5	0.45741954
156	0x3e28b6a5	0.16475923
157	0x3e850e7e	0.2598762
158	0x3eba8a4b	0.36433634
159	0x3f03f812	0.515504
160	0x3e6e219b	0.23255007
161	0x3e5dda62	0.21665338
162	0x3e9592c2	0.2921353
163	0x3f28d999	0.6595703
164	0x3f16863b	0.5879857
165	0x3ebf8b08	0.3741076
166	0x3ea0e668	0.31425786
167	0x3f220572	0.6328956
168	0x3e7ac510	0.24489236
169	0x3e988749	0.29790714
170	0x3f22ad22	0.6354543
171	0x3ed39541	0.4132481
172	0x3ee01696	0.43767232
173	0x3ef4b9a5	0.47797886
174	0x3ecb7f85	0.39745727
175	0x3eb5fbd8	0.35543704
176	0x3eff7906	0.4989702
177	0x3e8160cb	0.2526916
178	0x3ed60f85	0.41808715
179	0x3ee21e38	0.4416368
180	0x3ee4fe55	0.4472529
181	0x3e50df9e	0.20397803
182	0x3ec009af	0.37507388
183	0x3ee0cb82	0.43905264
184	0x3ec76f43	0.38952073
185	0x3e74f2be	0.23920724
186	0x3eb64c45	0.35605064
187	0x3e479d4e	0.194936
188	0x3ed9c736	0.42534798
189	0x3ec6ea54	0.38850653
190	0x3e4474dd	0.19185205
191	0x3f08f751	0.53502375
192	0x3ecf007d	0.4043006
193	0x3eba2c1d	0.3636178
194	0x3ec7fe6e	0.39061302
195	0x3ea61302	0.32436377
196	0x3f4520bf	0.7700309
197	0x3ebf82c8	0.37404466
198	0x3f077ead	0.52927667
199	0x3f28ab97	0.65886825
200	0x3efadbd0	0.4899583
201	0x3f00d85b	0.5033013
202	0x3ea45374	0.3209492
203	0x3e685baa	0.22691217
204	0x3f07f63d	0.53110105
205	0x3f177cef	0.5917501
206	0x3e914ee0	0.2838049
207	0x3e893e35	0.26805273
208	0x3eb3953e	0.350748
209	0x3edbd7f7	0.42938206
210	0x3e800178	0.2500112
211	0x3ec228f1	0.3792186
212	0x3ef918fb	0.4865187
213	0x3e9d3c2c	0.3070997
214	0x3edd982b	0.43280157
215	0x3e96c05a	0.29443628
216	0x3e9fc5f4	0.31205714
217	0x3f44e2bc	0.7690847
218	0x3eac330a	0.3363269
219	0x3e9c4cec	0.30527437
220	0x3ee5dfaf	0.4489722
221	0x3eec9c00	0.4621277
222	0x3ebb2c65	0.36557308
223	0x3f2c00c9	0.671887
224	0x3e4c0707	0.19924556
225	0x3f454648	0.77060366
226	0x3f10650d	0.5640419
227	0x3f05875c	0.52159667
228	0x3f23a9a8	0.6393075
229	0x3f26b80a	0.6512457
230	0x3ec1574d	0.37761918
231	0x3f045d9b	0.5170533
232	0x3e18db39	0.14927377
233	0x3ef8b2a7	0.485738
234	0x3ef296e8	0.47380757
235	0x3eac6da2	0.33677393
236	0x3ea053e7	0.31314012
237	0x3edcf415	0.4315497
238	0x3ec85ef9	0.39134958
239	0x3e4e2b19	0.20133628
240	0x3ed47696	0.41496724
241	0x3ea129cd	0.31477204
242	0x3e861896	0.26190633
243	0x3edf13b7	0.4356973
244	0x3e525834	0.2054146
245	0x3efd8e48	0.49522614
246	0x3e37c180	0.17944908
247	0x3eae43fc	0.34036243
248	0x3e6573a7	0.22407399
249	0x3f102986	0.5631336
250	0x3ee33c0b	0.44381747
251	0x3eae72cc	0.34071958
252	0x3ef98e3e	0.48741335
253	0x3eb92a07	0.36164877
254	0x3ea82af3	0.32845268
255	0x3ea56353	0.3230234

seq.2.bias f4 [32]
0	0xbdd1462f	-0.102184646
1	0x3fab9682	1.3405306
2	0xbdcce809	-0.10005195
3	0x3fa140d8	1.2597914
4	0x3c0f1fb2	0.008735584
5	0x3f87ecd9	1.0619155
6	0x3fa6d4b6	1.3033664
7	0x3fbdf041	1.4838945
8	0xbda63479	-0.08115477
9	0x3fa01193	1.2505363
10	0xbd9848a6	-0.074357316
11	0x3fa5707d	1.2924954
12	0x3fa02c33	1.2513489
13	0x3fab92c2	1.3404162
14	0x3f7a1c5a	0.9769951
15	0xbd9a5de8	-0.075374424
16	0x3f76d77c	0.96422553
17	0xbd478029	-0.048706207
18	0x3f954498	1.1661558
19	0x3f8d784f	1.105234
20	0x3d3b5bb1	0.04574174
21	0x3fae689d	1.3625675
22	0x3f94a1ef	1.1611918
23	0x3f836f12	1.0268271
24	0x3fa108d7	1.2580823
25	0x3fb3e455	1.4054056
26	0x3f8edcd8	1.1161146
27	0x3f99793b	1.1990122
28	0xbd37a289	-0.04483274
29	0x3fa2f14b	1.2729887
30	0x3cefde45	0.029280791
31	0x3fb3fba3	1.4061168

seq.4.weight f4 [8, 32]
0	0xbe291b75	-0.1651438
1	0xbcdc3ba2	-0.026883904
2	0xbe1546fc	-0.1457786
3	0x3d34858a	0.044072665
4	0xbd8df4bf	-0.06931447
5	0x3bc296db	0.0059383935
6	0x3e3f6d25	0.18693979
7	0xbe4f6176	-0.20252022
8	0xbd862bf6	-0.06551354
9	0x3d870c73	0.065941714
10	0xbe28b635	-0.16475756
11	0x3e01618d	0.12634869
12	0xbe1679c1	-0.14694883
13	0x3b7c9570	0.003854122
14	0x3c5a3298	0.013317727
15	0xbe136f28	-0.14397871
16	0xbe73f254	-0.2382291
17	0xbd5ec0df	-0.054383155
18	0xbe34b544	-0.17647272
19	0xbe976a09	-0.29573086
20	0xbe1943e7	-0.14967309
21	0x3de6d24f	0.11270582
22	0xbeb44e58	-0.35216022
23	0xbe047d94	-0.12938529
24	0xbdde1933	-0.1084465
25	0xbc3f3cf1	-0.011672244
26	0x3e2d7c8b	0.1694204
27	0x3de90b6b	0.11379131
28	0x3db3877a	0.087660745
29	0xbda68c0f	-0.08132183
30	0x3ced0367	0.028932286
31	0x3e127c7e	0.14305303
32	0xbca36b7c	-0.019948713
33	0xbe3cf61c	-0.18453258
34	0xbdcf563b	-0.10123869
35	0x3d534fd7	0.051589813
36	0x3c90ba34	0.017666914
37	0x3e23fb5b	0.16013853
38	0xbd0e8f79	-0.034804795
39	0xbd466cb2	-0.048443504
40	0xbca4cf34	-0.020118333
41	0xbe049ee3	-0.12951235
42	0xbc8a8a44	-0.016911633
43	0x3e25e7a9	0.16201653
44	0xbd9ac33b	-0.075567685
45	0xbde9004a	-0.11377008
46	0x3dc7d0cc	0.09756622
47	0xbdc4f1cb	-0.09616431
48	0xbd27a1d2	-0.04092581
49	0x3c69a9f6	0.014261713
50	0xbcd7c033	-0.026336765
51	0xbcc82c4b	-0.024435183
52	0x3c6b386d	0.014356715
53	0x3ada0783	0.0016634319
54	0x3e02458a	0.1272184
55	0xbd92cb63	-0.07167699
56	0xbd0a6380	-0.033786297
57	0xbd2f5c03	-0.04281236
58	0x3a8bc28a	0.0010662836
59	0xbdf65801	-0.12028504
60	0x3c8bca19	0.017064141
61	0xbe027ec3	-0.12743668
62	0xbe063fc2	-0.13110259
63	0x3cc232aa	0.0237058
64	0xbe1db638	-0.15401542
65	0x3e396da2	0.18108228
66	0x3d46ba3a	0.048517443
67	0xbe19ca85	-0.15018661
68	0x3d48c458	0.049015373
69	0x3e79c61f	0.24391983
70	0xbf05d56e	-0.5227879
71	0xbe4407cd	-0.19143601
72	0xbd61849a	-0.0550581
73	0xbe9bddbb	-0.30442604
74	0x3de32ed1	0.11092914
75	0xbef33639	-0.47502306
76	0xbd861c7e	-0.06548403
77	0x3db89c27	0.09014159
78	0x3e63692c	0.22208089
79	0x3becf4d6	0.007231335
80	0x3ea59345	0.3233892
81	0x3aa73f3b	0.0012759933
82	0x3d3a282c	0.045448467
83	0x3f007b3c	0.5018804
84	0x3db5e043	0.08880665
85	0x3c94227a	0.018082846
86	0x3ea69ded	0.32542363
87	0x3d75da0c	0.0600224
88	0x3e3c059d	0.18361516
89	0xbcd40ace	-0.025884058
90	0x3ead212c	0.3381437
91	0x3d0a92a4	0.033831254
92	0xbe330d24	-0.17485482
93	0x3de62104	0.11236766
94	0x3d55cb78	0.052195996
95	0x3e38a2a4	0.18030792
96	0xbdb5e29a	-0.088811114
97	0x3db911ae	0.09036575
98	0xbd7d755d	-0.061879504
99	0xbc81bc4d	-0.01583686
100	0xbe2714b0	-0.16316485
101	0x3e8bb840	0.2728901
102	0x3e9188e0	0.2842474
103	0xbe81be7e	-0.25340647
104	0xbdea58c0	-0.11442709
105	0x3e9c6f3a	0.3055361
106	0xbe321086	-0.17389116
107	0x3eb35ec3	0.35033235
108	0x3e26b6aa	0.16280618
109	0xbd83a7f6	-0.064285204
110	0xbd5483d3	-0.05188353
111	0x3d92e31d	0.07172225
112	0xbe15eee5	-0.14641912
113	0xbdb51a41	-0.08842898
114	0xbcbdac78	-0.023153529
115	0xbf27c8c8	-0.6554074
116	0xbd96db03	-0.07365992
117	0xbcd2a67c	-0.025714152
118	0xbe58a985	-0.21158417
119	0xbe02ce84	-0.12774092
120	0x3e05b3e4	0.13056904
121	0x3eae423a	0.34034902
122	0xbe470a52	-0.1943753
123	0x3d218458	0.039432853
124	0xbcbeb975	-0.023281792
125	0x3e39b98a	0.18137184
126	0xbd6170d9	-0.05503926
127	0x3d863ad8	0.06554192
128	0xbcc07cbc	-0.023496978
129	0x3e214609	0.15749373
130	0x3d24e70c	0.040259406
131	0xbd82f251	-0.063938744
132	0x3b97fc90	0.004638262
133	0x3d9c5643	0.076336406
134	0x3ca2346b	0.019800385
135	0x3e11fde2	0.14257005
136	0x3e11706f	0.14203046
137	0x3e2904d7	0.16505753
138	0x3da3973f	0.07987832
139	0xbe2670c0	-0.16253948
140	0xbd26b573	-0.040700387
141	0xbdc19e65	-0.094540395
142	0xbdca0fe3	-0.098663114
143	0xbe19036d	-0.14942713
144	0xbe210180	-0.15723228
145	0x3d7ee3dd	0.062229026
146	0x3d6b01e2	0.057374842
147	0xbd4e8fc3	-0.05043007
148	0xbd608e06	-0.054822944
149	0xbe3c27ef	-0.18374608
150	0xbbc62574	-0.006046945
151	0x3cf54126	0.029938292
152	0x3c2c20dd	0.010505882
153	0xbd1bce51	-0.038038556
154	0xbc02afab	-0.007976453
155	0xbdebc0f9	-0.11511416
156	0xbdaf5803	-0.08561709
157	0x3d8f22dc	0.06989071
158	0x3d58a1b2	0.05288858
159	0xbe0a6704	-0.1351586
160	0xbdc0d747	-0.09416061
161	0x3e9b6d7a	0.3035696
162	0x3dbc41fb	0.09192272
163	0x3eecb3b4	0.46230853
164	0xbe0b82eb	-0.1362416
165	0x3f001a59	0.50040203
166	0x3d9daa11	0.07698453
167	0xbed11376	-0.4083516
168	0xbd8ee50f	-0.06977283
169	0x3dfb69a8	0.12276012
170	0xbe119eb0	-0.1422069
171	0x3de2b515	0.11069695
172	0x3ef9d372	0.48794132
173	0x3dd8ef2e	0.10592495
174	0x3ef005ec	0.46879518
175	0xbbcfbfbb	-0.0063399947
176	0x3f14e04f	0.5815477
177	0xbd3da290	-0.04629761
178	0x3efaa6eb	0.48955473
179	0xbe68081b	-0.22659342
180	0xbe1c3cb7	-0.15257536
181	0x3e7bdb20	0.24595308
182	0xbe985a84	-0.29756558
183	0x3f0624dd	0.524
184	0x3eb8935e	0.36049932
185	0x3e930812	0.28717095
186	0xbe3ef157	-0.18646751
187	0x3e521837	0.2051705
188	0x3e0ad2d1	0.13556983
189	0x3eeff8f2	0.46869618
190	0x3cc02c14	0.023458518
191	0xbd2370ce	-0.0399025
192	0x3e21d118	0.15802419
193	0x3f42e8e6	0.76136625
194	0x3c84e211	0.016221078
195	0x3f29ceb3	0.6633102
196	0xbd309b06	-0.043116592
197	0x3ef0a657	0.47001907
198	0x3f23aa01	0.6393128
199	0x3ee5a008	0.44848657
200	0x3e30cf1f	0.1726651
201	0x3f0cb265	0.5495971
202	0xbd44e73e	-0.048072092
203	0x3f20b4d2	0.6277591
204	0x3f02ec90	0.51142216
205	0x3f15e3bc	0.5855062
206	0x3eeb577d	0.45965186
207	0xbdfc5715	-0.12321297
208	0x3ec12b76	0.3772847
209	0xbcbb4d68	-0.022864059
210	0x3eeb581a	0.45965654
211	0x3eb4f84f	0.35345694
212	0x3d1c8c3d	0.03821968
213	0x3f4988ac	0.7872417
214	0x3ece1034	0.40246737
215	0x3ef6c306	0.48195666
216	0x3f3cadab	0.73702496
217	0x3f453db9	0.77047306
218	0x3f092c17	0.535829
219	0x3f05adbb	0.52218217
220	0xbde78b9d	-0.11305926
221	0x3f1e4269	0.61820084
222	0x3e352140	0.17688465
223	0x3f2835b6	0.65706956
224	0x3daaa495	0.08332173
225	0x3df05fd7	0.1173703
226	0xbd52f9f7	-0.051507916
227	0x3c8f6f0d	0.017509008
228	0xbe0c348f	-0.13691925
229	0xbe353c3b	-0.17698757
230	0xbe2a1be9	-0.1661221
231	0x3e2a697c	0.16641802
232	0xbda4f4e8	-0.08054525
233	0xbda9d443	-0.08292439
234	0x3e27351b	0.16328852
235	0x3d1b5483	0.037922394
236	0xbe4b2845	-0.1983958
237	0x3d79cdb6	0.060987197
238	0xbe12f654	-0.14351779
239	0xbe35216d	-0.17688532
240	0xbd5f9414	-0.054584578
241	0x3e1172b6	0.14203915
242	0x3dbf01a1	0.093264826
243	0x3e167e22	0.14696553
244	0x3e2a4bf7	0.16630541
245	0x3c091f33	0.008369255
246	0xbd984c2a	-0.07436402
247	0x3e01e897	0.12686382
248	0x3d2ca6fe	0.042151444
249	0xbe28e560	-0.1649375
250	0xbd14a17c	-0.036286816
251	0xbdfbebc2	-0.123008266
252	0xbe22cd78	-0.15898693
253	0xbe412ccf	-0.1886475
254	0x3e26b4d8	0.16279924
255	0x3d73a11f	0.05947983

seq.4.bias f4 [8]
0	0x3d248eee	0.04017537
1	0xbe2e67ea	-0.17031828
2	0x3e304b71	0.17216279
3	0x3ef6aada	0.48177224
4	0xbcb3dc82	-0.021955732
5	0x3e2f88ce	0.1714203
6	0x3fab912d	1.3403679
7	0x3d89328a	0.06699093

seq.6.weight f4 [4, 8]
0	0x3e25a3fe	0.1617584
1	0x3eb32541	0.3498936
2	0xbeb36da2	-0.3504458
3	0x3ed6b5c9	0.41935566
4	0xbe1b5ff5	-0.15173323
5	0x3f09c0fa	0.53810084
6	0x3ee9ed23	0.45688733
7	0x3d827c2f	0.063713424
8	0xbe90abca	-0.28256065
9	0x3df9cdc7	0.12197452
10	0x3df07266	0.1174057
11	0x3eb6773b	0.3563784
12	0x3db2153d	0.08695457
13	0xbd233a25	-0.039850373
14	0x3f2e3331	0.6804686
15	0x3e82376a	0.25432903
16	0xbe18ad6a	-0.14909902
17	0xbe947d3c	-0.29001796
18	0x3eda1227	0.42591974
19	0x3d395814	0.045250013
20	0x3db22759	0.08698911
21	0x3f465279	0.77469593
22	0x3ea880fd	0.3291091
23	0x3d404a49	0.046945844
24	0xbde69a86	-0.11259942
25	0x3e55ef78	0.20892131
26	0xbcd1df11	-0.025619062
27	0x3d1abdb1	0.03777856
28	0x3ea7e21c	0.32789695
29	0x3d6fab0e	0.05851274
30	0x3f2a84d7	0.6660895
31	0x3ea7681d	0.3269662

seq.6.bias f4 [4]
0	0x3db6fe57	0.0893523
1	0x3f70e8fb	0.941055
2	0x3ea9a58b	0.33134112
3	0x3f82da28	1.0222826
