training/models/environment_traffic_lights/1639338086/checkpoints/ep00100.pt (torch, 28751 bytes, 8 tensors)

seq.0.weight f4 [128, 16]
0	0xbd0ca2aa	-0.034334816
1	0x3d7f3ec2	0.06231571
2	0xbe533bac	-0.20628232
3	0xbce9b8ce	-0.028530505
4	0xbd38eff6	-0.04515072
5	0x3e395e0f	0.18102287
6	0x3e3ceaf0	0.18448997
7	0x3d5b86b9	0.05359528
8	0xbd4912cb	-0.049090188
9	0x3e6da25d	0.23206468
10	0xbe321b49	-0.17393221
11	0xbcb8e47d	-0.02256989
12	0x3e1bb8f7	0.15207277
13	0x3e042b48	0.12907135
14	0x3dcbb952	0.099474564
15	0xbd2c170d	-0.04201417
16	0x3dc0aee9	0.094083615
17	0x3e05b8fa	0.13058844
18	0xbdaf662b	-0.08564409
19	0x3d723e84	0.05914165
20	0x3d25aa53	0.040445637
21	0x3e0ba46c	0.1363694
22	0x3dcc1a27	0.09965926
23	0xc0d4607f	-6.6367793
24	0x3da53d4a	0.080683306
25	0x3e65008c	0.2236349
26	0xbdb4d42e	-0.088295326
27	0xbc4492d5	-0.011997898
28	0x3e1fb4e8	0.15596354
29	0xbdb29d32	-0.08721389
30	0x3d1aa77d	0.037757386
31	0xc0d38e30	-6.611107
32	0xbc1bcaf0	-0.009508833
33	0x3d5649c0	0.052316427
34	0xbc164a4b	-0.009172986
35	0xbc157245	-0.009121482
36	0x3ad72edb	0.0016417162
37	0x3c7f8246	0.015595024
38	0x3d374fbd	0.04475378
39	0xbd7c3f89	-0.06158403
40	0x3d894acd	0.0670372
41	0x3b3c9997	0.002877807
42	0xba8efef0	-0.0010909718
43	0x3c2994ac	0.010350388
44	0x3da59cac	0.080865234
45	0xbcd8c037	-0.026458843
46	0x3ceaa562	0.028643314
47	0xbcfc0f2c	-0.030768953
48	0x3d12932f	0.035784896
49	0xbd259c49	-0.04043225
50	0x3d3af998	0.045648187
51	0xbc5748f0	-0.013139948
52	0x3d509cea	0.050930895
53	0xbdf24102	-0.118288055
54	0x3e7511cc	0.2393257
55	0xbd2a4f5c	-0.04157959
56	0x3d323480	0.0435071
57	0xbda345dd	-0.0797231
58	0x3dafcadc	0.08583614
59	0x3c15091d	0.009096411
60	0x3db18fb3	0.086699866
61	0x3e30b464	0.17256314
62	0xbd8ad411	-0.0677873
63	0x3b03c0f4	0.0020104023
64	0x3da71d07	0.081598334
65	0x3daa403e	0.083130345
66	0x3ecb6efa	0.39733106
67	0x3c84d534	0.016214944
68	0x3d43f2b4	0.04783888
69	0xbdc3e2bc	-0.095647305
70	0xbc884889	-0.01663615
71	0x3f5d8092	0.8652431
72	0x3da88742	0.082289234
73	0x3d3ca96c	0.04606001
74	0x3e89e49b	0.26932225
75	0x3cade87d	0.021229023
76	0xbda6923f	-0.08133363
77	0x3da2c2d1	0.079473145
78	0xbcac3cba	-0.02102505
79	0x3f5ce19c	0.8628175
80	0x3dad292e	0.0845512
81	0x3e0770c6	0.13226613
82	0xbe083e88	-0.13305104
83	0xbb87ff69	-0.0041503203
84	0x3c6520e6	0.013984894
85	0x3d160cec	0.036633417
86	0x3ca5094e	0.020146038
87	0x3cec6b92	0.028859887
88	0xbdbd7b5e	-0.09252046
89	0x3e09cceb	0.13457076
90	0x3e13d346	0.14436063
91	0x3ba5bb0c	0.005057698
92	0x3d0e457e	0.03473424
93	0x3d448d78	0.047986478
94	0x3d544080	0.051819324
95	0xbcdb21f4	-0.026749589
96	0xbe03d252	-0.128732
97	0xbd613a80	-0.05498743
98	0xbec1ee72	-0.37877232
99	0x3e2182e7	0.15772592
100	0x3e220548	0.15822327
101	0x3e5ca0df	0.21545742
102	0x3ec85958	0.39130664
103	0x3ea6d3d2	0.3258348
104	0xbde7e2a7	-0.113225274
105	0xbe51b8c6	-0.20480642
106	0xbe8cf4f0	-0.27530622
107	0x3ed3454a	0.412638
108	0x3ea41ffb	0.3205565
109	0x3e8b1d04	0.27170575
110	0x3cfaf30c	0.030633472
111	0x3ea83de6	0.32859725
112	0x3c9cdac2	0.01914728
113	0xbd839989	-0.06425769
114	0x3d95f2fe	0.07321738
115	0xbc29fcea	-0.010375241
116	0x3e2377db	0.1596369
117	0xbde0e8a9	-0.109818764
118	0x3d08def2	0.033415742
119	0x3ccec142	0.025238637
120	0x3d88c896	0.06678884
121	0xbd8ddd52	-0.06926979
122	0x3c7e0d8b	0.015506159
123	0x3d90ca2c	0.07069811
124	0x3d2a50e1	0.04158104
125	0xbdc03920	-0.09385896
126	0x3e1d4396	0.15357813
127	0x3b893d60	0.0041882247
128	0xbd4e4924	-0.05036272
129	0x3e010100	0.12598038
130	0xbdf1152e	-0.11771618
131	0x3a08add0	0.00052138884
132	0x3d3560c2	0.04428173
133	0x3e0c992f	0.1373031
134	0xbd84001c	-0.06445333
135	0x3ccd84a8	0.02508767
136	0x3d7042d5	0.058657486
137	0x3da2bf4f	0.079466455
138	0xbdea1cfb	-0.11431309
139	0x3b03c85c	0.0020108437
140	0xbd1f7658	-0.03893122
141	0x3dfdb72c	0.12388453
142	0xbc0bbc1b	-0.008528735
143	0xbc0ae10f	-0.00847651
144	0x3e02950c	0.1275217
145	0x3e619078	0.22027767
146	0x3e928374	0.28615916
147	0x3e255135	0.1614426
148	0xbe1ab575	-0.15108283
149	0xbdcbcec6	-0.09951548
150	0xbe1b19da	-0.1514658
151	0x3e73c317	0.2380489
152	0x3e5aa656	0.21352515
153	0x3e307fa1	0.17236187
154	0x3e72ab0f	0.23698066
155	0x3e771de1	0.24132492
156	0xbe81a1d7	-0.25318787
157	0xbdf370ae	-0.11886726
158	0xbc9039e6	-0.017605733
159	0x3e8ef8ea	0.2792428
160	0x3d41d718	0.04732427
161	0xbdb681de	-0.08911489
162	0x3e079f5f	0.13244389
163	0xbbaf81e4	-0.0053560603
164	0x3d62f487	0.05540898
165	0xbddd4106	-0.10803418
166	0x3e24cbc7	0.1609336
167	0x3c66cbb6	0.014086654
168	0x3c783cf8	0.015151255
169	0x3d7edbf7	0.062221494
170	0xbc7ef4fa	-0.015561337
171	0xba06f370	-0.00051479694
172	0x3d9c8f75	0.0764455
173	0x3d8dc0ec	0.069215626
174	0xbc8e899e	-0.017399605
175	0xbcea09a1	-0.028569045
176	0xbe06b31c	-0.13154262
177	0xbdb136c1	-0.086530216
178	0x3d14925c	0.03627239
179	0x3d364070	0.044495046
180	0xbd87d9cd	-0.06633339
181	0x3d98b053	0.07455506
182	0xbcbcd496	-0.023050588
183	0xbc4ad8c5	-0.012380783
184	0xbdb1fb88	-0.08690554
185	0xbe82d3a5	-0.25552097
186	0x3e3b8ed8	0.1831621
187	0xbd4c7a05	-0.049921054
188	0xbdd6bc53	-0.10485139
189	0x3dba6196	0.09100644
190	0x3d843d43	0.06456997
191	0xbcfa78a8	-0.030575112
192	0x3d02682d	0.03183763
193	0x3d16a21e	0.0367757
194	0x3e5fbb51	0.218488
195	0xbd76e3a7	-0.0602757
196	0xbeb3e6f6	-0.35137147
197	0xbe2bc980	-0.16776085
198	0xbdb309e5	-0.087421216
199	0x3e9bd88c	0.3043865
200	0x3e17fa28	0.14841521
201	0x3e094093	0.1340354
202	0x3dc61e52	0.09673752
203	0xbead26ce	-0.33818668
204	0xbeddaa55	-0.43294016
205	0xbe63e3a3	-0.22254805
206	0xbe107171	-0.14105774
207	0x3e8ed031	0.27893212
208	0xbe157079	-0.14593686
209	0xbcfc2427	-0.030778958
210	0x3e1dc637	0.15407644
211	0x3d1685d9	0.03674874
212	0x3be1871f	0.006882563
213	0xbda5aa09	-0.08089072
214	0x3d2f4710	0.04279238
215	0xbd471d52	-0.048611946
216	0xbc4dfa35	-0.012571861
217	0xbc1bc4de	-0.009507386
218	0x3e321975	0.17392524
219	0xbcee5fbb	-0.029098382
220	0xbd3cb82d	-0.04607408
221	0xba4ea8a1	-0.0007883404
222	0x3d0b7445	0.03404643
223	0x3d4717e1	0.048606757
224	0x3bd773ce	0.0065750843
225	0xbc4acd20	-0.012378007
226	0xbc10d2b3	-0.008839297
227	0xbd164ace	-0.036692433
228	0xbc934522	-0.017977301
229	0x3df937c8	0.121688426
230	0xbdb4b535	-0.08823625
231	0xbc80fc25	-0.015745232
232	0x3c825096	0.015907567
233	0xbdc554cd	-0.09635315
234	0x3dbdd82c	0.09269747
235	0x3cc4d5c3	0.02402771
236	0x3c3fd971	0.011709557
237	0x3e227b81	0.15867426
238	0x3d551663	0.052023303
239	0x3e1f966f	0.1558473
240	0x3ca7e649	0.02049555
241	0x3e3ce80e	0.18447897
242	0xbda938e1	-0.08262802
243	0xbd03e1b4	-0.03219767
244	0xbc146adc	-0.00905868
245	0xbd90784f	-0.07054197
246	0x3dd1d3c6	0.10245471
247	0xbc4ad94d	-0.01238091
248	0x3cb6c466	0.022310447
249	0xbd14a4db	-0.03629003
250	0x3dc50d74	0.096217066
251	0xbc88b82a	-0.016689379
252	0x3cc58bef	0.024114577
253	0x3d255b2f	0.040370163
254	0xbd3025f9	-0.043004964
255	0x3e98799e	0.29780287

seq.0.bias f4 [128]
0	0x4083815d	4.1095414
1	0x4041b08a	3.0264
2	0x40ad1536	5.408839
3	0x40aeeba6	5.4662657
4	0x406a9735	3.665479
5	0x40a5e7e7	5.1845584
6	0x3ff8425b	1.939525
7	0x40a5f698	5.186352
8	0x40a40023	5.1250167
9	0x404233fc	3.0344229
10	0x40b27cbd	5.577727
11	0x4087c011	4.2421956
12	0x402b09f3	2.6724823
13	0x4068ceac	3.6376143
14	0x40a16bfe	5.0444326
15	0x40ae4613	5.446054
16	0x407f027f	3.9845273
17	0x3fdaed55	1.7103678
18	0x40b5c439	5.680203
19	0xc01e4a9e	-2.4733043
20	0x40ac7f23	5.3905196
21	0x4099cb4b	4.806066
22	0x402d8096	2.7109733
23	0x40b1b0a4	5.5528126
24	0x4086c0cd	4.2110353
25	0x40a24de8	5.07201
26	0x408b1403	4.346193
27	0x4009fdf3	2.1561248
28	0x40810d02	4.032838
29	0x40b8ab01	5.7708745
30	0x40a45ad8	5.1360893
31	0x40a51d34	5.159815
32	0x409606a0	4.6883087
33	0x407cc2d3	3.9493911
34	0x4082a662	4.0828104
35	0x40927239	4.576443
36	0x3fb15034	1.3852601
37	0x40564792	3.3481183
38	0x40a62c96	5.1929426
39	0x4089e51c	4.3092175
40	0x409375ae	4.608115
41	0x409d244f	4.910682
42	0x40971df2	4.7224054
43	0x407d4c6d	3.9577897
44	0x40bcdb4e	5.9017706
45	0x40943475	4.6314034
46	0x40957562	4.670579
47	0x3f3b5be6	0.731871
48	0x40aef818	5.467785
49	0x40922ea0	4.5681915
50	0x409c46e0	4.8836517
51	0x409a8c7a	4.829648
52	0x40904645	4.508578
53	0x40887a1d	4.2649064
54	0x3f9f94f6	1.2467334
55	0x40506e59	3.256735
56	0x40216669	2.5218756
57	0x4040090c	3.0005522
58	0x409581ca	4.6720934
59	0x409de9dd	4.934798
60	0x4070e175	3.7637608
61	0x40786219	3.8809874
62	0x40b3c9e3	5.6183944
63	0x40acade3	5.3962264
64	0x40a8210a	5.254033
65	0x4070f345	3.764848
66	0x408f413d	4.4767137
67	0xc0a8e8f7	-5.278438
68	0x40a37e59	5.1091733
69	0x40aba8a1	5.3643346
70	0x4068afe3	3.6357353
71	0x40ada331	5.426171
72	0x4043610b	3.052798
73	0x406b1545	3.6731732
74	0x40912162	4.535325
75	0x409c28a3	4.8799605
76	0x40a77e9c	5.2342052
77	0x4092240d	4.5669007
78	0x4093bce0	4.616806
79	0x407a6264	3.9122553
80	0x40b3bc1b	5.616712
81	0x407997f1	3.8998988
82	0x3f753491	0.95783335
83	0x40a56992	5.169137
84	0x409c9af8	4.893917
85	0x40a9b572	5.303399
86	0x4065eeba	3.5926957
87	0x4088ac21	4.271012
88	0x406d419c	3.7071295
89	0x406e684a	3.7251153
90	0x40a4c37d	5.1488633
91	0x40af9621	5.4870763
92	0x40949215	4.6428323
93	0x409f1e2c	4.972433
94	0x408cbf93	4.3983855
95	0x406018fb	3.5015247
96	0x402311f0	2.5479698
97	0x406784e5	3.6174862
98	0x409c783d	4.8896775
99	0x40a42821	5.1298985
100	0x4090c3b3	4.523889
101	0x40b87cca	5.765233
102	0x40a742aa	5.2268877
103	0x409299c7	4.5812716
104	0x40ada520	5.426407
105	0x40b915bd	5.7839036
106	0x407d959e	3.962257
107	0x40aadeb2	5.3396845
108	0x3ff9413d	1.9473034
109	0x40b2b5ac	5.5846767
110	0x40a52291	5.1604695
111	0x40815a88	4.042301
112	0x40a8fef0	5.2811203
113	0x40a4fc06	5.1557646
114	0xc09c3949	-4.881993
115	0x40a8feaa	5.281087
116	0x409f2749	4.9735456
117	0x40b8ac40	5.7710266
118	0x406278ce	3.5386233
119	0x4069550c	3.6458158
120	0x409a2241	4.8166814
121	0xbef4636b	-0.477321
122	0x3ff36369	1.9014713
123	0x40a8765b	5.2644477
124	0x3feb25c8	1.8370905
125	0x40752cae	3.830852
126	0x4089a99c	4.3019543
127	0x409ca4dc	4.8951244

seq.2.weight f4 [32, 128]
0	0x3e53619c	0.20642704
1	0xbf11dd3d	-0.5697821
2	0x3e979340	0.2960453
3	0x3ee9e50b	0.45682558
4	0x3aa8b3a4	0.001287092
5	0x3c03f606	0.008054262
6	0x3e954449	0.2915366
7	0x3eb74036	0.35791177
8	0x3ec798c4	0.38983738
9	0xbe04b8c2	-0.12961105
10	0x3f2758d5	0.6536992
11	0x3da0e898	0.07856864
12	0xbcafbf21	-0.021453442
13	0x3ca17269	0.019707875
14	0x3e936b12	0.28792626
15	0x3f2454c4	0.6419184
16	0x3dad5d8e	0.0846511
17	0x3e9ea76f	0.30987117
18	0x3f489f3d	0.7836798
19	0xbe5c76e1	-0.21529724
20	0x3e85e4e4	0.26151192
21	0x3e9d0f8b	0.3067592
22	0xba938f7c	-0.0011257972
23	0x3d162d09	0.036664043
24	0x3e17cd47	0.14824401
25	0x3ea30db1	0.31846383
26	0x3e5db697	0.21651684
27	0x3ec1659a	0.37772828
28	0xbe8a3caa	-0.26999408
29	0x3f57bcf8	0.8427272
30	0x3db03096	0.08603017
31	0x3ea00edc	0.31261337
32	0x3e889274	0.26674235
33	0x3e3d972c	0.18514699
34	0x3da69925	0.08134679
35	0x3d0f4dcf	0.034986313
36	0x3ea562dc	0.32301986
37	0x3daaa249	0.08331735
38	0x3e4dae1e	0.20085952
39	0xbd58a10c	-0.05288796
40	0x3c2ca5af	0.010537549
41	0xbcd6a0c0	-0.026199698
42	0x3e0f263c	0.13979429
43	0x3e3a9d47	0.18224059
44	0x3eec1923	0.46112928
45	0x3daf65c2	0.08564331
46	0x3d0543e9	0.032535467
47	0xbdd09795	-0.10185162
48	0x3e594609	0.21218123
49	0xbc3a56e4	-0.011373255
50	0x3de80547	0.113291316
51	0x3e4cde72	0.20006731
52	0x3dcbb4aa	0.09946568
53	0x3dc70d00	0.097192764
54	0xbd99192c	-0.07475504
55	0x3e49e3a7	0.19715749
56	0x3e0cf231	0.13764264
57	0x3e7a10f4	0.2442053
58	0xbdc84485	-0.09778694
59	0x3e06beec	0.13158768
60	0x3e236245	0.15955456
61	0x3dca70c5	0.0988479
62	0x3e4e5caf	0.20152543
63	0x3eaa6887	0.33282873
64	0x3e8e5f72	0.27807194
65	0xbdd33b30	-0.103140235
66	0xbdaa301f	-0.083099596
67	0xbf1c5132	-0.61061394
68	0x3e0649fc	0.1311416
69	0x3e0a4fa9	0.1350695
70	0x3dbbb58c	0.09165487
71	0x3e19ffa3	0.15038924
72	0xbe8f3895	-0.27972856
73	0xbce17eca	-0.027526278
74	0x3ea8ad33	0.3294464
75	0x3ea2713e	0.31727022
76	0x3db5a133	0.08868637
77	0x3e813f9a	0.25243837
78	0x3e1c1d2c	0.15245503
79	0xbe345651	-0.17611052
80	0x3ea2c76f	0.3179278
81	0xbf8e1cb2	-1.1102507
82	0x3e945e2d	0.289781
83	0x3e45b7c7	0.19308387
84	0xbbf919d8	-0.007601958
85	0x3e8eaffe	0.27868646
86	0x3e989d25	0.29807392
87	0xbddc19c0	-0.10747099
88	0x3bf76712	0.0075501287
89	0x3e8d0806	0.27545184
90	0x3e9f25fc	0.31083667
91	0x3eefc08e	0.46826595
92	0xbda9d16f	-0.082918994
93	0x3e5c552a	0.21516863
94	0x3b1ef685	0.0024255824
95	0xbe2c5190	-0.16827989
96	0xbe5e0ed8	-0.2168535
97	0xbd575594	-0.052571848
98	0xbe20fc59	-0.15721263
99	0x3e19dd32	0.15025786
100	0x3d86d31d	0.065832354
101	0x3f3e7d15	0.7440961
102	0x3eab2241	0.3342457
103	0xbe4687e2	-0.19387773
104	0x3eb2f43c	0.3495196
105	0x3f2628c4	0.64905953
106	0x3dc6f83a	0.09715314
107	0x3ecc8f6b	0.3995317
108	0x3e9c464b	0.3052238
109	0x3ef02df2	0.46910053
110	0x3cf76c13	0.030202901
111	0xbd760100	-0.060059547
112	0x3e77ad04	0.24187094
113	0x3d44354d	0.047902394
114	0xbefa8402	-0.4892884
115	0x3e86c596	0.2632262
116	0x3d8e7ac6	0.06957011
117	0x3ec955e9	0.39323357
118	0xbeae6a8a	-0.34065658
119	0x3ca1a0ec	0.019730054
120	0x3df9f2a1	0.12204481
121	0xbddc4c5a	-0.107567504
122	0x3d04a242	0.032381304
123	0x3e439029	0.19097961
124	0x3eb3e9ff	0.35139462
125	0x3e8f062a	0.2793439
126	0x3dd2d7ef	0.10295092
127	0xbe491dd3	-0.19640283
128	0xbda089d0	-0.07838786
129	0xbe9216c2	-0.28532988
130	0x3ea6e804	0.3259889
131	0x3eecf080	0.46277237
132	0x3dbf5f15	0.09344307
133	0x3d7813a1	0.060565595
134	0xbd0fa94d	-0.035073567
135	0x3e4d7883	0.20065503
136	0x3e2af9fa	0.16696921
137	0xbe05822d	-0.1303794
138	0x3f49a829	0.7877222
139	0xbd5156ec	-0.051108286
140	0xbe034182	-0.12817958
141	0xbe040ffb	-0.12896721
142	0x3e75830b	0.2397577
143	0x3ef7f6a7	0.48430368
144	0xbe547704	-0.20748526
145	0xbe1d6033	-0.15368728
146	0x3f3a4679	0.7276378
147	0xbebecb41	-0.37264445
148	0x3e8bcec4	0.27306187
149	0x3e096765	0.13418348
150	0x3ddd900a	0.10818489
151	0x3f224700	0.6338959
152	0xbe6f3ce5	-0.23363073
153	0x3e805ce8	0.25070882
154	0xbc3c8a0f	-0.011507525
155	0xbdbc7e20	-0.09203744
156	0xbb51a4ec	-0.003198917
157	0x3f9bbbe0	1.216671
158	0x3de3def0	0.11126506
159	0x3e906787	0.28203985
160	0x3e002083	0.12512402
161	0xbd4cd137	-0.05000421
162	0xbdb61347	-0.088903956
163	0x3e2756a1	0.1634164
164	0xbe208e50	-0.15679288
165	0xbdfd7aba	-0.12376924
166	0x3d8f5877	0.06999295
167	0x3cc26d11	0.023733648
168	0x3e548166	0.20752487
169	0x3e1e51ff	0.15460967
170	0x3d9b19e1	0.075732954
171	0x3cbaa3d9	0.022783207
172	0x3f02fe6a	0.51169455
173	0xbdbba076	-0.09161465
174	0x3da4879c	0.08033678
175	0xbea2a659	-0.31767538
176	0x3d9bc753	0.076063775
177	0x3f00dbce	0.50335395
178	0x3daea476	0.08527462
179	0xbd86cfd7	-0.06582611
180	0xbde50de7	-0.11184292
181	0xbe09d309	-0.1345941
182	0xbd2b5268	-0.041826636
183	0xbc3d2581	-0.011544586
184	0xbd7fbbd8	-0.062435
185	0xbdb62504	-0.08893779
186	0x3e1f9441	0.15583898
187	0x3d02c521	0.031926278
188	0xbe0db6c9	-0.13839258
189	0x3d568317	0.05237111
190	0x3eb3f7da	0.35150033
191	0x3e26ec14	0.16300994
192	0x3e93cc00	0.28866577
193	0xbdeac673	-0.114636324
194	0x3e598574	0.21242315
195	0xbf8916b4	-1.0710053
196	0x3e04b8e8	0.12961161
197	0x3ea44571	0.3208423
198	0xbd8ebe57	-0.06969898
199	0x3e0ab755	0.13546498
200	0xbe1f9e19	-0.15587653
201	0xbf4f01f4	-0.80862355
202	0xbe3e6376	-0.18592629
203	0x3d8b26a9	0.06794483
204	0x3e8deff6	0.27722138
205	0x3c91c53c	0.017794244
206	0xbdbadc2f	-0.09124028
207	0x3ecbd2f5	0.39809385
208	0x3f0bcfb0	0.5461378
209	0xbe8fa8ea	-0.2805856
210	0xbeb467e7	-0.3523552
211	0x3e1ffc89	0.15623678
212	0xbd738bcc	-0.059459493
213	0x3e832b4b	0.25618967
214	0xbd1b3494	-0.03789194
215	0xbd30c7e8	-0.043159395
216	0xbd6a102e	-0.057144336
217	0x3db9c024	0.09069851
218	0x3ecceec3	0.4002591
219	0x3f23552c	0.63801837
220	0x3ea80c2c	0.32821786
221	0x3dd087a3	0.10182121
222	0xb98a3c78	-0.00026366464
223	0xbe4d5ead	-0.20055647
224	0xbdc01b9e	-0.093802676
225	0x3ceb001a	0.028686572
226	0x3efa9faf	0.48949954
227	0x3e235ac5	0.15952595
228	0xbd005ee9	-0.031340513
229	0x3f0ee4bd	0.55817777
230	0x3e5fa609	0.21840681
231	0x3e5230da	0.20526448
232	0x3e8b3051	0.271853
233	0x3ee7910c	0.4522785
234	0xbdc10695	-0.094250835
235	0x3eb97855	0.3622462
236	0xbe219a8c	-0.15781611
237	0x3eccce9a	0.40001374
238	0x3db8b15b	0.09018203
239	0xbe54b40f	-0.20771812
240	0x3e2d0174	0.16895086
241	0x3f060ed0	0.5236635
242	0xbf00439a	-0.5010315
243	0x3dbee940	0.09321833
244	0x3da45f18	0.0802595
245	0x3f73e0ee	0.9526509
246	0xbe3f95ec	-0.18709534
247	0xbdc0a633	-0.094067
248	0xbc6444da	-0.013932431
249	0xbe82db9e	-0.2555818
250	0xbf299303	-0.6623995
251	0x3e86af22	0.2630549
252	0xbdcfe207	-0.10150533
253	0x3d94d00f	0.072662465
254	0xbd888af7	-0.066671304
255	0x3f010f5d	0.5041407

seq.2.bias f4 [32]
0	0x4083ff01	4.1248784
1	0x408343c9	4.1020246
2	0x4086cdda	4.2126284
3	0x408c3896	4.3819075
4	0x408ab104	4.3341084
5	0x4049da63	3.1539543
6	0x409399ed	4.61254
7	0xba8f3783	-0.0010926578
8	0x3d6b769a	0.057486154
9	0x4059631c	3.3966742
10	0xbccc9603	-0.024973875
11	0x4053594d	3.3023255
12	0xbdb7f0b8	-0.0898146
13	0x3ed8fa3b	0.4237841
14	0xbfe0a916	-1.7551601
15	0x40907e4a	4.515416
16	0x409a072b	4.813375
17	0xbdd56a59	-0.10420675
18	0x4089e830	4.309593
19	0x40964a81	4.6965947
20	0x408eb3df	4.459457
21	0x4075f9c5	3.8433697
22	0x40884048	4.257847
23	0x40942131	4.6290517
24	0x408f5cd9	4.480084
25	0xbd0c018f	-0.034181174
26	0x4075c81d	3.840339
27	0x40746095	3.818395
28	0x40958d14	4.6734715
29	0xbf85c332	-1.0450194
30	0xbfe3a59c	-1.7784915
31	0xbbd0fbc6	-0.00637767

seq.4.weight f4 [8, 32]
0	0x3e42e997	0.1903442
1	0x3f09567c	0.5364759
2	0x3c13a6c9	0.009011933
3	0x3ed37b74	0.41305125
4	0x3e929f1f	0.28637025
5	0xbe401d51	-0.18761183
6	0xbd32662c	-0.04355447
7	0x3c86d884	0.016460665
8	0x3e0ee329	0.13953842
9	0xbe8ee5de	-0.2790975
10	0xbb8ba715	-0.004261861
11	0x3e8d984d	0.2765526
12	0xbcef2035	-0.029190162
13	0xbe51648b	-0.2044851
14	0xbe3343c3	-0.17506318
15	0x3ee9cb37	0.45662853
16	0x3ebedeac	0.3727926
17	0xbce01819	-0.02735524
18	0x3ef13ab5	0.47115102
19	0x3ea926b5	0.33037344
20	0x3e8375ea	0.256759
21	0x3ea9a2c5	0.33131996
22	0x3f015b14	0.505296
23	0x3e3b0110	0.18262124
24	0xbda4bbd0	-0.08043635
25	0x3d87bb5b	0.06627532
26	0x3e4a27a1	0.1974168
27	0x3e781d3f	0.24229906
28	0x3f2d2623	0.67636317
29	0x3ec5dda0	0.3864565
30	0x3ec5de33	0.38646087
31	0x3d2d8a68	0.042368323
32	0x3dc63fde	0.096801504
33	0x3d97fba5	0.07421044
34	0xbb206ca1	-0.002447881
35	0xbe4abbbe	-0.1979818
36	0xbe3c31e3	-0.18378405
37	0xbdf1a87b	-0.11799713
38	0xbe24bc13	-0.1608737
39	0x3d251108	0.040299445
40	0xbd976d84	-0.07393935
41	0xbd8d0ad4	-0.06886831
42	0xbd4bd2db	-0.049761634
43	0xbd733307	-0.059374835
44	0x3e1afd14	0.15135604
45	0xbc7da3d8	-0.015480958
46	0x3ccf9e1a	0.025343943
47	0x3daa1ae0	0.08305907
48	0xbdcf0a7a	-0.1010942
49	0xbe17df72	-0.14831331
50	0x3e05fee5	0.13085516
51	0xbcf5412c	-0.029938303
52	0x3d8e084f	0.069351785
53	0x3d8afa87	0.067860655
54	0x3cc54315	0.024079839
55	0xbe150998	-0.14554441
56	0x3cd3c16a	0.025849063
57	0xbd56038f	-0.052249487
58	0xbe2ed9df	-0.17075299
59	0xbe113d0c	-0.14183444
60	0xbcfaf40e	-0.030633952
61	0x3dcec3a9	0.10095913
62	0xbcf6f23c	-0.030144803
63	0xbde30627	-0.11085158
64	0xbdf4acfd	-0.119470574
65	0x3bd666a9	0.0065429998
66	0xbd83b9e4	-0.0643194
67	0xbe32ac3b	-0.17448513
68	0xbd455eba	-0.04818604
69	0x3de24270	0.11047828
70	0xbd80a6db	-0.06281825
71	0x3e0684a9	0.13136543
72	0xbddb9158	-0.107210815
73	0xbe66a0b2	-0.22522238
74	0x3d79f0a4	0.06102051
75	0x3d02774b	0.031852048
76	0xbd89e2d9	-0.06732721
77	0xbdbc55c4	-0.09196046
78	0x3e0e39b8	0.13889205
79	0xbb895d0a	-0.0041919993
80	0xbe12721a	-0.14301339
81	0xbdf46383	-0.11933043
82	0xbe007014	-0.12542754
83	0xbe1c4c38	-0.1526345
84	0xbdeb6764	-0.114943296
85	0xbe17b389	-0.14814581
86	0xbe4fbb37	-0.2028626
87	0xbd2eef54	-0.04270871
88	0xbde0ec76	-0.10982601
89	0x3e2255ee	0.15853092
90	0xbe5b2ee3	-0.21404605
91	0xbe7b5db8	-0.2454747
92	0xbe3c5d9c	-0.18395084
93	0xbde64dc8	-0.11245304
94	0x3dcca12d	0.09991679
95	0xbd4c19aa	-0.049829163
96	0x3de91737	0.11381381
97	0x3eb9836c	0.3623308
98	0x3e45d17a	0.1931819
99	0x3ec73977	0.3891103
100	0x3e768a16	0.24076113
101	0x3f875bb6	1.0574863
102	0x3f025dea	0.5092455
103	0xbe1acec2	-0.15117934
104	0xbcd24f82	-0.025672678
105	0x3e7a8c67	0.24467622
106	0x3c452ca2	0.012034567
107	0x3f1d8ec0	0.61545944
108	0xbd37e436	-0.044895373
109	0xbed048a8	-0.40680432
110	0xbfa74e68	-1.3070803
111	0x3e5b1384	0.21394163
112	0x3f1e5224	0.61844087
113	0xbda3681e	-0.07978843
114	0x3eb15c49	0.3464072
115	0x3d66ffdf	0.05639636
116	0x3ea7292b	0.32648596
117	0xbc6d343d	-0.014477787
118	0xbc537d55	-0.012908299
119	0x3e6dba2d	0.23215552
120	0x3f00e994	0.5035641
121	0xbddb036e	-0.106940135
122	0x3e533870	0.20626998
123	0xbd2ee68b	-0.04270033
124	0x3ef9546c	0.4869722
125	0xbf5510c3	-0.832287
126	0xbf024008	-0.50878954
127	0xbe01b49c	-0.12666553
128	0x3e6e483d	0.23269744
129	0x3e905d06	0.2819597
130	0x3ea29a34	0.31758273
131	0x3eb9a1c3	0.36256227
132	0x3e90d77f	0.2828941
133	0xbf6675c1	-0.9002343
134	0x3e7b251d	0.24525876
135	0xbda02a8b	-0.078206144
136	0xbe160af2	-0.14652613
137	0x3cef335f	0.0291993
138	0x3dd635d6	0.10459487
139	0xbf58358f	-0.84456724
140	0xbdee70cf	-0.1164261
141	0x3c7beb79	0.015375965
142	0x3e643839	0.22287072
143	0xbe1ba112	-0.15198162
144	0xbd856218	-0.065128505
145	0x3c9730f8	0.018455967
146	0x3e8456e6	0.25847548
147	0x3e89acd5	0.26889673
148	0x3e665b67	0.22495805
149	0x3e8fbc1e	0.2807321
150	0x3e534afe	0.20634076
151	0x3e095144	0.13409907
152	0x3eb08c97	0.34482262
153	0x3e17de87	0.14830981
154	0x3d4aac80	0.049480915
155	0x3ea6c8f2	0.32575184
156	0xbe89b6fe	-0.26897424
157	0xbe3fffe2	-0.18749955
158	0xbf49667c	-0.78672004
159	0x3df1f842	0.118149295
160	0x3eff34db	0.49845013
161	0xbd3dd5b0	-0.046346366
162	0x3ed28d81	0.41123584
163	0x3e2f3a05	0.17111976
164	0x3f076c8e	0.52900016
165	0x3ec81896	0.39081258
166	0x3eda9206	0.42689532
167	0x3d9e4aa9	0.07729084
168	0xbd9d7f3d	-0.076902844
169	0x3eeb9d4d	0.46018448
170	0xbd568a91	-0.05237824
171	0xbdb9f7f5	-0.09080497
172	0xbe178868	-0.14798129
173	0xbf49c490	-0.78815556
174	0xbf9487e7	-1.1603974
175	0x3f0551df	0.5207805
176	0x3edbb21d	0.42909327
177	0x3d41f97c	0.047357067
178	0x3ebc45fe	0.3677215
179	0x3ef19361	0.47182754
180	0x3ed91856	0.4240138
181	0x3e3c9799	0.18417205
182	0x3f0a8c73	0.5412056
183	0x3f069293	0.52567405
184	0x3e594803	0.21218877
185	0xbde13e14	-0.109981686
186	0x3ed36318	0.4128654
187	0x3ee3602a	0.44409305
188	0x3e56f46f	0.20991682
189	0x3dcb2172	0.099184886
190	0xbe9aaeb3	-0.3021141
191	0x3d3a1b09	0.04543594
192	0xbd737992	-0.05944211
193	0x3e54a4aa	0.2076594
194	0xbe7b3f71	-0.2453592
195	0xbed3862a	-0.41313297
196	0x3e05be88	0.13060963
197	0x3dfe4331	0.124151595
198	0xbed6ebdd	-0.41976824
199	0x3cb9f94e	0.022701886
200	0xbd2c64c4	-0.042088285
201	0xbeee698e	-0.46564907
202	0xbe1e82cf	-0.15479587
203	0x3f33fc8a	0.7030722
204	0xbd9f432c	-0.07776484
205	0x3eaf1348	0.34194398
206	0x3f153f34	0.58299565
207	0x3df41936	0.11918871
208	0x3da82b7a	0.082114175
209	0xbc5e0adf	-0.013552397
210	0x3e0bd5b5	0.13655742
211	0xbeeca5ac	-0.46220148
212	0x3bd20add	0.0064099864
213	0x3dd9091d	0.10597441
214	0x3e1c15b1	0.1524265
215	0xbe7f24ec	-0.24916428
216	0xbf3e1812	-0.7425548
217	0x3e3237e0	0.17404127
218	0xbe282e56	-0.16423926
219	0x3dac59ac	0.08415541
220	0x3e911586	0.28336734
221	0xbeccdaef	-0.40010783
222	0x3f27f4e8	0.6560807
223	0xbd557940	-0.052117586
224	0xbe4342b8	-0.1906842
225	0x3e778908	0.24173367
226	0x3ea66be7	0.32504198
227	0xbdb854cd	-0.090005495
228	0x3e96b998	0.29438472
229	0xbdc2ccbc	-0.09511706
230	0xbd87eb9c	-0.06636736
231	0x3dea6fe9	0.114471264
232	0xbdc80b75	-0.0976781
233	0x3e8a91a9	0.27064255
234	0x3e15f1f5	0.1464308
235	0x3ed86c2f	0.42270038
236	0xbcf09632	-0.029368494
237	0xbf795476	-0.973945
238	0xbde4cf18	-0.111723125
239	0xbccd5b62	-0.025067989
240	0x3e2e9ff4	0.17053205
241	0x3e100640	0.14064884
242	0x3b8c2792	0.004277178
243	0x3c18c141	0.009323419
244	0x3ea31e59	0.3185909
245	0x3e926c91	0.28598455
246	0x3e073232	0.13202742
247	0x3e9940be	0.29932207
248	0x3e0ee68c	0.13955134
249	0x3d9e2552	0.07721962
250	0xbeacedf1	-0.33775285
251	0x3e48590e	0.19565222
252	0x3e98fe83	0.29881677
253	0x3e9a2562	0.30106646
254	0x3ef0a5b3	0.47001418
255	0x3d884391	0.06653512

seq.4.bias f4 [8]
0	0x40434b80	3.0514832
1	0xbe2c2c18	-0.16813695
2	0xbd5bf519	-0.05370054
3	0x408ea39e	4.457473
4	0xbf34de20	-0.70651436
5	0x408afa65	4.3430657
6	0xc02a5c79	-2.661894
7	0x3f9e66c7	1.2375115

seq.6.weight f4 [4, 8]
0	0x3e021222	0.1270223
1	0xbeab2b84	-0.33431637
2	0x3cca7cfe	0.024717804
3	0xbf2769ec	-0.65396
4	0x3eb34e17	0.35020515
5	0xbeb32eee	-0.34996742
6	0x3f178647	0.59189266
7	0xbf00647b	-0.5015332
8	0xbf4bdef5	-0.7963708
9	0x3e7f5bae	0.24937317
10	0xbe4f8bf3	-0.2026823
11	0xbd754322	-0.059878476
12	0x3dfd47f4	0.123672396
13	0xbe7dc146	-0.24780759
14	0x3f4b5a9b	0.7943513
15	0xbeebce06	-0.4605562
16	0xbf002ad0	-0.50065327
17	0xbe87f76c	-0.26555955
18	0xbe0c25ea	-0.13686338
19	0xbf12ad76	-0.5729593
20	0x3eca961d	0.39567652
21	0xbe915060	-0.28381634
22	0x3f05236b	0.5200717
23	0x3e99c6cd	0.30034485
24	0xbd65f045	-0.056137342
25	0x3dbafb8b	0.09130009
26	0x3e9cbcb9	0.30612734
27	0xbe969d88	-0.29417062
28	0xbebbcb69	-0.36678627
29	0xbf3ac8f0	-0.72962856
30	0x3ea098cc	0.31366575
31	0xbd933b7e	-0.071890816

seq.6.bias f4 [4]
0	0xc04d1037	-3.2041147
1	0xc024ba7e	-2.5738826
2	0xc0318ddb	-2.7742832
3	0xc0093be1	-2.1442797
