training/models/environment_traffic_lights/1639372629/checkpoints/ep00050.pt (torch, 28751 bytes, 8 tensors)

seq.0.weight f4 [128, 16]
0	0x41e657c8	28.792862
1	0x41e1edcb	28.24111
2	0x41e0d6aa	28.104816
3	0x41aa6aa0	21.302063
4	0x41e49f59	28.577806
5	0x41e25c4f	28.295073
6	0x41e25474	28.291237
7	0x41c35c6b	24.420126
8	0x41e5bb82	28.716557
9	0x41e1958d	28.198023
10	0x41e06802	28.050785
11	0x41af2d59	21.897142
12	0x41e8b85f	29.090025
13	0x41e34d76	28.412823
14	0x41e2763f	28.307737
15	0x41c6ee89	24.866472
16	0x41e5659c	28.674614
17	0x41e000b1	28.000338
18	0x41de6c70	27.802948
19	0x41aa59d0	21.293854
20	0x41e7d645	28.979624
21	0x41e275b1	28.307467
22	0x41dfffd6	27.99992
23	0x41c63f90	24.781036
24	0x41e726bd	28.893915
25	0x41e15df3	28.170874
26	0x41e3b5af	28.463713
27	0x41b06534	22.049416
28	0x41e53e59	28.655443
29	0x41e45b33	28.54453
30	0x41e20230	28.251068
31	0x41c3e14d	24.48501
32	0x41e6ebe7	28.865187
33	0x41df5124	27.91462
34	0x41df6560	27.9245
35	0x41accf7f	21.601316
36	0x41e668f6	28.80125
37	0x41e17323	28.18122
38	0x41e11f96	28.140423
39	0x41c43fa2	24.53107
40	0x41e5f3b4	28.743996
41	0x41e0ee47	28.116346
42	0x41e40b34	28.50547
43	0x41afcf14	21.976112
44	0x41e89510	29.072784
45	0x41e45772	28.542698
46	0x41e1bed4	28.218178
47	0x41c70106	24.8755
48	0x41e60e90	28.75711
49	0x41e02b8d	28.021265
50	0x41e175e8	28.182571
51	0x41a99bde	21.201107
52	0x41e7742a	28.93172
53	0x41e358e0	28.418396
54	0x41e11a9c	28.137993
55	0x41c53d5f	24.654966
56	0x41e80977	29.004622
57	0x41e3b0c9	28.46132
58	0x41e13ce9	28.154741
59	0x41b18606	22.190441
60	0x41e90e7d	29.132074
61	0x41e15f59	28.171556
62	0x41e357cd	28.417871
63	0x41c79339	24.946886
64	0x41e48242	28.563602
65	0x41e0c26e	28.094936
66	0x41de50b3	27.789404
67	0x41ab7ed5	21.43693
68	0x41e721c6	28.89149
69	0x41e3ae70	28.460175
70	0x41e159bc	28.168816
71	0x41c40647	24.503065
72	0x41e55386	28.665783
73	0x41e1d7db	28.230398
74	0x41e18d4a	28.193989
75	0x41b0651c	22.04937
76	0x41e8c42c	29.095787
77	0x41e227f2	28.269505
78	0x41e2617d	28.297602
79	0x41c72153	24.891272
80	0x41e32d5c	28.397148
81	0x41e13373	28.150122
82	0x41dfc26d	27.969934
83	0x41ac88fd	21.566889
84	0x41e7e2ff	28.985838
85	0x41e134b0	28.150726
86	0x41e25afa	28.294422
87	0x41c62e50	24.772614
88	0x41e5b0d5	28.711344
89	0x41e4385c	28.52752
90	0x41e12861	28.144716
91	0x41b13f77	22.155989
92	0x41e52b0d	28.64602
93	0x41e440e9	28.531694
94	0x41e2a0d3	28.328527
95	0x41c5fa2c	24.747154
96	0x41e5bc01	28.716799
97	0x41e26763	28.300482
98	0x41e07f1d	28.062067
99	0x41aa59ea	21.293903
100	0x41e80426	29.002026
101	0x41e1ca19	28.22368
102	0x41e327f4	28.394508
103	0x41c509bb	24.629751
104	0x41e64a0a	28.786152
105	0x41e17304	28.18116
106	0x41e1b301	28.212404
107	0x41b13650	22.15152
108	0x41e91506	29.135265
109	0x41e314a9	28.385088
110	0x41e31a2b	28.387777
111	0x41c464b8	24.54918
112	0x41e24d0d	28.287622
113	0x41e03067	28.023634
114	0x41dd6814	27.67582
115	0x41a7f770	20.99582
116	0x41e39692	28.44852
117	0x41df8c10	27.94339
118	0x41dff9a8	27.996902
119	0x41c29703	24.323736
120	0x41e69a1c	28.825249
121	0x41e29513	28.32279
122	0x41e05747	28.042616
123	0x41b04891	22.035433
124	0x41e5401f	28.65631
125	0x41e07b49	28.060198
126	0x41e04a9e	28.036434
127	0x41c36ce1	24.428164
128	0x41e5b225	28.711985
129	0x41dee719	27.86284
130	0x41def317	27.868696
131	0x41ab9421	21.447329
132	0x41e6507c	28.789299
133	0x41e23a30	28.278412
134	0x41e2317c	28.274162
135	0x41c306bd	24.37829
136	0x41e4d946	28.60609
137	0x41e46018	28.54692
138	0x41e27526	28.307201
139	0x41ae773e	21.808224
140	0x41e5de61	28.733583
141	0x41e0cb28	28.099197
142	0x41e2f7d9	28.37102
143	0x41c69242	24.821415
144	0x41e4dba4	28.607246
145	0x41e1f5a4	28.244942
146	0x41e16c99	28.178026
147	0x41ac1777	21.511457
148	0x41e6f27b	28.868399
149	0x41e1fc3b	28.24816
150	0x41e23722	28.27692
151	0x41c39598	24.448044
152	0x41e6fb00	28.872559
153	0x41e1746a	28.181843
154	0x41e378d7	28.434004
155	0x41b070b9	22.05504
156	0x41e6a84c	28.832176
157	0x41e192a2	28.196598
158	0x41e26b0d	28.30227
159	0x41c48205	24.563486
160	0x41e708d3	28.879309
161	0x41df6da4	27.928535
162	0x41e0e276	28.110577
163	0x41a9da3c	21.23156
164	0x41e73e24	28.905342
165	0x41e348a4	28.41047
166	0x41e37299	28.430956
167	0x41c5ce71	24.725801
168	0x41e82767	29.01924
169	0x41e2273f	28.269163
170	0x41e33fef	28.406218
171	0x41af144d	21.884912
172	0x41e8be62	29.09296
173	0x41e483a8	28.564285
174	0x41e2e94b	28.363913
175	0x41c533bf	24.650267
176	0x41e58a2b	28.692465
177	0x41dfdb3b	27.982046
178	0x41e16506	28.174328
179	0x41ac4a29	21.536211
180	0x41e7f453	28.994299
181	0x41e23ef1	28.280733
182	0x41e36e09	28.428728
183	0x41c52afa	24.645985
184	0x41e7b916	28.965374
185	0x41e3a2bf	28.454466
186	0x41e0c00a	28.09377
187	0x41b1e550	22.236969
188	0x41e6aacb	28.833395
189	0x41e50d1e	28.631405
190	0x41e1285b	28.144705
191	0x41c4458e	24.533962
192	0x41e4e7db	28.61321
193	0x41e1ad64	28.209663
194	0x41e10bc9	28.130754
195	0x41acbb12	21.591343
196	0x41e748c1	28.910524
197	0x41e289e4	28.31733
198	0x41e1fd21	28.248598
199	0x41c5369d	24.651667
200	0x41e57db9	28.686388
201	0x41e1d658	28.22966
202	0x41e167ae	28.175625
203	0x41afbb29	21.966387
204	0x41e5b3d5	28.712809
205	0x41e0feaa	28.124348
206	0x41e0f569	28.11983
207	0x41c5e9fa	24.739246
208	0x41e51365	28.63447
209	0x41df6ea5	27.929026
210	0x41dfe063	27.984564
211	0x41aa9c50	21.326324
212	0x41e797d3	28.949133
213	0x41e45a22	28.54401
214	0x41e2b233	28.337011
215	0x41c59cd8	24.701584
216	0x41e664d2	28.799229
217	0x41e1dfd7	28.234297
218	0x41e31048	28.38295
219	0x41aed7ef	21.855436
220	0x41e8fd69	29.123735
221	0x41e2d9bc	28.356316
222	0x41e14a48	28.16127
223	0x41c47c85	24.5608
224	0x41e62246	28.766735
225	0x41e04c3c	28.037224
226	0x41e05c8b	28.045187
227	0x41aa7516	21.30717
228	0x41e7f3d6	28.99406
229	0x41e0df78	28.109116
230	0x41e1132e	28.134365
231	0x41c348d8	24.410568
232	0x41e6e9dc	28.86419
233	0x41e281af	28.313322
234	0x41e140ed	28.156702
235	0x41b14fcb	22.163961
236	0x41e601cd	28.75088
237	0x41e0f4e1	28.11957
238	0x41e445cd	28.534082
239	0x41c3fd7d	24.498774
240	0x41e3b234	28.462013
241	0x41e1fd0e	28.248562
242	0x41df140f	27.884794
243	0x41aa6b89	21.302507
244	0x41e39004	28.44532
245	0x41e05127	28.039625
246	0x41e2086b	28.25411
247	0x41c380d4	24.437904
248	0x41e74f8b	28.91384
249	0x41e0e5c7	28.112196
250	0x41e2fbc4	28.372932
251	0x41af2995	21.895304
252	0x41e5870e	28.690945
253	0x41e06649	28.049944
254	0x41dfb041	27.961061
255	0x41c735b6	24.901226

seq.0.bias f4 [128]
0	0x41ecc8bf	29.59802
1	0x41ede186	29.735119
2	0x41ed9af4	29.70066
3	0x41ec1724	29.5113
4	0x41ed883d	29.691523
5	0x41eb0671	29.378145
6	0x41ec3b3d	29.528925
7	0x41ea6660	29.299988
8	0x41ea388e	29.277615
9	0x41ec4d8c	29.537865
10	0x41ed6ff2	29.67966
11	0x41ec1fcf	29.515532
12	0x41eaf230	29.368256
13	0x41ee1db4	29.764503
14	0x41ec9881	29.574465
15	0x41eb129f	29.384092
16	0x41ea289c	29.269829
17	0x41ea34c3	29.275763
18	0x41ed2b34	29.646095
19	0x41ed0810	29.628937
20	0x41e9ccc2	29.22498
21	0x41ec48d3	29.535559
22	0x41ecb34a	29.587543
23	0x41eb225a	29.391773
24	0x41edc993	29.723425
25	0x41ec2ae9	29.520952
26	0x41eaae22	29.335026
27	0x41ed7812	29.683628
28	0x41ea825b	29.31365
29	0x41e9f5dd	29.24505
30	0x41ece251	29.610506
31	0x41ea3660	29.27655
32	0x41eb440b	29.408224
33	0x41eb048e	29.377224
34	0x41eb011e	29.375546
35	0x41eae49d	29.361628
36	0x41edcfe3	29.726507
37	0x41ec653a	29.549427
38	0x41ed803a	29.68761
39	0x41eab24f	29.337065
40	0x41ec8cf4	29.568825
41	0x41ece872	29.613499
42	0x41ec0bf8	29.505844
43	0x41ecf2e0	29.618591
44	0x41edde04	29.733406
45	0x41ebc65f	29.47186
46	0x41ea65fb	29.299795
47	0x41eb5a20	29.419006
48	0x41ec3619	29.526415
49	0x41ea1b8c	29.26345
50	0x41eb2c38	29.396591
51	0x41eafb69	29.372759
52	0x41eaeda1	29.36603
53	0x41ecd962	29.606144
54	0x41ed94c7	29.697645
55	0x41ec83ae	29.564297
56	0x41ecac9f	29.584288
57	0x41ec5c73	29.545141
58	0x41ec9ee8	29.57759
59	0x41ea6fc9	29.304583
60	0x41ec2666	29.51875
61	0x41eadced	29.357874
62	0x41ed1781	29.636477
63	0x41ed7a43	29.684698
64	0x41ebcfbc	29.476433
65	0x41ec583f	29.543089
66	0x41ec5817	29.543013
67	0x41ee5c88	29.795181
68	0x41eae8d1	29.36368
69	0x41ed3694	29.65165
70	0x41ece55b	29.61199
71	0x41edf80b	29.746115
72	0x41ecb39b	29.587698
73	0x41eb426c	29.407433
74	0x41eb6b45	29.427378
75	0x41eddc76	29.732647
76	0x41eab0d0	29.336334
77	0x41eadcc8	29.357803
78	0x41eae00d	29.3594
79	0x41eb2469	29.392778
80	0x41edda7d	29.731684
81	0x41ec6788	29.550552
82	0x41eb31f3	29.39939
83	0x41ebbb3b	29.466421
84	0x41ec6a98	29.552048
85	0x41ed7842	29.68372
86	0x41ea94c3	29.322638
87	0x41ea0563	29.25263
88	0x41ebb413	29.462927
89	0x41eceb83	29.614996
90	0x41ec2de9	29.522417
91	0x41ed34d4	29.650795
92	0x41ea8bc4	29.318245
93	0x41ea31fe	29.27441
94	0x41ea971d	29.323786
95	0x41ed6f96	29.679485
96	0x41ec9bd9	29.576097
97	0x41e9a0eb	29.203573
98	0x41ec179d	29.51153
99	0x41ed9290	29.696564
100	0x41ecf206	29.618176
101	0x41eda5af	29.7059
102	0x41ebc484	29.470955
103	0x41ecfead	29.624353
104	0x41ebea4c	29.489403
105	0x41ec0796	29.503704
106	0x41ea3e27	29.280348
107	0x41eaa954	29.33268
108	0x41ebf2b9	29.493517
109	0x41ea7011	29.30472
110	0x41eb1695	29.386026
111	0x41eb69b7	29.426619
112	0x41ed0f9b	29.63262
113	0x41ea54dc	29.291435
114	0x41ec19b2	29.512547
115	0x41eb138f	29.38455
116	0x41ebae46	29.460094
117	0x41ebc3c0	29.470581
118	0x41ed9cc0	29.701538
119	0x41ed028d	29.626245
120	0x41ed70d7	29.680098
121	0x41ed82fd	29.68896
122	0x41ed42af	29.65756
123	0x41eabdc3	29.342657
124	0x41ed3890	29.652618
125	0x41eb4984	29.410896
126	0x41ed9843	29.699347
127	0x41ea48f3	29.28562

seq.2.weight f4 [32, 128]
0	0x3caffc62	0.02148265
1	0xbd25dce6	-0.04049387
2	0xbd7a81c4	-0.06115891
3	0xbc7f15b0	-0.015569136
4	0xbd03b34f	-0.032153424
5	0xbd7e36a3	-0.062063824
6	0xbd827329	-0.06369621
7	0xbd9b8392	-0.075934544
8	0xbc8ca29e	-0.017167386
9	0xbd9d059e	-0.07667087
10	0x3d80f945	0.062975444
11	0xbc2e3968	-0.010633804
12	0x3d124074	0.035706
13	0x3cccc2d5	0.024995247
14	0x3bc9b31b	0.0061553842
15	0xbd728888	-0.059212238
16	0x3cccb9b7	0.0249909
17	0x3baf3e0c	0.0053479727
18	0x3c96d3fe	0.018411633
19	0xbd5e3add	-0.054255355
20	0xbca33a34	-0.019925214
21	0x3cb9b3d0	0.02266875
22	0x3bbe54c9	0.005808447
23	0xbd7130dc	-0.058884487
24	0xbd73f138	-0.059556216
25	0x3d8ba104	0.06817821
26	0x3d5dfd23	0.054196488
27	0x3d31ba3f	0.04339051
28	0x3d479322	0.0487243
29	0xbd2be3c4	-0.04196526
30	0x3d828356	0.063727066
31	0xbd845236	-0.06460993
32	0x3b75f0f0	0.0037527643
33	0x3c8f13ed	0.017465556
34	0x3d2a7c56	0.041622482
35	0xbd8927dd	-0.066970564
36	0x3ba864f4	0.0051389877
37	0x3c0c0cfc	0.008548018
38	0x3d8a0846	0.06739859
39	0x3d2ee42d	0.042698074
40	0x3c35c811	0.011095063
41	0xbd9f8dde	-0.07790731
42	0x3bc9f723	0.006163494
43	0xbd099af2	-0.033595033
44	0xbd2aca2e	-0.04169672
45	0xbd8c65b5	-0.068553366
46	0xbd2cdfbc	-0.042205557
47	0xbc51c52c	-0.012803357
48	0x3d91cfc4	0.07119706
49	0x3d339c6c	0.043850347
50	0xbdb91dd7	-0.090388946
51	0x3d0b921f	0.0340749
52	0xbcd50bbe	-0.026006576
53	0x3c0a6849	0.008447715
54	0xbc89d6c7	-0.016826047
55	0xbc8025f2	-0.015643094
56	0xbd8611be	-0.06546353
57	0x3cc9bf3d	0.024627322
58	0x3d290683	0.041265976
59	0xbd27b58b	-0.040944617
60	0x3c947f0e	0.01812699
61	0x3d8f8352	0.07007469
62	0xbd346c24	-0.044048443
63	0x3d30677b	0.043067437
64	0xbd83819e	-0.06421207
65	0xbc787197	-0.015163801
66	0x3c965853	0.018352663
67	0x3cf93b7d	0.030423874
68	0xbd8d7ba8	-0.06908351
69	0x3d0e46c8	0.03473547
70	0xbd89335a	-0.06699248
71	0x3ca7253b	0.020403495
72	0x3d497519	0.04918394
73	0x3d91bd38	0.07116169
74	0xbac150f6	-0.001474886
75	0x3c9cc41a	0.019136477
76	0xbcdecc4c	-0.027197026
77	0xbda0c85f	-0.07850718
78	0x3d107555	0.035268147
79	0xbdc8a37f	-0.097968094
80	0xbd1fe1f8	-0.03903386
81	0x3c1aca22	0.009447606
82	0x3d9c1948	0.076220095
83	0xbd70ca43	-0.05878664
84	0xbd197f5e	-0.037474982
85	0x3c96f81f	0.01842886
86	0x3c85fbd4	0.016355433
87	0xbd4280a4	-0.047485963
88	0xbd4200af	-0.047363933
89	0xbca14074	-0.019684054
90	0xbb95c8bb	-0.004571048
91	0xbda9cf78	-0.08291525
92	0x3d3eb194	0.04655607
93	0x3cf9040f	0.030397443
94	0x3d76003e	0.060058825
95	0xbd7fbcf2	-0.06243605
96	0x3d412328	0.04715267
97	0x3d43a15b	0.047761302
98	0x3c3f2b23	0.011667999
99	0x3d6551df	0.05598628
100	0x3d657b00	0.056025505
101	0x3d71c8d6	0.059029423
102	0x3b2e550a	0.002660098
103	0x3caadeaf	0.020858137
104	0x3d42f4db	0.047596794
105	0xbbac0a9b	-0.0052502877
106	0xbdc2c6ae	-0.095105514
107	0xbd6ae13e	-0.057343714
108	0x3c80d1ff	0.015725134
109	0x3db42c98	0.08797568
110	0x3da633a3	0.08115318
111	0xbd1db222	-0.03849996
112	0x3d91b374	0.07114306
113	0xbbd4f8d6	-0.00649939
114	0x3d23e395	0.04001196
115	0xbd86647e	-0.06562136
116	0xbd7b1f0f	-0.061308917
117	0x3d640113	0.055665087
118	0xbc643f6b	-0.013931136
119	0xbbe3b986	-0.0069496064
120	0xbdb54ad3	-0.08852162
121	0xbdb6febc	-0.089353055
122	0xbd187454	-0.037220314
123	0x3c42169a	0.011846209
124	0xbc74064a	-0.014894078
125	0x3ccd3902	0.025051598
126	0x3c8399de	0.01606458
127	0xbd6853d4	-0.05672057
128	0x41eb9838	29.449326
129	0x41eb8043	29.437628
130	0x41ec5210	29.54007
131	0x41ebda69	29.481646
132	0x41eba2f2	29.454563
133	0x41eba6f2	29.456516
134	0x41eb2e98	29.39775
135	0x41eac8b5	29.348001
136	0x41ec9205	29.571299
137	0x41ec7705	29.558115
138	0x41eb8d3c	29.443962
139	0x41ebe641	29.487429
140	0x41eb536f	29.41574
141	0x41eba4d8	29.45549
142	0x41ec91d4	29.571205
143	0x41ec6657	29.54997
144	0x41eb277a	29.394276
145	0x41eb9d54	29.45182
146	0x41eb91e2	29.446232
147	0x41eb28ae	29.394863
148	0x41eb2f2b	29.398031
149	0x41eb5204	29.415047
150	0x41eb5c9c	29.42022
151	0x41ec6ae2	29.552189
152	0x41ebb8d0	29.46524
153	0x41ec4abe	29.536495
154	0x41ec4387	29.532972
155	0x41ebf607	29.49513
156	0x41eb2048	29.390762
157	0x41eb67f9	29.425768
158	0x41ec53c8	29.540909
159	0x41ebcacf	29.474028
160	0x41ec0826	29.503979
161	0x41ebf61e	29.495174
162	0x41ebfabd	29.49743
163	0x41eb6686	29.42506
164	0x41eb5d08	29.420425
165	0x41ebbd5d	29.467463
166	0x41eb0592	29.37772
167	0x41eca23f	29.579222
168	0x41ec5772	29.542698
169	0x41eb669f	29.425108
170	0x41ebb6c7	29.464247
171	0x41eb3ad9	29.403734
172	0x41eb5289	29.4153
173	0x41ec0aa3	29.505194
174	0x41eb6256	29.423016
175	0x41ebeeb0	29.491547
176	0x41ec4270	29.53244
177	0x41ea186e	29.261929
178	0x41eb3e8b	29.405539
179	0x41ec2fce	29.523342
180	0x41ec75c1	29.557497
181	0x41eb063b	29.378042
182	0x41ebc828	29.472733
183	0x41ec77ab	29.558432
184	0x41ebf611	29.49515
185	0x41eb9ca0	29.451477
186	0x41eb74bb	29.431997
187	0x41ebd2e7	29.47798
188	0x41ec219d	29.516413
189	0x41eb5558	29.416672
190	0x41ec92e0	29.571716
191	0x41eb65ce	29.42471
192	0x41ebf319	29.4937
193	0x41ec7358	29.55632
194	0x41ebc092	29.469028
195	0x41ebc5d3	29.471594
196	0x41eb4122	29.406803
197	0x41eb5da8	29.42073
198	0x41eb3ede	29.405697
199	0x41ec2ee9	29.522905
200	0x41ec4117	29.531782
201	0x41eb3029	29.398516
202	0x41eb8e4b	29.444479
203	0x41eb6048	29.422012
204	0x41ec38eb	29.527792
205	0x41eac4d8	29.346115
206	0x41ebd10b	29.477072
207	0x41eb383e	29.402462
208	0x41ebbd14	29.467323
209	0x41ebc9d2	29.473545
210	0x41ec6556	29.54948
211	0x41ec0f68	29.507523
212	0x41eb23e1	29.392519
213	0x41ec4a51	29.536287
214	0x41ebf10f	29.492704
215	0x41eb79f0	29.43454
216	0x41ebb776	29.46458
217	0x41eb9968	29.449905
218	0x41ebdda5	29.483225
219	0x41eb3240	29.399536
220	0x41ec18ab	29.512045
221	0x41ec4046	29.531384
222	0x41eb951f	29.447813
223	0x41ebd0cd	29.476954
224	0x41eb845f	29.439634
225	0x41ea70e9	29.305132
226	0x41ec35d5	29.526285
227	0x41eb6e1d	29.428766
228	0x41ec910f	29.57083
229	0x41ebfcde	29.49847
230	0x41ebdbe6	29.482372
231	0x41ebad86	29.459728
232	0x41ebda7b	29.48168
233	0x41ec52b3	29.54038
234	0x41eb493d	29.41076
235	0x41ec3d9d	29.530085
236	0x41ebfd05	29.498545
237	0x41eb38cb	29.40273
238	0x41eb979c	29.449028
239	0x41ebc7be	29.47253
240	0x41eb75a8	29.43245
241	0x41ec638a	29.548603
242	0x41ec5954	29.543617
243	0x41eb280c	29.394554
244	0x41ebf16e	29.492886
245	0x41ec2f0e	29.522976
246	0x41ec19d5	29.512613
247	0x41eb369d	29.401667
248	0x41ec782f	29.558683
249	0x41eb7f62	29.437199
250	0x41eb664e	29.424953
251	0x41ebd809	29.480486
252	0x41ebbcc1	29.467165
253	0x41ead5f5	29.354471
254	0x41ec7125	29.555246
255	0x41eb464e	29.409328

seq.2.bias f4 [32]
0	0xbd023d5b	-0.031796794
1	0x41dbf70c	27.495628
2	0xbd0b900f	-0.03407293
3	0x41db53c8	27.415909
4	0xbc786043	-0.015159669
5	0xbdbab8a0	-0.09117246
6	0x3c801ca5	0.015638659
7	0xbd936143	-0.071962856
8	0x41dc433f	27.532835
9	0x41db622a	27.422932
10	0x41daefa3	27.36701
11	0x41dbc242	27.469852
12	0x41dbf83d	27.49621
13	0x3c7a58b6	0.015279939
14	0x41dbae28	27.460037
15	0x41db23fe	27.392574
16	0x41dbc7b4	27.472511
17	0x41db914d	27.445948
18	0x41db7a48	27.434708
19	0xbda2a17e	-0.079409584
20	0x41dbde6c	27.483604
21	0x3cc5de94	0.024153985
22	0x41dcc2e2	27.595158
23	0x41dbb209	27.461931
24	0x3cd88521	0.026430668
25	0x41db6bef	27.427702
26	0x3ca68c34	0.020330526
27	0xbd0e0e67	-0.034681704
28	0x41db4717	27.409712
29	0xbd7b6faa	-0.061385788
30	0xbd9fba7b	-0.0779924
31	0x41dc2508	27.518082

seq.4.weight f4 [8, 32]
0	0x3cd031bb	0.025414338
1	0x3cdc57ab	0.026897272
2	0x3d162528	0.03665653
3	0x3de4f3fb	0.11179348
4	0xbbe719f4	-0.0070526544
5	0x3d749511	0.059712473
6	0xbc4a849e	-0.01236072
7	0x3daee508	0.08539778
8	0xbcb09071	-0.02155325
9	0x3d2898ab	0.04116122
10	0xbe2ed0f5	-0.17071898
11	0x3d5b01d5	0.053468544
12	0xbdb82128	-0.08990699
13	0xbdf135c4	-0.11777833
14	0xbc4b0a81	-0.012392641
15	0x3d84e7a9	0.06489498
16	0x3e1acd3c	0.15117353
17	0xbddebf53	-0.10876336
18	0x3d0aef09	0.033919368
19	0xbc0b20c1	-0.008491696
20	0xbcb5c342	-0.022187833
21	0x3d620bb1	0.05518693
22	0xbe08a66a	-0.13344732
23	0xbdba0412	-0.090828076
24	0xbd4f238a	-0.050571002
25	0xbdf0aecc	-0.1175209
26	0x3e0adf26	0.13561687
27	0xbd0b6580	-0.034032345
28	0x3d58e6c7	0.05295446
29	0xbc1edb21	-0.009695799
30	0xbe02235c	-0.12708801
31	0x3c8e00d5	0.017334381
32	0x3e20c352	0.15699509
33	0x3db5b0eb	0.08871635
34	0x3da1bf2e	0.07897793
35	0x3c952939	0.018208133
36	0xbc9d966e	-0.01923677
37	0x3dcd1aee	0.10014902
38	0xbd3741af	-0.044740375
39	0xbe21e651	-0.15810515
40	0xbd4690e4	-0.048478022
41	0xbe1d4202	-0.15357211
42	0xbde381ef	-0.11108767
43	0xbe1af2d3	-0.15131693
44	0xbb7a7ece	-0.0038222554
45	0xbdbb4e6f	-0.091458194
46	0x3d30a91d	0.04313003
47	0x3ccaa2e6	0.02473588
48	0x3c35ba3c	0.011091765
49	0xbe3439ca	-0.1760017
50	0x3d04c579	0.032414887
51	0x3d4ba515	0.04971798
52	0xbdc2fd93	-0.09521022
53	0x3e15db99	0.14634551
54	0x3d9d574f	0.076826684
55	0xbdb13ff5	-0.08654777
56	0xbdb23534	-0.08701554
57	0xbd8756a4	-0.06608322
58	0xbe12a136	-0.1431931
59	0xbe26ef4f	-0.16302226
60	0x3d9b3572	0.07578553
61	0x3db17479	0.086647935
62	0x3d910756	0.07081477
63	0x3e288356	0.1645635
64	0x3ce9be20	0.028533041
65	0x3d82449e	0.06360744
66	0xbe34fe0b	-0.17675035
67	0x3cbbf8a0	0.022945702
68	0x3d4939df	0.049127456
69	0x3de7310f	0.11288654
70	0x3e341a3a	0.1758813
71	0xbd9f3add	-0.07774899
72	0x3df31bcf	0.118705384
73	0xbe16c3b8	-0.14723098
74	0xbe171ba8	-0.14756644
75	0x3dce961d	0.100872256
76	0xbe096124	-0.13415962
77	0xbdce4c37	-0.100731306
78	0xbe2fa3a1	-0.17152263
79	0xbdcccbe6	-0.09999828
80	0xbe0d6773	-0.13808994
81	0x3e0f31d1	0.13983847
82	0x3d2e921b	0.042619806
83	0xbc95f037	-0.01830302
84	0xbd8eb684	-0.06968406
85	0xbe05d434	-0.1306923
86	0x3ddf5b3d	0.10906074
87	0x3d3e3f98	0.046447366
88	0x3c4a75b5	0.012357165
89	0xbe2761a0	-0.16345835
90	0xbd50b174	-0.050950482
91	0xbde67008	-0.11251837
92	0xbdabdac5	-0.08391336
93	0x3dfc5720	0.12321305
94	0x3ddc4df7	0.10757058
95	0x3ca1bffc	0.019744866
96	0xbd894fc4	-0.06704667
97	0x41ed4087	29.656507
98	0x3d50cc1f	0.050975915
99	0x41ee7ea3	29.811834
100	0xbe0639b5	-0.13107951
101	0xbdaf6762	-0.085646406
102	0x3d703fc1	0.05865455
103	0xbd97d6fe	-0.074140534
104	0x41ec15fa	29.51073
105	0x41ee5e27	29.795973
106	0x41eda017	29.703169
107	0x41ee285c	29.769707
108	0x41ecd3df	29.603453
109	0xbdac6206	-0.08417134
110	0x41ed1a47	29.63783
111	0x41ec6d2a	29.553303
112	0x41ebc301	29.470217
113	0x41ee6ec9	29.804094
114	0x41ed7515	29.682169
115	0x3dea99a0	0.11455083
116	0x41ee0d0d	29.756372
117	0x3dc5c0e6	0.09655933
118	0x41ed4b22	29.661686
119	0x41ed4610	29.65921
120	0xbe21e55e	-0.15810153
121	0x41ede5eb	29.737265
122	0x3d971453	0.073769234
123	0xbda650a1	-0.081208475
124	0x41ec8d7f	29.56909
125	0xbe158e37	-0.14605032
126	0xbce3fe1b	-0.027831128
127	0x41ee8f88	29.820084
128	0xbc005217	-0.007832072
129	0xbe0b06d0	-0.13576818
130	0x3e2c9d06	0.16856775
131	0xbdc66806	-0.0968781
132	0x3d846731	0.06464995
133	0x3adffb2e	0.0017088407
134	0xbc7547b9	-0.014970713
135	0x3cee1736	0.029063802
136	0x3d98d00d	0.074615575
137	0x3e172d7b	0.14763443
138	0xbdfd544b	-0.12369593
139	0xbc8cc93b	-0.017185798
140	0x3e218454	0.15773135
141	0xbe107e91	-0.14110781
142	0xbe1b4849	-0.15164293
143	0xbe0d3014	-0.13787872
144	0x3da70850	0.08155882
145	0xbe06c7de	-0.13162181
146	0xbd8efaf7	-0.069814615
147	0xbe194c19	-0.14970435
148	0xbe095e09	-0.13414778
149	0xbce95a8b	-0.028485557
150	0x3c868dba	0.016425002
151	0xbe0ea1f1	-0.13928963
152	0xbe0af03e	-0.13568208
153	0xbcac0965	-0.021000573
154	0x3c8e812a	0.017395575
155	0x3db73a91	0.089467175
156	0xbd59c03f	-0.053161856
157	0x3e218681	0.15773965
158	0x3dfba6a6	0.12287645
159	0x3d802ecb	0.06258925
160	0x3e34d314	0.17658645
161	0x41eccbcd	29.599512
162	0xbb84ca22	-0.0040524164
163	0x41ec7b9b	29.560354
164	0xbd367b81	-0.044551376
165	0x3e15e917	0.14639698
166	0xbd989235	-0.07449762
167	0x3db1d9e2	0.08684136
168	0x41ebec7c	29.49047
169	0x41ebeb28	29.489822
170	0x41ebdc2a	29.482502
171	0x41ec7292	29.555943
172	0x41ec43c0	29.533081
173	0xbd578a81	-0.052622322
174	0x41ea967c	29.323479
175	0x41ec1a7f	29.512938
176	0x41ea5f0d	29.296412
177	0x41ecd78c	29.605247
178	0x41ed1da5	29.639475
179	0x3ddaeac3	0.106893085
180	0x41eca704	29.58155
181	0xbdc3e8f9	-0.095659204
182	0x41eb647f	29.42407
183	0x41ea3d84	29.280037
184	0xbd0cec5b	-0.034405094
185	0x41eaeff8	29.367172
186	0x3e13ba30	0.14426494
187	0xbdd1b2d3	-0.10239186
188	0x41eaa676	29.33128
189	0x3d8151ad	0.063144065
190	0xbd0765ab	-0.033055943
191	0x41eb40ca	29.406635
192	0xbdb12df4	-0.08651343
193	0x41ecb4a1	29.588198
194	0xbe01883b	-0.12649624
195	0x41ecd29c	29.602837
196	0x3df6aac2	0.12044288
197	0xbdc5051a	-0.09620114
198	0x3c633b62	0.013869138
199	0xbe183c13	-0.14866666
200	0x41ecbebb	29.59313
201	0x41ed3b57	29.653975
202	0x41ed3d1e	29.654842
203	0x41ec98fb	29.574697
204	0x41ed591f	29.668516
205	0xbdb4ad25	-0.08822087
206	0x41ed7132	29.680271
207	0x41ece27e	29.610592
208	0x41ed9e16	29.70219
209	0x41ed8aeb	29.692831
210	0x41ecd8db	29.605886
211	0xbde7b37f	-0.11313533
212	0x41ed834f	29.689116
213	0xbe1f23c7	-0.15540992
214	0x41ebea5c	29.489433
215	0x41ec7e42	29.56165
216	0xbd85e73a	-0.065382436
217	0x41ec358a	29.526142
218	0x3d4cf45e	0.050037734
219	0xbdc21319	-0.09476299
220	0x41ec57c1	29.542849
221	0xbdd3b91b	-0.103380404
222	0xbdd2e26f	-0.10297095
223	0x41ecdca0	29.607727
224	0xbe3640be	-0.17798135
225	0x3e157a7d	0.14597507
226	0xbdcfcf0c	-0.10146913
227	0xbe1bb630	-0.15206218
228	0x3dbc63eb	0.09198745
229	0x3e2c6f9e	0.16839454
230	0x3de4191b	0.11137601
231	0x3e2a855a	0.16652432
232	0xb9e46c69	-0.0004356832
233	0xbdab6486	-0.08368783
234	0x3d04bbc4	0.03240563
235	0x3d831a5f	0.06401514
236	0x3daddec0	0.08489752
237	0xbd9d883e	-0.07692002
238	0xbd78b21c	-0.060716733
239	0xbd79f872	-0.06102795
240	0xbdcd8dd0	-0.10036814
241	0xbcb926de	-0.022601541
242	0xbe440428	-0.1914221
243	0x3dfa8319	0.12232036
244	0x3a9b1508	0.0011831829
245	0x3d99215d	0.07477067
246	0x3d2a4d22	0.041577466
247	0xbddadd16	-0.106867
248	0xbdc27b58	-0.09496182
249	0x3e056fc1	0.13030912
250	0x3de6f777	0.11277669
251	0xbddabc28	-0.10680419
252	0xbce50ed8	-0.02796118
253	0xbccf74ce	-0.025324252
254	0xbcc80810	-0.024417907
255	0x3db441b4	0.088015944

seq.4.bias f4 [8]
0	0xbd300347	-0.042971876
1	0xbe078810	-0.13235497
2	0xbe29292c	-0.16519612
3	0x41ca63cc	25.298729
4	0x3d792932	0.060830303
5	0x41c8fda2	25.123844
6	0x41c9ef8f	25.241972
7	0x3d5bbd8f	0.053647574

seq.6.weight f4 [4, 8]
0	0xbe8e7e0c	-0.2783054
1	0xbd201816	-0.03908547
2	0x3e427037	0.18988119
3	0x41cbcabc	25.473991
4	0xbe907d13	-0.28220424
5	0x41cd3337	25.650007
6	0x41ce3ca5	25.779612
7	0xbe8d46a8	-0.2759297
8	0x3e9e150c	0.30875432
9	0x3d299ff5	0.041412313
10	0xbe455ec0	-0.19274426
11	0x41d151a0	26.164856
12	0x3e537998	0.20651853
13	0x41cf2a1e	25.895565
14	0x41d03981	26.028078
15	0xbeb309ac	-0.34968317
16	0xbe373825	-0.17892511
17	0x3e75b9cc	0.23996657
18	0x3ccf35d8	0.02529423
19	0x41ccff7e	25.624752
20	0xbe70603c	-0.2347421
21	0x41ccbe9f	25.593077
22	0x41cddbe2	25.732365
23	0xbea1ce15	-0.3160254
24	0xbe0d94c8	-0.13826287
25	0xbdd21cc6	-0.10259394
26	0xbeb49cb0	-0.35275793
27	0x41cf519f	25.914854
28	0x3e67d678	0.22640407
29	0x41d15f69	26.171587
30	0x41d0596d	26.043665
31	0x3e9d31d2	0.30702072

seq.6.bias f4 [4]
0	0x4182a7d5	16.33195
1	0x41a88c13	21.068396
2	0x4186983b	16.824331
3	0x41b1bc3a	22.216908
