training/models/environment_traffic_lights/1639343183/checkpoints/ep00025.pt (torch, 28751 bytes, 8 tensors)

seq.0.weight f4 [128, 16]
0	0x3e925d07	0.285866
1	0xbe7439b4	-0.23850137
2	0x3db9ed49	0.09078462
3	0x3eca7929	0.39545563
4	0x3ede8a2c	0.43464792
5	0x3d0040de	0.031311862
6	0x3ed2096e	0.4102282
7	0x3d9a5fee	0.075378284
8	0x3d6930c9	0.05693129
9	0x3c87c89b	0.016575148
10	0xbc0efeac	-0.008727711
11	0x3f9a9f97	1.2079953
12	0x3e01f914	0.12692672
13	0x3e7142b8	0.23560607
14	0x3e5b1ee0	0.21398497
15	0x3e018d24	0.12651497
16	0x3ccdbbd6	0.025113981
17	0x3e368a1a	0.17826119
18	0xbd6dd792	-0.058066912
19	0x3e115a8c	0.14194697
20	0xbd380e69	-0.044935618
21	0x3d95bf71	0.07311905
22	0x3d8c5e9b	0.06853982
23	0x3e826e1c	0.25474632
24	0x3d0e971f	0.03481209
25	0xbcbb3725	-0.022853443
26	0x3d6e617d	0.05819844
27	0x3e71c358	0.23609674
28	0x3d1854d2	0.037190266
29	0x3e811971	0.25214723
30	0xbd36268d	-0.04447036
31	0x3dbe2499	0.09284324
32	0x3e3fa92e	0.1871688
33	0xbb757651	-0.0037454555
34	0x3db7d800	0.089767456
35	0x3eab8502	0.33499914
36	0x3dd13fc1	0.10217238
37	0xbdfa2178	-0.12213415
38	0x3d234541	0.039860968
39	0x3e9fcc32	0.31210476
40	0x3d01e0cc	0.031708524
41	0x3b3963ff	0.0028288362
42	0x3e5daedb	0.21648733
43	0x3f8d9822	1.1062052
44	0x3a94c0df	0.0011348984
45	0x3e6dbe79	0.23217191
46	0xbe3969f3	-0.18106823
47	0x3ce9a5a3	0.028521365
48	0x3d2efb51	0.042720143
49	0x3e94dba1	0.29073814
50	0x3e777f53	0.24169664
51	0x3f18a4bd	0.5962637
52	0x3e0d2806	0.13784799
53	0x3b5c57ef	0.0033621748
54	0xbcccd25d	-0.025002653
55	0x3e9bb435	0.30410925
56	0x3dd3a171	0.10333527
57	0x3e98b15f	0.29822823
58	0x3e8bcca8	0.27304578
59	0x3f9b5489	1.2135173
60	0xbe0a1496	-0.13484415
61	0x3bfd1643	0.007723601
62	0x3b38bf1c	0.0028190082
63	0x3ddef256	0.10886066
64	0x3e994444	0.29934895
65	0x3f06f1fc	0.5271299
66	0x3ea4dc4d	0.32199326
67	0xc0124d6c	-2.2859755
68	0x3ec17e47	0.37791654
69	0x3ee59eb0	0.4484763
70	0x3eb94bd4	0.36190665
71	0x3fe02604	1.7511601
72	0x3eeec858	0.46637225
73	0x3edff218	0.4373939
74	0x3ed972bd	0.4247035
75	0xc0c2bae5	-6.0853143
76	0x3eda9b63	0.42696676
77	0x3ecbfe41	0.39842418
78	0x3e35535e	0.17707583
79	0x3f150a4b	0.5821883
80	0x3e9ee405	0.3103334
81	0x3e6a8b92	0.22904804
82	0xbcf43547	-0.02981056
83	0x3f72de27	0.9487023
84	0x3ec94d5e	0.3931684
85	0x3e3ebb09	0.18626036
86	0x3c88071c	0.016604953
87	0xc08c7910	-4.389778
88	0x3e8cdf80	0.27514267
89	0x3e0b826a	0.13623968
90	0x3d6c3c0b	0.05767445
91	0x3fff8fef	1.99658
92	0x3e6e7784	0.23287779
93	0x3e17c2ab	0.14820354
94	0x3e8bc5cd	0.27299348
95	0xbe872bb3	-0.26400527
96	0x3a22e0e2	0.000621332
97	0xbc6a7e01	-0.014312268
98	0xbcf75ca3	-0.03019554
99	0x3bef15f0	0.0072963163
100	0x3daa790b	0.08323868
101	0xbdef350e	-0.11680041
102	0xbc629835	-0.013830234
103	0x3fa61460	1.2974968
104	0x3c35375e	0.011060564
105	0xbcef48b3	-0.02920947
106	0x3de97842	0.113998905
107	0xbd0d7efc	-0.03454493
108	0x3d9b8d8b	0.075953566
109	0x3d347a54	0.044061974
110	0xbdbf4681	-0.093396194
111	0xbf924f3b	-1.1430429
112	0xbd1b7968	-0.03795758
113	0xbd6e8229	-0.0582296
114	0xbe58c5d7	-0.2116922
115	0x3f3e6417	0.74371475
116	0xbd8eecd0	-0.06978762
117	0x3db1dcb8	0.08684677
118	0xbd339c95	-0.0438505
119	0x3f0dfe4f	0.5546617
120	0xbed897ea	-0.423034
121	0xbf1402b0	-0.578166
122	0xbf8d9ad1	-1.1062871
123	0x3f9806e6	1.1877105
124	0x3ce297f5	0.02766035
125	0x3df5975a	0.11991759
126	0x3dfb4146	0.12268309
127	0x3e04a2f3	0.12952785
128	0x3e0f00a3	0.13965087
129	0x3ee3097d	0.44343176
130	0x3d736a13	0.059427332
131	0xbffae2cf	-1.9600466
132	0x3e81e50f	0.2537007
133	0x3e3052ce	0.17219087
134	0x3e0e04a8	0.13868964
135	0x3ef9b0dd	0.48767748
136	0x3ede76b3	0.43449935
137	0x3ea1c67d	0.31596747
138	0x3e3603e3	0.1777492
139	0xc096310d	-4.6934876
140	0x3ecfcb64	0.40584862
141	0x3d9ff6d6	0.07810752
142	0x3e440129	0.19141068
143	0x3edc551e	0.4303369
144	0x3d30ae57	0.043135013
145	0x3d1da453	0.03848679
146	0x3df01999	0.11723632
147	0x3efee3cd	0.49783173
148	0x3df1f9f3	0.11815252
149	0xbcbfbce3	-0.023405498
150	0x3dd69a87	0.104786925
151	0x3ecee80e	0.4041142
152	0x3dc6694a	0.09688051
153	0x3e8acbe6	0.27108687
154	0xbc301322	-0.010746749
155	0x3f8a5dfc	1.0809932
156	0x3db0f8c3	0.086411975
157	0xbd09bbb0	-0.03362626
158	0x3db7055c	0.08936569
159	0x3e8d5241	0.27601817
160	0x3ebc8d28	0.36826444
161	0x3f0a4953	0.54018134
162	0x3ec93421	0.39297584
163	0xbfc8f3d1	-1.5699407
164	0x3eae3567	0.34025118
165	0x3e986406	0.29763812
166	0x3cf4a2f2	0.029862855
167	0x3ec02f2a	0.37535983
168	0x3e057647	0.130334
169	0x3e24e292	0.16102055
170	0x3e1379b9	0.14401902
171	0xc04f9d62	-3.243981
172	0x3db18350	0.08667624
173	0x3dc0b9c3	0.09410431
174	0x3d05b71d	0.032645334
175	0x3ec9c857	0.3941066
176	0xbae94c33	-0.0017799198
177	0x3e135d84	0.14391142
178	0x3e8b29bd	0.2718028
179	0x3de3099f	0.110858195
180	0x3df05e62	0.11736752
181	0x3dbc90bd	0.09207294
182	0xbdbcb736	-0.09214632
183	0x3f6057fd	0.8763426
184	0x3e5c2a17	0.21500431
185	0xbcb698cf	-0.022289662
186	0x3d84db61	0.06487156
187	0x3e914917	0.28376076
188	0x3e05c77f	0.13064383
189	0xbe1e9aa0	-0.15488672
190	0xbe52eb2a	-0.2059752
191	0x3e41e3f6	0.18934616
192	0xbbbc2182	-0.005741299
193	0x3e7a99ba	0.24472705
194	0xbd919ea0	-0.071103334
195	0x3edad12a	0.42737705
196	0xbb4fbf55	-0.0031699736
197	0x3de31559	0.11088056
198	0x3d1503b6	0.036380492
199	0x3f654a92	0.8956691
200	0x3dc331d0	0.09530985
201	0xbd64b58b	-0.055837195
202	0x3db609f1	0.08888615
203	0x3fb2fd3c	1.3983531
204	0x3cbc15a1	0.022959532
205	0x3cc3cfe2	0.023902837
206	0xbe12844d	-0.14308281
207	0x3cfac830	0.030613035
208	0x3e2dd93b	0.16977398
209	0x3e9ca8c7	0.30597517
210	0x3d5995f2	0.053121515
211	0x3ecbf8e4	0.39838326
212	0x3cce7024	0.025199957
213	0x3d1a0497	0.037602033
214	0x3d4beb61	0.04978502
215	0xbda9a11a	-0.08282681
216	0x3e8cb808	0.27484155
217	0x3d952d25	0.07284001
218	0xbe014ecc	-0.12627715
219	0x3f0a9d10	0.5414591
220	0xbdeb2b0f	-0.11482822
221	0x3e540c6c	0.20707864
222	0x3d8a3357	0.067480735
223	0x3e4121b4	0.18860513
224	0x3d9b650a	0.07587631
225	0xbd9f11ce	-0.07767068
226	0x3de02f17	0.10946482
227	0x3e5ae875	0.21377738
228	0x3e92af44	0.28649342
229	0x3e5bd1d3	0.2146676
230	0xbe049aa2	-0.12949613
231	0x3e521fcf	0.20519947
232	0xbd1ffd53	-0.03905995
233	0xbd9d387f	-0.076767914
234	0x3e460b93	0.19340353
235	0x3f1d91e5	0.6155074
236	0x3e8a8d49	0.27060917
237	0xbdf6b5e7	-0.12046414
238	0xbc6a18d9	-0.014288151
239	0x3d4acfb0	0.049514472
240	0xbd9d3b48	-0.076773226
241	0x3d672f41	0.05644155
242	0x3d208b93	0.03919561
243	0x3e0deb41	0.13859273
244	0xbcd56821	-0.02605063
245	0x3e0c06c2	0.13674453
246	0x3d3695ab	0.04457633
247	0x3f26e96e	0.65199935
248	0x3cba7a36	0.022763353
249	0x3e2034e1	0.15645172
250	0xbd2c2f40	-0.04203725
251	0x3e06e417	0.13172947
252	0x3e05fcc1	0.13084699
253	0xbd9dddab	-0.077082954
254	0x3d6ce69f	0.057837125
255	0xbecc8ec4	-0.39952672

seq.0.bias f4 [128]
0	0xc0f8e674	-7.7781315
1	0x41159687	9.34925
2	0x410e73b0	8.903244
3	0xc105a833	-8.353564
4	0x40c1a396	6.051219
5	0xc0bd0b2f	-5.907615
6	0x41078b52	8.471514
7	0xc0ee26a4	-7.442217
8	0xc080e627	-4.028095
9	0xc10b0f0a	-8.691172
10	0xc0871368	-4.221119
11	0x41149308	9.285896
12	0x410371b1	8.215257
13	0x4107a296	8.477194
14	0x4116ceb8	9.425468
15	0x4117b94b	9.482738
16	0xc0d375c8	-6.6081276
17	0x410ccdbf	8.800231
18	0x41082059	8.507897
19	0x4114a877	9.291129
20	0x41166a8e	9.401014
21	0x411124c5	9.071477
22	0xc0d33d47	-6.60123
23	0xc0baf2f5	-5.842158
24	0x411206e4	9.126682
25	0x410cf426	8.809607
26	0xc0b739f4	-5.7258244
27	0x41124f56	9.144369
28	0xc106f950	-8.435867
29	0xc0a14b4a	-5.0404406
30	0xc0370507	-2.8596818
31	0x41095494	8.583149
32	0x410724bc	8.446468
33	0xc0c719a2	-6.221879
34	0xc0720524	-3.7815638
35	0xc0d22598	-6.567089
36	0xc0acfbfd	-5.4057603
37	0x4114cb04	9.299564
38	0x41033c19	8.202172
39	0xc00b0dc4	-2.1727152
40	0xc104cfec	-8.300762
41	0xbf8ca1b1	-1.0986844
42	0x41153517	9.325461
43	0x41133cd8	9.202354
44	0xc0ec4998	-7.3839836
45	0xc0fc540b	-7.885259
46	0xc0e3c4a3	-7.1177535
47	0xc058db66	-3.388391
48	0x41152c97	9.323386
49	0x410aec72	8.682726
50	0x410ee6f0	8.931381
51	0x4106bf42	8.421694
52	0x410ec7b7	8.9237585
53	0x41116206	9.0864315
54	0xc10d1f07	-8.820075
55	0x4117ebb4	9.495045
56	0x41124266	9.141211
57	0xc04a5e79	-3.1620162
58	0xc0f7de36	-7.7458754
59	0x4111fb54	9.123859
60	0x410a8034	8.6563
61	0x41136d97	9.214255
62	0xbfb463e1	-1.4092981
63	0x41147183	9.277713
64	0xbfdafe59	-1.7108871
65	0x40da872e	6.8290014
66	0x411135ac	9.0756035
67	0x40cbd5f7	6.3698688
68	0x4116b3c4	9.418888
69	0x410eb2a3	8.9186125
70	0x41004ccf	8.018752
71	0xbfa01bc5	-1.2508475
72	0xc08093e8	-4.018055
73	0x41155f0e	9.335707
74	0x40edf6e3	7.4363875
75	0xc10aaf9e	-8.667875
76	0x411775f1	9.466294
77	0x410f086b	8.939555
78	0x4110fb64	9.061375
79	0xc0a0c13a	-5.023587
80	0x410dd40d	8.86427
81	0x411034cc	9.01289
82	0xc0d3b1ee	-6.61547
83	0x411a11ff	9.629394
84	0x4116efb9	9.433526
85	0x410e4d9f	8.89395
86	0xc0739ec4	-3.8065653
87	0x4116021d	9.375516
88	0x410d5645	8.833562
89	0x40d95bda	6.7924623
90	0xc0dc2e68	-6.880665
91	0x4112aa7b	9.166621
92	0xc0efbdd7	-7.491924
93	0xc0169e76	-2.3534217
94	0x41130e14	9.190937
95	0xc0fad38d	-7.838324
96	0x4110d973	9.053088
97	0x410a0272	8.625597
98	0x4114aa90	9.291641
99	0xc08980f2	-4.2969904
100	0x41035b1c	8.2097435
101	0x41146c74	9.276478
102	0x410b4eb7	8.7067175
103	0x41044379	8.266473
104	0x41142c47	9.26081
105	0x40c22922	6.067521
106	0x40f95d71	7.7926564
107	0x410f7019	8.964868
108	0x41145d56	9.272787
109	0xc1072e02	-8.448732
110	0x41121e79	9.13244
111	0xc0eceef0	-7.404167
112	0x41150103	9.312747
113	0xc09fb510	-4.9908524
114	0xc0e88e72	-7.2673883
115	0x41111ef6	9.070059
116	0x41082908	8.510017
117	0xc1009649	-8.036691
118	0x41045905	8.271733
119	0xc0acc3bb	-5.398893
120	0xc0f5ead8	-7.6849174
121	0x411af88c	9.68568
122	0x4108f793	8.560443
123	0x4113556c	9.208355
124	0xc0d31d5d	-6.5973344
125	0x411663fd	9.399411
126	0x41152058	9.320396
127	0xc0da0903	-6.8136

seq.2.weight f4 [32, 128]
0	0x3fa8f14c	1.3198638
1	0x3f0f6c2f	0.5602445
2	0x400227cf	2.0336797
3	0x3fbf9565	1.4967467
4	0xc0118242	-2.2735753
5	0x401280df	2.2891157
6	0xbef60949	-0.4805396
7	0x3f92f5b8	1.1481237
8	0xbfe2068b	-1.7658247
9	0x40249a7a	2.5719285
10	0xbf84acec	-1.0365272
11	0x3ec2fb26	0.38082236
12	0x4026b724	2.604928
13	0x3f4eba93	0.8075344
14	0x3f8ee636	1.1164005
15	0x3eb52034	0.35376132
16	0xbec515aa	-0.3849309
17	0x404a5c4c	3.1618834
18	0x3f547813	0.8299572
19	0x3fd5c35e	1.6700246
20	0x3ed084a5	0.407262
21	0x3f0b5851	0.54431635
22	0x3fcaade5	1.5834318
23	0xbf31079c	-0.69152236
24	0x3ff1bc7c	1.8885646
25	0x400addc6	2.169786
26	0x3ff0f8be	1.882591
27	0x3f4f3bd8	0.8095069
28	0x3f0467c6	0.51720846
29	0xbfdfaca0	-1.7474556
30	0xbfa05c50	-1.2528172
31	0x40096179	2.1465743
32	0x3fe26198	1.7686033
33	0x3ef9ad01	0.48764804
34	0xbf365ec7	-0.7123837
35	0x3efffdc3	0.49998292
36	0xbf6f3940	-0.9344673
37	0x3e08f877	0.13376032
38	0x3ff8df26	1.94431
39	0xbfab43bf	-1.338005
40	0x3fb779f5	1.4334093
41	0xc0119870	-2.274929
42	0x3f928726	1.1447494
43	0x3f90fd07	1.1327218
44	0x3f2e2708	0.68028307
45	0x3fc6cba9	1.5530902
46	0x3faec959	1.3655196
47	0xc024a131	-2.5723383
48	0x3f35ed97	0.7106566
49	0x3ec7ba36	0.39009255
50	0xbf0fd51a	-0.5618454
51	0x3fb9b233	1.4507507
52	0x3f84ba11	1.0369283
53	0x4006d068	2.10647
54	0x4030f855	2.765157
55	0x3f1b3e4d	0.6064194
56	0x3f80d2d7	1.0064343
57	0xbfceacb7	-1.6146458
58	0x3ec75201	0.38929752
59	0xbf8af1d1	-1.0855047
60	0x3fcb1cba	1.5868142
61	0x3fc5e2d7	1.5459851
62	0xbf91a8d2	-1.1379645
63	0xbdea8485	-0.11451057
64	0xbfb34823	-1.4006389
65	0xc0180c1d	-2.3757393
66	0x400a5e46	2.162004
67	0xc0108e75	-2.258695
68	0x3ea31b8d	0.31856957
69	0x3ff597b2	1.9186919
70	0x40286a41	2.6314852
71	0xc026d1cd	-2.6065552
72	0xbf1ef0c0	-0.62086105
73	0x3ebf3529	0.37345245
74	0x40375245	2.8643963
75	0x3f8582dd	1.0430561
76	0x3de0f25c	0.109837264
77	0x3fdb2070	1.7119274
78	0x3fbdad7d	1.481857
79	0x3effd884	0.49969876
80	0x400b4e4b	2.1766536
81	0x3f335365	0.70049125
82	0x3fa088a6	1.2541702
83	0xbfcc5fce	-1.5966737
84	0x3e7a4ef3	0.24444179
85	0x3ff0d1d2	1.8814032
86	0xc007aa20	-2.1197586
87	0x3dc3b6f4	0.0955638
88	0x3fbebe9d	1.490192
89	0x3fa086dd	1.2541157
90	0x3f14d4f3	0.58137435
91	0x3f9ef278	1.2417746
92	0x3edbb49e	0.42911237
93	0x3f324745	0.6964
94	0x3f4064e4	0.75153947
95	0x404deada	3.2174592
96	0x3f139e5b	0.57663506
97	0x3f8f14ef	1.1178263
98	0x3fba79fa	1.4568474
99	0xbfe179af	-1.761526
100	0x3f14052f	0.5782041
101	0x3fa45788	1.2839212
102	0x3f8fe986	1.1243141
103	0x401a764c	2.4134703
104	0xbe181859	-0.14853038
105	0x3fad8f64	1.3559384
106	0x3fe221b4	1.7666535
107	0x3f8343cd	1.0255066
108	0x3dcc6607	0.09980398
109	0x400fb312	2.2453046
110	0x3f983257	1.1890363
111	0x3ec8d2b2	0.39223248
112	0x3f5175a0	0.81820107
113	0xbfc20d87	-1.5160378
114	0x3ebf02db	0.37306866
115	0x3ec6c7b9	0.3882425
116	0x4006b48e	2.1047702
117	0x3f3ed000	0.7453613
118	0x3f76274f	0.9615373
119	0x3e4bb26b	0.1989228
120	0x3f2f16c2	0.683941
121	0x3e89ca79	0.26912287
122	0x3f273f40	0.65330887
123	0x3f84535c	1.0337939
124	0x3d6f2bd5	0.05839141
125	0x3f3b1f36	0.730945
126	0x3e695bd3	0.22788934
127	0x3f8db5be	1.1071088
128	0x3e10ba5e	0.14133593
129	0xbdb43162	-0.087984815
130	0xbd2b3d27	-0.041806366
131	0x3e621145	0.220769
132	0x3f767f21	0.96287733
133	0x3e365632	0.17806318
134	0xbdcb0c14	-0.09914413
135	0xbf14a65f	-0.5806636
136	0x3f96d813	1.1784691
137	0xbddfcc23	-0.10927608
138	0x3f3cc27d	0.73734266
139	0x3e707ce7	0.23485146
140	0xbed835f2	-0.42228657
141	0x3e705f26	0.23473796
142	0x3da9f31b	0.08298322
143	0xbe85bca6	-0.2612049
144	0xbd46567d	-0.048422325
145	0xbf63c2d5	-0.88969165
146	0x3ed276d7	0.41106293
147	0xbeb7a18e	-0.35865444
148	0x3e98ec45	0.2986776
149	0xbe981afd	-0.2970809
150	0x3e1fce88	0.15606129
151	0x3f2964a9	0.6616922
152	0xbe25361a	-0.1613392
153	0xbe9d30ce	-0.30701298
154	0x3e718404	0.23585516
155	0x3d029467	0.03187981
156	0x3e9194b8	0.28433776
157	0x3f89a2b8	1.0752783
158	0x3f884a72	1.0647719
159	0xbebeb475	-0.37247053
160	0x3de538cd	0.111924745
161	0x3eac7708	0.33684564
162	0x3f2ca43e	0.67438114
163	0xbedb6006	-0.42846698
164	0x3f2ff333	0.6873047
165	0x3e572ba2	0.21012738
166	0x3dec5cbc	0.11541125
167	0x3f4caf80	0.7995529
168	0x3d282274	0.041048482
169	0x3f934779	1.1506187
170	0x3dffa5f8	0.12482828
171	0xbd325d86	-0.043546222
172	0x3e84f749	0.25969914
173	0x3e05ac67	0.13054048
174	0x3c3370a9	0.010952153
175	0x3fb12bae	1.3841455
176	0x3ddcaac4	0.107747585
177	0x3ead2e69	0.3382447
178	0xbdcd234d	-0.10016499
179	0xbea297c7	-0.31756422
180	0x3e0d8131	0.13818814
181	0xbeec9868	-0.46210027
182	0xbd95666d	-0.07294927
183	0xbd6641aa	-0.056214966
184	0x3e0710e1	0.13190033
185	0x3f8f2933	1.1184448
186	0x3dc72425	0.09723691
187	0x3eb00dc9	0.34385517
188	0xbdb67d62	-0.089106336
189	0x3d0533c7	0.03252008
190	0x3f77de1a	0.96823275
191	0x3d58f3e5	0.05296697
192	0x3f7032a0	0.9382725
193	0x3f637619	0.8885208
194	0xbec73fd8	-0.38915896
195	0x3f09328f	0.5359277
196	0x3ea9297e	0.3303947
197	0xbe8dc550	-0.276896
198	0xbf185d85	-0.595177
199	0x3f95c01f	1.1699256
200	0x3f1208e1	0.570448
201	0x3e977ae9	0.2958596
202	0xbece3492	-0.40274483
203	0x3f1528b0	0.5826521
204	0x3ec6cb46	0.3882696
205	0x3dc8cea6	0.0980504
206	0xbe86e0e2	-0.26343447
207	0x3d4be8b3	0.049782466
208	0x3e146c04	0.1449433
209	0x3eabbb9f	0.3354158
210	0x3eb5ee66	0.35533446
211	0x3f6fb3a4	0.93633485
212	0xbd898164	-0.067141324
213	0xbc68da5f	-0.01421222
214	0x3f9da6ac	1.2316489
215	0x3f1c618b	0.6108634
216	0x3d47edd9	0.048810814
217	0x3ecec281	0.4038277
218	0xbed47300	-0.41493988
219	0xbe35a63d	-0.17739196
220	0x3d57abe7	0.052654173
221	0xbcf3dc0d	-0.029768014
222	0x3e26ed91	0.16301562
223	0xbf0b6d3e	-0.54463565
224	0x3ea6f2bd	0.3260707
225	0x3ed50ec6	0.41612834
226	0x3b1fc989	0.00243816
227	0x3f86cca1	1.0531198
228	0x3f062b49	0.524098
229	0xbe5e0a03	-0.21683507
230	0x3e58fe35	0.21190722
231	0xbeb048bd	-0.34430495
232	0x3ea46666	0.32109374
233	0xbef9ee98	-0.48814845
234	0xbe65ca4f	-0.22440456
235	0xba4d3658	-0.0007828227
236	0x3e9ae649	0.3025382
237	0x3d863eca	0.06554945
238	0xbe86fa18	-0.2636268
239	0x3e84b420	0.25918674
240	0x3d412175	0.047151048
241	0x3f574bf2	0.8410026
242	0xbe4152e5	-0.18879278
243	0x3e9510d2	0.29114395
244	0xbe424c42	-0.18974403
245	0x3e589170	0.2114923
246	0x3e717155	0.23578389
247	0xbf099f51	-0.5375872
248	0x3e21474e	0.15749857
249	0x3f0147ef	0.50500387
250	0xbe88b13d	-0.26697722
251	0x3daf5ebc	0.08562991
252	0x3e19a7a6	0.15005359
253	0xbdd1717e	-0.10226725
254	0x3d9641d9	0.07336778
255	0x3e944b96	0.28963917

seq.2.bias f4 [32]
0	0xbea51672	-0.32243687
1	0xc035c0c8	-2.8398914
2	0x40f76d9e	7.732131
3	0xbd3c42ce	-0.045962147
4	0x40b0b2a9	5.521809
5	0x40e82e74	7.2556705
6	0x40fdaacc	7.927099
7	0x40c303a0	6.0941925
8	0xc083be4c	-4.1169796
9	0xc08c0e1e	-4.3767233
10	0x4065095b	3.578696
11	0x3d583d58	0.052792877
12	0xbd8fce57	-0.07021778
13	0x4106b0b2	8.4181385
14	0x3cc7a6ab	0.024371466
15	0x40f97f7b	7.7968116
16	0xbaca57f0	-0.0015437584
17	0x4100a5af	8.04045
18	0x400beb47	2.1862352
19	0x4091e3b7	4.559047
20	0xc0d170d3	-6.5450225
21	0x4104335d	8.26254
22	0x40f933e5	7.787585
23	0x3e248dc7	0.16069709
24	0x40fb9708	7.8621864
25	0x40fe4d6c	7.946951
26	0x410ae532	8.680956
27	0x40f2a0ca	7.5821276
28	0x4100a870	8.041122
29	0x4104620e	8.273939
30	0x409b9b89	4.862736
31	0xbe779d91	-0.241812

seq.4.weight f4 [8, 32]
0	0x4042d588	3.044283
1	0xbedcb2b4	-0.4310509
2	0x3ffdd527	1.9830674
3	0x3e0b542e	0.13606331
4	0x3fc07d57	1.5038251
5	0x400cdb01	2.200867
6	0x40030a20	2.047493
7	0x4009e979	2.154875
8	0x3e83837a	0.25686246
9	0x3ede0849	0.43365696
10	0xbdaf80c9	-0.08569486
11	0x3dd7875d	0.10523865
12	0xbd051cad	-0.03249805
13	0x3fda99bc	1.7078166
14	0xbd5f260b	-0.05447964
15	0x3ff6cc99	1.9281188
16	0x3d3ed684	0.046591297
17	0x40a02d50	5.0055313
18	0xbf398532	-0.72468865
19	0x3df24fff	0.11831664
20	0xbeaa4f10	-0.33263445
21	0x40a3a4a1	5.1138463
22	0x4029c002	2.6523442
23	0xbdd62e9b	-0.10458108
24	0xbf947b96	-1.1600215
25	0x401c2800	2.4399414
26	0x3f1c86d6	0.61143243
27	0xbee80b9f	-0.45321366
28	0x3ff197e3	1.8874477
29	0x408e817b	4.4533057
30	0xc02b0100	-2.671936
31	0xbcb7d8a0	-0.022442162
32	0x3d83c3ea	0.06433852
33	0x3c4e9b09	0.012610205
34	0xbd803ae1	-0.0626123
35	0xbbfa5aee	-0.007640234
36	0x3d6bb2f1	0.0575437
37	0xbdd3d9a9	-0.1034425
38	0x3dc2b2cb	0.09506758
39	0xbe085ee7	-0.13317452
40	0x3da2a6b6	0.07941954
41	0xbceb19dc	-0.028698854
42	0xbdfa74a4	-0.12229279
43	0x3e11f55e	0.14253756
44	0x3be9dc63	0.007136868
45	0x3db0131b	0.08597394
46	0xbbf0baa7	-0.0073464694
47	0xbdab9bfc	-0.08379361
48	0xbd9816c6	-0.07426219
49	0xbbd9b506	-0.006643894
50	0x3e07a931	0.13248135
51	0xbd602844	-0.0547259
52	0x3d2a738d	0.041614104
53	0xbe12ef03	-0.14348988
54	0xbe512c4e	-0.20427057
55	0xbddf9590	-0.10917199
56	0xbd8158a9	-0.06315739
57	0xbdadbcce	-0.08483277
58	0xbe11f330	-0.14252925
59	0xbe3ba804	-0.18325812
60	0xbc1d6f8e	-0.009609116
61	0x3de74103	0.11291697
62	0xbce6a587	-0.028155101
63	0xbe340cd8	-0.17583025
64	0x40828bcf	4.0795665
65	0xbf947edd	-1.1601216
66	0x3fdde1c3	1.7334522
67	0xbcc260fb	-0.023727885
68	0x3e919ab4	0.28438342
69	0x40301d9c	2.7518072
70	0x3fa398e4	1.2781034
71	0x3f892b0f	1.0716265
72	0xbf8660ff	-1.0498351
73	0x3e9a8dca	0.301863
74	0xc01c6562	-2.443688
75	0xbe06880b	-0.13137834
76	0x3e1b42fd	0.15162273
77	0x3f71efcc	0.94506526
78	0xbc977f8d	-0.018493438
79	0x3fe48af9	1.7854911
80	0xbd9b8c73	-0.07595148
81	0x4036c98a	2.856051
82	0x3e5e896b	0.21732108
83	0xbe9fcdb8	-0.31211638
84	0x4013f7b8	2.3119946
85	0x405ff6fc	3.4994497
86	0x4019b0a0	2.4014053
87	0xbc5720ec	-0.013130408
88	0x3f69a9d9	0.9127479
89	0x402e7c7a	2.7263474
90	0xbe8a9456	-0.27066296
91	0x3f7f4746	0.9971813
92	0x3fbed039	1.4907295
93	0x405bf9bd	3.4371178
94	0x3f74e795	0.95665866
95	0xbd09245f	-0.03348195
96	0xbe7117f0	-0.23544288
97	0x3f29e746	0.6636852
98	0x3f6079b7	0.8768572
99	0xbdf0c304	-0.11755946
100	0xbf86b493	-1.0523857
101	0x3fabce22	1.3422282
102	0x3fbc046d	1.4688851
103	0x3f74273b	0.9537236
104	0xbfada29b	-1.3565248
105	0xc043cc77	-3.0593545
106	0x3f2108e4	0.6290419
107	0x3e043f50	0.12914777
108	0xbdddc6d9	-0.10828943
109	0x3fe7f213	1.812075
110	0xbe138298	-0.14405286
111	0x3f00c359	0.50298077
112	0x3ceb5d93	0.028731143
113	0x40521dc2	3.2830663
114	0x3fb3c375	1.4044024
115	0x3fe3c899	1.7795593
116	0xbe984a10	-0.29744005
117	0x4056028d	3.3439057
118	0x3fb2e16e	1.3975046
119	0x3d7b1d18	0.061307043
120	0x3f06321c	0.5242021
121	0x3f2a88ad	0.666148
122	0x3ff5a5a6	1.9191177
123	0xbecb7bae	-0.39742798
124	0x3fb19ae0	1.3875389
125	0x402ec33f	2.7306669
126	0xbd48280a	-0.04886631
127	0x3da2b076	0.079438135
128	0x3fb672ea	1.4253819
129	0xbec5a0d3	-0.38599262
130	0x3fbf165b	1.4928697
131	0xbd743fe3	-0.05963124
132	0x3f3a197e	0.7269515
133	0x40062a89	2.0963461
134	0x3ffb87f8	1.9650869
135	0x3fc43c9b	1.5330995
136	0xbf3cf12d	-0.73805505
137	0xbf66728a	-0.9001852
138	0xbe636aad	-0.22208662
139	0x3c4d0da8	0.012515463
140	0xbdf58a7b	-0.11989304
141	0x40049b49	2.0719779
142	0xbd97d285	-0.074132
143	0x3fb06a3e	1.3782423
144	0xbdd09b7a	-0.10185905
145	0x40b8dc12	5.776864
146	0x3d7ce17c	0.061738476
147	0x3f7f46dc	0.997175
148	0xbf64a9f1	-0.8932181
149	0x40be3ca5	5.944903
150	0x402b1856	2.6733603
151	0xbd45c9ff	-0.04828834
152	0x3ec50192	0.3847776
153	0x401ed02b	2.4814556
154	0x3fbd1401	1.477173
155	0x3ce29a43	0.027661448
156	0x3fdff5d9	1.7496902
157	0x40a7d3fd	5.2446275
158	0xbf8464b1	-1.0343229
159	0x3d872e75	0.06600658
160	0xc08039d5	-4.0070596
161	0x3ea2cc03	0.31796274
162	0x3f85e8ff	1.046173
163	0xbe18ab00	-0.14908981
164	0x3fceb68e	1.6149461
165	0x3df07250	0.117405534
166	0x3f3ff260	0.7497921
167	0x3edbb77e	0.4291343
168	0x3e8f5dcf	0.28001258
169	0x3c5144e1	0.01277277
170	0x3fd351a1	1.6509286
171	0x3e1e2f72	0.15447786
172	0x3dff5726	0.12467794
173	0x3ffbde82	1.9677279
174	0xbce3afa2	-0.02779371
175	0x3fbb7a16	1.4646633
176	0xbe1fcba7	-0.15605031
177	0x4090847f	4.516174
178	0x3f273aef	0.653243
179	0x3e3d4c3d	0.18486114
180	0xc03772bb	-2.8663776
181	0x409b803e	4.8594046
182	0x3f81b761	1.0134088
183	0xbe36d973	-0.17856388
184	0x40581202	3.376099
185	0x4010146d	2.2512467
186	0x3fd8ed97	1.6947507
187	0x402e2119	2.7207701
188	0x3fa439e8	1.2830172
189	0x407f37f3	3.9877899
190	0x4017668b	2.3656337
191	0xbdfa25e1	-0.12214256
192	0xbd8e9041	-0.06961108
193	0xbf05d880	-0.5228348
194	0x3fbda4cc	1.4815917
195	0xbcc7fb95	-0.024411956
196	0x3f8da097	1.1064633
197	0x3ff13681	1.8844758
198	0x3f4ed08f	0.80786985
199	0x3ed795a6	0.4210636
200	0xbf0b3c6b	-0.54389066
201	0xbd51e997	-0.05124816
202	0xbde5a1f6	-0.11212532
203	0xbdcb2a51	-0.099201806
204	0xbd687edf	-0.05676162
205	0x3ffe7299	1.9878722
206	0xbda3b492	-0.079934254
207	0x3fe265c7	1.768731
208	0x3be53a80	0.006995499
209	0x40a1243f	5.0356746
210	0x3f41136a	0.7542025
211	0xbd174db4	-0.036939338
212	0xbf8ff7d7	-1.124751
213	0x40b149fc	5.5402813
214	0x4008e84f	2.139179
215	0x3e2196f4	0.1578024
216	0x4071cda3	3.778176
217	0x40395584	2.8958445
218	0x3f9b52c3	1.2134632
219	0x40376c24	2.8659754
220	0x3fe752fa	1.8072197
221	0x40a262e0	5.0745697
222	0x40347339	2.8195326
223	0xbd88fee5	-0.06689242
224	0xbdfd717d	-0.12375162
225	0xbe345935	-0.17612155
226	0xbdae9d18	-0.08526057
227	0x3d03ccf9	0.0321779
228	0x3cde53e3	0.02713961
229	0x3d90c6fd	0.07069204
230	0x3df928e4	0.121660024
231	0xbca8bbf0	-0.020597428
232	0x3dfb3a00	0.12266922
233	0xbe3e8627	-0.18605863
234	0xbe304d66	-0.17217025
235	0x3d22f25d	0.039781917
236	0xbd9bb46c	-0.07602772
237	0x3ba0bdec	0.004905453
238	0x3d49fe26	0.04931464
239	0xbe6b2f56	-0.22967276
240	0xbdd4e015	-0.10394303
241	0xbde023b3	-0.10944309
242	0x3e00b83b	0.12570278
243	0xbe23584a	-0.15951648
244	0x3daa2175	0.08307163
245	0xbdb3857f	-0.08765697
246	0xbde81ec5	-0.11333994
247	0x3ce9c16b	0.028534612
248	0xbde67aac	-0.112538666
249	0x3da1caaf	0.07899987
250	0xbe28be22	-0.1647878
251	0xbc8f2068	-0.017471507
252	0xbe362a40	-0.17789555
253	0x3dc3cb30	0.09560239
254	0x3d688a17	0.056772318
255	0xbdeed05b	-0.116608344

seq.4.bias f4 [8]
0	0x40b950d7	5.791118
1	0xbd8db3f0	-0.06919086
2	0x3f6f32aa	0.9343668
3	0x4079e717	3.9047296
4	0x40ee7276	7.4514723
5	0x40f3e5ef	7.621818
6	0x40e04fe3	7.009752
7	0x3d76e2f5	0.060275037

seq.6.weight f4 [4, 8]
0	0x3f82ac82	1.0208895
1	0xbe270be2	-0.16313127
2	0x4044aa12	3.0728803
3	0x3ff79359	1.9341842
4	0x401b5c18	2.427496
5	0x3f783dd1	0.96969324
6	0x4026e81f	2.6079175
7	0x3e914ab3	0.28377303
8	0x4063693f	3.5532987
9	0x3c5ffc82	0.013671042
10	0x3fa39ad5	1.2781626
11	0x3fdc6bc0	1.7220383
12	0x405e6c69	3.4753668
13	0xbad3d80d	-0.0016162411
14	0x3f15c942	0.5851022
15	0xbd8ff76e	-0.07029615
16	0x40053635	2.0814335
17	0x3e35364d	0.17696495
18	0x4029b1ee	2.651485
19	0xbf4f26c5	-0.8091853
20	0x3fcee98f	1.6165026
21	0x3fae8a83	1.363602
22	0x40317909	2.7730124
23	0xbe70eca4	-0.23527771
24	0xbef8244a	-0.48465186
25	0xbe7128dd	-0.23550744
26	0xbfb4262d	-1.407415
27	0x3faeac72	1.3646376
28	0x3fa4741d	1.2847935
29	0x40790a77	3.8912637
30	0x40210fdb	2.5165927
31	0x3d92dd99	0.07171173

seq.6.bias f4 [4]
0	0x3ff21e3f	1.891548
1	0x40a375cc	5.1081295
2	0x407299b4	3.7906313
3	0x40d5a379	6.676205
