training/models/environment_traffic_lights/1639343183/checkpoints/ep00100.pt (torch, 28751 bytes, 8 tensors)

seq.0.weight f4 [128, 16]
3.310248 1.6156237 2.097746 -0.5406799 5.0804067 3.6563573 4.9386373 0.32507718
2.910228 1.0461887 1.6154553 1.0260547 4.7946053 4.159995 4.8662925 -0.18537197
4.77476 3.89912 3.9267502 0.82814 4.842556 3.0678322 3.369718 2.313819
4.3061357 2.7946632 3.4623768 1.782126 4.619712 3.614143 3.4786892 1.169185
4.8939104 3.6549504 4.000394 1.0171376 4.9152217 2.8581364 3.3784442 2.1472313
4.315298 2.8022647 3.5758574 2.9972887 4.530346 3.6013687 3.3979995 0.94337416
-2.1008425 -0.55599594 -0.5393375 0.347002 -0.34233794 0.38983086 0.22303168 -0.22442454
1.4144518 1.1338004 0.07096978 -0.2359431 -0.64003974 0.31846488 -0.11676867 0.09060243
5.4943476 4.440205 4.842729 -3.1394548 4.8566 3.4493263 4.014916 2.097281
5.0948086 3.4872046 4.789256 -10.591611 4.8617783 3.6547666 4.2101197 1.2913312
4.0177836 2.6993175 2.765675 1.384116 4.030525 3.189545 3.9993765 -6.670242
4.059277 2.123626 2.6638029 2.599529 4.1619434 3.5956855 4.9001336 -1.4654561
4.7185936 3.691474 3.9543068 0.6268297 4.9279633 2.7929635 3.1448846 3.8802745
4.2240334 2.7412636 3.5072763 1.1735109 4.6047006 3.2584796 3.1843586 -0.41102707
-0.47528252 0.26346236 -0.3150446 1.5187562 -1.5612311 -0.14360152 -0.44528136 1.7110379
-3.7460322 -1.8816636 -1.7295378 2.6877124 -1.3545703 -0.30653355 -0.43598947 1.7345754
-0.52386355 -0.540759 -0.7584983 -2.505085 -0.40670887 0.009428743 -0.21984474 -0.17200328
1.9234385 1.6245326 1.3050115 -8.571753 0.05403603 -0.33407083 -0.34441808 0.5492757
-1.7540708 -0.69015306 -0.61262196 1.3334198 -1.5871829 -0.44059014 -0.41845277 1.4865135
-1.134875 -0.16359155 -0.8851001 1.668966 -1.2336825 -0.3778738 -0.44615984 1.5623022
0.17577998 -0.38230515 -0.49901044 -3.400797 -0.07468715 0.024481202 -0.07367977 -0.376394
0.21865238 -0.5371125 -0.26364267 -7.919816 0.051247813 -0.09122678 -0.17892922 -0.010750765
4.843764 3.9604585 4.369478 0.84525687 5.0151644 3.0409975 3.139946 3.1822605
4.547844 2.8683038 3.5597887 1.7862372 4.708786 3.1728017 3.2455447 1.4580811
4.6098213 3.8309965 3.785196 1.1357877 4.8072443 3.0882752 3.3772416 2.9811592
4.2836843 2.6742098 3.3948052 3.3757055 4.5378623 3.396232 3.4381344 1.1409576
5.0506363 4.1076818 4.0828533 1.0718431 4.885306 3.0399017 3.3838072 1.5549648
4.7207775 3.0015807 3.3484957 2.3335207 4.467249 3.5963397 3.6539924 0.88375735
4.808911 3.615836 4.0644536 0.9144627 5.1844664 3.2356434 3.2085433 2.1551056
4.2592278 2.734731 3.5738723 2.3673546 4.8733225 3.2801971 3.5564294 1.0579904
4.681242 3.784762 4.053295 0.831146 4.863331 3.1158185 3.3162236 2.883919
4.286296 2.9759247 3.3770952 1.6022463 4.7037716 3.260948 3.5444121 0.87237334
00000000: 1adb 5340 c2cc ce3f 7841 0640 ff69 0abf
00000010: b192 a240 c201 6a40 5109 9e40 8470 a63e
00000020: 2d41 3a40 83e9 853f 3dc7 ce3f c355 833f
00000030: 686d 9940 ae1e 8540 abb8 9b40 26d2 3dbe
00000040: d5ca 9840 2f8b 7940 e04f 7b40 fc00 543f
00000050: 38f6 9a40 5d57 4440 76a9 5740 9c15 1440
00000060: ddcb 8940 c3db 3240 9597 5d40 b41c e43f
00000070: aed4 9340 1e4e 6740 d8a2 5e40 dba7 953f
00000080: ea9a 9c40 b5ea 6940 3a03 8040 9131 823f
00000090: 7f49 9d40 b5eb 3640 6e38 5840 3d6c 0940
000000a0: ec16 8a40 4e58 3340 d9da 6440 94d3 3f40
000000b0: 98f8 9040 d37c 6640 d378 5940 f880 713f
000000c0: 3474 06c0 c055 0ebf 0612 0abf 3faa b13e
000000d0: eb46 afbe e997 c73e 6b62 643e 8ccf 65be
000000e0: c20c b53f 5f20 913f 9b58 913d 119b 71be
000000f0: a5d9 23bf d40d a33e 6a24 efbd c48d b93d
00000100: b2d1 af40 2916 8e40 a3f7 9a40 d4ec 48c0
00000110: 4469 9b40 c3c1 5c40 317a 8040 da39 0640
00000120: ac08 a340 5c2e 5f40 9641 9940 3d77 29c1
00000130: b093 9b40 b2e7 6940 4db9 8640 574a a53f
00000140: af91 8040 9ec1 2c40 d200 3140 b72a b13f
00000150: 10fa 8040 8121 4c40 c9f5 7f40 9f72 d5c0
00000160: 99e5 8140 7de9 0740 bf7b 2a40 af5e 2640
00000170: a42e 8540 b61f 6640 e5cd 9c40 1194 bbbf
00000180: b8fe 9640 1c41 6c40 5d13 7d40 e977 203f
00000190: e0b1 9d40 eabf 3240 ca45 4940 6b56 7840
000001a0: 482b 8740 dd70 2f40 3777 6040 9b35 963f
000001b0: b559 9340 ee8a 5040 88cc 4b40 2472 d2be
000001c0: 3b58 f3be 8ae4 863e 874d a1be 9a66 c23f
000001d0: 6cd6 c7bf 470c 13be ebfb e3be 4a03 db3f
000001e0: febe 6fc0 5ada f0bf 7f61 ddbf 7b03 2c40
000001f0: 8f62 adbf f7f1 9cbe 033a dfbe 9106 de3f
00000200: ec1b 06bf 2f6f 0abf f22c 42bf 5053 20c0
00000210: 253c d0be 047b 1a3c fb1e 61be a121 30be
00000220: 3c33 f63f aff0 cf3f 9e0a a73f e625 09c1
00000230: e254 5d3d 550b abbe 9157 b0be 559d 0c3f
00000240: 6485 e0bf dfad 30bf cbd4 1cbf 80ad aa3f
00000250: cf28 cbbf 0895 e1be 713f d6be 1346 be3f
00000260: 9643 91bf 8b84 27be ec95 62bf aea0 d53f
00000270: 4fe9 9dbf ad78 c1be 106f e4be 85f9 c73f
00000280: abff 333e 80bd c3be 4c7e ffbe a8a6 59c0
00000290: 94f5 98bd cd8c c83c 6be5 96bd b7b6 c0be
000002a0: 69e6 5f3e 3480 09bf 2cfc 86be 226f fdc0
000002b0: 3ae9 513d 1bd5 babd 3939 37be fa23 30bc
000002c0: 1d00 9b40 2778 7d40 c4d2 8b40 c162 583f
000002d0: 3a7c a040 b49f 4240 e0f4 4840 28aa 4b40
000002e0: f087 9140 4a92 3740 94d3 6340 6ca3 e43f
000002f0: 60ae 9640 2f0f 4b40 01b7 4f40 67a2 ba3f
00000300: a883 9340 0c2f 7540 a740 7240 7e61 913f
00000310: f2d4 9940 4da6 4540 ba24 5840 50cb 3e40
00000320: f113 8940 4126 2b40 7d44 5940 8f0b 5840
00000330: 2b36 9140 dd5b 5940 650a 5c40 e60a 923f
00000340: d09e a140 2172 8340 bca6 8240 2832 893f
00000350: 6d54 9c40 c08d 4240 4c90 5840 1609 c73f
00000360: 9c10 9740 e619 4040 c14d 5640 6758 1540
00000370: b4f3 8e40 6e2a 6640 03db 6940 ec3d 623f
00000380: 99e2 9940 db69 6740 0110 8240 3a1a 6a3f
00000390: 26e7 a540 c814 4f40 c658 4d40 40ed 0940
000003a0: 984b 8840 d505 2f40 53ba 6440 bd82 1740
000003b0: 42f2 9b40 c0ee 5140 8a9c 6340 3b6c 873f
000003c0: bccc 9540 8a39 7240 98b4 8140 fcc5 543f
000003d0: 68a0 9b40 9269 4740 023d 5440 2192 3840
000003e0: 5629 8940 8d75 3e40 5422 5840 6816 cd3f
000003f0: 4c85 9640 5fb3 5040 a6d7 6240 dc53 5f3f

seq.0.bias f4 [128]
11.391737 43.04245 42.565395 -25.844595 20.160389 4.564403 42.342697 -24.174187
-17.973816 -28.559757 -14.541115 43.327686 41.916225 42.34966 43.27217 43.250416
-22.10589 42.27757 42.299065 42.89391 43.232826 43.68434 18.405067 -16.699306
42.87306 42.410034 6.643438 42.775257 1.6084367 -19.044163 -16.520285 42.33013
42.16245 2.8352609 -17.593145 -23.110287 -17.734552 43.16438 41.862034 -16.036623
-28.591278 -15.816524 43.077957 42.951736 1.8127803 -24.344543 -4.8509 -15.505233
43.146526 42.420586 43.1394 42.355347 42.745415 42.761154 13.303531 43.157253
42.88566 -13.813191 -20.01136 43.524612 42.397823 42.867996 -12.457718 43.393917
-15.78842 24.630306 42.773323 32.769894 43.160355 42.571457 41.581173 -5.270777
-17.776617 43.23393 41.022816 -27.27582 43.325615 42.621597 42.75095 -20.259352
42.475018 42.9125 2.6998312 44.21462 43.23628 42.548176 -18.271955 43.222378
42.546505 40.23454 13.410781 42.935246 2.9796073 26.002857 42.95949 18.588007
42.8701 42.490208 42.99858 -18.445911 42.37575 43.037083 42.562634 41.923836
43.18402 40.590412 41.538803 42.915657 43.178387 -1.0639246 42.81058 -21.636492
43.13663 -19.458979 9.711391 43.026627 42.193943 -26.48537 42.23342 16.690224
-26.72176 43.355988 42.429176 42.986538 -23.433743 43.160736 43.191906 -19.582306
00000000: 8e44 3641 782b 2c42 f742 2a42 bbc1 cec1
00000010: 7a48 a141 970f 9240 ec5e 2942 bc64 c1c1
00000020: 60ca 8fc1 627a e4c1 68a8 68c1 8d4f 2d42
00000030: 37aa 2742 0d66 2942 b416 2d42 6d00 2d42
00000040: ddd8 b0c1 3b1c 2942 3e32 2942 5d93 2b42
00000050: 6aee 2c42 c4bc 2e42 943d 9341 2e98 85c1
00000060: 037e 2b42 e0a3 2942 0b97 d440 dd19 2b42
00000070: 41e1 cd3f 725a 98c1 8b29 84c1 0e52 2942
00000080: 59a6 2842 ea74 3540 c3be 8cc1 dee1 b8c1
00000090: 5de0 8dc1 53a8 2c42 b972 2742 014b 80c1
000000a0: f0ba e4c1 7b10 7dc1 d44f 2c42 94ce 2b42
000000b0: 2f09 e83f a0c1 c2c1 933a 9bc0 6f15 78c1
000000c0: 0b96 2c42 aeae 2942 bf8e 2c42 e06b 2942
000000d0: 4efb 2a42 6c0b 2b42 43db 5441 07a1 2c42
000000e0: ea8a 2b42 d502 5dc1 4417 a0c1 3419 2e42
000000f0: 5f97 2942 d478 2b42 d052 47c1 5f93 2d42
00000100: 5e9d 7cc1 de0a c541 e217 2b42 5f14 0342
00000110: 34a4 2c42 2c49 2a42 1f53 2642 35aa a8c0
00000120: 8336 8ec1 8bef 2c42 5d17 2442 e134 dac1
00000130: 6e4d 2d42 847c 2a42 f900 2b42 2713 a2c1
00000140: 6be6 2942 66a6 2b42 09ca 2c40 c5db 3042
00000150: f3f1 2c42 5531 2a42 f72c 92c1 b7e3 2c42
00000160: 9f2f 2a42 2bf0 2042 8f92 5641 b1bd 2b42
00000170: e3b1 3e40 da05 d041 85d6 2b42 3db4 9441
00000180: fb7a 2b42 f9f5 2942 8cfe 2b42 3a91 93c1
00000190: c580 2942 f925 2c42 2340 2a42 02b2 2742
000001a0: 70bc 2c42 955c 2242 bc27 2642 a2a9 2b42
000001b0: abb6 2c42 ae2e 88bf 093e 2b42 8917 adc1
000001c0: e98b 2c42 fdab 9bc1 dc61 1b41 441b 2c42
000001d0: 99c6 2842 0ae2 d3c1 06ef 2842 9485 8541
000001e0: 2ac6 d5c1 886c 2d42 7ab7 2942 37f2 2b42
000001f0: 4e78 bbc1 98a4 2c42 83c4 2c42 90a8 9cc1

seq.2.weight f4 [32, 128]
7.7832117 5.9881287 7.330006 -0.9621862 3.6653233 8.403217 4.569137 -1.3807231
-4.93166 0.6042396 -1.9946456 4.5317864 8.3614645 5.350864 6.746462 5.617023
-3.6728265 9.517235 5.226538 7.963782 4.609136 6.675714 5.8712106 -2.1241543
7.605603 8.063215 7.4666104 5.8846765 4.781347 -4.800058 -3.6591895 7.985437
6.6244736 5.6136575 -4.261851 -2.0763154 -2.6959293 5.453539 6.677104 -3.7235923
-0.70660836 -5.225649 5.9797235 6.6080265 5.687769 0.121376514 5.467284 -3.920461
5.275108 5.2767024 3.7366738 7.0301967 5.9111495 8.130724 8.225947 5.926098
5.6888824 -2.7166033 -0.7293872 2.0952203 6.493179 7.458993 -3.3507578 4.9385467
-3.5540202 2.6155558 8.330116 1.4463831 5.073625 8.165641 8.820226 -0.68514824
-4.2879333 5.671771 9.506658 -1.9844005 5.1947846 6.8129325 7.3541913 -2.5003023
7.7583055 5.0255394 6.441498 1.0525645 5.623487 6.9501247 -4.9117064 4.203158
6.81328 5.4618397 8.553317 6.6592402 2.9169455 6.525702 5.7047777 8.506905
4.9701085 5.4389257 6.977126 -4.512809 4.8160243 7.135266 5.606812 7.704206
4.211359 6.727258 8.004733 6.206418 4.0371585 7.669752 6.7824335 -1.1823368
6.3528814 -4.2927804 3.331672 4.69652 8.619787 -1.4709266 5.0486407 5.215167
-1.488522 4.8696995 6.4845333 6.860206 -2.9612443 6.2984905 4.7669644 1.5546974
1.857596 2.880614 2.9780648 -0.9498355 8.202825 7.5413427 2.4062502 -4.5300155
2.2065735 -2.938885 3.8005524 4.036618 1.3591226 4.4320297 2.825059 2.5791821
-3.4442933 0.23031275 4.51829 1.9188467 4.6934037 1.2992353 6.326364 3.2774675
1.9649382 2.055397 8.938514 3.4482434 8.713007 2.3303547 2.5568516 1.3740191
3.7972093 9.504551 2.143215 -3.5091417 3.0132096 3.4869676 3.882028 2.0494943
-2.4626632 2.2980611 3.7698178 2.7066572 9.091408 -1.790326 4.395043 4.289815
4.0450664 3.694353 1.9173774 1.4505385 3.5329678 1.4493848 2.366714 2.9081898
3.9284165 4.3456297 0.24124798 3.8717675 3.1465397 2.750501 4.405212 3.1083868
2.2795792 6.273176 1.2101039 4.079274 4.1043863 1.401893 0.6768782 6.998522
2.0782337 3.5386329 0.29837307 -0.520937 3.8763738 3.4005787 2.1826167 -2.4837294
3.063525 4.642663 9.456638 6.415714 2.7858062 3.385104 2.3056047 5.1850567
3.0770874 6.4767566 -3.4056356 2.6787767 6.5094767 0.70973915 3.7383833 0.28938368
4.676282 4.8109193 2.7884753 2.1443615 5.789105 1.9802294 4.426956 2.1785662
4.5445185 0.59831256 1.2372667 2.3231037 4.555659 1.9195467 2.6124125 0.9750195
3.0166745 1.6943951 3.3235316 4.710926 0.7221521 -0.5881741 5.0022683 -0.11647142
-1.44174 4.2090006 2.2998261 2.6598709 -2.755918 2.7315602 3.6287675 2.4412699
00000000: 1210 f940 c09e bf40 698f ea40 d651 76bf
00000010: a894 6a40 9473 0641 5f36 9240 89bb b0bf
00000020: 29d0 9dc0 72af 1a3f 8c50 ffbf 6504 9140
00000030: 8fc8 0541 473a ab40 04e3 d740 a7be b340
00000040: 970f 6bc0 9846 1841 cd3f a740 4dd7 fe40
00000050: 0b7e 9340 739f d540 f5e0 bb40 25f2 07c0
00000060: 1a61 f340 ee02 0141 79ee ee40 454f bc40
00000070: cb00 9940 139a 99c0 2930 6ac0 b388 ff40
00000080: b0fb d340 15a3 b340 1561 88c0 5ae2 04c0
00000090: 1b8a 2cc0 6483 ae40 d6aa d540 564f 6ec0
000000a0: 49e4 34bf 8438 a7c0 e559 bf40 f474 d340
000000b0: 3402 b640 4094 f83d fef3 ae40 d5e8 7ac0
000000c0: afcd a840 bfda a840 aa25 6f40 5ff7 e040
000000d0: 2328 bd40 7217 0241 7b9d 0341 98a2 bd40
000000e0: 530b b640 d4dc 2dc0 1fb9 3abf 1718 0640
000000f0: 1fc8 cf40 12b0 ee40 d172 56c0 9308 9e40
00000100: 1175 63c0 4465 2740 2848 0541 1523 b93f
00000110: 235b a240 77a6 0241 a51f 0d41 e065 2fbf
00000120: c036 89c0 267f b540 451b 1841 d600 febf
00000130: ad3b a640 8b03 da40 8955 eb40 f404 20c0
00000140: 0a44 f840 38d1 a040 c020 ce40 6fba 863f
00000150: 9bf3 b340 6c67 de40 b32c 9dc0 4580 8640
00000160: 6406 da40 64c7 ae40 63da 0841 7f18 d540
00000170: 3caf 3a40 8dd2 d040 8a8d b640 481c 0841
00000180: 210b 9f40 ae0b ae40 9e44 df40 ee68 90c0
00000190: df1c 9a40 1954 e440 016b b340 db88 f640
000001a0: 74c3 8640 b345 d740 6313 0041 fa9a c640
000001b0: 6730 8140 9c6e f540 b209 d940 d056 97bf
000001c0: ce4a cb40 755e 89c0 1d3a 5540 e449 9640
000001d0: a6ea 0941 5347 bcbf 778e a140 a6e2 a640
000001e0: e487 bebf 94d4 9b40 4c81 cf40 cf86 db40
000001f0: 0785 3dc0 3c8d c940 f98a 9840 5300 c73f
00000200: b5c5 ed3f fb5b 3840 9d98 3e40 6b28 73bf
00000210: c53e 0341 ae52 f140 0100 1a40 e3f5 90c0
00000220: 8038 0d40 b116 3cc0 403c 7340 fa2b 8140
00000230: bbf7 ad3f 30d3 8d40 c4cd 3440 5211 2540
00000240: 4d6f 5cc0 1bd7 6b3e d595 9040 c59c f53f
00000250: 5d30 9640 584d a63f 9371 ca40 07c2 5140
00000260: 1883 fb3f a08b 0340 2704 0f41 05b0 5c40
00000270: 7a68 0b41 8824 1540 75a3 2340 dcdf af3f
00000280: 7a05 7340 a412 1841 6f2a 0940 c795 60c0
00000290: 6dd8 4040 7a2a 5f40 2673 7840 ea2a 0340
000002a0: 469c 1dc0 6f13 1340 b244 7140 df39 2d40
000002b0: 6876 1141 6729 e5bf 31a4 8c40 2a46 8940
000002c0: 2f71 8140 4870 6c40 9f6c f53f 3fab b93f
000002d0: 251c 6240 7185 b93f 3e78 1740 c81f 3a40
000002e0: 2d6b 7b40 660f 8b40 b609 773e 0acb 7740
000002f0: e860 4940 3508 3040 7ff7 8c40 cfef 4640
00000300: a0e4 1140 dcbd c840 afe4 9a3f 6a89 8240
00000310: 2257 8340 3b71 b33f e447 2d3f e4f3 df40
00000320: c801 0540 f678 6240 5bc4 983e 215c 05bf
00000330: 8216 7840 15a3 5940 feaf 0b40 6cf5 1ec0
00000340: cb10 4440 b290 9440 644e 1741 874d cd40
00000350: a64a 3240 8ba5 5840 078f 1340 fceb a540
00000360: 00ef 4440 9741 cf40 eff5 59c0 1471 2b40
00000370: a24d d040 77b1 353f ac41 6f40 192a 943e
00000380: 1aa4 9540 0df3 9940 6176 3240 383d 0940
00000390: 5940 b940 2878 fd3f a0a9 8d40 a16d 0b40
000003a0: b26c 9140 032b 193f c15e 9e3f bbad 1440
000003b0: f5c7 9140 b5b3 f53f c431 2740 e19a 793f
000003c0: 3211 4140 f0e1 d83f beb4 5440 e8bf 9640
000003d0: f6de 383f 9492 16bf 9512 a040 9188 eebd
000003e0: f08a b8bf 22b0 8640 5a30 1340 533b 2a40
000003f0: f660 30c0 e2d1 2e40 ba3d 6840 c43d 1c40

seq.2.bias f4 [32]
27.531548 8.870082 40.36837 -0.044503625 38.94004 39.381424 40.531765 38.60459
-12.380705 -23.974659 26.104355 0.052792877 -0.07021778 41.423435 0.024371466 40.541615
-0.0015437584 40.64689 35.936428 38.208763 -2.32262 40.82766 40.178917 0.16069709
41.08334 40.550587 42.150887 40.897526 40.817303 40.81366 37.00224 -0.241812
00000000: 9c40 dc41 dbeb 0d41 3679 2142 6f49 36bd
00000010: 9ac2 1b42 9486 1d42 8720 2242 1a6b 1a42
00000020: 5e17 46c1 1acc bfc1 b8d5 d041 583d 583d
00000030: 57ce 8fbd 99b1 2542 aba6 c73c 9d2a 2242
00000040: f057 caba 6a96 2242 e7be 0f42 c6d5 1842
00000050: cea5 14c0 864f 2342 36b7 2042 c78d 243e
00000060: 5755 2442 cd33 2242 829a 2842 1197 2342
00000070: eb44 2342 3041 2342 4b02 1442 919d 77be

seq.4.weight f4 [8, 32]
9.366023 2.56658 8.603505 0.08931259 8.174755 8.908493 8.40266 8.629834
-1.102766 1.0010431 2.6441908 0.10523865 -0.03249805 7.8923354 -0.05447964 8.552968
0.046591297 12.248491 2.6192951 4.470884 2.9304125 12.27795 9.418061 -0.10458108
2.746885 9.234732 5.548909 3.6975896 8.33959 11.53913 -0.7370951 -0.022442162
0.06433852 0.012610205 -0.0626123 -0.007640234 0.0575437 -0.1034425 0.09506758 -0.13317452
0.07941954 -0.028698854 -0.12229279 0.14253756 0.007136868 0.08597394 -0.0073464694 -0.08379361
-0.07426219 -0.006643894 0.13248135 -0.0547259 0.041614104 -0.14348988 -0.20427057 -0.10917199
-0.06315739 -0.08483277 -0.14252925 -0.18325812 -0.009609116 0.11291697 -0.028155101 -0.17583025
10.470962 0.03750008 8.248142 -0.07297865 6.7133293 9.485411 7.2511396 7.132116
-4.023897 1.9494565 -1.1312809 -0.13137834 0.15162273 6.835747 -0.018493438 8.406966
-0.07595148 9.860221 3.4135191 3.0775309 5.5776625 10.490023 9.045151 -0.013130408
5.963289 9.608253 4.080915 6.3017325 7.7890205 10.417848 4.7122498 -0.03348195
4.846932 8.324067 7.4157085 -0.1204827 5.3965077 7.6470375 8.180514 7.491149
-0.2539977 -9.066858 7.012222 0.12914777 -0.10828943 8.939226 -0.14405286 6.982784
0.028731143 10.770918 7.8488374 8.48971 0.9575523 10.754147 8.045293 0.061307043
6.9627776 7.251349 8.984749 5.6829386 8.176757 9.920735 5.320436 0.079438135
7.628541 4.6448226 8.683611 -0.07544143 8.143294 9.215081 8.911987 8.460663
-1.4370253 -3.1354558 4.2501264 0.012515463 -0.11989304 9.261054 -0.074132 8.634198
-0.10185905 13.852405 5.289646 6.5734787 1.5004228 13.953167 9.976506 -0.04828834
6.743016 9.9442005 7.824653 6.3336396 8.943225 13.114382 3.6831663 0.06600658
-0.2989943 5.3711166 7.188173 -0.1371614 9.092012 5.7076163 6.4331126 5.84135
-0.06507989 -1.9457419 6.854515 0.15447786 0.12467794 8.868928 -0.02779371 8.008441
-0.15605031 11.815162 7.248097 5.5483766 -2.0313773 12.156371 7.0107236 -0.17856388
12.173282 9.053223 8.4075 11.345317 7.7259274 11.098288 10.548455 -0.12214256
5.5244107 3.0769846 8.651778 -0.022658952 9.205408 8.891833 7.1983113 6.7059684
-2.5022335 -0.6066214 3.6537344 -0.099201806 -0.05676162 9.172969 -0.079934254 9.317488
0.006995499 13.264718 6.4167295 4.681644 0.74403834 13.769767 9.299122 0.1578024
12.349327 10.812601 7.414107 11.424889 8.983901 13.1992235 10.3221855 -0.06689242
-0.12375162 -0.17612155 -0.08526057 0.0321779 0.02713961 0.07069204 0.121660024 -0.020597428
0.12266922 -0.18605863 -0.17217025 0.039781917 -0.07602772 0.004905453 0.04931464 -0.22967276
-0.10394303 -0.10944309 0.12570278 -0.15951648 0.08307163 -0.08765697 -0.11333994 0.028534612
-0.112538666 0.07899987 -0.1647878 -0.017471507 -0.17789555 0.09560239 0.056772318 -0.116608344
00000000: 3bdb 1541 d942 2440 f5a7 0941 85e9 b63d
00000010: cccb 0241 3089 0e41 4c71 0641 cd13 0a41
00000020: 7027 8dbf 2e22 803f 6c3a 2940 5d87 d73d
00000030: ad1c 05bd 038e fc40 0b26 5fbd f5d8 0841
00000040: 84d6 3e3d d2f9 4341 88a2 2740 7b11 8f40
00000050: e18b 3b40 7c72 4441 61b0 1641 9b2e d6bd
00000060: f7cc 2f40 76c1 1341 aa90 b140 4fa5 6c40
00000070: f66e 0541 47a0 3841 44b2 3cbf a0d8 b7bc
00000080: eac3 833d 099b 4e3c e13a 80bd ee5a fabb
00000090: f1b2 6b3d a9d9 d3bd cbb2 c23d e75e 08be
000000a0: b6a6 a23d dc19 ebbc a474 fabd 5ef5 113e
000000b0: 63dc e93b 1b13 b03d a7ba f0bb fc9b abbd
000000c0: c616 98bd 06b5 d9bb 31a9 073e 4428 60bd
000000d0: 8d73 2a3d 03ef 12be 4e2c 51be 9095 dfbd
000000e0: a958 81bd cebc adbd 30f3 11be 04a8 3bbe
000000f0: 8e6f 1dbc 0341 e73d 87a5 e6bc d80c 34be
00000100: 0f89 2741 af99 193d 64f8 0341 d575 95bd
00000110: 98d3 d640 3ec4 1741 5609 e840 4b3a e440
00000120: c4c3 80c0 ca87 f93f d0cd 90bf 0b88 06be
00000130: fd42 1b3e 70be da40 8d7f 97bc ef82 0641
00000140: 738c 9bbd 77c3 1d41 1977 5a40 44f6 4440
00000150: 367c b240 22d7 2741 f0b8 1041 ec20 57bc
00000160: 43d3 be40 67bb 1941 db96 8240 cba7 c940
00000170: a83f f940 81af 2641 c0ca 9640 5f24 09bd
00000180: 111a 9b40 612f 0541 7c4d ed40 a2bf f6bd
00000190: 31b0 ac40 88b4 f440 63e3 0241 7eb7 ef40
000001a0: fd0b 82be da11 11c1 1f64 e040 503f 043e
000001b0: d9c6 ddbd 1207 0f41 9882 13be f772 df40
000001c0: 935d eb3c ae55 2c41 ad29 fb40 dad5 0741
000001d0: 2622 753f fc10 2c41 85b9 0041 181d 7b3d
000001e0: 13cf de40 0d0b e840 88c1 0f41 a2da b540
000001f0: ffd3 0241 55bb 1e41 0341 aa40 76b0 a23d
00000200: 021d f440 63a2 9440 12f0 0a41 0981 9abd
00000210: ef4a 0241 f970 1341 8097 0e41 e05e 0741
00000220: 72f0 b7bf 4fab 48c0 0901 8840 a80d 4d3c
00000230: 7b8a f5bd 472d 1441 85d2 97bd ad25 0a41
00000240: 7a9b d0bd 73a3 5d41 c844 a940 f059 d240
00000250: db0d c03f 2c40 5f41 c59f 1f41 ffc9 45bd
00000260: c9c6 d740 721b 1f41 8f63 fa40 2dad ca40
00000270: 7317 0f41 82d4 5141 ffb8 6b40 752e 873d
00000280: c815 99be 30e0 ab40 8305 e640 0a74 0cbe
00000290: e278 1141 cba4 b640 0fdc cd40 57ec ba40
000002a0: 9b48 85bd 120e f9bf 3058 db40 722f 1e3e
000002b0: 2657 ff3d 21e7 0d41 a2af e3bc 9322 0041
000002c0: a7cb 1fbe e70a 3d41 69f0 e740 4d8c b140
000002d0: 1602 02c0 7f80 4241 d957 e040 73d9 36be
000002e0: c3c5 4241 00da 1041 1f85 0641 6b86 3541
000002f0: cc3a f740 9692 3141 79c6 2841 e125 fabd
00000300: f9c7 b040 51ed 4440 af6d 0a41 449f b9bc
00000310: 5a49 1341 f344 0e41 9158 e640 4b97 d640
00000320: 9824 20c0 8a4b 1bbf c9d6 6940 512a cbbd
00000330: df7e 68bd 7bc4 1241 92b4 a3bd 6e14 1541
00000340: 803a e53b 493c 5441 d955 cd40 07d0 9540
00000350: 4c79 3e3f f750 5c41 34c9 1441 f496 213e
00000360: d896 4541 6a00 2d41 5d40 ed40 58cc 3641
00000370: 0fbe 0f41 0530 5341 ac27 2541 e5fe 88bd
00000380: 7d71 fdbd 3559 34be 189d aebd f9cc 033d
00000390: e353 de3c fdc6 903d e428 f93d f0bb a8bc
000003a0: 003a fb3d 2786 3ebe 664d 30be 5df2 223d
000003b0: 6cb4 9bbd ecbd a03b 26fe 493d 562f 6bbe
000003c0: 15e0 d4bd b323 e0bd 3bb8 003e 4a58 23be
000003d0: 7521 aa3d 7f85 b3bd c51e e8bd 6bc1 e93c
000003e0: ac7a e6bd afca a13d 22be 28be 6820 8fbc
000003f0: 402a 36be 30cb c33d 178a 683d 5bd0 eebd

seq.4.bias f4 [8]
33.481956 -0.06919086 25.3599 35.92699 38.697643 38.781338 38.665165 0.060275037
00000000: 86ed 0542 f0b3 8dbd 13e1 ca41 3db5 0f42
00000010: 63ca 1a42 1720 1b42 21a9 1a42 f5e2 763d

seq.6.weight f4 [4, 8]
4.6839433 -0.16313127 6.9833636 5.68365 6.333746 4.757444 6.6706514 0.28377303
8.591052 0.013671042 5.5391207 6.742305 8.409199 3.6410444 4.569723 -0.07029615
6.6568933 0.17696495 8.181783 2.0470192 5.946303 4.950169 7.6192317 -0.23527771
2.851131 -0.23550744 1.6958805 6.768094 5.690095 10.974271 8.053064 0.07171173
00000000: dde2 9540 e20b 27be b777 df40 76e0 b540
00000010: 0cae ca40 fb3c 9840 fa75 d540 b34a 913e
00000020: f374 0941 82fc 5f3c 7a40 b140 f6c0 d740
00000030: 148c 0641 df06 6940 2c3b 9240 6ef7 8fbd
00000040: 4505 d540 4d36 353e 95e8 0241 5d02 0340
00000050: 1d48 be40 c967 9e40 bfd0 f340 a4ec 70be
00000060: ee78 3640 dd28 71be 9d12 d93f 3a94 d840
00000070: 4215 b640 9d96 2f41 5ad9 0041 99dd 923d

seq.6.bias f4 [4]
14.883134 26.196363 12.287218 31.769075
00000000: 5121 6e41 2792 d141 7298 4441 1127 fe41
