training/models/environment_trafic_lights/1638899442/checkpoints/ep00025.pt (torch, 28751 bytes, 8 tensors)

seq.0.weight f4 [128, 16]
0	0x3e0a47aa	0.135039
1	0x3e0a8d53	0.13530473
2	0x3e9f8077	0.31152698
3	0xbe00fccb	-0.12596433
4	0xbe2d8cfa	-0.1694831
5	0xbdcdd30f	-0.10050022
6	0xbd5789b2	-0.05262155
7	0xbe2e1295	-0.16999276
8	0x3e499d32	0.19688872
9	0xbc4cd277	-0.012501351
10	0xbd37d691	-0.04488236
11	0xbd5d3869	-0.054008875
12	0x3e30a18c	0.17249125
13	0x3de4493b	0.1114678
14	0xbe3651b3	-0.17804603
15	0xbdc49b8e	-0.09599982
16	0xbd552a10	-0.052042067
17	0x3d798d1f	0.0609256
18	0xbdfcc2b2	-0.12341823
19	0x3d6d7411	0.057972018
20	0xbec4bf1f	-0.38427064
21	0x3e7e1652	0.24813202
22	0x3e0c118b	0.13678567
23	0xbd4fb9db	-0.050714355
24	0xbde00404	-0.10938266
25	0x3e18b9f7	0.1491469
26	0x3e1b3b83	0.1515942
27	0x3e1e5843	0.15463357
28	0xbe397e4c	-0.18114585
29	0x3dc5896c	0.09645352
30	0x3c73535d	0.014851418
31	0x3d0c74bb	0.03429101
32	0xbe7cc120	-0.24683046
33	0x3e4e15b4	0.20125467
34	0x3e82c559	0.2554119
35	0xbd5dacd2	-0.054119892
36	0x3a9b9d16	0.0011872377
37	0xbdfa20b5	-0.122132696
38	0x3dc89e63	0.09795835
39	0x3cfee50d	0.03111508
40	0x3e64827c	0.22315401
41	0xbd41ec67	-0.04734459
42	0x3e3cb82f	0.18429635
43	0xbdc77577	-0.097392015
44	0xbdd89b4b	-0.10576495
45	0xbe134d7e	-0.1438503
46	0x3e2d56fd	0.16927715
47	0xbd83e226	-0.06439619
48	0xbd65dc76	-0.05611845
49	0xbce0e5c4	-0.02745331
50	0x3e27f93e	0.16403672
51	0x3df13675	0.11777965
52	0x3ddef3e9	0.10886366
53	0xbe20ea8d	-0.15714474
54	0x3de6fa78	0.11278242
55	0x3e42ed69	0.19035877
56	0x3c9a433e	0.018830892
57	0xbe18ca55	-0.14920934
58	0xbd1a4f17	-0.037673082
59	0x3e0e0c3c	0.13871855
60	0xbe23ca4a	-0.15995136
61	0x3e4d2e49	0.20037188
62	0xbe0f2878	-0.13980281
63	0xbda933f9	-0.08261866
64	0x3c8fd097	0.017555518
65	0x3e5b2437	0.21400534
66	0x3e74ce3a	0.23906794
67	0xbded7c30	-0.115959525
68	0xbde9f0fb	-0.114229165
69	0x3e033113	0.12811689
70	0xbd6177a0	-0.055045724
71	0x3dce8808	0.1008454
72	0x3e217b15	0.15769608
73	0x3e6c4da4	0.23076493
74	0x3d9bdd54	0.07610574
75	0x3d58b6ae	0.052908592
76	0xbe0f9d51	-0.14024855
77	0x3da253b0	0.079261184
78	0x3e1688e4	0.14700657
79	0xbe3a790e	-0.18210241
80	0x3e0a8f60	0.13531256
81	0x3d12e4ac	0.03586261
82	0x3e51acc2	0.20476058
83	0xbbba943d	-0.005693941
84	0x3e2315ac	0.15926236
85	0xbd435d1d	-0.04769622
86	0x3deb9995	0.11503903
87	0xbda6ca67	-0.08144074
88	0x3e65ee8e	0.22454283
89	0x3e053ec8	0.1301223
90	0x3e484d61	0.19560768
91	0x3d235597	0.039876547
92	0x3e700a75	0.23441489
93	0x3d1cf5ee	0.038320474
94	0xbdaea2f1	-0.08527172
95	0xbde867d8	-0.113479316
96	0x3e97910e	0.29602855
97	0x3e83aa76	0.2571599
98	0xbd812b50	-0.06307089
99	0x3cc24359	0.023713754
100	0x3d8d2474	0.068917185
101	0xbde260f2	-0.11053647
102	0xbc62ebcd	-0.013850165
103	0xbe1f08be	-0.15530679
104	0xbe206991	-0.1566527
105	0xbd9159b8	-0.070971906
106	0xbde34539	-0.110971875
107	0xbda4d24b	-0.08047923
108	0xbddf4111	-0.10901082
109	0x3e10a60a	0.14125839
110	0x3e2126af	0.15737413
111	0xbdff135d	-0.12454865
112	0x3c447a77	0.0119920885
113	0xbdc466af	-0.09589898
114	0xbdedf71d	-0.11619399
115	0x3cc8a588	0.024492994
116	0x3ccdc34e	0.025117543
117	0x3e1003dd	0.14063974
118	0x3e54af41	0.20769979
119	0xbe6afad8	-0.22947252
120	0x3d345607	0.044027355
121	0x3e12ccef	0.14335988
122	0xbe0aedd2	-0.13567284
123	0x3e080274	0.13282186
124	0xbe34ca13	-0.1765521
125	0xbcbd90c6	-0.023140322
126	0xbd1ef099	-0.03880367
127	0x3de34ced	0.11098657
128	0xbe28e205	-0.1649247
129	0x3dc49fa0	0.096007586
130	0x3e034cbe	0.12822244
131	0x3de093a4	0.1096566
132	0xbe8d5e62	-0.2761107
133	0x3e34e3f0	0.17665076
134	0xbd89d258	-0.06729573
135	0xbb5c8744	-0.003364996
136	0x3e623727	0.22091351
137	0xbe435710	-0.1907618
138	0xbe1fc602	-0.15602878
139	0xbe018a6a	-0.12650457
140	0x3dbafc8f	0.09130203
141	0x3ca5eddb	0.02025502
142	0x3da74ac7	0.081685595
143	0xbe189d03	-0.14903645
144	0xbd0bbaac	-0.03411357
145	0x3e1ed48d	0.15510769
146	0xbe77ebc0	-0.24211025
147	0x3df8f7b3	0.1215662
148	0x3c77a122	0.015114101
149	0x3c2a4481	0.010392309
150	0x3b6e66d7	0.0036377215
151	0x3ecc4b7f	0.3990135
152	0x3e025c8e	0.1273062
153	0xbda24047	-0.07922416
154	0xbd9381df	-0.07202505
155	0x3c8f4268	0.01748772
156	0xbd85f74b	-0.06541308
157	0x3d9aeaad	0.07564292
158	0xbd16cc51	-0.036815945
159	0xbc699d6d	-0.014258725
160	0xbc8092de	-0.015695032
161	0x3da64766	0.08119087
162	0x3d6eb0fc	0.058274254
163	0xbe5eaf90	-0.2174666
164	0x3e6dfac9	0.23240198
165	0xbdfbdbff	-0.1229782
166	0xbc0ccd41	-0.008593858
167	0x3ec2398b	0.37934527
168	0xbde693da	-0.11258669
169	0x3cffa47b	0.03120636
170	0x3d1464fb	0.036229115
171	0x3ce19195	0.02753524
172	0x3e23eb63	0.16007762
173	0x3e156838	0.14590538
174	0x3e9b4fee	0.3033442
175	0x3eb8a90f	0.3606648
176	0xbd8164c4	-0.06318048
177	0xbdc1c9a8	-0.09462291
178	0xbd6fd02d	-0.05854814
179	0xbdeed42f	-0.116615646
180	0xbbc5d749	-0.006037627
181	0xbe289b54	-0.16465503
182	0x3e0c6a2b	0.13712375
183	0xbda8dfc3	-0.08245804
184	0x3e3fb69f	0.18722008
185	0x3d92a6ec	0.07160744
186	0xbe3dcb8e	-0.18534681
187	0xbd9c39b4	-0.076281935
188	0x3d5dfe05	0.05419733
189	0x3de6c092	0.112671986
190	0x3b48af35	0.003062201
191	0xbce87041	-0.02837384
192	0x3e467369	0.19379963
193	0xbe0e9909	-0.13925566
194	0xbd8b4f86	-0.06802277
195	0xbb381893	-0.002809082
196	0xbdabef98	-0.08395308
197	0xbe01227c	-0.12610811
198	0xbdcd5ca9	-0.10027439
199	0x3e13f2a1	0.14448024
200	0xbe12c9d2	-0.14334801
201	0x3cd92d4c	0.026510857
202	0x3bea363d	0.007147579
203	0xbdfba71d	-0.12287734
204	0x3df7d26d	0.121006824
205	0x3e33e83c	0.17569059
206	0x3e68d5de	0.22737834
207	0x3e18d248	0.14923966
208	0xbe174a8b	-0.1477453
209	0xbe3c1c03	-0.1837006
210	0xbdc88dd6	-0.09792678
211	0xbdd27fcf	-0.10278284
212	0x3e52a995	0.20572503
213	0xbd01cb5e	-0.031688087
214	0xbe31f9b0	-0.17380404
215	0x3ea1736d	0.31533375
216	0x3e691d56	0.22765097
217	0xbd8d915f	-0.06912493
218	0x3e167d0a	0.14696136
219	0xbe0fc17a	-0.14038649
220	0xbe42bf34	-0.1901825
221	0xbcc4ac51	-0.024007948
222	0x3e3d1406	0.1846467
223	0x3e78b7c3	0.2428885
224	0x3e800a61	0.25007918
225	0xbd91aea5	-0.07113389
226	0x3e688d92	0.22710255
227	0x3e39b6ac	0.1813609
228	0xbca1a84c	-0.01973357
229	0x3d21c552	0.03949482
230	0x3e1b8021	0.15185596
231	0xbcdcf392	-0.026971612
232	0x3e75d4a7	0.24006902
233	0x3e70ca6d	0.2351472
234	0xbc882045	-0.01661695
235	0xbd1ddec5	-0.038542528
236	0xbdd1119a	-0.10208435
237	0x3e01fc9e	0.12694022
238	0xbd10670e	-0.03525453
239	0xbe4756ff	-0.1946678
240	0xbdfad7b3	-0.122481726
241	0x3e0625ff	0.13100432
242	0x3e896aec	0.26839387
243	0xbe6b8e77	-0.23003565
244	0xbe757336	-0.2396973
245	0x3cdf5238	0.027260885
246	0x3e58a502	0.21156695
247	0x3cc915ba	0.024546493
248	0xbe3c4e61	-0.18389274
249	0x3e6bc1e2	0.23023179
250	0x3dc7de8a	0.09759243
251	0x3dc6bc2e	0.09703861
252	0x3e673667	0.22579347
253	0xbd66e35d	-0.056369174
254	0x3d4fcc6e	0.05073207
255	0xbd596de9	-0.053083334

seq.0.bias f4 [128]
0	0x3f8a11ba	1.078666
1	0x3f2c055f	0.67195696
2	0x3f6711cd	0.90261537
3	0x3f8167d4	1.0109811
4	0x3f5fc6a0	0.8741245
5	0x3f7a9690	0.9788599
6	0x3f8e0f9a	1.1098511
7	0x3f210bb8	0.62908506
8	0x3f4dff34	0.80467534
9	0x3f2ee114	0.6831219
10	0x3f56855a	0.8379723
11	0x3f317fdb	0.69335717
12	0x3f890dfa	1.070739
13	0x3f6bb0bc	0.9206655
14	0x3f59e082	0.85108197
15	0x3f349b24	0.70549226
16	0xbf44dbc6	-0.7689785
17	0x3f4adb46	0.79240835
18	0x3eee22c9	0.46510914
19	0x3f855d08	1.0419016
20	0xbeb1a420	-0.3469553
21	0x3f70c946	0.9405712
22	0x3f61adfc	0.88156104
23	0x3f840b84	1.0316014
24	0x3f88f340	1.0699234
25	0x3f3d6291	0.73978525
26	0x3f719ce1	0.94380003
27	0x3f44b794	0.7684262
28	0x3f614487	0.8799519
29	0x3fa857fc	1.3151851
30	0x3ead5747	0.3385565
31	0x3e8916d9	0.26775244
32	0x3f1a2c97	0.6022429
33	0x3f53f2c3	0.827923
34	0x3f08f1dc	0.5349405
35	0x3f5abe70	0.85446835
36	0x3f658ac7	0.8966488
37	0x3f63d4a3	0.8899633
38	0x3e5f5ed6	0.21813521
39	0x3e863a20	0.2621622
40	0x3f4c1297	0.79715866
41	0x3f3f08c2	0.7462274
42	0x3fa62763	1.298077
43	0x3f7c1d82	0.98482525
44	0x3f91c5c4	1.1388478
45	0x3f4da92e	0.8033627
46	0x3f358832	0.7091094
47	0x3f0ff7f7	0.5623774
48	0x3f3a3d70	0.72749996
49	0x3f0fc350	0.561574
50	0x3f2105e9	0.62899643
51	0x3f235614	0.6380322
52	0x3ec2b73c	0.38030422
53	0x3f2edd69	0.68306595
54	0x3f10b144	0.56520486
55	0x3f742f23	0.95384425
56	0x3f89b5ab	1.0758566
57	0x3f66f91c	0.9022386
58	0x3eec6554	0.46171057
59	0x3f567721	0.83775526
60	0x3f4e1bb0	0.80511
61	0x3f4e976b	0.80699795
62	0x3f9ccd8b	1.2250227
63	0x3e9f89ce	0.31159824
64	0x3f664a6f	0.89957327
65	0x3e472471	0.19447495
66	0x3f56b531	0.83870226
67	0x3f8fdd9e	1.1239507
68	0x3f1cd178	0.61257124
69	0x3f0fd881	0.56189734
70	0x3f4fafe1	0.81127745
71	0x3f5face3	0.8737318
72	0x3f0707e4	0.52746415
73	0x3f41c21d	0.7568682
74	0x3f095a57	0.5365347
75	0x3f16c1f7	0.58889717
76	0x3f5ec1a9	0.8701425
77	0x3f8d2a36	1.1028507
78	0x3f845144	1.03373
79	0x3f696252	0.9116565
80	0x3f996aff	1.1985778
81	0x3f42575e	0.7591456
82	0x3f335e7b	0.7006604
83	0x3f425853	0.7591602
84	0x3f7cea66	0.98795164
85	0x3f31bbad	0.69426996
86	0x3f597899	0.8494964
87	0x3fa33c64	1.2752805
88	0x3f22abf6	0.6354364
89	0x3ef9807d	0.4873084
90	0x3ea4ed92	0.32212502
91	0x3f8450ef	1.0337199
92	0x3f600af3	0.8751671
93	0x3f590e6c	0.8478763
94	0x3f80be82	1.0058138
95	0x3f6347ca	0.88781416
96	0x3f140a26	0.57827985
97	0x3f713dc9	0.942349
98	0xbe36e7d5	-0.17861874
99	0x3f20e205	0.6284488
100	0x3f57654f	0.8413896
101	0x3f35f661	0.7107907
102	0x3f244c63	0.64179057
103	0x3f0bb5ef	0.54574484
104	0x3f742546	0.95369375
105	0x3f4f9970	0.810935
106	0x3f8a5a5b	1.0808824
107	0x3f62d96c	0.8861301
108	0x3f40be38	0.7529025
109	0x3f644e2b	0.89181775
110	0x3f57462b	0.8409144
111	0x3f7466d5	0.9546941
112	0x3f71ddaf	0.9447889
113	0x3f491aad	0.7855633
114	0x3f74e151	0.95656306
115	0x3e77a0dd	0.24182458
116	0x3edc713d	0.43055144
117	0x3f327c05	0.6972049
118	0x3f7f2905	0.99671966
119	0x3f6cd9ab	0.92519635
120	0x3f30add1	0.6901522
121	0x3f8bbc91	1.0916921
122	0x3f661cdd	0.8988779
123	0x3f8ea289	1.1143352
124	0x3f7d1485	0.98859435
125	0x3f7e3c82	0.9931108
126	0x3f847371	1.034773
127	0x3ee6da81	0.4508858

seq.2.weight f4 [32, 128]
0	0x3d03a1d6	0.03213676
1	0xbd3f217e	-0.0466628
2	0xbd868ee3	-0.06570222
3	0xbc221e9c	-0.009894993
4	0xbd23bf5b	-0.039977413
5	0x39af3056	0.00033414614
6	0x3d2c507e	0.04206895
7	0xbd1c271a	-0.038123228
8	0x3ccb6c47	0.024831904
9	0xbd45fb1d	-0.048335183
10	0xbd63a0a2	-0.055573113
11	0x3d9cf057	0.07663029
12	0x3d7a7591	0.061147276
13	0xbdbb0619	-0.091320224
14	0xbd32d749	-0.043662343
15	0xbb59adac	-0.0033215089
16	0xbd250963	-0.040292155
17	0xbdb4d6d7	-0.0883004
18	0x3d8f3936	0.06993334
19	0x3d7ea4e2	0.062168963
20	0xbd79ce8d	-0.060987998
21	0xbd31808b	-0.04333548
22	0xbd354ccc	-0.044262692
23	0xbb6c911b	-0.0036097232
24	0xbcdfc677	-0.027316315
25	0x3d2de189	0.042451415
26	0x3d9d2421	0.07672907
27	0x3c4f0632	0.012635754
28	0xbc50007c	-0.012695428
29	0xbc4a9131	-0.012363718
30	0x3dab44f1	0.08362759
31	0xbd38dbd6	-0.045131527
32	0xbad49500	-0.0016218722
33	0x3d80715f	0.06271624
34	0xbdc18232	-0.09448661
35	0xbcb5a79d	-0.02217465
36	0xbd0e39de	-0.034723155
37	0x3bd43f7b	0.006477294
38	0xbdc0a6ab	-0.094067894
39	0xbd1e0adf	-0.038584586
40	0xbdafbc7e	-0.08580874
41	0x3d1b23b3	0.037875842
42	0x3d96bb22	0.073599115
43	0x3d1f2bd1	0.038860146
44	0xbd913c54	-0.07091585
45	0xbd89e829	-0.06733734
46	0x3d28a3a1	0.041171674
47	0x3cd00f9d	0.02539807
48	0xbd1ad8bd	-0.037804354
49	0x3d602b00	0.054728508
50	0xbcf92d7b	-0.030417195
51	0x3d2da482	0.042393215
52	0xbc6fd50b	-0.014638196
53	0xbcc2b6c2	-0.023768786
54	0xbd5fa511	-0.05460078
55	0x3d8dc18f	0.06921684
56	0xbccb2bc3	-0.02480114
57	0xbd71f682	-0.05907298
58	0xbdba8cbb	-0.091088735
59	0x3d8c1ecf	0.06841814
60	0x3d02a020	0.03189099
61	0x3cd90431	0.026491256
62	0x3d29f558	0.041493744
63	0x3d0f534e	0.034991555
64	0xbdb8ed94	-0.090296894
65	0x3bf111b0	0.007356845
66	0x3d98ea1a	0.07466526
67	0x3d8cd02d	0.06875644
68	0xbd5b6fcb	-0.05357341
69	0xbdb71be3	-0.08940866
70	0xbd462aba	-0.04838059
71	0x3d16f983	0.036859047
72	0xbdb1203d	-0.08648727
73	0xbd5c0d32	-0.05372352
74	0x3cecd25f	0.028908907
75	0x3c800aa1	0.015630068
76	0x3c69b0bb	0.014263327
77	0xbc0a689d	-0.008447793
78	0xbcb98e21	-0.02265078
79	0x3cda4e19	0.026648568
80	0xbd8079b6	-0.062732145
81	0xbd5e42fc	-0.0542631
82	0xbc5af6d5	-0.013364513
83	0x3d26aa12	0.040689535
84	0x3c902d9f	0.017599879
85	0xbd11fb68	-0.03564015
86	0x3c58c75e	0.013231127
87	0xbd90e850	-0.0707556
88	0x3d8f532c	0.06998286
89	0xbda3d2a7	-0.07999163
90	0xbb7e7649	-0.0038827828
91	0xbcfd96fd	-0.030955786
92	0xbdacb118	-0.084322155
93	0xbbbe7e3d	-0.0058133886
94	0xba8b3db4	-0.0010623247
95	0xbd3576c9	-0.044302735
96	0x3d869510	0.065714
97	0xbd8eb2fa	-0.06967731
98	0x3c3387f8	0.01095771
99	0x3d253af2	0.040339418
100	0xbc92a353	-0.017900145
101	0xbd32c9f0	-0.043649614
102	0xbc16d97c	-0.009207126
103	0xbcb9013a	-0.022583593
104	0xbdaaf573	-0.08347597
105	0xbdbc282c	-0.0918735
106	0xbd4fc0c7	-0.050720956
107	0x3d00282f	0.031288322
108	0xbd05b8d6	-0.032646976
109	0x3d253a2f	0.04033869
110	0xbdbdcd28	-0.09267646
111	0xbd8f1882	-0.06987096
112	0x3d78df31	0.060759727
113	0xbda28eb3	-0.07937374
114	0xbd4471dc	-0.047960147
115	0xbd18c580	-0.037297726
116	0xbd19041a	-0.037357427
117	0xbd3a647c	-0.045505986
118	0xbca94eca	-0.020667452
119	0x3b5ced78	0.0033710878
120	0xbc883e97	-0.016631408
121	0xbd2d3b50	-0.042292893
122	0xbd285bc0	-0.041103125
123	0xbd6ec9fe	-0.058298104
124	0xbdbdba34	-0.09264031
125	0x3d00b12c	0.031418964
126	0xbc61b4c7	-0.013776011
127	0x3d2ef7f5	0.04271694
128	0x3ee83fe4	0.45361245
129	0x3da2c747	0.079481654
130	0x3eb15ca2	0.34640986
131	0x3e69d920	0.22836733
132	0x3e7247c1	0.23660184
133	0x3d93f7d0	0.07225001
134	0x3e7d065e	0.2470946
135	0x3e6b88f0	0.23001456
136	0x3d8d68d5	0.06904761
137	0x3f0feaa5	0.56217414
138	0x3d9c458d	0.07630453
139	0x3dccebf5	0.10005943
140	0x3e90822b	0.2822431
141	0x3e27e9d0	0.16397786
142	0x3ded082f	0.115738265
143	0x3e557277	0.20844446
144	0x3edc3792	0.43011147
145	0x3d540704	0.051764503
146	0x3b11a478	0.0022223275
147	0x3e00fb36	0.1259583
148	0xbf06cd27	-0.5265679
149	0x3e7ad98f	0.24497055
150	0x3ec705a8	0.38871503
151	0x3ee53c73	0.44772682
152	0x3efda613	0.49540767
153	0xbd1013f5	-0.035175283
154	0x3e0d7081	0.13812448
155	0xbd4fab1d	-0.050700296
156	0x3e9260e5	0.2858955
157	0x3f107fbd	0.56444913
158	0x3dbfeffa	0.09371944
159	0x3c0f063e	0.008729516
160	0x3e95fdec	0.2929529
161	0x3eea6e20	0.45787144
162	0x3d4da734	0.050208285
163	0x3edec8e3	0.4351264
164	0x3e689959	0.22714747
165	0xbdbe688c	-0.092972845
166	0xbcf2e2b0	-0.029649109
167	0xbe36fb07	-0.17869197
168	0x3eb5c868	0.3550446
169	0x3d727315	0.059191782
170	0x3f6dc1ce	0.9287385
171	0x3e7762c4	0.2415877
172	0x3f2cccf2	0.6750022
173	0x3e5d04c1	0.21583845
174	0x3db2ec24	0.087364465
175	0x3dd650ad	0.104646064
176	0xbd418c95	-0.04725321
177	0x3e524573	0.20534305
178	0xbdc4f5ab	-0.0961717
179	0xbd452d1a	-0.048138715
180	0x3d3225d1	0.043493096
181	0x3d9f084a	0.07765253
182	0x3baa8c15	0.0052046874
183	0x3d7d3f77	0.061828103
184	0x3f1997b2	0.59997094
185	0x3d8f5879	0.06999297
186	0xbf06c0ac	-0.52637744
187	0x3e853b18	0.26021647
188	0xb984ef66	-0.00025355368
189	0x3d34d33c	0.04414676
190	0x3f336f58	0.7009177
191	0x3ce349bc	0.02774512
192	0x3e077379	0.13227643
193	0x3d606aa2	0.054789193
194	0x3d0b097b	0.03394459
195	0x3dc97f0a	0.09838684
196	0xbe89b00e	-0.26892132
197	0xbcf35cda	-0.029707361
198	0x3dc3fb14	0.09569374
199	0x3e352a39	0.17691888
200	0x3dce8ad2	0.100850716
201	0x3e4473d5	0.19184811
202	0x3e267a95	0.16257699
203	0x3e85117e	0.25989908
204	0xbdc3279a	-0.09529038
205	0x3f2b01aa	0.66799414
206	0x3e9f143c	0.31070125
207	0x3ddb31af	0.10702836
208	0x3f0b3e74	0.5439217
209	0x3da1b119	0.07895107
210	0x3d892c5e	0.066979155
211	0x3e07495b	0.13211577
212	0x3ec97c81	0.393528
213	0x3e64dc0f	0.2234957
214	0x3e95843b	0.29202446
215	0x3f79a746	0.97520864
216	0xbd391a2b	-0.04519097
217	0xbdc5fc05	-0.096672095
218	0xbe36cdb2	-0.17851904
219	0x3ec59a8b	0.3859447
220	0x3f0b3d4a	0.54390395
221	0x3c80688f	0.015674857
222	0x3e3d45c4	0.18483645
223	0xbd2944bd	-0.04132532
224	0x3d8dbc69	0.06920702
225	0x3e75f448	0.24018967
226	0x3da656dc	0.08122036
227	0x3d865bf8	0.065605104
228	0x3db03834	0.0860447
229	0xbd4b1abe	-0.04958605
230	0x3d3de37f	0.046359535
231	0x3bb4d232	0.0055182213
232	0x3ed12866	0.40851134
233	0x3eb2cc7c	0.34921634
234	0x3eea1a59	0.45723227
235	0x3e2ab9ae	0.16672394
236	0x3eb29542	0.348795
237	0x3ea3c91f	0.3198938
238	0x3e57033b	0.20997326
239	0xbc0f067b	-0.008729572
240	0x3e642cd7	0.2228273
241	0x3dad1f96	0.0845329
242	0x3e355c85	0.17711075
243	0xbe800ec2	-0.2501126
244	0xbdbaffe1	-0.09130836
245	0xbe19818c	-0.14990824
246	0x3e1de410	0.1541903
247	0x3ea84fc6	0.32873362
248	0x3dfc767e	0.12327288
249	0x3eac653a	0.3367098
250	0x3e9df01c	0.3084725
251	0x3eb0d06c	0.34534013
252	0x3e67c7ff	0.22634886
253	0x3e8a3599	0.26994017
254	0x3e0df553	0.13863115
255	0x3a93513e	0.0011239422

seq.2.bias f4 [32]
0	0x3d21f110	0.039536536
1	0x3f381525	0.71907264
2	0xbd83b59d	-0.06431124
3	0x3f3269bd	0.69692594
4	0xbc851de3	-0.016249603
5	0x3f366e24	0.7126181
6	0x3f089721	0.53355604
7	0xbca4c0d4	-0.020111479
8	0x3f40b929	0.7528253
9	0x3f377a71	0.71671206
10	0x3f212605	0.6294864
11	0xbd08b850	-0.0333789
12	0xbd974688	-0.073865
13	0x3f42a186	0.76027715
14	0x3f235ea9	0.63816315
15	0x3f4db06c	0.80347323
16	0x3f43ebda	0.76531756
17	0x3f37897f	0.7169418
18	0x3f3e9669	0.7444826
19	0xbde248c4	-0.11049035
20	0x3f477ef6	0.779281
21	0x3f45684d	0.77112275
22	0x3f2f33bb	0.6843831
23	0xbdc3a222	-0.09552409
24	0xbda214bc	-0.07914111
25	0x3f449935	0.76796275
26	0x3f375306	0.7161106
27	0x3f2c895f	0.6739711
28	0x3ccc4891	0.024936946
29	0x3c7f6fd4	0.015590627
30	0x3f2019f9	0.6253963
31	0xbda0aeb2	-0.078458205

seq.4.weight f4 [8, 32]
0	0x3d6fb00c	0.0585175
1	0x3cb92c26	0.02260406
2	0x3cd25c1f	0.025678692
3	0xbe399bc6	-0.18125829
4	0x3e31959a	0.17342225
5	0xbe13361a	-0.14376107
6	0xbe4163bd	-0.18885703
7	0x3d7b32fc	0.06132792
8	0xbd8ba8c0	-0.06819296
9	0xbe25837f	-0.16163443
10	0xbc50f35c	-0.012753334
11	0x3d0139c4	0.03154923
12	0x3d8399db	0.0642583
13	0x3da65755	0.08122126
14	0x3da0ef16	0.07858102
15	0x3de81a81	0.1133318
16	0xbc3ea446	-0.0116358455
17	0xbc90b81b	-0.017665913
18	0xbe211718	-0.15731466
19	0xbdceb71f	-0.10093521
20	0xbc39d02d	-0.011341137
21	0x3defa61f	0.11701607
22	0x3d3a0a8e	0.045420222
23	0x3e25c7a9	0.16189446
24	0x3e2014c3	0.1563292
25	0xbd8023e8	-0.062568486
26	0xbe06b411	-0.13154627
27	0x3e017c5f	0.126451
28	0xbe18761b	-0.14888804
29	0x3d970df6	0.0737571
30	0xbdd821b3	-0.105533026
31	0x3d5b0dd4	0.053479984
32	0xbe2726ef	-0.16323446
33	0x3e3a990f	0.1822245
34	0xbd93ef01	-0.07223321
35	0x3ed93518	0.4242332
36	0xbb9ad0d7	-0.0047246027
37	0x3ebb1a84	0.36543667
38	0x3eac3428	0.33633542
39	0xbcfed111	-0.03110555
40	0x3eb3cca5	0.3511707
41	0x3ed01d37	0.4064729
42	0x3f07fca4	0.53119874
43	0xbc938358	-0.018006966
44	0xbb0b7ad6	-0.0021282933
45	0x3ee96526	0.45584983
46	0x3ea11dc0	0.3146801
47	0x3d2d873c	0.042365298
48	0x3f1f9c8c	0.62348247
49	0x3dbbc7d5	0.09168974
50	0x3c85efe2	0.016349737
51	0xbe2bb6c8	-0.16768944
52	0x3eae924f	0.34096
53	0xbbe403ea	-0.0069584744
54	0x3ee5d16f	0.44886348
55	0x3cfe922e	0.031075563
56	0xbdfc7643	-0.12327244
57	0x3edd885a	0.4326809
58	0x3ed5ff5a	0.4179638
59	0x3dd3f842	0.10350086
60	0x3e0cc082	0.13745311
61	0x3d937ce4	0.07201555
62	0x3eb37954	0.35053504
63	0xbdca9a9e	-0.09892772
64	0x3dd15742	0.10221721
65	0x3e9113c8	0.28335404
66	0x3ca2ba1d	0.019864136
67	0x3de8ec64	0.11373213
68	0xbd1090d4	-0.03529437
69	0xbda76506	-0.081735656
70	0x3edb5d82	0.42844778
71	0xbd04d76d	-0.03243201
72	0x3ec3768d	0.38176385
73	0xbdc8ce8e	-0.09805022
74	0xbe613c87	-0.21995746
75	0x3dbe167f	0.092816345
76	0xbd220bc4	-0.039562
77	0xbddccb11	-0.10780919
78	0x3d166da1	0.036725644
79	0x3e8125b6	0.25224084
80	0x3eb50d0c	0.35361516
81	0x3eb49366	0.35268706
82	0xbd82e536	-0.06391375
83	0x3b6387c9	0.0034718385
84	0x3d491dcf	0.049100693
85	0xbe0011bb	-0.12506764
86	0xbe2790f5	-0.1636389
87	0x3df4f0e8	0.11960012
88	0x3dbff562	0.09372975
89	0x3e54ee7c	0.207941
90	0x3d2ac40f	0.041690882
91	0x3e19ee81	0.15032388
92	0x3e18d713	0.14925794
93	0x3ddba342	0.10724498
94	0xbdeeea30	-0.116657615
95	0x3d3edc09	0.04659656
96	0x3a99e39c	0.0011740807
97	0xbc976c88	-0.018484369
98	0xbd4c1e19	-0.04983339
99	0xb9afe989	-0.00033552598
100	0x3dd75c2f	0.105156295
101	0x3dc34bdd	0.09535954
102	0x3ae05188	0.0017114142
103	0xbcd130d5	-0.02553598
104	0xbe0b479a	-0.13601533
105	0xbe047ffe	-0.1293945
106	0x3d0585fa	0.032598473
107	0x3d0a4ad4	0.033762768
108	0xbc36b810	-0.011152282
109	0x3dc5d20a	0.096592024
110	0x3dbc2848	0.091873705
111	0xbe269945	-0.16269405
112	0xbdb3c3b0	-0.08777559
113	0xbd39f153	-0.04539616
114	0x3d9ee0df	0.077577345
115	0xbdbd1cfe	-0.092340454
116	0x3ddc85b9	0.10767693
117	0xbd0abefb	-0.03387354
118	0xbdffcef0	-0.12490642
119	0xbe287b8d	-0.16453381
120	0x3d6f9d0c	0.05849938
121	0xbd88b650	-0.06675398
122	0x3d22c1dc	0.03973566
123	0x3cb0ac73	0.021566605
124	0x3dcc4059	0.09973211
125	0x3d8eae4a	0.06966837
126	0xbd1106ba	-0.035406806
127	0x3df15ee8	0.1178568
128	0x3d69b2c8	0.057055265
129	0xbd02b9e4	-0.03191556
130	0xbdcfbee7	-0.101438336
131	0x3dcae162	0.099062696
132	0xbe28d8a6	-0.16488895
133	0xbdc7d467	-0.097573094
134	0xbccb6ba0	-0.024831593
135	0x3e12dd5b	0.14342253
136	0xbd80cccc	-0.06289062
137	0xbdcc3d79	-0.099726625
138	0xbe1ec1a6	-0.15503559
139	0xbd9bacf8	-0.076013505
140	0x3dd3c062	0.103394285
141	0xbd774668	-0.06036988
142	0x3e16dc4d	0.14732476
143	0xbd7d51b6	-0.061845504
144	0xbe1304c4	-0.14357287
145	0xbe33cbbb	-0.17558186
146	0x3d519b8c	0.05117373
147	0x3e2b9885	0.167574
148	0xbd644ce0	-0.055737376
149	0x3d522d1c	0.05131255
150	0xbcbb2c58	-0.022848293
151	0x3e0aaeb1	0.13543202
152	0xbcea5080	-0.028602839
153	0x3ca898a8	0.020580605
154	0x3dd90fb6	0.105987
155	0xbdde8688	-0.108655035
156	0x3e00b6f1	0.12569787
157	0x3dfaa02e	0.12237583
158	0xbe2be6a1	-0.16787197
159	0x3e123be7	0.14280663
160	0xbbbcacd3	-0.005757907
161	0x3e2bbc68	0.1677109
162	0xbd31487d	-0.04328202
163	0x3e912299	0.28346708
164	0x3e26c830	0.16287303
165	0x3ee85e53	0.45384464
166	0x3e072fe2	0.1320186
167	0xbdf5e410	-0.1200639
168	0x3efe508b	0.49670824
169	0x3dd26915	0.10273949
170	0x3d369680	0.04457712
171	0xbdab3e2c	-0.08361468
172	0xbdd0216a	-0.10162623
173	0x3ec3cf0d	0.38243905
174	0xbd972d10	-0.07381642
175	0x3edabd7e	0.42722696
176	0x3e4ea419	0.20179786
177	0x3f086e4f	0.5329332
178	0x3f166359	0.5874534
179	0xbddca814	-0.10774246
180	0x3ee15e48	0.44017243
181	0x3e340893	0.17581396
182	0x3ef6a589	0.48173168
183	0xbdb045ae	-0.0860704
184	0x3da40817	0.080093555
185	0x3ea30b0d	0.3184437
186	0x3dd91df5	0.10601417
187	0x3ef22a49	0.47297886
188	0xbe175916	-0.14780077
189	0xbb91a325	-0.004444497
190	0x3ec6d4b9	0.3883417
191	0x3e2d1de2	0.1690593
192	0x3bdf78a0	0.0068197995
193	0x3f033c47	0.5126385
194	0x3ddcae9b	0.10775491
195	0x3eabe19b	0.3357056
196	0xbe08c00d	-0.13354512
197	0x3e929306	0.28627795
198	0x3e9b2fe2	0.3030997
199	0xbd970612	-0.07374205
200	0x3d616ad6	0.055033527
201	0x3ee3b925	0.44477192
202	0x3dfa96a1	0.122357614
203	0x3e0267f3	0.12734966
204	0x3d5e2a0b	0.054239314
205	0x3cd15b5e	0.025556263
206	0x3ef09e65	0.46995845
207	0x3ef5bdde	0.4799642
208	0xbb9dc72f	-0.0048150043
209	0x3ebafe30	0.36522055
210	0x3ea8824a	0.32911903
211	0x3db060b8	0.08612198
212	0x3e88c862	0.2671538
213	0x3f1b180c	0.6058357
214	0xbe6ba38a	-0.23011604
215	0x3d51f1e3	0.05125607
216	0xbdeaefcb	-0.11471518
217	0x3ed98808	0.42486596
218	0x3ea6cbd2	0.32577378
219	0x3ed88fba	0.42297155
220	0xbd9ca7a9	-0.07649166
221	0xbe33b7f8	-0.17550647
222	0x3ece014f	0.40235373
223	0x3da0d61b	0.078533374
224	0xbd9412f9	-0.07230181
225	0x3d98e2f7	0.07465165
226	0x3e0a135e	0.1348395
227	0x3d2f9f3f	0.04287648
228	0x3e15876f	0.14602445
229	0xbd34669c	-0.04404317
230	0x3cff9633	0.03119955
231	0x3de2a0d6	0.11065833
232	0xbe0f0cd6	-0.1396974
233	0x3d8208ef	0.0634936
234	0x3df35827	0.11882048
235	0xbd9ab367	-0.075537495
236	0x3d11d223	0.035600793
237	0x3e1b5e27	0.15172635
238	0xbda8f147	-0.08249145
239	0xbca310d2	-0.019905481
240	0xbd93f71c	-0.07224867
241	0x3df27761	0.11839176
242	0xbd9f0b6b	-0.0776585
243	0xbdddfc7e	-0.10839175
244	0x3dc5feb3	0.09667721
245	0xbd54b3b8	-0.051929206
246	0xbd91ca8a	-0.071187094
247	0xbde988a7	-0.114030175
248	0x3ddea9b3	0.10872211
249	0xbb335f9c	-0.002737022
250	0xbe131b03	-0.14365773
251	0xbabf2921	-0.0014584401
252	0x3ce5b70b	0.028041383
253	0xbd6f06a2	-0.058355935
254	0xbda8f923	-0.08250644
255	0x3d576fb7	0.052596774

seq.4.bias f4 [8]
0	0xbe24f00e	-0.16107199
1	0x3ebe28f8	0.37140632
2	0x3e5fef5d	0.21868654
3	0x3dc4504d	0.09585629
4	0xbc965b80	-0.018354177
5	0x3f399db0	0.7250624
6	0x3f06d6e0	0.52671623
7	0xbd82d2be	-0.06387852

seq.6.weight f4 [4, 8]
0	0x3ca33d30	0.019926637
1	0xbe38a9a6	-0.18033466
2	0xbf09270c	-0.53575206
3	0x3e91534a	0.28383857
4	0xbe6aecb0	-0.22941852
5	0xbe574969	-0.21024098
6	0xbef7e2a1	-0.48415092
7	0x3e69b5a0	0.2282319
8	0xbd0cb1ab	-0.034349125
9	0xbe9a7b31	-0.30172113
10	0x3ebf9a31	0.37422326
11	0x3e0c7f7f	0.13720511
12	0x3dc168d0	0.094438195
13	0xbec33ff0	-0.38134718
14	0xbee3b67d	-0.44475165
15	0x3ea45162	0.3209334
16	0xbcef1c7d	-0.029188389
17	0xbe2b80f7	-0.16748415
18	0xbe8115da	-0.25211984
19	0x3db4933d	0.08817146
20	0x3de7d148	0.11319214
21	0xbf241338	-0.64091825
22	0xbdbc8266	-0.09204559
23	0x3db29d67	0.08721428
24	0x3e98a26b	0.29811415
25	0xbf180bb1	-0.5939284
26	0xbe0c2619	-0.13686408
27	0x3dbf70da	0.093476966
28	0x3d228a18	0.039682478
29	0xbde6b219	-0.11264438
30	0xbe9eb43e	-0.3099689
31	0xbde8a092	-0.11358751

seq.6.bias f4 [4]
0	0xbf403346	-0.7507824
1	0xbe8a2c69	-0.26987007
2	0xbed16c75	-0.4090306
3	0xbbc5aa1a	-0.0060322406
