training/models/environment_traffic_lights/1639385777/checkpoints/ep00025.pt (torch, 28751 bytes, 8 tensors)

seq.0.weight f4 [128, 16]
000000 10 cf b5 41 c7 f3 ae 41 c3 a8 a8 41 77 4b 8e 41
       22.726105 21.869032 21.082403 17.786848
000010 66 d8 b3 41 40 d6 b2 41 02 c4 ac 41 ca a5 65 41
       22.480663 22.354614 21.595707 14.352976
000020 92 aa b3 41 de 30 b0 41 5d b1 a5 41 01 28 8e 41
       22.458286 22.02386 20.711603 17.769533
000030 ff bc b4 41 03 d6 b1 41 c4 6c ad 41 0a 7d 70 41
       22.592283 22.229498 21.678108 15.030527
000040 87 a7 b3 41 2f a2 ac 41 e8 0b a6 41 e3 08 90 41
       22.4568 21.579191 20.755814 18.00434
000050 0e be b4 41 a5 27 b1 41 91 0d ad 41 8f 1c 63 41
       22.5928 22.144358 21.631624 14.194472
000060 bb dc b5 41 0b ed ac 41 25 70 a7 41 af f4 8e 41
       22.732779 21.615744 20.929758 17.869474
000070 5c 9b b7 41 f6 db b4 41 e4 b5 ad 41 c1 fc 6c 41
       22.95086 22.607403 21.713814 14.8117075
000080 9b 9d b5 41 d5 df af 41 83 a2 a7 41 d0 cc 8f 41
       22.701956 21.984293 20.954351 17.975006
000090 36 65 b6 41 5c bb b2 41 4e 87 ad 41 df e0 62 41
       22.79942 22.341484 21.691067 14.1799
0000a0 e1 e8 b2 41 46 ff af 41 c0 28 a7 41 ad c5 8f 41
       22.36371 21.999645 20.894897 17.971521
0000b0 a1 0a b9 41 03 96 b3 41 c3 f4 ac 41 af 2e 70 41
       23.13019 22.448248 21.619513 15.011397
0000c0 6f 70 b5 41 8c 46 ae 41 98 d6 a7 41 7a 76 91 41
       22.6799 21.784447 20.979782 18.18285
0000d0 18 e4 b4 41 c9 30 b4 41 a5 1c ad 41 d2 6d 67 41
       22.611374 22.52382 21.638987 14.464312
0000e0 f2 a4 b2 41 0c fa ac 41 23 1f a9 41 a5 54 90 41
       22.33054 21.622093 21.140203 18.04133
0000f0 16 b2 b8 41 e6 b6 b3 41 1f ad b0 41 2d d0 6d 41
       23.086956 22.464306 22.084532 14.863324
000100 59 40 b3 41 b5 a6 ad 41 c6 4f a8 41 a3 01 91 41
       22.40642 21.7064 21.038952 18.1258
000110 6b b8 b4 41 60 74 b1 41 ab 1d ad 41 3b af 62 41
       22.590048 22.181824 21.639486 14.167781
000120 8d d2 b5 41 56 e4 ac 41 a0 09 a6 41 f5 2b 8f 41
       22.727808 21.611492 20.7547 17.896463
000130 73 fc b6 41 fd a7 b5 41 65 de b0 41 fe 05 6c 41
       22.873266 22.707026 22.108591 14.751463
000140 2f a5 b4 41 5d 4c ac 41 66 a0 a8 41 46 15 8f 41
       22.580656 21.537287 21.07832 17.885387
000150 83 61 b6 41 69 67 b4 41 8e 7e ac 41 6c 45 67 41
       22.797613 22.550493 21.561794 14.454449
000160 f9 4d b4 41 13 65 af 41 93 30 a6 41 89 25 91 41
       22.538073 21.924353 20.773718 18.143328
000170 2b 6c b5 41 1a 2d b3 41 14 0e b0 41 fe 6d 71 41
       22.677816 22.397022 22.006874 15.089354
000180 45 0a b4 41 63 af af 41 60 2d a9 41 a4 e2 90 41
       22.505014 21.960638 21.147156 18.110664
000190 da 0b b6 41 ce 0c b3 41 62 e8 ac 41 5a 8d 69 41
       22.755787 22.381252 21.613468 14.59701
0001a0 c5 db b3 41 03 da ae 41 6f a4 a7 41 dd a6 8f 41
       22.48231 21.856451 20.95529 17.956476
0001b0 09 c5 b8 41 86 05 b3 41 79 7b ae 41 1f 26 6e 41
       23.096209 22.377697 21.81029 14.884307
0001c0 e4 a9 b4 41 3e 9f ad 41 f2 59 a7 41 65 e3 90 41
       22.582954 21.702755 20.918919 18.111032
0001d0 91 b6 b4 41 c2 83 b1 41 40 61 ab 41 b4 0f 65 41
       22.589144 22.189335 21.422485 14.316334
0001e0 55 79 b4 41 3c 88 ae 41 6a 30 a7 41 08 cb 8f 41
       22.559244 21.81652 20.89864 17.974136
0001f0 45 78 b6 41 01 5a b3 41 3b 05 ac 41 60 ad 6b 41
       22.808725 22.418947 21.502554 14.729828
000200 67 f1 b4 41 bd c6 ae 41 9f 82 a7 41 d1 8a 8f 41
       22.617872 21.84704 20.93878 17.942781
000210 a0 07 b5 41 4b 6e b3 41 60 3c af 41 c8 7d 68 41
       22.628723 22.428854 21.90448 14.530708
000220 f5 f9 b3 41 f5 4d af 41 db ed a5 41 e4 df 8f 41
       22.49705 21.913065 20.74114 17.984322
000230 0c be b6 41 f1 6a b4 41 64 28 b1 41 d5 b9 71 41
       22.842796 22.552217 22.144722 15.107869
000240 0e 8a b2 41 a7 ac ae 41 5a 94 a8 41 cb 9a 90 41
       22.31741 21.834303 21.072437 18.075583
000250 bf 44 b4 41 9f d3 b1 41 ab 75 ab 41 41 c8 62 41
       22.533567 22.22833 21.432455 14.17389
000260 ae 17 b6 41 7c bd ac 41 db 11 a7 41 d3 e1 91 41
       22.761562 21.592522 20.883718 18.235266
000270 21 86 b6 41 8e 48 b3 41 d4 4c af 41 97 ed 6d 41
       22.815493 22.410427 21.912514 14.870505
000280 d5 f0 b5 41 0a b3 af 41 42 ab a6 41 2b 51 90 41
       22.742594 21.962421 20.833622 18.039633
000290 09 4e b5 41 e7 3d b0 41 05 18 ac 41 36 a7 69 41
       22.663103 22.030226 21.511728 14.603323
0002a0 ab 5b b6 41 59 b9 ad 41 60 4f a7 41 e6 77 8e 41
       22.79476 21.715502 20.913757 17.808544
0002b0 ff 8b b6 41 32 33 b4 41 2e 96 ac 41 7b 04 6f 41
       22.818357 22.524998 21.57333 14.938594
0002c0 83 ae b5 41 1f 9c ad 41 ce ce a8 41 f9 e7 8e 41
       22.71021 21.701231 21.100979 17.863268
0002d0 67 ac b4 41 c4 d2 b3 41 e2 3a ae 41 06 2a 66 41
       22.58418 22.477913 21.778751 14.38526
0002e0 c7 a8 b5 41 5f 05 ad 41 72 74 a7 41 1c 20 8f 41
       22.70741 21.627623 20.931858 17.890678
0002f0 73 75 b8 41 3a d8 b1 41 f7 d2 ae 41 db bf 6c 41
       23.057348 22.23058 21.85301 14.79684
000300 84 48 b6 41 66 4b af 41 a1 a0 a6 41 ae af 8e 41
       22.785408 21.911816 20.828432 17.835781
000310 39 1b b4 41 34 09 b1 41 76 48 ac 41 af ce 63 41
       22.513292 22.129494 21.535381 14.23796
000320 39 87 b4 41 3d 02 ae 41 89 bb a7 41 f1 db 8f 41
       22.566027 21.751093 20.96657 17.982393
000330 a2 77 b7 41 99 96 b1 41 e4 93 ac 41 31 8a 6e 41
       22.933414 22.198534 21.572212 14.908738
000340 12 32 b2 41 63 7d ae 41 7b 06 a7 41 63 5f 8f 41
       22.274448 21.811224 20.878164 17.921576
000350 b0 04 b7 41 c3 74 b2 41 42 30 af 41 88 2a 69 41
       22.877289 22.307013 21.898563 14.572884
000360 6a 34 b5 41 88 f2 ad 41 78 c2 a7 41 3b 3d 90 41
       22.650593 21.743423 20.969955 18.029898
000370 9d 8e b8 41 a1 b3 b1 41 8c 62 b0 41 78 ef 70 41
       23.069635 22.21271 22.048119 15.058464
000380 94 54 b5 41 42 8f ac 41 fb de a5 41 37 42 8f 41
       22.666298 21.56995 20.733877 17.907331
000390 8c 67 b7 41 58 92 b2 41 df 0a ad 41 71 0e 69 41
       22.92556 22.321457 21.630308 14.566026
0003a0 26 e0 b5 41 ad 0b af 41 c3 63 a9 41 a0 1f 8f 41
       22.734447 21.880701 21.173712 17.890442
0003b0 3b 3e b7 41 27 04 b5 41 90 40 ad 41 8b 73 72 41
       22.905386 22.627028 21.656525 15.153209
0003c0 51 07 b4 41 ca eb ad 41 d7 4c a6 41 9a a2 91 41
       22.503572 21.740131 20.78752 18.204395
0003d0 72 cc b6 41 d2 f5 b2 41 7e f2 ad 41 85 64 63 41
       22.849827 22.37003 21.743404 14.212041
0003e0 b3 8e b3 41 6a 1f b0 41 3f 56 a6 41 e9 ac 8f 41
       22.444677 22.015339 20.792112 17.959429
0003f0 eb 45 b7 41 9e 33 b2 41 d7 25 ae 41 5b ea 6e 41
       22.90914 22.275204 21.768476 14.932216

seq.0.bias f4 [128]
000000 2b 31 c6 41 45 8d c9 41 74 1b c9 41 78 69 c7 41
       24.774008 25.19398 25.138405 24.926498
000010 50 36 c7 41 15 b7 c6 41 48 d9 c8 41 0a a7 c6 41
       24.90152 24.839396 25.106094 24.831562
000020 22 f6 c6 41 15 ba c6 41 8e 5e c7 41 ef 9e c7 41
       24.870182 24.84086 24.92117 24.952604
000030 5d a7 c8 41 93 c3 c6 41 25 d9 c7 41 d7 b1 c6 41
       25.08172 24.845495 24.981028 24.836836
000040 81 47 c8 41 09 ac c8 41 60 57 c9 41 bc 0b c7 41
       25.034914 25.084002 25.167664 24.88073
000050 f9 1f c9 41 36 6f c9 41 7d b7 c9 41 7b 8e c7 41
       25.140612 25.179302 25.214594 24.94457
000060 94 26 ca 41 e3 84 c7 41 3d 35 c9 41 d7 b1 c9 41
       25.268837 24.939886 25.150995 25.211836
000070 45 20 c7 41 eb 56 ca 41 79 15 ca 41 b5 ca c8 41
       24.890757 25.29244 25.260485 25.098978
000080 d4 54 c8 41 04 c0 c7 41 48 76 c9 41 78 f4 c6 41
       25.04142 24.968758 25.182755 24.86937
000090 f9 42 c8 41 5c 6a c8 41 97 40 c6 41 28 f3 c7 41
       25.032701 25.051933 24.781538 24.993729
0000a0 24 05 c9 41 df 4b c9 41 42 00 c6 41 16 05 c6 41
       25.12751 25.162046 24.750126 24.752483
0000b0 aa fc c6 41 56 4f ca 41 58 84 c7 41 84 c2 c9 41
       24.873371 25.288738 24.939621 25.219978
0000c0 27 86 c9 41 12 e1 c7 41 5f 4d c6 41 3f d4 c9 41
       25.190504 24.984898 24.787779 25.228636
0000d0 a5 6b c7 41 08 c9 c8 41 8f f1 c6 41 0d cd c8 41
       24.92756 25.09816 24.867949 25.100122
0000e0 14 4a c9 41 63 7a c8 41 1f 24 c6 41 cd a1 ca 41
       25.161171 25.05976 24.767637 25.329004
0000f0 6f 4c c7 41 c9 ff c5 41 f4 6e c8 41 4f 71 c9 41
       24.912321 24.749895 25.054176 25.180326
000100 4c 5d c9 41 c4 8c c6 41 ac eb c6 41 e0 31 c8 41
       25.170555 24.818733 24.865074 25.024353
000110 f9 9a c8 41 24 be c7 41 fb 54 c9 41 f5 75 c8 41
       25.07567 24.967842 25.166494 25.057596
000120 79 53 c8 41 b5 5f c9 41 59 e6 c7 41 83 df c7 41
       25.040758 25.171732 24.987474 24.984137
000130 cb 04 c9 41 e3 e1 c8 41 55 8f c6 41 7e bf c9 41
       25.12734 25.110296 24.819986 25.218502
000140 01 29 c8 41 ad cb c8 41 82 ff c7 41 ad de c8 41
       25.020021 25.099451 24.99976 25.108728
000150 97 ea c8 41 c7 99 c6 41 bb 41 c9 41 45 be c7 41
       25.114546 24.825087 25.157095 24.967905
000160 73 f0 c6 41 5d 82 c7 41 9a a7 c7 41 d9 08 c7 41
       24.867407 24.938654 24.956837 24.87932
000170 4a f0 c6 41 d6 c0 c8 41 91 8a c7 41 7c c9 c8 41
       24.867329 25.094158 24.94266 25.098381
000180 c7 b7 c9 41 38 64 c6 41 30 51 c7 41 73 38 c8 41
       25.214735 24.798935 24.914642 25.027563
000190 7f 93 c9 41 5f 5d c6 41 aa 83 c8 41 25 95 c6 41
       25.19702 24.795591 25.06429 24.822824
0001a0 6d 5c c7 41 7d e2 c6 41 cf 54 c6 41 18 b4 c7 41
       24.92013 24.86059 24.79141 24.962936
0001b0 db 4f c9 41 ac ed c9 41 fd 39 c7 41 5b dd c6 41
       25.163992 25.24105 24.903315 24.858084
0001c0 50 fb c8 41 e1 7f c8 41 15 a1 c7 41 9f 5b c8 41
       25.122711 25.06244 24.953653 25.044737
0001d0 66 09 c7 41 15 05 c8 41 3a 37 c9 41 3b 03 ca 41
       24.87959 25.002481 25.151966 25.251577
0001e0 ee 5f c8 41 09 1b ca 41 b6 5a c6 41 6a 3b c9 41
       25.04684 25.2632 24.794292 25.15401
0001f0 07 05 c7 41 c1 44 c8 41 70 b3 c6 41 47 2e c8 41
       24.877455 25.033571 24.837616 25.022596

seq.2.weight f4 [32, 128]
000000 a4 1b 3c bd 3d 1c 1a bd 95 09 eb 3c a0 ad 16 bd
       -0.045924798 -0.037624586 0.028691093 -0.036786675
000010 5c d2 80 3d e7 5a 51 bd 6f ea 19 bd 12 ff 0c 3d
       0.06290123 -0.05111208 -0.03757709 0.03442294
000020 cb ca 8b bc eb 72 9a bd 88 c0 34 3d de 56 87 bd
       -0.017064473 -0.0754145 0.044128925 -0.066083655
000030 73 0a 68 bd f8 fe 07 3d d4 52 de bd 56 57 8f 3d
       -0.05665059 0.03320214 -0.10855642 0.0699908
000040 31 0f b8 bc 84 14 88 bd 49 ae 9a 3c 5b 60 88 3d
       -0.022468181 -0.06644538 0.018881934 0.06659003
000050 77 c4 aa 3b 2a aa ce bd c1 d8 62 bd 4b 14 a0 3b
       0.0052114087 -0.1009105 -0.055382494 0.0048852316
000060 04 d0 0a bd 69 59 e6 bc eb 42 39 3c f2 8d 51 bd
       -0.033889785 -0.028118806 0.011307458 -0.05116076
000070 36 ab d6 bd 93 48 9e 3c ac 73 90 bd bc a2 4e bb
       -0.10481875 0.019321715 -0.07053313 -0.0031530103
000080 2a 4f 4f 3d 93 e6 cb bd a8 c2 5e 3c 68 d0 51 bd
       0.050612606 -0.09956088 0.013596214 -0.051224142
000090 2d 1a e6 3d 26 bc 10 3d cd e3 22 bc 17 e3 e5 3c
       0.112354614 0.035335682 -0.009942007 0.028062386
0000a0 64 29 9d 3d 22 97 4e bd 27 38 db bc 16 6f 29 3d
       0.0767391 -0.0504371 -0.026760174 0.041365705
0000b0 5a a5 ee 3a b2 d0 22 3c 1c b6 55 bd 1d fc b3 bd
       0.0018207238 0.009937452 -0.052175626 -0.08788321
0000c0 c9 67 96 bd 34 0d 8a ba 86 7c 49 3d dd b8 3e ba
       -0.07344014 -0.0010532499 0.04919102 -0.00072754716
0000d0 57 39 ce 3d 93 9b 51 bd c1 3b 4a 3d c1 d5 ed 3b
       0.100695305 -0.051173758 0.049373392 0.0072581475
0000e0 fb 8d 8c 3b e3 ab 28 bd 3f f5 65 bd 6c 32 64 3d
       0.0042893863 -0.04117955 -0.056142088 0.05571215
0000f0 b2 24 60 bc 77 1d c9 bd 3c 9f dd 3c 76 02 a5 3c
       -0.013680624 -0.09820073 0.027053468 0.020142775
000100 50 96 0f bd 91 02 c8 bd 23 b8 fe 3d 3d ed cf bd
       -0.03505546 -0.097661145 0.12437465 -0.101526715
000110 1c 3a ae bd 13 b3 b3 bd a2 a5 62 bd 64 d7 10 bd
       -0.08507177 -0.0877439 -0.05533374 -0.035361663
000120 ed 08 97 3d 0f 10 aa 3d 9e 6a 0a 3d 90 f6 95 3d
       0.07374749 0.08303844 0.033793084 0.07322419
000130 14 62 91 3d 05 92 f2 bd c0 88 98 bd 36 72 f8 3b
       0.07098785 -0.11844257 -0.07447958 0.0075819744
000140 0b e3 e4 3c 6b 31 96 3d 8e 04 46 3d 45 3f 81 bd
       0.027940294 0.073336445 0.048344187 -0.06310896
000150 d5 4f cc bd 08 0c 76 bd d7 c4 78 3d 8c 3f d1 3c
       -0.09976164 -0.060070068 0.060734596 0.025542997
000160 dc f2 8d bd f0 98 42 bd 06 e1 8c bd d0 05 c2 bd
       -0.069310874 -0.047509134 -0.06878857 -0.09473765
000170 32 a4 74 bd f1 20 b5 bb 5f 50 15 3d 26 00 62 bc
       -0.0597269 -0.0055276086 0.0364536 -0.013793981
000180 87 81 a2 bc 89 0f d7 bd 1a f4 a1 3d 70 00 9d bd
       -0.019837154 -0.1050101 0.07907887 -0.07666099
000190 c9 7b 0f bc d8 2d 26 bd d1 6c 5d bd 91 f4 99 3d
       -0.00875754 -0.040571064 -0.054058854 0.075173505
0001a0 71 b2 12 bc a1 f6 c6 3d 02 37 c0 bd 79 bf 0f 3d
       -0.008953677 0.097150095 -0.09385492 0.035094712
0001b0 1e 86 60 bc ca 22 52 3d c4 1a 00 bd 53 e2 fe bd
       -0.013703851 0.05130271 -0.031275526 -0.12445512
0001c0 85 e2 73 3d 5b 65 06 3d 9a 4e f0 bd 87 f8 b1 3c
       0.059542198 0.032811504 -0.11733742 0.021724952
0001d0 f2 1e ac 3a a2 c7 5a bc 09 f2 1e 3d 30 f8 22 3d
       0.0013131781 -0.01335326 0.03880504 0.03978747
0001e0 71 c6 62 3d 18 82 77 bc b5 e7 40 3d 73 d8 35 bd
       0.05536503 -0.0151067 0.047095973 -0.044395875
0001f0 19 fa 3b bc 80 a2 ec 3a 1a cc 82 bd 4f 0f 5d bd
       -0.011473202 0.00180538 -0.063865855 -0.053969678
000200 4b 62 c1 41 ac 58 c2 41 60 61 c1 41 16 29 c1 41
       24.172995 24.293297 24.172546 24.145061
000210 0e 88 c1 41 a6 5c c2 41 24 3c c1 41 64 56 c2 41
       24.191433 24.295238 24.154366 24.292183
000220 bd b8 c0 41 b4 86 c1 41 57 32 c1 41 48 47 c2 41
       24.090204 24.190773 24.14958 24.284805
000230 7a 2e c2 41 f0 c3 c0 41 61 ea c1 41 c4 bf c1 41
       24.272694 24.095673 24.239443 24.218636
000240 16 e8 c1 41 0b 0b c2 41 c2 51 c1 41 61 db c1 41
       24.238323 24.255392 24.16492 24.232119
000250 f0 63 c2 41 2c 6e c1 41 4f e1 c2 41 24 4b c2 41
       24.298798 24.178795 24.360014 24.28669
000260 88 25 c1 41 d0 64 c1 41 8c 17 c2 41 ef 28 c1 41
       24.143326 24.174225 24.261497 24.144987
000270 e2 2c c2 41 55 ce c1 41 a1 77 c2 41 50 2e c1 41
       24.271915 24.225748 24.308413 24.147614
000280 95 58 c2 41 ff c0 c1 41 d1 13 c2 41 97 1b c2 41
       24.293253 24.219236 24.259676 24.263472
000290 b7 be c2 41 63 ea c0 41 3b 24 c1 41 f2 05 c1 41
       24.343122 24.114447 24.14269 24.127903
0002a0 4b 18 c2 41 9d 53 c1 41 2a ea c1 41 90 f3 c1 41
       24.261862 24.165827 24.239338 24.243927
0002b0 c2 09 c2 41 fe 8e c1 41 d9 72 c1 41 cd 26 c1 41
       24.254765 24.19482 24.181078 24.143946
0002c0 2c 51 c1 41 84 0f c2 41 e0 59 c2 41 50 13 c2 41
       24.164635 24.257576 24.293884 24.25943
0002d0 3b 80 c2 41 7d 26 c1 41 df c4 c0 41 59 6c c1 41
       24.312613 24.143793 24.096128 24.177904
0002e0 80 31 c2 41 e6 77 c1 41 c6 6c c2 41 d1 23 c2 41
       24.27417 24.183544 24.303112 24.267488
0002f0 83 13 c1 41 ca 29 c2 41 c7 b6 c1 41 41 f7 c0 41
       24.134527 24.270405 24.214247 24.12073
000300 3c 35 c1 41 43 92 c1 41 52 f7 c1 41 14 2d c2 41
       24.150993 24.196417 24.245762 24.27201
000310 21 ae c2 41 86 d6 c1 41 83 31 c2 41 36 c8 c1 41
       24.335024 24.229748 24.274176 24.22276
000320 dd 30 c2 41 22 04 c2 41 6a cf c1 41 04 02 c2 41
       24.273859 24.252018 24.226276 24.250984
000330 bb 3d c2 41 f9 fb c1 41 92 f2 c1 41 7e 00 c2 41
       24.280142 24.248034 24.243443 24.25024
000340 86 ca c0 41 bb 90 c1 41 97 8d c0 41 92 f8 c0 41
       24.098888 24.19567 24.069136 24.121372
000350 70 12 c2 41 9a 85 c1 41 91 21 c2 41 f7 af c1 41
       24.259003 24.190235 24.26639 24.21092
000360 31 9b c2 41 2d d1 c1 41 6c e8 c1 41 fd 29 c2 41
       24.325777 24.227137 24.238487 24.270502
000370 8d 94 c2 41 44 52 c2 41 f3 a4 c1 41 11 38 c1 41
       24.322535 24.290169 24.205542 24.152376
000380 59 53 c1 41 3c 90 c2 41 b2 a2 c2 41 c6 7b c1 41
       24.165697 24.320427 24.329441 24.185436
000390 b3 1e c1 41 2c 63 c1 41 d4 fe c0 41 b0 9a c2 41
       24.13999 24.173424 24.124428 24.325531
0003a0 6a 6a c1 41 a3 51 c2 41 3f f4 c0 41 0a 31 c1 41
       24.17696 24.289862 24.11926 24.148945
0003b0 50 96 c1 41 5d de c1 41 17 4b c2 41 71 52 c1 41
       24.198395 24.233576 24.286665 24.165255
0003c0 26 ec c0 41 1f 7b c2 41 0d 02 c2 41 26 65 c2 41
       24.115307 24.310118 24.251001 24.299389
0003d0 bf 11 c2 41 7c ec c0 41 05 39 c1 41 aa ba c1 41
       24.258665 24.11547 24.152842 24.216145
0003e0 ee d6 c1 41 05 7a c2 41 e1 72 c2 41 81 45 c2 41
       24.229946 24.30958 24.306093 24.283937
0003f0 41 84 c1 41 4d fe c1 41 2b 5e c2 41 d2 68 c2 41
       24.189577 24.24917 24.29598 24.301182

seq.2.bias f4 [32]
000000 5b 81 67 3d 1f 89 ba 41 03 4c ba 41 24 43 22 3e
       0.056519847 23.316954 23.287115 0.15845925
000010 fa 76 d6 bc 39 05 b1 bc 66 d0 b9 41 ec 6e ba 41
       -0.02617978 -0.021608936 23.226757 23.304161
000020 6a 6a ba 41 0b 5f b8 41 9c 0e e0 3d 67 30 ba 41
       23.30196 23.046408 0.109402865 23.273634
000030 64 9b b9 41 9e 07 b9 41 06 af ba 41 9d 62 ca bd
       23.200874 23.12872 23.33546 -0.0988209
000040 c7 94 b9 41 f2 a6 b9 41 33 fb b9 41 60 62 9b bd
       23.197645 23.206516 23.247656 -0.07587123
000050 94 99 30 3d 9d d4 9d bb 9c 4f 0d 3e 12 08 a5 bd
       0.043115214 -0.0048166052 0.137999 -0.0805818
000060 23 b1 5c 3c ad af b9 41 57 68 74 3d 81 43 69 bd
       0.013469967 23.21078 0.05966982 -0.056949142
000070 5b 2c ba 41 dc 78 ba 41 83 28 99 39 8a 43 b4 bc
       23.271658 23.309013 0.00029212618 -0.022004861

seq.4.weight f4 [8, 32]
000000 b6 5f 15 3e 72 e3 bf 41 12 76 c0 41 cc de 07 3e
       0.14587292 23.986057 24.057652 0.13268584
000010 6d 47 bd 3d 74 65 9c bd af 07 c2 41 9c 11 c2 41
       0.09242139 -0.07636538 24.253752 24.258598
000020 f2 62 c1 41 08 90 bf 41 19 de fb bd 91 09 c2 41
       24.173313 23.945328 -0.12298221 24.254671
000030 d9 d5 c1 41 86 d1 c1 41 8e 67 c2 41 c0 27 21 3d
       24.229418 24.227306 24.300564 0.03934455
000040 92 0e c2 41 33 de c1 41 74 b2 c1 41 91 53 1f 3e
       24.257114 24.233496 24.212135 0.15559222
000050 b1 d3 ff 3d f9 fc 94 bd f2 e4 af bd 39 c4 96 bb
       0.12491549 -0.07274813 -0.0858859 -0.0046010283
000060 0a c6 12 3e cd 23 c0 41 15 f2 70 3b c3 c6 b1 bd
       0.14333358 24.01748 0.0036765386 -0.08680489
000070 67 cf c0 41 55 84 c2 41 10 d9 13 3e 53 40 2b be
       24.10127 24.314615 0.14438272 -0.16723756
000080 50 ec 00 be d7 93 7a bd 3c d3 cc 3d 6e f1 18 bd
       -0.12590146 -0.061176147 0.10001227 -0.03733962
000090 ac 9a 01 3e d2 ec 68 3d 99 0d bf 3d 2a 29 82 bd
       0.12656659 0.056866474 0.093287654 -0.06355508
0000a0 45 0e 76 bd 85 94 d1 bd fa ca 0c be 5f ff 4c 3c
       -0.060072202 -0.10233406 -0.13749304 0.012512057
0000b0 7f c3 09 be b7 6e 47 3e 2c 78 90 bd 30 b5 39 be
       -0.13453482 0.19475828 -0.07054171 -0.18135524
0000c0 31 b1 f9 3b d6 c4 f9 bb 87 0b 08 3e 0d 49 27 be
       0.00762 -0.0076223416 0.13285647 -0.1633646
0000d0 7a 7f 00 bd d9 53 30 3e 42 77 4d 3e b1 df b4 3d
       -0.03137157 0.17219485 0.20065024 0.08831728
0000e0 2e 49 d0 3c 68 aa 99 bc 64 1b 27 be 86 f4 f7 3d
       0.02542552 -0.018758014 -0.16319042 0.12107186
0000f0 a5 4f 1c be ca 15 be bd ab 62 d4 3d d7 fd c3 3d
       -0.15264757 -0.092815 0.10370382 0.095699005
000100 41 bc 05 be ae cc c2 41 6a 1d c3 41 64 fa c2 bc
       -0.13060094 24.349941 24.389362 -0.023801036
000110 5e c0 2b bc b5 95 8d 3d dc a5 c2 41 a6 17 c2 41
       -0.010482876 0.0691332 24.330986 24.261547
000120 e5 f5 c1 41 f9 c9 c3 41 d3 b0 f9 bd 9c 80 c3 41
       24.245066 24.47362 -0.1219193 24.437798
000130 a5 cd c3 41 b7 f3 c3 41 63 a2 c2 41 44 93 7b bc
       24.475412 24.494001 24.32929 -0.015354935
000140 aa ff c3 41 3f e3 c2 41 1a d7 c2 41 db d5 e7 3d
       24.499836 24.36096 24.35503 0.113200866
000150 36 d7 bc 3d bf e5 a5 bd 06 b7 1a bd 69 dc 0f 3e
       0.09220736 -0.08100461 -0.0377722 0.14048924
000160 35 65 1c be 4d eb c3 41 ee b4 f7 bd 49 c4 16 bd
       -0.15272982 24.489893 -0.120950565 -0.036808286
000170 fd df c2 41 45 19 c3 41 3b 85 13 be 37 6b ec 3b
       24.35937 24.387339 -0.14406292 0.0072149294
000180 b3 b6 f4 3d 1e 79 f0 3d 96 dc 1b 3e 14 f7 b1 bd
       0.119489096 0.11741851 0.15220866 -0.086897045
000190 07 40 60 bd 9d 3d 18 3e c3 bf 9d bd 9e a6 af 3b
       -0.05474856 0.14867254 -0.07702591 0.0053604385
0001a0 0a 36 cd bd 76 55 da bd 4f 71 43 be 79 c3 f0 bd
       -0.10020073 -0.10660832 -0.19086193 -0.117560335
0001b0 f4 3a 8d bb 81 bf 96 3d cd be 82 3d b3 33 d9 3d
       -0.0043100063 0.07360745 0.063840486 0.10605564
0001c0 33 77 ac 3d 0d 59 34 be d2 ff f6 bd 41 a5 d9 3c
       0.08421173 -0.17612095 -0.120605126 0.026568057
0001d0 e9 2c f3 bd 58 94 e1 bd 62 9b a2 3d 8f e4 e6 bc
       -0.118738 -0.110146224 0.07939793 -0.028185157
0001e0 a4 11 1f be d6 24 12 be c4 7e e7 bd 81 a3 b7 bc
       -0.15534073 -0.14271864 -0.113034755 -0.022416832
0001f0 31 30 cc 3d 78 cd bf bd 01 1d 0b be f1 f4 06 3e
       0.09970129 -0.09365362 -0.13585283 0.13179375
000200 57 83 19 bd d0 c4 fa bc da 4b c1 3d 55 62 1a be
       -0.03747877 -0.030611426 0.09438296 -0.15076573
000210 05 f7 2f be 07 d9 0f be 88 76 b8 3d 6b 03 13 be
       -0.17184074 -0.14047633 0.09006983 -0.14356773
000220 81 0f 17 be a7 3d 28 3e 2c d8 31 bd f2 dc 48 3c
       -0.14752008 0.16429769 -0.04341905 0.012259709
000230 71 27 e2 bc 82 22 33 be dc 18 22 3e 70 a1 ef bd
       -0.027606698 -0.17493632 0.15829796 -0.11700714
000240 5c e1 03 be 1d 06 d0 3d 65 86 e9 bd d2 ba 18 bd
       -0.12878937 0.10157416 -0.11402587 -0.03728754
000250 6e 55 aa bb 25 56 24 3e 2e e5 cd bd 87 a7 77 bd
       -0.0051981723 0.16048487 -0.10053478 -0.0604625
000260 ee 19 cc 3c 55 7d d7 bd b9 ac d0 bd 05 4a f9 bd
       0.024914708 -0.10521952 -0.10189194 -0.12172321
000270 c2 b5 15 be d6 43 ed 3d 1d 20 f7 3d 1f 17 3f bd
       -0.14620116 0.11585204 0.12066672 -0.04665291
000280 12 b8 fa bd 1b 55 88 bd 6f ac 9c bd 7e 8a 3e 3e
       -0.1224214 -0.066568576 -0.076500766 0.18607518
000290 f8 12 43 3d 00 43 13 be a4 64 c0 3d ef f7 d4 3d
       0.047625512 -0.14381027 0.09394196 0.10398852
0002a0 df 21 04 be 54 ac 4e be 17 41 c8 3d 10 17 83 bd
       -0.12903546 -0.20182925 0.0977804 -0.06400883
0002b0 59 b3 18 bd 6f 2a 40 bc 24 3e 0b be 40 55 82 bd
       -0.037280414 -0.011728867 -0.13597924 -0.063639164
0002c0 e1 cc 96 3d 7e f5 fb 3d 30 b4 09 3e db 85 98 bd
       0.07363296 0.12302683 0.13447642 -0.07447406
0002d0 6c b0 e0 bd 78 06 b1 bc 09 39 71 bd 8e fa 90 3d
       -0.1097115 -0.02160953 -0.058892284 0.070790395
0002e0 87 f1 45 3d 94 90 be bd 09 cb 28 3c fd f4 82 bd
       0.04832604 -0.0930492 0.010302314 -0.06394384
0002f0 54 5c 9e bd 55 3f 0d 3e f1 84 db 3d b9 fc b9 3c
       -0.07732454 0.1379369 0.10718716 0.022703515
000300 0a 4e be bc e0 aa 92 3d 11 e5 9b bb ee 5f fa bd
       -0.023230571 0.07161498 -0.0047575315 -0.122253284
000310 dd c7 41 bc 0c 80 95 3d f1 b6 3a bc 82 5c 16 3e
       -0.011827436 0.07299814 -0.011396156 0.14683726
000320 a0 5e 9e 3d e5 dd 9a bd a3 e6 5b be 03 2a fd bd
       0.07732892 -0.07561854 -0.214747 -0.12361529
000330 63 ba 4c 3c aa 06 86 3d 1c b4 81 bd b8 f7 38 be
       0.01249561 0.0654424 -0.06333181 -0.18063247
000340 b9 e2 11 be 17 4b 9d 3d 39 dd 09 3d 55 6d a7 3d
       -0.14246644 0.07680338 0.03365824 0.0817515
000350 da 5f 0f 3e 0c fd 08 be 65 40 00 3e 67 40 e3 bd
       0.14001408 -0.1337778 0.12524565 -0.11096268
000360 59 d6 46 be 0b 24 b7 3c 16 8e 6d bd e8 bf f3 bd
       -0.19417705 0.022356054 -0.05799683 -0.119018376
000370 56 ed 6c be 64 19 2d 3d 98 a7 85 bd ef 01 32 3e
       -0.23137411 0.042260543 -0.065261066 0.1738355
000380 37 af 86 3d c7 aa 44 3d a8 6f b1 bd 52 32 12 3e
       0.06576388 0.04801443 -0.08663875 0.14277008
000390 a9 34 3a bd 73 e9 fd 3c cd c7 42 3e 3f 4c ce 3d
       -0.045460377 0.030995106 0.1902153 0.100731365
0003a0 ae e0 aa 3d 60 1c 09 3c 0d f6 df bc ff 3d 27 be
       0.083436355 0.0083685815 -0.027339006 -0.16332243
0003b0 14 0d c0 3d bf 05 02 be 87 a8 1b 3e 1a ae 46 bd
       0.093774945 -0.12697504 0.15201007 -0.04850588
0003c0 08 75 7b be 00 a0 a2 bd 3a 22 c5 3d 2f d4 16 be
       -0.24556363 -0.07940674 0.09625669 -0.14729379
0003d0 8e b5 eb bd 5a ce 1c 3d 7a b3 1b 3e 95 e6 23 bd
       -0.11509238 0.03828273 0.15205184 -0.040014822
0003e0 a0 1d 9f bd 42 40 e9 bd c9 94 2d 3e dc fb d3 3d
       -0.077693224 -0.11389209 0.16951288 0.10350773
0003f0 2e 3f 34 be db 45 fa 3d cc 74 11 be 88 7c c9 bd
       -0.17602226 0.12220355 -0.1420471 -0.098382056

seq.4.bias f4 [8]
000000 e4 8e aa 41 a0 7d bd bb 59 ab a8 41 b2 c3 0b 3e
       21.31977 -0.005782798 21.083666 0.1364887
000010 7c 9d 23 3d a7 ad 79 3e 67 f0 f1 bc 1f 1e bd 3d
       0.03994511 0.2438265 -0.029533578 0.09234261

seq.6.weight f4 [4, 8]
000000 34 7b 29 41 ce 29 ba 3e ed 71 34 41 51 22 6f be
       10.592579 0.3636002 11.277814 -0.23352934
000010 6f d6 89 3d 94 ee 80 be 4e 22 ae 3e eb 06 69 bb
       0.06730353 -0.2518202 0.34010547 -0.0035557102
000020 a6 20 bb 41 af c6 ba 3e f5 86 ba 41 05 9b a0 3e
       23.390942 0.3647971 23.315897 0.3136827
000030 c1 43 18 be 19 2d 6a be a1 4a 7b be 5d 33 b3 be
       -0.14869596 -0.22868766 -0.24540187 -0.35000125
000040 e7 9b 31 41 57 40 19 be e1 72 35 41 c0 10 ae be
       11.100562 -0.1496595 11.340547 -0.33997154
000050 52 25 93 3d 68 3b 0a be e9 96 15 be cb 78 f3 3d
       0.07184853 -0.13499224 -0.14608349 0.11888274
000060 8d d8 a9 41 3f 2a de bd 8c 14 ae 41 40 34 51 3e
       21.230738 -0.108479016 21.760033 0.20430088
000070 26 cf 8e 3e d3 a6 c8 be 9e 50 74 be e2 e8 1d be
       0.27892417 -0.39189777 -0.23858878 -0.15420869

seq.6.bias f4 [4]
000000 d0 94 6c 41 91 3c 92 41 d8 5c 6c 41 1d 65 89 41
       14.786331 18.279573 14.772667 17.174372
