training/models/environment_traffic_lights/1639385777/checkpoints/ep00125.pt (torch, 28751 bytes, 8 tensors)

seq.0.weight f4 [128, 16]
0	0x42c91625	100.54325
1	0x42c7f97c	99.987274
2	0x42c67f1a	99.248245
3	0x42b1db36	88.92815
4	0x42c88aab	100.270836
5	0x42c8f4cf	100.47814
6	0x42c7f4a0	99.97778
7	0x42a162f0	80.69324
8	0x42c83f17	100.12322
9	0x42c8153f	100.0415
10	0x42c54d35	98.650795
11	0x42b07545	88.22904
12	0x42c8986a	100.29768
13	0x42c89144	100.28372
14	0x42c793d7	99.78875
15	0x42a103c8	80.507385
16	0x42c88b45	100.27201
17	0x42c7640e	99.69542
18	0x42c5d6dd	98.919655
19	0x42b249ad	89.1439
20	0x42c8c312	100.381
21	0x42c88822	100.265884
22	0x42c805fe	100.0117
23	0x42a11104	80.53323
24	0x42c8ca94	100.39566
25	0x42c7434f	99.63146
26	0x42c5bbf4	98.867096
27	0x42b0a78b	88.32723
28	0x42c94ee6	100.6541
29	0x42c951b8	100.65961
30	0x42c7a51f	99.8225
31	0x42a09316	80.28728
32	0x42c9096d	100.51841
33	0x42c8341a	100.10176
34	0x42c63d25	99.11942
35	0x42b23b3c	89.11569
36	0x42c92d7f	100.58886
37	0x42c8edb4	100.464264
38	0x42c8250d	100.072365
39	0x42a10a0b	80.519615
40	0x42c80e41	100.02784
41	0x42c80871	100.01649
42	0x42c5aaac	98.83334
43	0x42b0dc54	88.43033
44	0x42c9ab4e	100.83458
45	0x42c900d6	100.50163
46	0x42c77582	99.72951
47	0x42a0f9ba	80.48775
48	0x42c8fe35	100.4965
49	0x42c7cdd8	99.90204
50	0x42c64a45	99.14506
51	0x42b2a5bd	89.32371
52	0x42c8cd4e	100.400986
53	0x42c94b2e	100.646835
54	0x42c80a7f	100.0205
55	0x42a19bc2	80.804214
56	0x42c7fd5d	99.99485
57	0x42c74743	99.63918
58	0x42c62869	99.078926
59	0x42b10031	88.500374
60	0x42c9954b	100.79159
61	0x42c90934	100.517975
62	0x42c863b8	100.19476
63	0x42a0adf2	80.33974
64	0x42c87226	100.222946
65	0x42c7a5d8	99.82391
66	0x42c6687f	99.204094
67	0x42b28881	89.26661
68	0x42c8c257	100.37957
69	0x42c89c02	100.3047
70	0x42c80ab2	100.02089
71	0x42a103dd	80.507545
72	0x42c8c8b3	100.39199
73	0x42c741cd	99.62852
74	0x42c562ef	98.69323
75	0x42b0b5f1	88.355354
76	0x42c927da	100.577835
77	0x42c98568	100.76056
78	0x42c86ffb	100.21871
79	0x42a0749c	80.22775
80	0x42c8cb19	100.396675
81	0x42c74f08	99.65436
82	0x42c67c68	99.24298
83	0x42b20d29	89.0257
84	0x42c92c5b	100.58663
85	0x42c95889	100.67292
86	0x42c7e2b7	99.9428
87	0x42a1967a	80.7939
88	0x42c86759	100.20185
89	0x42c7e1b2	99.94081
90	0x42c56c70	98.71179
91	0x42b13422	88.60182
92	0x42c8c39b	100.38204
93	0x42c8e669	100.45002
94	0x42c83ba2	100.11647
95	0x42a1218d	80.56553
96	0x42c8a469	100.32111
97	0x42c827cf	100.07775
98	0x42c69fac	99.31186
99	0x42b2808a	89.25105
100	0x42c916f2	100.544815
101	0x42c901de	100.50365
102	0x42c7fd2c	99.99448
103	0x42a1df71	80.93641
104	0x42c84ad4	100.14615
105	0x42c7beed	99.8729
106	0x42c5c96f	98.893425
107	0x42b0d471	88.414925
108	0x42c999be	100.80028
109	0x42c8dc8b	100.43075
110	0x42c7d6ff	99.919914
111	0x42a0b882	80.36037
112	0x42c8cc70	100.39929
113	0x42c7a3e9	99.82014
114	0x42c62af8	99.08392
115	0x42b280e4	89.25174
116	0x42c8c1d1	100.37855
117	0x42c89fca	100.31209
118	0x42c79b8b	99.803795
119	0x42a14fe1	80.65601
120	0x42c87257	100.22332
121	0x42c7aaae	99.83336
122	0x42c5ac8f	98.83703
123	0x42b0dda4	88.43289
124	0x42c906c5	100.51322
125	0x42c8f1cd	100.47227
126	0x42c73991	99.612434
127	0x42a06980	80.206055
128	0x42c8de7d	100.43455
129	0x42c7edf4	99.96475
130	0x42c63551	99.10413
131	0x42b22ade	89.083725
132	0x42c8d63b	100.41842
133	0x42c91a93	100.5519
134	0x42c89275	100.28605
135	0x42a1bdc2	80.87062
136	0x42c852a7	100.16143
137	0x42c7dc40	99.930176
138	0x42c55c1b	98.67989
139	0x42b0e305	88.4434
140	0x42c91861	100.547615
141	0x42c93641	100.605965
142	0x42c88297	100.25506
143	0x42a12b3c	80.58444
144	0x42c844a9	100.1341
145	0x42c7e766	99.95195
146	0x42c679b9	99.23774
147	0x42b26ed6	89.21648
148	0x42c8a586	100.32329
149	0x42c8b3e0	100.35132
150	0x42c7a0ca	99.81404
151	0x42a10712	80.51381
152	0x42c8da12	100.42592
153	0x42c73827	99.60967
154	0x42c5a519	98.82246
155	0x42b16383	88.69436
156	0x42c90a64	100.520294
157	0x42c8eda1	100.46412
158	0x42c80ba9	100.02277
159	0x42a0b1a2	80.34694
160	0x42c91e8d	100.55967
161	0x42c82944	100.0806
162	0x42c5ffb0	98.99939
163	0x42b25ca2	89.18092
164	0x42c8e7ff	100.45312
165	0x42c84ead	100.15366
166	0x42c7c999	99.893745
167	0x42a1e30f	80.943474
168	0x42c8eb56	100.45964
169	0x42c77755	99.73307
170	0x42c5b4aa	98.85286
171	0x42b0892c	88.267914
172	0x42c90c17	100.52361
173	0x42c92880	100.5791
174	0x42c75e26	99.68388
175	0x42a0d4a7	80.41534
176	0x42c90d86	100.52641
177	0x42c7a2ff	99.81835
178	0x42c68813	99.26577
179	0x42b201de	89.00365
180	0x42c8bf26	100.37334
181	0x42c9336b	100.600426
182	0x42c851d1	100.1598
183	0x42a17319	80.7248
184	0x42c8be1b	100.3713
185	0x42c749da	99.64424
186	0x42c5bd7a	98.87007
187	0x42b0b2ce	88.34923
188	0x42c985e2	100.76149
189	0x42c8913c	100.28366
190	0x42c7ecea	99.96272
191	0x42a08bbf	80.27294
192	0x42c9340a	100.60164
193	0x42c80ed0	100.02893
194	0x42c5fc89	98.99323
195	0x42b1f3d3	88.97622
196	0x42c89ae4	100.30252
197	0x42c88109	100.25202
198	0x42c7d541	99.91651
199	0x42a127a4	80.57742
200	0x42c875b9	100.22993
201	0x42c78911	99.76771
202	0x42c5cf45	98.90482
203	0x42b0e1c2	88.44093
204	0x42c94678	100.637634
205	0x42c880d4	100.25162
206	0x42c75d23	99.68191
207	0x42a0c50f	80.38488
208	0x42c82e94	100.09097
209	0x42c7db7b	99.92867
210	0x42c61629	99.04328
211	0x42b21fe5	89.062294
212	0x42c9555e	100.66673
213	0x42c8dc12	100.429825
214	0x42c88f4e	100.27989
215	0x42a1d33d	80.912575
216	0x42c8a128	100.31476
217	0x42c7854b	99.76034
218	0x42c5d121	98.908455
219	0x42b0fa3d	88.48875
220	0x42c98c54	100.77408
221	0x42c88840	100.26611
222	0x42c850f8	100.15814
223	0x42a111d8	80.53485
224	0x42c8f722	100.48268
225	0x42c75ff2	99.68739
226	0x42c5cc40	98.898926
227	0x42b21892	89.04799
228	0x42c96e0d	100.71494
229	0x42c8e373	100.44424
230	0x42c805f0	100.0116
231	0x42a1cfbb	80.90572
232	0x42c8cc0b	100.39852
233	0x42c7cb89	99.89753
234	0x42c6396e	99.11217
235	0x42b0b2cc	88.34921
236	0x42c9383b	100.609825
237	0x42c95c5d	100.6804
238	0x42c78873	99.7665
239	0x42a1425c	80.62961
240	0x42c8a3b1	100.31971
241	0x42c7b6e6	99.85722
242	0x42c5e791	98.95228
243	0x42b2b08b	89.34481
244	0x42c9471f	100.63891
245	0x42c8fc28	100.49249
246	0x42c83fb6	100.124435
247	0x42a11a5c	80.55148
248	0x42c83795	100.10856
249	0x42c81052	100.031876
250	0x42c575e7	98.73028
251	0x42b0d600	88.41797
252	0x42c93a07	100.613335
253	0x42c8a816	100.32829
254	0x42c7c19c	99.87814
255	0x42a0d113	80.40835

seq.0.bias f4 [128]
0	0x42d00d82	104.02638
1	0x42d0e35d	104.44407
2	0x42d0c799	104.38984
3	0x42d05b3a	104.17818
4	0x42d04e64	104.15311
5	0x42d02e5f	104.09057
6	0x42d0b6ea	104.357254
7	0x42d02a83	104.08303
8	0x42d03e74	104.12198
9	0x42d02f6c	104.09262
10	0x42d058c5	104.17338
11	0x42d06861	104.203865
12	0x42d0aa7a	104.33296
13	0x42d031ab	104.09701
14	0x42d07707	104.232475
15	0x42d02d1c	104.088104
16	0x42d09290	104.286255
17	0x42d0ab5a	104.33467
18	0x42d0d6e8	104.41974
19	0x42d04365	104.13163
20	0x42d0c86c	104.39145
21	0x42d0dc39	104.43012
22	0x42d0ee48	104.46539
23	0x42d06439	104.19575
24	0x42d109df	104.51928
25	0x42d061b8	104.19086
26	0x42d0cdda	104.402054
27	0x42d0ed97	104.46404
28	0x42d0489d	104.14182
29	0x42d11626	104.54326
30	0x42d1060d	104.51182
31	0x42d0b3bf	104.35107
32	0x42d095de	104.29271
33	0x42d070c5	104.22025
34	0x42d0dec7	104.43511
35	0x42d03dbe	104.12059
36	0x42d0915d	104.28391
37	0x42d09b4f	104.30334
38	0x42d010fa	104.03316
39	0x42d07d6c	104.244965
40	0x42d0c248	104.379456
41	0x42d0d3b7	104.413506
42	0x42d000d0	104.00159
43	0x42d00219	104.0041
44	0x42d03fcb	104.124596
45	0x42d114cd	104.54063
46	0x42d06227	104.1917
47	0x42d0f15e	104.47142
48	0x42d0e254	104.44205
49	0x42d078ac	104.23569
50	0x42d0140a	104.03914
51	0x42d0f5de	104.48021
52	0x42d05b82	104.17873
53	0x42d0b314	104.34976
54	0x42d04019	104.12519
55	0x42d0b453	104.352196
56	0x42d0d31f	104.412346
57	0x42d09f40	104.311035
58	0x42d0097e	104.01854
59	0x42d1296b	104.580894
60	0x42d053c4	104.163605
61	0x42d00078	104.000916
62	0x42d09c59	104.30537
63	0x42d0dd04	104.43167
64	0x42d0d7ce	104.42149
65	0x42d02437	104.07073
66	0x42d03c22	104.11745
67	0x42d08d1a	104.27559
68	0x42d0a72b	104.3265
69	0x42d07000	104.21875
70	0x42d0d5f2	104.41786
71	0x42d09ead	104.30991
72	0x42d09577	104.29192
73	0x42d0d872	104.422745
74	0x42d07a70	104.239136
75	0x42d07881	104.23536
76	0x42d0c1f8	104.378845
77	0x42d0b891	104.36048
78	0x42d024c2	104.07179
79	0x42d0f0ee	104.470566
80	0x42d08b8a	104.27254
81	0x42d0b3ba	104.35103
82	0x42d0816d	104.252785
83	0x42d0b880	104.36035
84	0x42d0bb4a	104.3658
85	0x42d02758	104.07684
86	0x42d0d125	104.408485
87	0x42d07061	104.21949
88	0x42d03c8c	104.118256
89	0x42d06142	104.18996
90	0x42d06a73	104.20791
91	0x42d042af	104.13024
92	0x42d03ccc	104.118744
93	0x42d0b09a	104.344925
94	0x42d0631b	104.193565
95	0x42d0b377	104.35052
96	0x42d0eed9	104.4665
97	0x42d01988	104.049866
98	0x42d05521	104.16627
99	0x42d08ed0	104.27893
100	0x42d0e5e1	104.44898
101	0x42d01818	104.04706
102	0x42d0a193	104.315575
103	0x42d0260a	104.074295
104	0x42d0581f	104.17211
105	0x42d039b1	104.11268
106	0x42d01603	104.04299
107	0x42d06e04	104.214874
108	0x42d0d4d7	104.4157
109	0x42d0fc1e	104.49242
110	0x42d04f54	104.15494
111	0x42d0383d	104.10984
112	0x42d0bfdd	104.37473
113	0x42d0a0c7	104.31402
114	0x42d06934	104.205475
115	0x42d09700	104.29492
116	0x42d042f4	104.13077
117	0x42d08277	104.254814
118	0x42d0ce8c	104.40341
119	0x42d1016b	104.50277
120	0x42d098b7	104.29827
121	0x42d1072f	104.51403
122	0x42d016a8	104.04425
123	0x42d0cf58	104.40497
124	0x42d04208	104.12897
125	0x42d091ce	104.284775
126	0x42d02def	104.089714
127	0x42d08c2f	104.273796

seq.2.weight f4 [32, 128]
0	0xbd3c1ba4	-0.045924798
1	0xbd1a1c3d	-0.037624586
2	0x3ceb0995	0.028691093
3	0xbd16ada0	-0.036786675
4	0x3d80d25c	0.06290123
5	0xbd515ae7	-0.05111208
6	0xbd19ea6f	-0.03757709
7	0x3d0cff12	0.03442294
8	0xbc8bcacb	-0.017064473
9	0xbd9a72eb	-0.0754145
10	0x3d34c088	0.044128925
11	0xbd8756de	-0.066083655
12	0xbd680a73	-0.05665059
13	0x3d07fef8	0.03320214
14	0xbdde52d4	-0.10855642
15	0x3d8f5756	0.0699908
16	0xbcb80f31	-0.022468181
17	0xbd881484	-0.06644538
18	0x3c9aae49	0.018881934
19	0x3d88605b	0.06659003
20	0x3baac477	0.0052114087
21	0xbdceaa2a	-0.1009105
22	0xbd62d8c1	-0.055382494
23	0x3ba0144b	0.0048852316
24	0xbd0ad004	-0.033889785
25	0xbce65969	-0.028118806
26	0x3c3942eb	0.011307458
27	0xbd518df2	-0.05116076
28	0xbdd6ab36	-0.10481875
29	0x3c9e4893	0.019321715
30	0xbd9073ac	-0.07053313
31	0xbb4ea2bc	-0.0031530103
32	0x3d4f4f2a	0.050612606
33	0xbdcbe693	-0.09956088
34	0x3c5ec2a8	0.013596214
35	0xbd51d068	-0.051224142
36	0x3de61a2d	0.112354614
37	0x3d10bc26	0.035335682
38	0xbc22e3cd	-0.009942007
39	0x3ce5e317	0.028062386
40	0x3d9d2964	0.0767391
41	0xbd4e9722	-0.0504371
42	0xbcdb3827	-0.026760174
43	0x3d296f16	0.041365705
44	0x3aeea55a	0.0018207238
45	0x3c22d0b2	0.009937452
46	0xbd55b61c	-0.052175626
47	0xbdb3fc1d	-0.08788321
48	0xbd9667c9	-0.07344014
49	0xba8a0d34	-0.0010532499
50	0x3d497c86	0.04919102
51	0xba3eb8dd	-0.00072754716
52	0x3dce3957	0.100695305
53	0xbd519b93	-0.051173758
54	0x3d4a3bc1	0.049373392
55	0x3bedd5c1	0.0072581475
56	0x3b8c8dfb	0.0042893863
57	0xbd28abe3	-0.04117955
58	0xbd65f53f	-0.056142088
59	0x3d64326c	0.05571215
60	0xbc6024b2	-0.013680624
61	0xbdc91d77	-0.09820073
62	0x3cdd9f3c	0.027053468
63	0x3ca50276	0.020142775
64	0xbd0f9650	-0.03505546
65	0xbdc80291	-0.097661145
66	0x3dfeb823	0.12437465
67	0xbdcfed3d	-0.101526715
68	0xbdae3a1c	-0.08507177
69	0xbdb3b313	-0.0877439
70	0xbd62a5a2	-0.05533374
71	0xbd10d764	-0.035361663
72	0x3d9708ed	0.07374749
73	0x3daa100f	0.08303844
74	0x3d0a6a9e	0.033793084
75	0x3d95f690	0.07322419
76	0x3d916214	0.07098785
77	0xbdf29205	-0.11844257
78	0xbd9888c0	-0.07447958
79	0x3bf87236	0.0075819744
80	0x3ce4e30b	0.027940294
81	0x3d96316b	0.073336445
82	0x3d46048e	0.048344187
83	0xbd813f45	-0.06310896
84	0xbdcc4fd5	-0.09976164
85	0xbd760c08	-0.060070068
86	0x3d78c4d7	0.060734596
87	0x3cd13f8c	0.025542997
88	0xbd8df2dc	-0.069310874
89	0xbd4298f0	-0.047509134
90	0xbd8ce106	-0.06878857
91	0xbdc205d0	-0.09473765
92	0xbd74a432	-0.0597269
93	0xbbb520f1	-0.0055276086
94	0x3d15505f	0.0364536
95	0xbc620026	-0.013793981
96	0xbca28187	-0.019837154
97	0xbdd70f89	-0.1050101
98	0x3da1f41a	0.07907887
99	0xbd9d0070	-0.07666099
100	0xbc0f7bc9	-0.00875754
101	0xbd262dd8	-0.040571064
102	0xbd5d6cd1	-0.054058854
103	0x3d99f491	0.075173505
104	0xbc12b271	-0.008953677
105	0x3dc6f6a1	0.097150095
106	0xbdc03702	-0.09385492
107	0x3d0fbf79	0.035094712
108	0xbc60861e	-0.013703851
109	0x3d5222ca	0.05130271
110	0xbd001ac4	-0.031275526
111	0xbdfee253	-0.12445512
112	0x3d73e285	0.059542198
113	0x3d06655b	0.032811504
114	0xbdf04e9a	-0.11733742
115	0x3cb1f887	0.021724952
116	0x3aac1ef2	0.0013131781
117	0xbc5ac7a2	-0.01335326
118	0x3d1ef209	0.03880504
119	0x3d22f830	0.03978747
120	0x3d62c671	0.05536503
121	0xbc778218	-0.0151067
122	0x3d40e7b5	0.047095973
123	0xbd35d873	-0.044395875
124	0xbc3bfa19	-0.011473202
125	0x3aeca280	0.00180538
126	0xbd82cc1a	-0.063865855
127	0xbd5d0f4f	-0.053969678
128	0x42d1a8ed	104.82993
129	0x42d1e63d	104.949684
130	0x42d1a751	104.82679
131	0x42d19907	104.79888
132	0x42d1b189	104.84675
133	0x42d1e674	104.9501
134	0x42d19de1	104.80836
135	0x42d1e603	104.94924
136	0x42d17cf8	104.74408
137	0x42d1b1be	104.84715
138	0x42d19c3c	104.805145
139	0x42d1e0f6	104.93938
140	0x42d1dbcd	104.9293
141	0x42d17fd2	104.74965
142	0x42d1c946	104.89311
143	0x42d1bf7e	104.87401
144	0x42d1cbbe	104.897934
145	0x42d1d2ab	104.91146
146	0x42d1a4b3	104.82168
147	0x42d1c7f8	104.890564
148	0x42d1e904	104.95511
149	0x42d1ab08	104.834045
150	0x42d208c5	105.01713
151	0x42d1e47c	104.94626
152	0x42d198db	104.798546
153	0x42d1a88d	104.8292
154	0x42d1d53c	104.91647
155	0x42d199c4	104.80032
156	0x42d1db3f	104.928215
157	0x42d1c30f	104.880974
158	0x42d1ed40	104.96338
159	0x42d19a63	104.80154
160	0x42d1e694	104.95035
161	0x42d1bfb2	104.874405
162	0x42d1d54d	104.9166
163	0x42d1d66f	104.918816
164	0x42d2014e	105.00255
165	0x42d1897b	104.76852
166	0x42d19847	104.79742
167	0x42d1918b	104.78426
168	0x42d1d6af	104.919304
169	0x42d1a4da	104.821976
170	0x42d1cb4b	104.89706
171	0x42d1cf9d	104.905495
172	0x42d1d201	104.910164
173	0x42d1b2b5	104.84904
174	0x42d1ae51	104.84046
175	0x42d19938	104.799255
176	0x42d1a341	104.818855
177	0x42d1d357	104.91277
178	0x42d1e6ee	104.951035
179	0x42d1d557	104.91668
180	0x42d1f054	104.96939
181	0x42d198b5	104.798256
182	0x42d1853e	104.76024
183	0x42d1aa44	104.83255
184	0x42d1dbd6	104.92937
185	0x42d1ad32	104.83827
186	0x42d1eaf1	104.95887
187	0x42d1d8ba	104.923294
188	0x42d194b6	104.79045
189	0x42d1d99c	104.92502
190	0x42d1bd28	104.869446
191	0x42d18d65	104.77616
192	0x42d19d56	104.8073
193	0x42d1b3c3	104.8511
194	0x42d1d03b	104.9067
195	0x42d1dac5	104.927284
196	0x42d1fc4b	104.99276
197	0x42d1c533	104.885155
198	0x42d1db8f	104.928825
199	0x42d1c1cd	104.87852
200	0x42d1dc3b	104.93014
201	0x42d1d025	104.90653
202	0x42d1c2bf	104.88036
203	0x42d1cfb4	104.90567
204	0x42d1e1fa	104.94136
205	0x42d1ced7	104.903984
206	0x42d1cc85	104.89945
207	0x42d1cee5	104.90409
208	0x42d18162	104.7527
209	0x42d1b468	104.852356
210	0x42d172b0	104.724
211	0x42d18d2e	104.77574
212	0x42d1d3e9	104.91389
213	0x42d1b086	104.84477
214	0x42d1d797	104.921074
215	0x42d1bc51	104.867805
216	0x42d1f734	104.98282
217	0x42d1c3a7	104.88213
218	0x42d1c9e2	104.8943
219	0x42d1d9e7	104.92559
220	0x42d1f71a	104.98262
221	0x42d1e453	104.945946
222	0x42d1b8d2	104.86098
223	0x42d19ccb	104.80624
224	0x42d1a592	104.82338
225	0x42d1f3ab	104.975914
226	0x42d1f92b	104.98666
227	0x42d1ae6a	104.84065
228	0x42d1960a	104.793045
229	0x42d1a853	104.82876
230	0x42d18ebd	104.778786
231	0x42d1f66b	104.981285
232	0x42d1acb1	104.83729
233	0x42d1e6cd	104.95078
234	0x42d18c12	104.773575
235	0x42d19aca	104.80232
236	0x42d1b489	104.85261
237	0x42d1c714	104.888824
238	0x42d1e2cb	104.942955
239	0x42d1a3a8	104.81964
240	0x42d18a97	104.77068
241	0x42d1f048	104.9693
242	0x42d1cfab	104.9056
243	0x42d1e8e2	104.95485
244	0x42d1d378	104.913025
245	0x42d18b48	104.77203
246	0x42d19d2d	104.806984
247	0x42d1bde6	104.870895
248	0x42d1c5be	104.886215
249	0x42d1edfb	104.964806
250	0x42d1ed25	104.96317
251	0x42d1e0ae	104.93883
252	0x42d1b144	104.84622
253	0x42d1cfb6	104.905685
254	0x42d1e79e	104.95238
255	0x42d1e99c	104.95627

seq.2.bias f4 [32]
0	0x3d67815b	0.056519847
1	0x42caf8c6	101.485886
2	0x42cae8d3	101.454735
3	0x3e224324	0.15845925
4	0xbcd676fa	-0.02617978
5	0xbcb10539	-0.021608936
6	0x42cac924	101.39285
7	0x42caf126	101.47099
8	0x42caf09c	101.46994
9	0x42ca6dcf	101.21447
10	0x3de00e9c	0.109402865
11	0x42cae070	101.438354
12	0x42cabb1e	101.36546
13	0x42ca961c	101.29318
14	0x42cb007e	101.50096
15	0xbdca629d	-0.0988209
16	0x42cab928	101.36163
17	0x42cabeb3	101.37246
18	0x42cad3f3	101.41396
19	0xbd9b6260	-0.07587123
20	0x3d309994	0.043115214
21	0xbb9dd49d	-0.0048166052
22	0x3e0d4f9c	0.137999
23	0xbda50812	-0.0805818
24	0x3c5cb123	0.013469967
25	0x42cac168	101.37775
26	0x3d746857	0.05966982
27	0xbd694381	-0.056949142
28	0x42cae0d6	101.43913
29	0x42caf27e	101.47362
30	0x39992883	0.00029212618
31	0xbcb4438a	-0.022004861

seq.4.weight f4 [8, 32]
0	0x3e155fb6	0.14587292
1	0x42d14300	104.63086
2	0x42d16762	104.70192
3	0x3e07decc	0.13268584
4	0x3dbd476d	0.09242139
5	0xbd9c6574	-0.07636538
6	0x42d1cc53	104.89907
7	0x42d1cf61	104.90504
8	0x42d1a300	104.81836
9	0x42d12df5	104.58976
10	0xbdfbde19	-0.12298221
11	0x42d1cc4e	104.89903
12	0x42d1bf8a	104.8741
13	0x42d1bec1	104.87257
14	0x42d1e3c4	104.944855
15	0x3d2127c0	0.03934455
16	0x42d1cdbf	104.90185
17	0x42d1c1ee	104.87877
18	0x42d1b701	104.85743
19	0x3e1f5391	0.15559222
20	0x3dffd3b1	0.12491549
21	0xbd94fcf9	-0.07274813
22	0xbdafe4f2	-0.0858859
23	0xbb96c439	-0.0046010283
24	0x3e12c60a	0.14333358
25	0x42d152f7	104.66204
26	0x3b70f215	0.0036765386
27	0xbdb1c6c3	-0.08680489
28	0x42d17d85	104.745155
29	0x42d1ebad	104.960304
30	0x3e13d910	0.14438272
31	0xbe2b4053	-0.16723756
32	0xbe00ec50	-0.12590146
33	0xbd7a93d7	-0.061176147
34	0x3dccd33c	0.10001227
35	0xbd18f16e	-0.03733962
36	0x3e019aac	0.12656659
37	0x3d68ecd2	0.056866474
38	0x3dbf0d99	0.093287654
39	0xbd82292a	-0.06355508
40	0xbd760e45	-0.060072202
41	0xbdd19485	-0.10233406
42	0xbe0ccafa	-0.13749304
43	0x3c4cff5f	0.012512057
44	0xbe09c37f	-0.13453482
45	0x3e476eb7	0.19475828
46	0xbd90782c	-0.07054171
47	0xbe39b530	-0.18135524
48	0x3bf9b131	0.00762
49	0xbbf9c4d6	-0.0076223416
50	0x3e080b87	0.13285647
51	0xbe27490d	-0.1633646
52	0xbd007f7a	-0.03137157
53	0x3e3053d9	0.17219485
54	0x3e4d7742	0.20065024
55	0x3db4dfb1	0.08831728
56	0x3cd0492e	0.02542552
57	0xbc99aa68	-0.018758014
58	0xbe271b64	-0.16319042
59	0x3df7f486	0.12107186
60	0xbe1c4fa5	-0.15264757
61	0xbdbe15ca	-0.092815
62	0x3dd462ab	0.10370382
63	0x3dc3fdd7	0.095699005
64	0xbe05bc41	-0.13060094
65	0x42d2072f	105.01403
66	0x42d21b1e	105.05296
67	0xbcc2fa64	-0.023801036
68	0xbc2bc05e	-0.010482876
69	0x3d8d95b5	0.0691332
70	0x42d1fdcc	104.9957
71	0x42d1dacb	104.92733
72	0x42d1d19c	104.90939
73	0x42d24660	105.13745
74	0xbdf9b0d3	-0.1219193
75	0x42d233f9	105.10151
76	0x42d2476b	105.13949
77	0x42d25140	105.15869
78	0x42d1fc5c	104.99289
79	0xbc7b9344	-0.015354935
80	0x42d253f4	105.16397
81	0x42d20d17	105.025566
82	0x42d20a1a	105.01973
83	0x3de7d5db	0.113200866
84	0x3dbcd736	0.09220736
85	0xbda5e5bf	-0.08100461
86	0xbd1ab706	-0.0377722
87	0x3e0fdc69	0.14048924
88	0xbe1c6535	-0.15272982
89	0x42d24ec3	105.15383
90	0xbdf7b4ee	-0.120950565
91	0xbd16c449	-0.036808286
92	0x42d20b83	105.022484
93	0x42d21ad6	105.052414
94	0xbe13853b	-0.14406292
95	0x3bec6b37	0.0072149294
96	0x3df4b6b3	0.119489096
97	0x3df0791e	0.11741851
98	0x3e1bdc96	0.15220866
99	0xbdb1f714	-0.086897045
100	0xbd604007	-0.05474856
101	0x3e183d9d	0.14867254
102	0xbd9dbfc3	-0.07702591
103	0x3bafa69e	0.0053604385
104	0xbdcd360a	-0.10020073
105	0xbdda5576	-0.10660832
106	0xbe43714f	-0.19086193
107	0xbdf0c379	-0.117560335
108	0xbb8d3af4	-0.0043100063
109	0x3d96bf81	0.07360745
110	0x3d82becd	0.063840486
111	0x3dd933b3	0.10605564
112	0x3dac7733	0.08421173
113	0xbe34590d	-0.17612095
114	0xbdf6ffd2	-0.120605126
115	0x3cd9a541	0.026568057
116	0xbdf32ce9	-0.118738
117	0xbde19458	-0.110146224
118	0x3da29b62	0.07939793
119	0xbce6e48f	-0.028185157
120	0xbe1f11a4	-0.15534073
121	0xbe1224d6	-0.14271864
122	0xbde77ec4	-0.113034755
123	0xbcb7a381	-0.022416832
124	0x3dcc3031	0.09970129
125	0xbdbfcd78	-0.09365362
126	0xbe0b1d01	-0.13585283
127	0x3e06f4f1	0.13179375
128	0xbd198357	-0.03747877
129	0xbcfac4d0	-0.030611426
130	0x3dc14bda	0.09438296
131	0xbe1a6255	-0.15076573
132	0xbe2ff705	-0.17184074
133	0xbe0fd907	-0.14047633
134	0x3db87688	0.09006983
135	0xbe13036b	-0.14356773
136	0xbe170f81	-0.14752008
137	0x3e283da7	0.16429769
138	0xbd31d82c	-0.04341905
139	0x3c48dcf2	0.012259709
140	0xbce22771	-0.027606698
141	0xbe332282	-0.17493632
142	0x3e2218dc	0.15829796
143	0xbdefa170	-0.11700714
144	0xbe03e15c	-0.12878937
145	0x3dd0061d	0.10157416
146	0xbde98665	-0.11402587
147	0xbd18bad2	-0.03728754
148	0xbbaa556e	-0.0051981723
149	0x3e245625	0.16048487
150	0xbdcde52e	-0.10053478
151	0xbd77a787	-0.0604625
152	0x3ccc19ee	0.024914708
153	0xbdd77d55	-0.10521952
154	0xbdd0acb9	-0.10189194
155	0xbdf94a05	-0.12172321
156	0xbe15b5c2	-0.14620116
157	0x3ded43d6	0.11585204
158	0x3df7201d	0.12066672
159	0xbd3f171f	-0.04665291
160	0xbdfab812	-0.1224214
161	0xbd88551b	-0.066568576
162	0xbd9cac6f	-0.076500766
163	0x3e3e8a7e	0.18607518
164	0x3d4312f8	0.047625512
165	0xbe134300	-0.14381027
166	0x3dc064a4	0.09394196
167	0x3dd4f7ef	0.10398852
168	0xbe0421df	-0.12903546
169	0xbe4eac54	-0.20182925
170	0x3dc84117	0.0977804
171	0xbd831710	-0.06400883
172	0xbd18b359	-0.037280414
173	0xbc402a6f	-0.011728867
174	0xbe0b3e24	-0.13597924
175	0xbd825540	-0.063639164
176	0x3d96cce1	0.07363296
177	0x3dfbf57e	0.12302683
178	0x3e09b430	0.13447642
179	0xbd9885db	-0.07447406
180	0xbde0b06c	-0.1097115
181	0xbcb10678	-0.02160953
182	0xbd713909	-0.058892284
183	0x3d90fa8e	0.070790395
184	0x3d45f187	0.04832604
185	0xbdbe9094	-0.0930492
186	0x3c28cb09	0.010302314
187	0xbd82f4fd	-0.06394384
188	0xbd9e5c54	-0.07732454
189	0x3e0d3f55	0.1379369
190	0x3ddb84f1	0.10718716
191	0x3cb9fcb9	0.022703515
192	0xbcbe4e0a	-0.023230571
193	0x3d92aae0	0.07161498
194	0xbb9be511	-0.0047575315
195	0xbdfa5fee	-0.122253284
196	0xbc41c7dd	-0.011827436
197	0x3d95800c	0.07299814
198	0xbc3ab6f1	-0.011396156
199	0x3e165c82	0.14683726
200	0x3d9e5ea0	0.07732892
201	0xbd9adde5	-0.07561854
202	0xbe5be6a3	-0.214747
203	0xbdfd2a03	-0.12361529
204	0x3c4cba63	0.01249561
205	0x3d8606aa	0.0654424
206	0xbd81b41c	-0.06333181
207	0xbe38f7b8	-0.18063247
208	0xbe11e2b9	-0.14246644
209	0x3d9d4b17	0.07680338
210	0x3d09dd39	0.03365824
211	0x3da76d55	0.0817515
212	0x3e0f5fda	0.14001408
213	0xbe08fd0c	-0.1337778
214	0x3e004065	0.12524565
215	0xbde34067	-0.11096268
216	0xbe46d659	-0.19417705
217	0x3cb7240b	0.022356054
218	0xbd6d8e16	-0.05799683
219	0xbdf3bfe8	-0.119018376
220	0xbe6ced56	-0.23137411
221	0x3d2d1964	0.042260543
222	0xbd85a798	-0.065261066
223	0x3e3201ef	0.1738355
224	0x3d86af37	0.06576388
225	0x3d44aac7	0.04801443
226	0xbdb16fa8	-0.08663875
227	0x3e123252	0.14277008
228	0xbd3a34a9	-0.045460377
229	0x3cfde973	0.030995106
230	0x3e42c7cd	0.1902153
231	0x3dce4c3f	0.100731365
232	0x3daae0ae	0.083436355
233	0x3c091c60	0.0083685815
234	0xbcdff60d	-0.027339006
235	0xbe273dff	-0.16332243
236	0x3dc00d14	0.093774945
237	0xbe0205bf	-0.12697504
238	0x3e1ba887	0.15201007
239	0xbd46ae1a	-0.04850588
240	0xbe7b7508	-0.24556363
241	0xbda2a000	-0.07940674
242	0x3dc5223a	0.09625669
243	0xbe16d42f	-0.14729379
244	0xbdebb58e	-0.11509238
245	0x3d1cce5a	0.03828273
246	0x3e1bb37a	0.15205184
247	0xbd23e695	-0.040014822
248	0xbd9f1da0	-0.077693224
249	0xbde94042	-0.11389209
250	0x3e2d94c9	0.16951288
251	0x3dd3fbdc	0.10350773
252	0xbe343f2e	-0.17602226
253	0x3dfa45db	0.12220355
254	0xbe1174cc	-0.1420471
255	0xbdc97c88	-0.098382056

seq.4.bias f4 [8]
0	0x42c4c06f	98.37585
1	0xbbbd7da0	-0.005782798
2	0x42c44cff	98.15038
3	0x3e0bc3b2	0.1364887
4	0x3d239d7c	0.03994511
5	0x3e79ada7	0.2438265
6	0xbcf1f067	-0.029533578
7	0x3dbd1e1f	0.09234261

seq.6.weight f4 [4, 8]
0	0x4291d3f1	72.91395
1	0x3eba29ce	0.3636002
2	0x429330df	73.59545
3	0xbe6f2251	-0.23352934
4	0x3d89d66f	0.06730353
5	0xbe80ee94	-0.2518202
6	0x3eae224e	0.34010547
7	0xbb6906eb	-0.0035557102
8	0x42c5f0cc	98.97031
9	0x3ebac6af	0.3647971
10	0x42c5c833	98.891014
11	0x3ea09b05	0.3136827
12	0xbe1843c1	-0.14869596
13	0xbe6a2d19	-0.22868766
14	0xbe7b4aa1	-0.24540187
15	0xbeb3335d	-0.35000125
16	0x42924360	73.13159
17	0xbe194057	-0.1496595
18	0x4292bc82	73.36818
19	0xbeae10c0	-0.33997154
20	0x3d932552	0.07184853
21	0xbe0a3b68	-0.13499224
22	0xbe1596e9	-0.14608349
23	0x3df378cb	0.11888274
24	0x42a077a5	80.23368
25	0xbdde2a3f	-0.108479016
26	0x42a184c1	80.759285
27	0x3e513440	0.20430088
28	0x3e8ecf26	0.27892417
29	0xbec8a6d3	-0.39189777
30	0xbe74509e	-0.23858878
31	0xbe1de8e2	-0.15420869

seq.6.bias f4 [4]
0	0x429699a8	75.30011
1	0x42b5a04d	90.81309
2	0x42964cbf	75.149895
3	0x4295d2ca	74.9117
