training/models/environment_traffic_lights/1639331045/checkpoints/ep00025.pt (torch, 28751 bytes, 8 tensors)

seq.0.weight f4 [128, 16]
0.22004056 -0.09943175 0.25284147 -0.023720056 0.23040774 0.07808184 0.30107996 -0.08575592
0.24858543 0.21067852 0.16197537 -0.15645073 0.09987066 0.17322531 0.12439564 -0.26896515
0.048872706 0.020058319 -0.045236588 0.2756259 -0.00033180084 0.16524664 0.30380848 0.008510951
0.33583704 0.044015888 0.023858031 0.24882808 -0.11527822 -0.093545794 0.19046263 0.22818623
0.32805613 0.05518092 0.0012729418 0.07870232 -0.1922849 0.08552051 0.3114623 0.029227564
0.1198649 -0.12994435 0.008082215 -0.13482742 0.1359451 0.2987554 -0.05173141 -0.07928279
-0.12536605 -0.17299435 -0.1855902 -0.34638005 0.32634702 0.054084744 -0.13587223 -0.17666763
0.32871938 -0.2760795 0.26396194 0.48051172 0.068148926 -0.2686286 0.09344551 -0.18699238
0.25455597 0.33920383 0.0904819 0.12122004 0.17203829 0.008698474 -0.15542963 0.24834925
-0.005042047 0.3349671 0.1620181 0.034992088 0.0160635 0.29037517 0.29460993 0.18037327
0.30416515 0.15113744 0.24687877 0.12622954 0.19616878 0.26178545 0.25327256 -0.29286283
0.25560072 0.22152741 0.08424145 0.35906848 0.18444176 0.019307647 -0.06530081 -0.016289216
0.18881021 0.16775845 -0.012022545 -0.118465245 -0.051250774 0.09178959 0.07958881 0.05973907
-0.18759936 0.13093297 0.07084401 0.15459888 -0.31450567 -0.3420412 0.055788875 0.2488285
0.0735944 -0.059790853 0.17298372 0.2333747 0.18486597 -0.11769297 0.17144774 -0.26221108
-0.012551775 -0.038622368 0.13784607 0.42470428 -0.03532564 0.14560838 -0.09614386 -0.012400409
0.24761398 0.16843082 0.21679991 0.108313546 0.1859892 -0.11653109 -0.09236107 -0.14046898
0.2704244 0.19508602 0.25432602 -0.106340796 0.13422665 -0.11073756 0.12976317 0.02373299
0.24086496 0.0838929 0.02883415 -0.12246599 0.28607053 0.036540292 0.1738085 0.37135363
0.37912405 -0.13381188 -0.120533675 0.30243644 -0.048000306 -0.022044681 0.2086747 0.3736076
0.32087162 0.054672632 0.005161614 0.34902823 0.18184195 0.27513078 0.07529629 0.045138862
0.22051452 0.28003186 -0.11359455 0.027636157 -0.022367015 0.27594516 -0.11897668 0.11037326
-0.14379242 -0.11442434 -0.35413352 -0.14979966 0.14245051 0.22453539 0.28602642 -0.104329385
-0.24221815 -0.22147554 -0.20901588 -0.14142933 0.19965857 0.12790568 0.3638943 -0.10188628
0.32976127 -0.11959863 0.20090719 0.2134681 0.10815454 -0.14968607 0.30180484 0.2575726
-0.086674504 -0.092665866 -0.034330986 0.4729735 0.009057119 0.3141146 0.20890056 -0.029974926
0.14706847 0.2749679 0.037985183 -0.21756454 0.16657537 0.19704816 -0.04811124 0.2102692
0.16614036 0.124208346 0.115679495 -0.23070551 0.29542094 0.16639079 -0.040561236 0.16623782
0.17433445 0.28442314 0.23702525 -0.2361716 0.13744868 -0.1706704 0.14399317 -0.62031835
-0.26661032 0.04047911 0.17811061 0.17745166 -0.20924242 -0.35871053 -0.31717086 0.2546938
-0.07306968 0.084263936 -0.034301605 -0.15096821 0.23371162 0.25188148 -0.019221837 -0.016020983
0.04280516 -0.08833787 0.0014442856 -0.16353846 -0.0205133 0.027759675 0.11336817 0.2358129
00000000: 5052 613e e0a2 cbbd 7074 813e 9050 c2bc
00000010: 02f0 6b3e 5fe9 9f3d 2727 9a3e cda0 afbd
00000020: 2e8d 7e3e 1cbc 573e dfdc 253e 9f34 20be
00000030: fd88 cc3d fa61 313e 24c3 fe3d cdb5 89be
00000040: bf2e 483d 5851 a43c 004a 39bd d71e 8d3e
00000050: 8ef5 adb9 6a36 293e c98c 9b3e 8471 0b3c
00000060: d5f2 ab3e 014a 343d eb71 c33c cacc 7e3e
00000070: fd16 ecbd f094 bfbd a308 433e a7a9 693e
00000080: f9f6 a73e 6305 623d d7d8 a63a af2e a13d
00000090: 55e6 44be 6125 af3d fd77 9f3e a56e ef3c
000000a0: bb7b f53d 2210 05be 446b 043c 3310 0abe
000000b0: 3135 0b3e 78f6 983e 51e4 53bd 045f a2bd
000000c0: f55f 00be 6e25 31be 5b0b 3ebe ba58 b1be
000000d0: f516 a73e f787 5d3d 1722 0bbe 5ce8 34be
000000e0: e84d a83e 4b5a 8dbe 0526 873e a205 f63e
000000f0: aa91 8b3d b089 89be 5c60 bf3d ee7a 3fbe
00000100: 2955 823e 20ac ad3e 934e b93d 3642 f83d
00000110: ce2a 303e 0b84 0e3c f228 1fbe 444f 7e3e
00000120: c137 a5bb cf80 ab3e 13e8 253e dd53 0f3d
00000130: 9a97 833c 0eac 943e 1dd7 963e c5b3 383e
00000140: 89bb 9b3e c6c3 1a3e cacd 7c3e 5142 013e
00000150: 78e0 483e be08 863e f1ac 813e 1ef2 95be
00000160: 19de 823e 15d8 623e c886 ac3d d3d7 b73e
00000170: 4dde 3c3e 122b 9e3c 6ebc 85bd f670 85bc
00000180: 7757 413e dfc8 2b3e 35fa 44bc e89d f2bd
00000190: 55ec 51bd 2efc bb3d 75ff a23d f4b0 743d
000001a0: 0c1a 40be 4b13 063e aa16 913d 2b4f 1e3e
000001b0: e306 a1be 0620 afbe e082 643d e6cc 7e3e
000001c0: a9b8 963d 41e7 74bd a522 313e c7f9 6e3e
000001d0: 814d 3d3e 0309 f1bd ff8f 2f3e 8840 86be
000001e0: f6a5 4dbc 7d32 1ebd 8527 0d3e d772 d93e
000001f0: 9eb1 10bd 5d1a 153e 12e7 c4bd 162b 4bbc
00000200: 858e 7d3e 2179 2c3e cc00 5e3e 7ed3 dd3d
00000210: f473 3e3e daa7 eebd cd27 bdbd 1ad7 0fbe
00000220: 1175 8a3e a1c4 473e 0537 823e 34c9 d9bd
00000230: b672 093e 60ca e2bd a3e0 043e b06b c23c
00000240: 4ea5 763e 0ad0 ab3d 9835 ec3c 73cf fabd
00000250: d677 923e 46ab 153d dbfa 313e 1022 be3e
00000260: 8c1c c23e fb05 09be 5cda f6bd f3d8 9a3e
00000270: f89b 44bd 0c97 b4bc d2ae 553e 7f49 bf3e
00000280: 4949 a43e 69f0 5f3d c222 a93b d4b3 b23e
00000290: c734 3a3e f1dd 8c3e f134 9a3d 87e3 383d
000002a0: 8fce 613e 5660 8f3e 42a4 e8bd 3965 e23c
000002b0: 083b b7bc af48 8d3e 0caa f3bd 600b e23d
000002c0: 523e 13be 4f57 eabd fd50 b5be 1565 19be
000002d0: 8cde 113e 9bec 653e 0e72 923e a5aa d5bd
000002e0: 0908 78be 7cca 62be 4208 56be dad2 10be
000002f0: 4c73 4c3e b5f9 023e 5b50 ba3e c1a9 d0bd
00000300: 78d6 a83e 20f0 f4bd 9dba 4d3e 6297 5a3e
00000310: 2180 dd3d 4e47 19be 2a86 9a3e 8ee0 833e
00000320: 6782 b1bd 9ac7 bdbd a69e 0cbd 9529 f23e
00000330: 4f64 143c a1d3 a03e 07ea 553e fa8d f5bc
00000340: 1e99 163e 98c8 8c3e 5a96 1b3d 3dc9 5ebe
00000350: bc92 2a3e fec6 493e 4b10 45bd cf50 573e
00000360: b320 2a3e f260 fe3d 5fe9 ec3d 113e 6cbe
00000370: 6a41 973e 5962 2a3e 8a23 26bd 3f3a 2a3e
00000380: bb84 323e e99f 913e bfb6 723e f8d6 71be
00000390: 59bf 0c3e 39c4 2ebe f272 133e 2fcd 1ebf
000003a0: 2681 88be 6ccd 253d a162 363e e3b5 353e
000003b0: a543 56be e8a8 b7be 3864 a2be 3a67 823e
000003c0: 8ea5 95bd 9292 ac3d d77f 0cbd 6997 1abe
000003d0: 1952 6f3e 9cf6 803e 1d77 9dbc 703e 83bc
000003e0: 7754 2f3d 7cea b4bd 2f4e bd3a a076 27be
000003f0: 820b a8bc 4268 e33c 922d e83d f078 713e

seq.0.bias f4 [128]
0.49720475 0.5600949 0.6000524 0.07717145 0.26942414 0.64499915 0.47258502 0.41709903
0.5298584 0.21601813 0.34859252 -0.11095576 0.3705637 0.6891344 0.50743145 0.27671453
0.4871574 0.6554094 0.6869921 0.63216627 0.83946174 0.7027427 0.3903655 0.5977109
0.26240984 0.7974217 0.521502 0.40860707 0.70818174 0.9175381 0.70601004 0.56103987
0.16298994 0.47277772 -0.08527355 0.23357446 0.8413665 0.27368134 0.5214443 0.3623828
0.4368929 0.591471 0.6672976 0.5270438 0.71091074 0.37101978 0.22577195 0.27971026
0.73659456 0.58652294 0.48678145 1.038457 0.7745376 0.053392686 0.39369118 0.2141175
0.42480108 0.058365595 0.78627825 0.3942401 0.7544941 -0.1606825 0.4144192 0.7179791
0.27390364 0.6432342 0.36768365 0.52516794 0.50681245 0.06706171 0.202352 0.14761068
0.66365594 0.6881991 0.7235959 0.55481946 0.63838863 0.4414956 0.9714951 0.73444694
0.32926875 0.039491005 0.07967038 0.35613716 0.82122165 0.73488325 0.5893605 0.28298545
0.7149076 0.65485746 1.0726751 0.39229342 0.29733044 -1.1671154 0.33581254 0.8555254
0.8558521 0.093059495 0.87950826 0.31521755 0.22454637 0.6373427 0.22620799 0.12908542
0.39694616 -0.33323914 0.70175874 0.7570304 0.23349635 0.6062214 0.61865777 -0.13699952
0.55295473 0.60151917 0.39237115 0.69951355 0.4985295 0.38015413 0.58088213 0.450248
0.8497923 0.34749386 -0.25088608 1.4616442 0.0998627 0.4681658 1.3133872 0.5896984
00000000: 9f91 fe3e 6162 0f3f 099d 193f 110c 9e3d
00000010: f6f1 893e aa1e 253f aaf6 f13e 018e d53e
00000020: cda4 073f db33 5d3e b87a b23e c63c e3bd
00000030: 86ba bd3e 1d6b 303f 07e7 013f 87ad 8d3e
00000040: b26c f93e e9c8 273f b7de 2f3f a6d5 213f
00000050: f7e6 563f f2e6 333f fddd c73e 9503 193f
00000060: 955a 863e d423 4c3f 2881 053f f234 d13e
00000070: 664b 353f c7e3 6a3f 13bd 343f 4fa0 0f3f
00000080: d6e6 263e ec0f f23e e6a3 aebd 252e 6f3e
00000090: cc63 573f f61f 8c3e 607d 053f 3d8a b93e
000000a0: 6db0 df3e a56a 173f 04d4 2a3f 58ec 063f
000000b0: 3ffe 353f 4ef6 bd3e c330 673e 2f36 8f3e
000000c0: 7691 3c3f 5e26 163f 6b3b f93e 29ec 843f
000000d0: 1948 463f 4ab2 5a3d e491 c93e 9e41 5b3e
000000e0: 877f d93e c310 6f3d 8849 493f d7d9 c93e
000000f0: 8626 413f f489 24be c12e d43e 7acd 373f
00000100: 193d 8c3e ffaa 243f 0841 bc3e 6871 063f
00000110: 76be 013f a657 893d 5d35 4f3e 4127 173e
00000120: 5be5 293f d12d 303f 953d 393f a608 0e3f
00000130: 706d 233f b60b e23e e7b3 783f b704 3c3f
00000140: ea95 a83e 52c1 213d 392a a33d 9c57 b63e
00000150: 953b 523f 4f21 3c3f 54e0 163f 78e3 903e
00000160: 2f04 373f bda4 273f 6b4d 893f afda c83e
00000170: b23b 983e 0a64 95bf 9fef ab3e b603 5b3f
00000180: 2019 5b3f fa95 be3d 7427 613f 3264 a13e
00000190: 7cef 653e e428 233f 11a3 673e f82e 043e
000001a0: 873c cb3e 529e aabe 76a6 333f bfcc 413f
000001b0: ab19 6f3e 5331 1b3f 5b60 1e3f 9a49 0cbe
000001c0: 718e 0d3f 29fd 193f dfe4 c83e 5213 333f
000001d0: 423f ff3e 90a3 c23e b1b4 143f e886 e63e
000001e0: fd8b 593f b7ea b13e 2474 80be 2817 bb3f
000001f0: d184 cc3d 6eb3 ef3e 121d a83f 79f6 163f

seq.2.weight f4 [32, 128]
0.018585637 -0.056635972 0.01999589 0.020124443 -0.07434607 -0.05544214 -0.03521785 -0.06392714
-0.088606976 0.049328357 -0.042673297 0.029439615 -0.07855358 0.040732104 0.036547843 0.05011343
0.048886377 0.0028841016 -0.08925107 0.05708775 0.06940975 -0.008003973 -0.059607796 0.03609931
0.062171493 0.02419865 -0.03879377 -0.063065015 -0.027338533 -0.077316284 -0.06357852 0.055770367
-0.059411407 0.031094352 -0.065163575 -0.06909247 0.044903588 0.0058493493 -0.026556434 0.03382378
-0.08611535 0.052724596 -0.014753787 0.04428313 -0.004372177 -0.02806197 -0.07895005 0.033181686
-0.070169166 -0.028912628 -0.0083231805 -0.060072552 0.07005748 -0.0075327326 0.023449479 0.06369276
0.046893302 0.03135952 0.048249148 -0.0077239345 -0.054099146 -0.021751279 0.049857363 -0.06845151
0.011652434 -0.07868066 -0.04379062 -0.05001447 0.020949239 0.029560808 -0.02277295 0.03318038
-0.054243315 0.012580589 -0.07665467 0.008992 -0.06889557 -0.09084085 -0.07693117 -0.06725713
0.032022115 0.051711977 0.036342368 -0.07836395 -0.022244094 -0.01713127 0.07903177 -0.06976819
0.067467675 -0.08905876 -0.0707512 -0.028316017 0.06828215 -0.06822149 -0.059171706 0.079043716
0.02446667 0.0626677 0.03296044 -0.017742788 -0.06414827 -0.011169132 0.03194583 0.06450891
-0.075498044 -0.08167659 -0.0035036784 0.008950901 0.018664239 0.072662644 -0.044515576 0.056402247
-0.009354896 -0.057366427 -0.024142895 0.06040741 -0.012056081 -0.05263471 0.057925228 -0.047017664
0.06472828 -0.006645729 -0.041165717 -0.06416767 0.037834246 0.0021430072 0.032820076 0.06287614
0.009007589 0.0550747 0.09442817 0.08918756 -0.072772324 0.052530896 -0.031523123 0.08430409
0.018530054 0.06548244 0.05549628 0.20308276 0.060197107 0.08016704 0.021512734 0.12814233
0.0932394 0.33177552 0.21266773 -0.02828603 0.51460606 0.07853928 0.19716606 0.14291523
0.08236763 0.15628752 0.18863928 0.08789034 0.016818205 0.1289357 0.18959859 0.10107898
0.4335311 -0.20005925 0.18506263 -0.07927145 -0.6916714 0.13504004 0.66607594 0.03933307
0.18180683 0.17816606 0.05972786 0.12053701 0.1442729 0.1018233 0.15900815 0.06396887
0.05928002 0.07968268 0.16094343 -0.2702399 0.1492246 0.03420983 0.4146737 -0.070814066
0.0894057 -0.6977933 0.06469374 0.11577701 0.04809268 0.40530136 0.10574453 0.11642583
-0.23996921 0.006131991 0.43608594 0.16823351 0.022192812 0.08018514 -0.07327254 0.12251989
0.16037026 -0.16419557 0.04815662 0.00039007457 0.0784709 -0.13938436 0.7004247 0.13525768
0.027521307 0.06890172 0.23798876 0.079060905 -0.11299213 -5.1462484e-05 -0.09487707 0.08595893
0.1836326 0.07587212 0.49008808 0.04630433 -0.1024469 -0.45899037 0.12722513 0.08421008
0.19008501 -0.08799578 0.07304405 0.20342942 -0.0072896113 0.19207932 0.15420794 0.20719802
-0.09356778 -0.60268533 0.06782783 -0.0027399939 0.0052050496 0.013119667 -0.20292883 0.15133828
-0.12960656 0.003922417 0.13709055 0.010597166 0.051660135 0.020595184 -0.0061797053 0.1673649
0.19941452 0.056480188 0.091018975 0.92338246 0.046677854 0.113330565 0.3851411 0.31752363
00000000: e840 983c 1ffb 67bd 6cce a33c 04dc a43c
00000010: c142 98bd 4c17 63bd 9840 10bd 3bec 82bd
00000020: 9377 b5bd 880c 4a3d 32ca 2ebd 592b f13c
00000030: b3e0 a0bd b5d6 263d 31b3 153d bd43 4d3d
00000040: 153d 483d 3203 3d3b 44c9 b6bd d8d4 693d
00000050: b326 8e3d 1923 03bc 4e27 74bd dfdc 133d
00000060: 89a7 7e3d 3f3c c63c 37e6 1ebd 3b28 81bd
00000070: 0ff5 dfbc 0058 9ebd 7535 82bd 786f 643d
00000080: 6059 73bd 95b9 fe3c 7b74 85bd 5a80 8dbd
00000090: d3ec 373d e6ab bf3b e18c d9bc ce8a 0a3d
000000a0: 3f5d b0bd bff5 573d deb9 71bc 3a62 353d
000000b0: 7b44 8fbb 37e2 e5bc 90b0 a1bd 85e9 073d
000000c0: dab4 8fbd 2dda ecbc f35d 08bc a30e 76bd
000000d0: 4c7a 8f3d 24d5 f6bb 1f19 c03c 5a71 823d
000000e0: 3113 403d d772 003d e6a0 453d 0f19 fdbb
000000f0: 1197 5dbd bd2f b2bc 3c37 4c3d 4e30 8cbd
00000100: dae9 3e3c 5323 a1bd cb5d 33bd f9db 4cbd
00000110: bd9d ab3c 8229 f23c 568e babc 26e8 073d
00000120: 3d2e 5ebd d11e 4e3c 20fd 9cbd 2e53 133c
00000130: 1f19 8dbd c40a babd 178e 9dbd 1bbe 89bd
00000140: 9f29 033d f0cf 533d bcdb 143d 477d a0bd
00000150: 3f39 b6bc e156 8cbc 69db a13d a0e2 8ebd
00000160: 7e2c 8a3d 7064 b6bd 01e6 90bd fef6 e7bc
00000170: 83d7 8b3d b5b7 8bbd 085e 72bd ace1 a13d
00000180: 536e c83c ec57 803d 8701 073d 5359 91bc
00000190: 2b60 83bd bcfe 36bc a1d9 023d 3f1d 843d
000001a0: b89e 9abd 0e46 a7bd f89d 65bb cda6 123c
000001b0: bfe5 983c 27d0 943d f755 36bd 0b06 673d
000001c0: 4745 19bc 0ff9 6abd 52c7 c5bc c36d 773d
000001d0: de86 45bc 7e97 57bd 0143 6d3d 9895 40bd
000001e0: 4390 843d 6ac4 d9bb 629d 28bd 576a 83bd
000001f0: 15f8 1a3d b271 0c3b 586e 063d 35c5 803d
00000200: 9194 133c 0296 613d 8e63 c13d f8a7 b63d
00000210: a809 95bd a32a 573d 641e 01bd 9fa7 ac3d
00000220: 57cc 973c a81b 863d 1150 633d edf4 4f3e
00000230: 3e91 763d 9e2e a43d 793b b03c be37 033e
00000240: 4cf4 be3d 7bde a93e 92c5 593e 1bb8 e7bc
00000250: 39bd 033f 34d9 a03d e6e5 493e 5f58 123e
00000260: 5cb0 a83d d609 203e a82a 413e daff b33d
00000270: 55c6 893c b807 043e 2226 423e 7f02 cf3d
00000280: caf7 dd3e 55dc 4cbe 0f81 3d3e 1259 a2bd
00000290: 6011 31bf f047 0a3e f483 2a3f b71b 213d
000002a0: 922b 3a3e 2a71 363e 33a5 743d 1cdc f63d
000002b0: 46bc 133e bc88 d03d 08d3 223e 1c02 833d
000002c0: 9bcf 723d ac30 a33d 5bce 243e e25c 8abe
000002d0: 55ce 183e 9b1f 0c3d 1c50 d43e f706 91bd
000002e0: 561a b73d 95a2 32bf 277e 843d 7f1c ed3d
000002f0: d4fc 443d a983 cf3e 9790 d83d aa70 ee3d
00000300: 7dba 75be deee c83b a846 df3e 6845 2c3e
00000310: b3cd b53c 1b38 a43d ea0f 96bd b5eb fa3d
00000320: 1a38 243e e222 28be e03f 453d ec82 cc39
00000330: 5ab5 a03d c6ba 0ebe 084f 333f fd80 0a3e
00000340: 5d74 e13c 581c 8d3d 53b3 733e afea a13d
00000350: 6b68 e7bd 6cd9 57b8 e94e c2bd 3c0b b03d
00000360: 2f0a 3c3e d862 9b3d d3ec fa3e 9ca9 3d3d
00000370: aecf d1bd c900 ebbe 4e47 023e 5676 ac3d
00000380: a5a5 423e 2237 b4bd 1e98 953d cd4f 503e
00000390: b1dd eebb 71b0 443e b0e8 1d3e b82b 543e
000003a0: 77a0 bfbd 9649 1abf 51e9 8a3d 7891 33bb
000003b0: 1f8f aa3b dff3 563c 93cc 4fbe 6cf8 1a3e
000003c0: 95b7 04be 9e87 803b 7761 0c3e bc9f 2d3c
000003d0: 9499 533d 3bb7 a83c 207f cabb b461 2b3e
000003e0: 5233 4c3e c557 673d 2868 ba3d cb62 6c3f
000003f0: 4731 3f3d db19 e83d 3731 c53e 7592 a23e

seq.2.bias f4 [32]
-0.07444841 0.30589762 0.5865059 0.43441918 0.5679677 0.38405502 0.38399833 0.042660292
0.5006798 0.016471598 -0.018066663 0.55255723 0.51366436 0.34520447 0.004759094 0.29078278
0.24480437 0.54282695 0.4118434 0.0023508712 0.6205842 -0.04471595 0.9658674 -0.09370492
0.37380186 -0.025455875 0.041721538 -0.09322701 -0.0112845795 -0.067311466 0.6026872 0.520393
00000000: 6878 98bd 9d9e 9c3e 4025 163f 316c de3e
00000010: 5566 113f dca2 c43e 6e9b c43e 8fbc 2e3d
00000020: 8d2c 003f 72ef 863c 8a00 94bc 6474 0d3f
00000030: 827f 033f a4be b03e 2df2 9b3b 7be1 943e
00000040: ffad 7a3e b5f6 0a3f 23dd d23e 1311 1a3b
00000050: 9bde 1e3f 1228 37bd 1643 773f 5de8 bfbd
00000060: f562 bf3e d788 d0bc 34e4 2a3d cded bebd
00000070: f5e2 38bc 98da 89bd b549 1a3f 7a38 053f

seq.4.weight f4 [8, 32]
0.13088948 -0.16412698 0.021239538 -0.17751683 -0.048825115 0.04633378 0.13610637 0.04550983
-0.16394132 -0.13170882 0.057407927 0.115993254 0.042957608 -0.13358444 0.14999673 -0.0171655
0.020094182 -0.14183067 0.15993552 0.0008945247 -0.0892644 -0.014667587 0.025243256 -0.040020075
0.11674042 -0.0064355917 0.06166204 0.001884217 -0.10823262 0.03141213 -0.053683672 0.059545916
0.12772645 0.24437839 -0.012385801 0.22141947 -0.054104533 0.22373404 -0.027787162 0.14081745
0.07219063 -0.14970535 -0.029644854 -0.18107814 0.27423373 0.28941998 0.11538157 0.6697782
0.35377032 0.09774208 0.15413803 0.01856073 -0.16166332 -0.08478516 -0.4605892 -0.047296476
0.19368523 -0.12528048 0.041183777 0.0150732715 0.12530571 0.0094960965 -0.058580257 -0.0126208505
-0.16868018 -0.0421141 -0.095780775 0.14307208 -0.0716885 0.07711505 -0.03033553 -0.13375507
-0.022920826 -0.1749146 -0.07234603 -0.08552729 -0.01971914 -0.036141448 0.015857626 -0.094872594
-0.101265915 0.04722371 -0.109548256 0.15312882 -0.16120654 0.005031575 0.020530025 0.088687375
-0.14952938 -0.13014822 0.16755134 0.13196321 -0.09640428 0.022923881 0.106388845 -0.10980714
-0.12368457 0.36158556 0.26304147 0.34691462 0.14348286 0.17807369 -0.09557347 0.059180096
0.381414 0.09946052 -0.061417323 0.20741984 0.24558567 0.24542494 0.004314233 -0.2539429
0.44410688 0.18913995 0.24408676 -0.12272912 0.43525916 -0.1465063 0.29870784 -0.042944014
0.07068495 0.1838685 -0.075486064 -0.061973527 -0.00013621729 0.14901176 0.35355183 0.34236893
0.15173572 -0.13885947 -0.09272213 -0.05062907 -0.1406752 -0.16149871 0.051654086 -0.074823424
-0.022856485 0.1061142 0.0012522864 0.11319236 -0.08161164 -0.056514513 0.029245697 0.08236949
0.07431622 0.11432882 -0.1305145 0.13677181 -0.026149841 -0.12946467 0.13473421 0.03449846
0.06490841 -0.09494796 0.053271256 0.15996103 -0.10036461 0.08661517 -0.056876756 -0.01741651
-0.1687974 -0.03599248 0.31303325 0.2540496 0.2292498 0.19863944 0.4225672 0.15325597
0.19567537 -0.116151035 -0.02054227 0.08539892 0.26413465 0.08729135 -0.15715812 0.5261937
-0.09546201 0.25876695 0.18645003 -0.011670278 0.3420298 0.069366485 -0.14644904 -0.07532286
0.40408155 -0.058568288 0.0142026665 -0.0657479 0.03062885 -0.04341063 0.3138262 0.2700188
0.0778286 -0.17691538 0.12360467 -0.09507972 -0.101361476 0.07590685 -0.033106185 0.11277011
-0.022978077 0.12026563 0.035090517 0.07678246 -0.035405725 -0.10563696 0.00078829355 -0.14062975
0.12232527 -0.013824537 -0.19046271 0.03510425 -0.14186566 -0.09298039 -0.17433932 -0.022258269
0.016826084 -0.063758306 0.013131904 -0.14420496 -0.14991988 0.064603366 0.0449489 0.13291638
-0.08612714 0.10866271 0.121099874 0.3611569 0.36291805 0.27315193 0.03172388 0.016634919
0.0489494 0.07763253 0.124597654 0.39866117 0.211819 0.3039567 -0.10556256 -0.40302312
-0.0019831047 0.24380328 0.1314429 -0.0072569554 -0.15181099 -0.15463883 -0.49333158 -0.05948785
0.20648508 -0.15147303 -0.06301694 0.017295763 -0.079819635 0.06476474 -0.03286327 0.3218039
00000000: e407 063e e710 28be 8afe ad3c f9c6 35be
00000010: d8fc 47bd 7dc8 3d3d 785f 0b3e 8468 3a3d
00000020: 3ce0 27be adde 06be 9324 6b3d df8d ed3d
00000030: 51f4 2f3d 5cca 08be be98 193e aa9e 8cbc
00000040: 8e9c a43c 0f3c 11be 23c6 233e 897e 6a3a
00000050: 41d0 b6bd 5250 70bc f2ca ce3c 17ec 23bd
00000060: 9a15 ef3d a8e1 d2bb 5691 7c3d d5f7 f63a
00000070: 10a9 ddbd 01aa 003d 69e3 5bbd 6be6 733d
00000080: b9ca 023e 543e 7a3e d1ed 4abc c9bb 623e
00000090: b79c 5dbd 891a 653e e7a1 e3bc 7332 103e
000000a0: aed8 933d 5c4c 19be c4d9 f2bc 8c6c 39be
000000b0: 5d68 8c3e db2e 943e 2c4d ec3d 9676 2b3f
000000c0: 6221 b53e 002d c83d 5cd6 1d3e ac0c 983c
000000d0: 128b 25be d8a3 adbd 59d2 ebbe f3b9 41bd
000000e0: 6c55 463e 8749 00be 52b0 283d e2f5 763c
000000f0: 2450 003e 8495 1b3c daf1 6fbd afc7 4ebc
00000100: 7fba 2cbe d67f 2cbd b628 c4bd 7d81 123e
00000110: 6cd1 92bd 7fee 9d3d 3882 f8bc 17f7 08be
00000120: 75c4 bbbc d01c 33be 282a 94bd ef28 afbd
00000130: 098a a1bc 0e09 14bd dae7 813c 904c c2bd
00000140: 8164 cfbd a66d 413d d65a e0bd cdcd 1c3e
00000150: 5413 25be e9df a43b 952e a83c baa1 b53d
00000160: 3b1e 19be 9345 05be 9492 2b3e 5d21 073e
00000170: 9b6f c5bd ddca bb3c 65e2 d93d 91e2 e0bd
00000180: 564e fdbd be21 b93e 5fad 863e cb9e b13e
00000190: 2ced 123e f358 363e 06bc c3bd d466 723d
000001a0: b248 c33e f5b1 cb3d bb90 7bbd de65 543e
000001b0: cf7a 7b3e ad50 7b3e 695e 8d3b ce04 82be
000001c0: fa61 e33e e7ad 413e e1f1 793e 6859 fbbd
000001d0: 4ada de3e bf05 16be 3cf0 983e 10e6 2fbd
000001e0: 45c3 903d 0648 3c3e 7098 9abd f4d7 7dbd
000001f0: 8dd5 0eb9 8a96 183e bf04 b53e fb4a af3e
00000200: 9c60 1b3e 2d31 0ebe 1ae5 bdbd 6d60 4fbd
00000210: 290d 10be eb5f 25be 3c93 533d 063d 99bd
00000220: 863d bbbc 6752 d93d c223 a43a 65d1 e73d
00000230: 0124 a7bd c37b 67bd ac94 ef3c 56b1 a83d
00000240: 1a33 983d 3a25 ea3d 98a5 05be e90d 0c3e
00000250: 3138 d6bc 6392 04be c4f7 093e 424e 0d3d
00000260: b3ee 843d 1374 c2bd f632 5a3d d3cc 233e
00000270: f68b cdbd 4b63 b13d 9af7 68bd 12ad 8ebc
00000280: 3ad9 2cbe da6c 13bd e545 a03e ca12 823e
00000290: 76c0 6a3e 2368 4b3e ba5a d83e 22ef 1c3e
000002a0: 205f 483e 98e0 edbd 4348 a8bc a1e5 ae3d
000002b0: a83c 873e cfc5 b23d 0fee 20be a1b4 063f
000002c0: 9681 c3bd 1a7d 843e c2ec 3e3e b234 3fbc
000002d0: 881e af3e 0410 8e3d bdf6 15be df42 9abd
000002e0: c7e3 ce3e 4de5 6fbd 4db2 683c d6a6 86bd
000002f0: 5be9 fa3c 58cf 31bd d4ad a03e e73f 8a3e
00000300: 9a64 9f3d 4e29 35be 7224 fd3d 28b9 c2bd
00000310: 9b96 cfbd 0d75 9b3d 5a9a 07bd 04f4 e63d
00000320: 853c bcbc d44d f63d 13bb 0f3d 1f40 9d3d
00000330: 9805 11bd 3158 d8bd 7ca5 4e3a 3f01 10be
00000340: ac85 fa3d 5080 62bc a808 43be 79c9 0f3d
00000350: 3b45 11be 816c bebd 0286 32be f956 b6bc
00000360: dbd6 893c b793 82bd 3327 573c 77aa 13be
00000370: 9984 19be c54e 843d 561c 383d 3b1b 083e
00000380: 6d63 b0bd 8e8a de3d 3603 f83d 8fe9 b83e
00000390: 65d0 b93e 92da 8b3e e6f0 013d f445 883c
000003a0: 2b7f 483d cefd 9e3d 0e2d ff3d 511d cc3e
000003b0: 14e7 583e 36a0 9b3e 2f31 d8bd 0c59 cebe
000003c0: faf6 01bb 91a7 793e f898 063e c1cb edbb
000003d0: 5774 1bbe a459 1ebe f595 fcbe 88a9 73bd
000003e0: d370 533e bf1b 1bbe 070f 81bd d8af 8d3c
000003f0: 7a78 a3bd 60a3 843d a39b 06bd 7bc3 a43e

seq.4.bias f4 [8]
-0.13937527 -0.12098376 -0.0654286 0.46191686 -0.07652726 0.692276 0.119065486 0.4196721
00000000: 64b8 0ebe 55c6 f7bd 6eff 85bd 5e80 ec3e
00000010: 53ba 9cbd 0039 313f 9bd8 f33d 43df d63e

seq.6.weight f4 [4, 8]
-0.116920374 -0.10390845 -0.2564853 0.12736505 0.20084524 -0.46415466 0.11917458 -0.48041618
0.07951234 0.060057394 0.09101439 -0.34426105 0.29230633 -0.23036994 0.31012356 -0.37101611
-0.20036693 -0.5185689 0.1775439 -0.2499158 0.05755543 -0.012369959 -0.2799837 -0.3267245
-0.020250184 -0.154495 0.23736519 -0.3095534 0.15457298 -0.44250116 0.26731253 0.048181318
00000000: f373 efbd f4cd d4bd 0b52 83be fc6b 023e
00000010: 60aa 4d3e aea5 edbe cd11 f43d 1cf9 f5be
00000020: 5ed7 a23d befe 753d c165 ba3d fc42 b0be
00000030: 2da9 953e 19e6 6bbe 84c8 9e3e d3f5 bdbe
00000040: fd2c 4dbe eec0 04bf 11ce 353e ede9 7fbe
00000050: 3ebf 6b3d 5eab 4abc 065a 8fbe 6f48 a7be
00000060: b7e3 a5bc f033 1ebe dc0f 733e c97d 9ebe
00000070: 6148 1e3e 838f e2be 30dd 883e c659 453d

seq.6.bias f4 [4]
-0.32861996 -0.61612976 -0.23311545 -0.36103165
00000000: e040 a8be aeba 1dbf d1b5 6ebe 24d9 b8be
