training/models/environment_traffic_lights/1639331045/checkpoints/ep00100.pt (torch, 28751 bytes, 8 tensors)

seq.0.weight f4 [128, 16]
00000000: bcca 1d3e 9fb0 d0bd 438e 593e 1835 bfbd
00000010: e22c 1a3e 9a3f d23c ee87 843e bf49 09be
00000020: f112 213e 156c 463e 3ed0 053e f61b 3ebe
00000030: c07b 003d b4e2 0e3e c8bc c33d 5814 8bbe
00000040: 1e36 47bc 7cd1 c9bc 070b cfbd 37b4 323e
00000050: 7154 98bd 03ca 093e dc5e 713e 026e abbd
00000060: d773 873e f237 80bc ec5e d1bc 178a 223e
00000070: 54c7 1dbe c5e7 02be d432 103e eab0 eb3d
00000080: dfe3 983e f90c 653d 6cd2 8ebd 1dbe 2d3d
00000090: bbe2 77be 3895 d4bc 67bc 743e 7597 93bd
000000a0: d837 2e39 c925 50be 4155 95bd 2f32 84be
000000b0: 73e7 4f3d 1981 313e c250 8ebd 4504 57be
000000c0: e155 a2bd 19f4 2cbf e20b 9fbe b7ca 2abf
000000d0: f1e9 3f3e b41f cc3d 2d50 8abe 21e0 21bc
000000e0: 3989 393e 36b5 42bd 833a 2f3e b55f f73e
000000f0: adb3 8cbe a2e7 0bbe 2a0f ac3d fd62 9abe
00000100: c706 d43d 639e 7c3e c1b6 ef3c 4455 a5b9
00000110: f499 88bb 602f e9bd db95 8dbe 9c32 023e
00000120: 6aa0 49be 7381 823e b165 a23c 0adb 8cbd
00000130: ac8e 2fbe 8f11 183e 7baa 013e 8947 b73d
00000140: df9b 733e 9b44 f83d 5512 3e3e a4c6 0c3d
00000150: 2285 fd3d 78f0 473e 997b 4b3e f72a b2be
00000160: ca7a 343e 5db1 3c3e 5c9b 193d dc6c 8b3e
00000170: 8c6c 043e 4761 13bd 417d d0bd e606 babd
00000180: 76c0 323d 1c78 853d 797c d8bb 6855 50be
00000190: fd2a 6a3d f7da 193d e785 573d 0266 0dbe
000001a0: 0308 41be 774f 60bc bd7a f3bc 4727 41bd
000001b0: 98e5 c9be 179f 78be 930a 53bd c00e 97bd
000001c0: a856 3fbd 3ed1 cf3c b127 873d 6fd4 b53d
000001d0: f312 923d 5f09 05be f1f1 1f3d 4a9a 57be
000001e0: 6837 f5bd c7a0 32bd 5c1f 863d 1209 2d3e
000001f0: 276e c3bd 80bb f73c 013a 09be aa80 56be
00000200: 50c8 403e 8811 263e 5f05 413e 0274 f83c
00000210: e485 d43d 55c5 35be 0f06 16be 62c4 50be
00000220: 5e99 323e 9733 493e 760d 5c3e 5ad7 16be
00000230: fc18 9e3d 5ba9 28be b2be ac3d a74a 33bd
00000240: 0b48 843d af9c 20be 1431 e1bd 43b7 46be
00000250: f605 193e 771a f9bd 4e14 0f3e b8c9 b5bd
00000260: a278 c13d 3607 0cbf cac4 b0be ef36 1f3e
00000270: eda0 e6be 69a5 01bf 7a32 46bc 773e 493d
00000280: 46c6 4b3e 645a 26bd 3730 b0bd b95e 543e
00000290: 42e5 4f3d ac9f 343e bae2 a5bc c4f8 ddbd
000002a0: 9063 c23d dcac 383e de0f 27be 98ce d2bd
000002b0: 331a 12be 07c4 223e f4a9 56be 1a84 21bd
000002c0: 9e6e b8be 6097 ff3d 5028 b2be d453 08bf
000002d0: ceb4 723e c8af ec3d 6218 1f3e 6793 06be
000002e0: 18a0 67be efe4 633c 8a2e edbe 5465 b4be
000002f0: d7d4 5e3e 431c 5a3e 8e41 7f3e b95b 93bd
00000300: 919f 733e e9ac 83be 307a 63bd 2190 4dbd
00000310: 9f84 04be 8131 a7be b207 7a3e 413b 2cbb
00000320: 3eda 21be 88a1 04be 811e 80be bf9e 5e3e
00000330: addb 34be 81b8 483e e0fe 2f3c 558c 74bd
00000340: 97a5 bc3d 8de9 7f3e bd42 813c 078e 82be
00000350: 8485 d73d 35b1 2c3e cb38 8fbd f20e d63d
00000360: 6a52 ae3d d456 c63d 2772 963d 5346 7abe
00000370: fdda 6d3e 23be e83d a747 4fbd 8e45 853d
00000380: 0928 643e cd47 893e 0b34 ee3d 48a9 87be
00000390: 78ae 463e faf9 0cbe 9d3a 143e 28fc bbbe
000003a0: ca44 5abe 7a0f 82ba e31d db3d 49c6 7d3e
000003b0: 348e 03bd e9d0 65be 3aa6 15be 7b5e 813e
000003c0: 6bd4 7fbd 9200 acbe 4b27 78bd 424e 2bbe
000003d0: 23e9 b83d ae57 c63d 553f f83d 2b08 01be
000003e0: bb27 823d abd2 ccbd 2c6d 1d3c 66a3 21be
000003f0: ba5a b4be 9060 5abe 21f6 bf3c ce48 cb3c
0.15409368 -0.10189938 0.21245675 -0.09336299 0.15056184 0.025665093 0.25884956 -0.13407038
0.15729882 0.19377168 0.1306772 -0.18565354 0.031368017 0.13953668 0.095574915 -0.2716396
-0.012158899 -0.024636023 -0.10109525 0.17451559 -0.07437981 0.13455968 0.23571342 -0.08370592
0.26455566 -0.015651677 -0.025557958 0.1587299 -0.15408069 -0.12783726 0.1408189 0.11508353
0.29861352 0.055920575 -0.069737285 0.042417634 -0.24207585 -0.02595006 0.23899995 -0.072066225
0.00016614737 -0.20326914 -0.072916515 -0.25819537 0.050757837 0.17334403 -0.06948997 -0.20997722
-0.07926536 -0.67559963 -0.31063753 -0.6671557 0.18741585 0.099669844 -0.27014294 -0.009880097
0.18118753 -0.047536097 0.17112164 0.48315206 -0.27480832 -0.1366258 0.0840133 -0.30153647
0.10352855 0.24669795 0.029261949 -0.0003153478 -0.0041687433 -0.11385989 -0.27653393 0.12714618
-0.196901 0.25489387 0.01982388 -0.06877716 -0.17144269 0.14850448 0.1266269 0.08949191
0.23789929 0.121224605 0.1856168 0.034369126 0.12378909 0.19525325 0.19871368 -0.34798405
0.17624965 0.18427034 0.037501678 0.2723149 0.12932032 -0.035981443 -0.1018014 -0.09083347
0.043640576 0.0651705 -0.006606635 -0.2034508 0.057169903 0.037562337 0.052617934 -0.13808444
-0.18850712 -0.013690821 -0.029721612 -0.0471566 -0.3943298 -0.24279438 -0.051523756 -0.0737586
-0.0467135 0.02536833 0.065993674 0.08878409 0.071325205 -0.12991856 0.039049093 -0.2105495
-0.119734585 -0.04361036 0.0654895 0.16897991 -0.09542494 0.030240774 -0.13401033 -0.20947519
0.18826413 0.16217625 0.18849705 0.030328754 0.103771 -0.17751057 -0.14650749 -0.20387414
0.17441317 0.19648586 0.2148951 -0.14730588 0.07719609 -0.16470854 0.0843481 -0.043772366
0.064590536 -0.1568477 -0.10995689 -0.19405846 0.1494368 -0.12163251 0.1397259 -0.088763654
0.09446837 -0.54698503 -0.34525138 0.15548299 -0.45044652 -0.5064302 -0.0120969955 0.049131837
0.19899854 -0.040613547 -0.08602946 0.20739259 0.050755747 0.17639035 -0.020249713 -0.10838464
0.09491646 0.1803469 -0.16314647 -0.10293311 -0.14267807 0.15895091 -0.2096327 -0.039432622
-0.36021894 0.12480044 -0.3479638 -0.5325291 0.23701784 0.11556965 0.15536645 -0.13142167
-0.22619665 0.0139095625 -0.4632457 -0.35233557 0.2176088 0.21299843 0.24927351 -0.07195229
0.23791339 -0.25717857 -0.05553645 -0.05018628 -0.12941216 -0.32654956 0.24416998 -0.0026280435
-0.15805909 -0.12952244 -0.25023273 0.21740244 -0.17661925 0.19601633 0.010741919 -0.059704144
0.09211271 0.24991436 0.015778894 -0.25498983 0.10523513 0.16864474 -0.06993254 0.10452069
0.08511813 0.0968453 0.073459916 -0.24440889 0.23228069 0.11364391 -0.050605442 0.06507407
0.22280897 0.26812592 0.1163102 -0.2649634 0.19402492 -0.13767233 0.14475484 -0.36715817
-0.21315303 -0.0009922825 0.1069906 0.24782671 -0.032118037 -0.22442974 -0.14614192 0.25267395
-0.062458437 -0.33594185 -0.060584348 -0.16729072 0.09028842 0.09684692 0.121214546 -0.12600772
0.06355234 -0.10001119 0.009608548 -0.15784988 -0.3522547 -0.21325898 0.023432793 0.02481499

seq.0.bias f4 [128]
00000000: e9fb 433f 545c 683f ef80 773f cc15 873e
00000010: 4db1 de3e b6ea 7b3f 78f1 863f 70d6 4c3f
00000020: 3820 593f efb2 743e 3f21 233f a290 93be
00000030: afd9 1b3f b518 833f a6ae 903f b850 293f
00000040: b6b2 8b3f 93d4 aa3f 51cc 8f3f 1e81 7b3f
00000050: 2a41 b03f a2f4 873f e932 903f 82e2 6b3f
00000060: 4521 aa3e decd 943f 28c3 5a3f a683 3c3f
00000070: c50b 873f d2ec bb3f 352b 853f 6bb7 673f
00000080: 5f90 b3be eaf9 573f e797 d7bd a82a c83e
00000090: 5e1f a43f 37fa 0d3f 56c9 8f3f b368 1f3f
000000a0: 0d68 3f3f 40bb 6e3f 424a 863f dfaa 663f
000000b0: c0e2 a73f 6908 273f bb09 893e e910 223f
000000c0: 9594 8a3f 2e94 703f 9d45 573f e80e ef3f
000000d0: 7343 ae3f 7a54 52be 73d9 7d3f 4ba5 153f
000000e0: 03fc 393f c377 64be c587 933f 2b92 323f
000000f0: d22a 8d3f ea18 debe 3c95 393f 4530 893f
00000100: a6a4 f93e 5401 7d3f 4485 753f 5a96 633f
00000110: ee0c 833f d3d9 3b3f 164f fb3e 9682 603d
00000120: eaba 893f d229 8b3f a0a9 883f 28b9 723f
00000130: 5fee 7c3f f29e 4b3f 3bc8 d23f bfa0 8c3f
00000140: 62a5 5d3e 1305 93bd b269 0abe 7baa 2b3f
00000150: eaba 9d3f 645e 9f3f d882 ec3e 3eec 083f
00000160: d43b 953f be75 833f 7dc4 cb3f 6f02 383f
00000170: f960 033f f7ba ddbf 6d08 543f 9f53 9a3f
00000180: dc17 b53f 1ff5 d43e 0c06 923f 5d47 593f
00000190: 5330 ba3e 664e 7d3f 930e a33e a159 f33e
000001a0: 50b3 453f 91b5 ecbe 882a 883f 56ad 913f
000001b0: dc92 4b3e f124 703f 5fe9 483f 3791 bebe
000001c0: 5075 273f e4c3 873f 6033 373f 0278 863f
000001d0: c161 533f 9df0 2f3f 19ac 6e3f 7ac8 533f
000001e0: d826 9c3f 14f4 233f 7ef4 3cbe 9bac 0640
000001f0: 29a7 b23d 4fc4 823f eca1 f53f 3d4d 9d3f
0.7655626 0.9076588 0.9668111 0.26383817 0.43494645 0.98405015 1.054244 0.80014706
0.84814787 0.23896383 0.63722605 -0.28821284 0.60879034 1.0241915 1.1303298 0.6613879
1.0913913 1.3346123 1.1234227 0.9824389 1.3769886 1.0621531 1.1265537 0.921425
0.33228508 1.1625326 0.85454035 0.7363838 1.0550467 1.4681647 1.0403811 0.9051425
-0.35071084 0.84365714 -0.1052702 0.39095044 1.2822073 0.5545992 1.1233318 0.62269133
0.74768144 0.9325447 1.0491412 0.9010448 1.3116074 0.6524721 0.26765236 0.6330705
1.0826594 0.93976104 0.84090596 1.8676424 1.3614334 -0.20540038 0.99159926 0.5845534
0.72650164 -0.2231131 1.1525809 0.69754285 1.1028693 -0.43378383 0.7249334 1.0717856
0.4875843 0.9883015 0.9590647 0.88901293 1.0238321 0.7337925 0.49083775 0.054812036
1.0760167 1.0872138 1.0676765 0.94813776 0.98801225 0.79539406 1.6467355 1.0986556
0.2164512 -0.07178702 -0.13516882 0.6705701 1.2322667 1.2450681 0.46193576 0.53485477
1.1658883 1.0270307 1.5919338 0.71878713 0.51319844 -1.7322682 0.82825357 1.2056769
1.4147906 0.41593263 1.1408095 0.84874517 0.36364993 0.9894775 0.31847057 0.4752932
0.77226734 -0.46232274 1.063798 1.1381023 0.19880241 0.9380637 0.78481096 -0.37220165
0.6541338 1.0606656 0.7156277 1.0505373 0.82571036 0.6872652 0.9323135 0.8272778
1.2199354 0.6404431 -0.18452641 2.104285 0.087232895 1.0216159 1.919004 1.2289196

seq.2.weight f4 [32, 128]
00000000: e840 983c 1ffb 67bd 6cce a33c 04dc a43c
00000010: c142 98bd 4c17 63bd 9840 10bd 3bec 82bd
00000020: 9377 b5bd 880c 4a3d 32ca 2ebd 592b f13c
00000030: b3e0 a0bd b5d6 263d 31b3 153d bd43 4d3d
00000040: 153d 483d 3203 3d3b 44c9 b6bd d8d4 693d
00000050: b326 8e3d 1923 03bc 4e27 74bd dfdc 133d
00000060: 89a7 7e3d 3f3c c63c 37e6 1ebd 3b28 81bd
00000070: 0ff5 dfbc 0058 9ebd 7535 82bd 786f 643d
00000080: 6059 73bd 95b9 fe3c 7b74 85bd 5a80 8dbd
00000090: d3ec 373d e6ab bf3b e18c d9bc ce8a 0a3d
000000a0: 3f5d b0bd bff5 573d deb9 71bc 3a62 353d
000000b0: 7b44 8fbb 37e2 e5bc 90b0 a1bd 85e9 073d
000000c0: dab4 8fbd 2dda ecbc f35d 08bc a30e 76bd
000000d0: 4c7a 8f3d 24d5 f6bb 1f19 c03c 5a71 823d
000000e0: 3113 403d d772 003d e6a0 453d 0f19 fdbb
000000f0: 1197 5dbd bd2f b2bc 3c37 4c3d 4e30 8cbd
00000100: dae9 3e3c 5323 a1bd cb5d 33bd f9db 4cbd
00000110: bd9d ab3c 8229 f23c 568e babc 26e8 073d
00000120: 3d2e 5ebd d11e 4e3c 20fd 9cbd 2e53 133c
00000130: 1f19 8dbd c40a babd 178e 9dbd 1bbe 89bd
00000140: 9f29 033d f0cf 533d bcdb 143d 477d a0bd
00000150: 3f39 b6bc e156 8cbc 69db a13d a0e2 8ebd
00000160: 7e2c 8a3d 7064 b6bd 01e6 90bd fef6 e7bc
00000170: 83d7 8b3d b5b7 8bbd 085e 72bd ace1 a13d
00000180: 536e c83c ec57 803d 8701 073d 5359 91bc
00000190: 2b60 83bd bcfe 36bc a1d9 023d 3f1d 843d
000001a0: b89e 9abd 0e46 a7bd f89d 65bb cda6 123c
000001b0: bfe5 983c 27d0 943d f755 36bd 0b06 673d
000001c0: 4745 19bc 0ff9 6abd 52c7 c5bc c36d 773d
000001d0: de86 45bc 7e97 57bd 0143 6d3d 9895 40bd
000001e0: 4390 843d 6ac4 d9bb 629d 28bd 576a 83bd
000001f0: 15f8 1a3d b271 0c3b 586e 063d 35c5 803d
00000200: f263 593b 176c 823d fde9 1f3e 3f2f e6bd
00000210: 670b 78be a322 353d 4853 ce3d bc7e 5c3d
00000220: 34b5 b2bc a000 0e3d 8665 03bc f1a7 383e
00000230: 0146 02bd 1258 d93d 1173 283d 51b7 973e
00000240: 5f2c 283e 8cfb 183f 4dcf b73e b32b 6fbb
00000250: d08d 193f f063 033e 31f8 fb3e ced8 503e
00000260: 0f15 abbc 7ab5 4c3e 6752 7e3e 1ce6 943d
00000270: 3c1a 183c 0871 613e 2e30 793e 4411 b23d
00000280: 310a fe3e 9b83 9bbe 858a 0b3b 19d8 82be
00000290: 6b9b 38bf eae0 5c3d 465c 573f 8a72 b9bd
000002a0: 6faf 103e 0c2a 633e a3ab 103d ecf3 e63d
000002b0: 30f2 8f3e a7e3 033d ee71 d23c bab9 cf3d
000002c0: a6ca 9b3d c551 763d 67b5 0b3e 3e38 3c3e
000002d0: b726 593e 6940 27bd e5b0 623e f1f6 da3c
000002e0: 35e2 5f3a f403 3abf eb83 cd3d cdfc d63d
000002f0: fca4 d33d 64fb 1c3f 2524 943d bc1b f73d
00000300: ae27 efbe 0cc8 ca3b 1f15 9f3e 6501 343e
00000310: 27d9 c03d 583c 903d 2da6 60be 8453 133e
00000320: 860c 793e 3b0d 31be 147a 373d 4756 8b3d
00000330: 3be4 913d 1807 3abe 9689 3d3f 95fa 1e3e
00000340: a99c 2b3c 8ed4 d53e 7471 ce3e ea80 fe3c
00000350: 24c3 06bd 5b1d ee3d e5db 86be c069 be3c
00000360: aba9 7e3e dea9 b53d 1f33 073f ad5d 27bd
00000370: a551 83be bc6c 89be c753 c53d 65b8 333e
00000380: 3442 e83e 617d 5dbd 7593 9c3d 8471 813d
00000390: ec53 35bd 668e 683e 03bc f53e 1d2a 8a3d
000003a0: cf49 4ebd a541 c2be f88d c63d 6f95 e83c
000003b0: 0618 5bbd 92d3 18bb fc17 68be c7e7 973e
000003c0: 1416 8abe 6a27 6bbd 4839 bf3d 0629 ad3b
000003d0: cf4b 6cbc 7d03 00bd 14b6 54bd 8624 303e
000003e0: 8394 a83e cf13 fc3b a647 023d 259b 8e3f
000003f0: a841 06bd ec4c 0b3e 0886 1d3f a98b 653e
0.018585637 -0.056635972 0.01999589 0.020124443 -0.07434607 -0.05544214 -0.03521785 -0.06392714
-0.088606976 0.049328357 -0.042673297 0.029439615 -0.07855358 0.040732104 0.036547843 0.05011343
0.048886377 0.0028841016 -0.08925107 0.05708775 0.06940975 -0.008003973 -0.059607796 0.03609931
0.062171493 0.02419865 -0.03879377 -0.063065015 -0.027338533 -0.077316284 -0.06357852 0.055770367
-0.059411407 0.031094352 -0.065163575 -0.06909247 0.044903588 0.0058493493 -0.026556434 0.03382378
-0.08611535 0.052724596 -0.014753787 0.04428313 -0.004372177 -0.02806197 -0.07895005 0.033181686
-0.070169166 -0.028912628 -0.0083231805 -0.060072552 0.07005748 -0.0075327326 0.023449479 0.06369276
0.046893302 0.03135952 0.048249148 -0.0077239345 -0.054099146 -0.021751279 0.049857363 -0.06845151
0.011652434 -0.07868066 -0.04379062 -0.05001447 0.020949239 0.029560808 -0.02277295 0.03318038
-0.054243315 0.012580589 -0.07665467 0.008992 -0.06889557 -0.09084085 -0.07693117 -0.06725713
0.032022115 0.051711977 0.036342368 -0.07836395 -0.022244094 -0.01713127 0.07903177 -0.06976819
0.067467675 -0.08905876 -0.0707512 -0.028316017 0.06828215 -0.06822149 -0.059171706 0.079043716
0.02446667 0.0626677 0.03296044 -0.017742788 -0.06414827 -0.011169132 0.03194583 0.06450891
-0.075498044 -0.08167659 -0.0035036784 0.008950901 0.018664239 0.072662644 -0.044515576 0.056402247
-0.009354896 -0.057366427 -0.024142895 0.06040741 -0.012056081 -0.05263471 0.057925228 -0.047017664
0.06472828 -0.006645729 -0.041165717 -0.06416767 0.037834246 0.0021430072 0.032820076 0.06287614
0.0033171144 0.06368273 0.15616603 -0.1123948 -0.242231 0.044222485 0.100744784 0.0538318
-0.02181492 0.034668565 -0.008019811 0.18032815 -0.031805042 0.10612501 0.04112536 0.29632047
0.16423176 0.5975883 0.35900345 -0.0036494553 0.59982014 0.12831092 0.49212793 0.20395204
-0.020884065 0.19991103 0.24836121 0.072704524 0.0092835985 0.22015774 0.24334785 0.086946994
0.4961715 -0.30373845 0.002129228 -0.25555494 -0.7211215 0.053925432 0.84125173 -0.0905505
0.14129423 0.22184008 0.035319936 0.11276993 0.28114462 0.032199528 0.025689092 0.101428464
0.076070115 0.060136575 0.13643418 0.1838083 0.21206175 -0.04083291 0.22137792 0.026729079
0.00085404824 -0.7266228 0.10034927 0.10497437 0.10334203 0.6132109 0.072334565 0.12065837
-0.4670996 0.006188398 0.31070802 0.17578657 0.094164185 0.0704276 -0.21938391 0.14387327
0.24321184 -0.17290203 0.044794157 0.068035655 0.0712361 -0.18166769 0.74038064 0.15525277
0.010474362 0.4176373 0.40320933 0.03106733 -0.032900944 0.11626693 -0.2633964 0.023243785
0.2486941 0.0887029 0.5281238 -0.04086082 -0.25648227 -0.2684077 0.0963512 0.1755081
0.4536301 -0.05407465 0.07645313 0.063204795 -0.044269487 0.2271057 0.47995004 0.06746314
-0.050363358 -0.37940708 0.09695047 0.028391568 -0.053489707 -0.0023319465 -0.226654 0.2966902
-0.2696997 -0.057410635 0.093370974 0.0052844314 -0.014422371 -0.031253327 -0.051931456 0.17201433
0.32925805 0.007692791 0.03180661 1.1141096 -0.03277746 0.13603562 0.6153264 0.22416557

seq.2.bias f4 [32]
00000000: 6878 98bd 4c6a 303f 4b05 7b3f 9d65 6c3f
00000010: e91c 853f e637 613f 2589 443f 8fbc 2e3d
00000020: d015 593f 1f19 883b 8a00 94bc b812 7d3f
00000030: fb93 7e3f 157f 573f 2df2 9b3b 0ec5 383f
00000040: a1da 0a3f 24ac 813f 9f42 593f 1311 1a3b
00000050: c5b2 253f 1228 37bd 7b20 323f 5de8 bfbd
00000060: 702f 5d3f d788 d0bc 34e4 2a3d cded bebd
00000070: 19d8 f1bc 98da 89bd 6977 5c3f ab5b 783f
-0.07444841 0.68912196 0.9805495 0.9234255 1.0399448 0.8797592 0.76771766 0.042660292
0.8479891 0.0041533853 -0.018066663 0.9885669 0.9944455 0.84178287 0.004759094 0.7217568
0.5423985 1.0130658 0.8486728 0.0023508712 0.64725906 -0.04471595 0.6958081 -0.09370492
0.8640051 -0.025455875 0.041721538 -0.09322701 -0.029521989 -0.067311466 0.86119705 0.97014874

seq.4.weight f4 [8, 32]
00000000: e407 063e e710 28be 8afe ad3c f9c6 35be
00000010: d8fc 47bd 7dc8 3d3d 785f 0b3e 8468 3a3d
00000020: 3ce0 27be adde 06be 9324 6b3d df8d ed3d
00000030: 51f4 2f3d 5cca 08be be98 193e aa9e 8cbc
00000040: 8e9c a43c 0f3c 11be 23c6 233e 897e 6a3a
00000050: 41d0 b6bd 5250 70bc f2ca ce3c 17ec 23bd
00000060: 9a15 ef3d a8e1 d2bb 5691 7c3d d5f7 f63a
00000070: 10a9 ddbd 01aa 003d 69e3 5bbd 6be6 733d
00000080: b9ca 023e f162 983e bf13 2f3d c6ad 923e
00000090: e9df 833b 149e 963e ba3f 273d 7332 103e
000000a0: e745 f33d 1538 0ebe c4d9 f2bc 19f1 05be
000000b0: a29b b03e 58ad bb3e 2c4d ec3d 705b 4b3f
000000c0: 701d ba3e 45df 253e f49f 603e ac0c 983c
000000d0: 24bf 2bbe d8a3 adbd 7aeb 51be f3b9 41bd
000000e0: afd3 863e 8749 00be 52b0 283d e2f5 763c
000000f0: 5b25 b03d 8495 1b3c 71f3 ddbc 5914 333d
00000100: 7fba 2cbe d67f 2cbd b628 c4bd 7d81 123e
00000110: 6cd1 92bd 7fee 9d3d 3882 f8bc 17f7 08be
00000120: 75c4 bbbc d01c 33be 282a 94bd ef28 afbd
00000130: 098a a1bc 0e09 14bd dae7 813c 904c c2bd
00000140: 8164 cfbd a66d 413d d65a e0bd cdcd 1c3e
00000150: 5413 25be e9df a43b 952e a83c baa1 b53d
00000160: 3b1e 19be 9345 05be 9492 2b3e 5d21 073e
00000170: 9b6f c5bd ddca bb3c 65e2 d93d 91e2 e0bd
00000180: 564e fdbd 4ae8 ae3e f7c2 a43e af4f d33e
00000190: 1daa 4c3e 3d71 713e 2270 91bd d466 723d
000001a0: 7ad8 de3e cf2b 9b3d bb90 7bbd 818c 713e
000001b0: a5ca 9d3e f20d 963e 695e 8d3b 480f 3ebe
000001c0: 68a3 dc3e 44a5 7e3e 5d1b 953e 6859 fbbd
000001d0: 47fa 043f bf05 16be 7e5a 863e 10e6 2fbd
000001e0: 3b88 043e 0648 3c3e 7098 9abd f4d7 7dbd
000001f0: df61 4abd 8a96 183e 70e3 d43e 43de cf3e
00000200: 9c60 1b3e 2d31 0ebe 1ae5 bdbd 6d60 4fbd
00000210: 290d 10be eb5f 25be 3c93 533d 063d 99bd
00000220: 863d bbbc 6752 d93d c223 a43a 65d1 e73d
00000230: 0124 a7bd c37b 67bd ac94 ef3c 56b1 a83d
00000240: 1a33 983d 3a25 ea3d 98a5 05be e90d 0c3e
00000250: 3138 d6bc 6392 04be c4f7 093e 424e 0d3d
00000260: b3ee 843d 1374 c2bd f632 5a3d d3cc 233e
00000270: f68b cdbd 4b63 b13d 9af7 68bd 12ad 8ebc
00000280: 3ad9 2cbe 7c2d 643c aba6 ca3e 64bf b63e
00000290: b57e ab3e 13bc 9c3e c467 fb3e 22ef 1c3e
000002a0: fb29 853e 7d3c 09be 4348 a8bc ed55 303e
000002b0: a5af ba3e 6ac5 453e 0fee 20be 47d9 293f
000002c0: 509b 68bd e299 b93e 36ae 8d3e b234 3fbc
000002d0: db3f bd3e 0410 8e3d e902 693e df42 9abd
000002e0: 7d9b 033f 4de5 6fbd 4db2 683c d6a6 86bd
000002f0: d1a4 b23b 58cf 31bd 9f8b ba3e 2d77 ba3e
00000300: 9a64 9f3d 4e29 35be 7224 fd3d 28b9 c2bd
00000310: 9b96 cfbd 0d75 9b3d 5a9a 07bd 04f4 e63d
00000320: 853c bcbc d44d f63d 13bb 0f3d 1f40 9d3d
00000330: 9805 11bd 3158 d8bd 7ca5 4e3a 3f01 10be
00000340: ac85 fa3d 5080 62bc a808 43be 79c9 0f3d
00000350: 3b45 11be 816c bebd 0286 32be f956 b6bc
00000360: dbd6 893c b793 82bd 3327 573c 77aa 13be
00000370: 9984 19be c54e 843d 561c 383d 3b1b 083e
00000380: 6d63 b0bd 3837 523e 15d4 4a3e aeac ed3e
00000390: 680b ed3e 4f73 c73e 32a0 f63d f445 883c
000003a0: a209 e33d 2a94 813d 0e2d ff3d 2f25 fb3e
000003b0: ba1d a43e f5dc db3e 2f31 d8bd b80d 81be
000003c0: 0f67 203d a2f0 b23e 5d20 703e c1cb edbb
000003d0: b963 36be a459 1ebe 0429 cfbd 88a9 73bd
000003e0: 75b4 a23e bf1b 1bbe 070f 81bd d8af 8d3c
000003f0: d3a0 c7bd 60a3 843d 3bfb 233b bba0 d33e
0.13088948 -0.16412698 0.021239538 -0.17751683 -0.048825115 0.04633378 0.13610637 0.04550983
-0.16394132 -0.13170882 0.057407927 0.115993254 0.042957608 -0.13358444 0.14999673 -0.0171655
0.020094182 -0.14183067 0.15993552 0.0008945247 -0.0892644 -0.014667587 0.025243256 -0.040020075
0.11674042 -0.0064355917 0.06166204 0.001884217 -0.10823262 0.03141213 -0.053683672 0.059545916
0.12772645 0.29762986 0.04274344 0.28648204 0.004024495 0.2941748 0.04083226 0.14081745
0.11878567 -0.13888581 -0.029644854 -0.13080253 0.34493738 0.36655688 0.11538157 0.794364
0.36350584 0.16198452 0.21936017 0.01856073 -0.16772133 -0.08478516 -0.20499983 -0.047296476
0.26333377 -0.12528048 0.041183777 0.0150732715 0.08600875 0.0094960965 -0.027093621 0.043720577
-0.16868018 -0.0421141 -0.095780775 0.14307208 -0.0716885 0.07711505 -0.03033553 -0.13375507
-0.022920826 -0.1749146 -0.07234603 -0.08552729 -0.01971914 -0.036141448 0.015857626 -0.094872594
-0.101265915 0.04722371 -0.109548256 0.15312882 -0.16120654 0.005031575 0.020530025 0.088687375
-0.14952938 -0.13014822 0.16755134 0.13196321 -0.09640428 0.022923881 0.106388845 -0.10980714
-0.12368457 0.34161597 0.32179996 0.4127173 0.19986768 0.23578353 -0.07101466 0.059180096
0.43524534 0.07576715 -0.061417323 0.23588754 0.30818668 0.29307514 0.004314233 -0.18560517
0.4309342 0.24867731 0.2912244 -0.12272912 0.5194439 -0.1465063 0.26240915 -0.042944014
0.12942593 0.1838685 -0.075486064 -0.061973527 -0.049409743 0.14901176 0.4157977 0.4059926
0.15173572 -0.13885947 -0.09272213 -0.05062907 -0.1406752 -0.16149871 0.051654086 -0.074823424
-0.022856485 0.1061142 0.0012522864 0.11319236 -0.08161164 -0.056514513 0.029245697 0.08236949
0.07431622 0.11432882 -0.1305145 0.13677181 -0.026149841 -0.12946467 0.13473421 0.03449846
0.06490841 -0.09494796 0.053271256 0.15996103 -0.10036461 0.08661517 -0.056876756 -0.01741651
-0.1687974 0.01392686 0.39580283 0.35692894 0.33495107 0.3061224 0.49102604 0.15325597
0.2600859 -0.1340198 -0.02054227 0.17220278 0.3646213 0.19313589 -0.15715812 0.66347164
-0.056788743 0.36250216 0.27671975 -0.011670278 0.3696278 0.069366485 0.22755016 -0.07532286
0.5140913 -0.058568288 0.0142026665 -0.0657479 0.0054517766 -0.04341063 0.36434647 0.3641905
0.0778286 -0.17691538 0.12360467 -0.09507972 -0.101361476 0.07590685 -0.033106185 0.11277011
-0.022978077 0.12026563 0.035090517 0.07678246 -0.035405725 -0.10563696 0.00078829355 -0.14062975
0.12232527 -0.013824537 -0.19046271 0.03510425 -0.14186566 -0.09298039 -0.17433932 -0.022258269
0.016826084 -0.063758306 0.013131904 -0.14420496 -0.14991988 0.064603366 0.0449489 0.13291638
-0.08612714 0.20528877 0.19807465 0.46420807 0.46297765 0.3895516 0.120422736 0.016634919
0.11085822 0.06327088 0.124597654 0.49051806 0.3205393 0.42942014 -0.10556256 -0.2520578
0.039160784 0.34949213 0.23449846 -0.0072569554 -0.17811479 -0.15463883 -0.10115245 -0.05948785
0.31778303 -0.15147303 -0.06301694 0.017295763 -0.09747472 0.06476474 0.0025021571 0.41333565

seq.4.bias f4 [8]
00000000: 64b8 0ebe e63a cd3e 6eff 85bd 5945 333f
00000010: 53ba 9cbd 39af 913f 9bd8 f33d b1e7 823f
-0.13937527 0.40083998 -0.0654286 0.7002769 -0.07652726 1.1381599 0.119065486 1.0226957

seq.6.weight f4 [4, 8]
00000000: f373 efbd 1a16 52be 0b52 83be 5a32 de3c
00000010: 60aa 4d3e 9932 06bf cd11 f43d 27e5 09bf
00000020: 5ed7 a23d 3623 47bd c165 ba3d 645f dbbe
00000030: 2da9 953e 6c46 a9be 84c8 9e3e 6973 f0be
00000040: fd2c 4dbe 9735 0fbf 11ce 353e 943e a6be
00000050: 3ebf 6b3d 2be8 09be 065a 8fbe a843 d3be
00000060: b7e3 a5bc e6f8 7fbe dc0f 733e c6bc cdbe
00000070: 6148 1e3e cd55 0cbf 30dd 883e 67eb 8bbd
-0.116920374 -0.20516244 -0.2564853 0.027123619 0.20084524 -0.52420956 0.11917458 -0.53865284
0.07951234 -0.048617564 0.09101439 -0.42846215 0.29230633 -0.3306154 0.31012356 -0.4696305
-0.20036693 -0.55941147 0.1775439 -0.32469618 0.05755543 -0.13467471 -0.2799837 -0.41262555
-0.020250184 -0.24997291 0.23736519 -0.40183085 0.15457298 -0.5481842 0.26731253 -0.06832009

seq.6.bias f4 [4]
00000000: 28a7 5bbf 6206 4dbf 9f39 41bf 26ce fabe
-0.85801935 -0.80087864 -0.7547855 -0.48985404
