training/models/environment_traffic_lights/1639331045/checkpoints/ep00050.pt (torch, 28751 bytes, 8 tensors)

seq.0.weight f4 [128, 16]
0.19529107 -0.08481371 0.27070853 -0.04181435 0.21008068 0.05638568 0.29307738 -0.08892477
0.20183617 0.19658351 0.15391034 -0.17199521 0.07214177 0.15280184 0.12601712 -0.26380852
0.020834148 0.0038857404 -0.07274007 0.22233179 -0.04301578 0.13823186 0.26340228 -0.058701307
0.2992486 0.0063864826 -0.0010738405 0.18995747 -0.15510072 -0.13333397 0.16041926 0.16453597
0.2895368 0.009397955 -0.03627619 0.0649885 -0.24705392 0.04262593 0.2834659 -0.06690509
0.043266557 -0.21454509 -0.08219104 -0.21892022 0.0909411 0.2200487 -0.07398384 -0.20042041
-0.110162444 -0.21059649 -0.3523993 -0.6888978 0.25236845 0.026400512 -0.11144975 -0.3140825
0.25012633 -0.16055135 0.15224986 0.42119628 -0.03366694 -0.46390837 -0.12971044 -0.07643302
0.20732468 0.3070142 0.08215311 0.0730964 0.11570879 -0.016500458 -0.1990412 0.19783898
-0.056078047 0.29218513 0.13793688 -0.019149428 -0.03281614 0.25060955 0.26675844 0.124441974
0.27064598 0.14459054 0.22331677 0.0785553 0.15707761 0.21757194 0.23027271 -0.32699734
0.2031937 0.1911683 0.0541172 0.30269793 0.15337902 -0.0278071 -0.08908771 -0.054789882
0.08115336 0.12989803 -0.06908509 -0.27401438 0.009566436 0.12682596 -0.021968817 -0.084002264
-0.29276377 0.007353242 0.07320571 0.12737618 -0.2637331 -0.3299813 0.02359896 -0.005017237
0.031232642 -0.0741597 0.0942049 0.1509013 0.077448204 -0.15341702 0.111926705 -0.21927026
-0.15842116 -0.13069515 0.058126576 0.28290692 -0.07475987 0.07768473 -0.16995032 -0.07589689
0.22412929 0.16680087 0.2236619 0.06876664 0.14762352 -0.14479467 -0.112695 -0.1688079
0.21328586 0.18241234 0.23378582 -0.13964798 0.10705325 -0.15318617 0.10680558 -0.011200552
0.17284322 0.0156142125 -0.02503924 -0.17939112 0.23289156 -0.010232541 0.11267124 0.25725088
0.3189914 -0.23473634 -0.17716968 0.22306427 -0.13411869 -0.081179865 0.19886702 0.25193796
0.26720852 0.020651022 -0.035270516 0.28275472 0.12154853 0.2262187 0.028691879 -0.02318547
0.16576451 0.2263882 -0.1370991 -0.037951898 -0.06346891 0.22058709 -0.1462715 0.028934458
-0.121708624 -0.056069165 -0.4607165 -0.4468151 0.18606476 0.13636126 0.11489833 -0.042694725
-0.2756207 -0.16347992 -0.38260183 -0.24112254 0.2078105 0.1721232 0.31073853 -0.12870933
0.27539104 -0.14866135 0.15330383 0.14464776 0.04587449 -0.17559414 0.23855206 0.18292578
-0.12392373 -0.1500418 -0.07174824 0.38551724 -0.02917401 0.27109683 0.16115476 -0.07361742
0.11580171 0.26057673 0.041650508 -0.23612534 0.1347054 0.16690099 -0.06523481 0.14014636
0.11585469 0.09410475 0.09476216 -0.25359765 0.25783953 0.122973554 -0.036221355 0.10788493
0.2561313 0.26751876 0.14670824 -0.26162705 0.19003448 -0.077553935 0.20194282 -0.3564531
-0.22268884 0.06319862 0.16769975 0.25046414 -0.09385132 -0.27088615 -0.2187234 0.25803295
-0.06222393 -0.0846977 -0.03773451 -0.22701089 0.159964 0.10749429 0.024928529 -0.123867616
0.03640035 -0.10762042 -0.006070619 -0.13323388 -0.028396303 0.021825438 0.09726391 0.03837586
00000000: 62fa 473e cfb2 adbd 4f9a 8a3e 8645 2bbd
00000010: 641f 573e acf4 663d 3d0e 963e 311e b6bd
00000020: 24ae 4e3e 304d 493e ac9a 1d3e 831f 30be
00000030: 10bf 933d 1678 1c3e a20a 013e e911 87be
00000040: 60ac aa3c e8a7 7e3b bff8 94bd f2aa 633e
00000050: 5131 30bd a78c 0d3e aadc 863e c870 70bd
00000060: 1d37 993e b345 d13b 1cc0 8cba 3684 423e
00000070: b9d2 1ebe b388 08be f244 243e 1e7c 283e
00000080: 2b3e 943e e1f9 193c 5896 14bd b118 853d
00000090: b4fb 7cbe 8798 2e3d 7122 913e 8905 89bd
000000a0: 4638 313d b5b1 5bbe c753 a8bd 9f2c 60be
000000b0: 543f ba3d 7254 613e d784 97bd 023b 4dbe
000000c0: d99c e1bd 9ba6 57be ae6d b4be 9b5b 30bf
000000d0: 7036 813e e345 d83c c43f e4bd 6ccf a0be
000000e0: 8f10 803e 9367 24be 63e7 1b3e 0aa7 d73e
000000f0: 58e6 09bd 6685 edbe d0d2 04be ea88 9cbd
00000100: ec4c 543e f730 9d3e e43f a83d 91b3 953d
00000110: bbf8 ec3d f82b 87bc 75d1 4bbe 4d96 4a3e
00000120: 18b2 65bd 4a99 953e 533f 0d3e 43df 9cbc
00000130: 386a 06bd e54f 803e 9094 883e 6fdb fe3d
00000140: 1c92 8a3e 8b0f 143e 27ad 643e 9ae1 a03d
00000150: f4d8 203e 2ecb 5e3e 9ccc 6b3e 326c a7be
00000160: 0212 503e 9fc1 433e ffa9 5d3d 39fb 9a3e
00000170: 640f 1d3e b7cb e3bc 9e73 b6bd 5b6b 60bd
00000180: bc33 a63d fd03 053e 7c7c 8dbd 9d4b 8cbe
00000190: 8abc 1c3c aade 013e f3f7 b3bc 6109 acbd
000001a0: 22e5 95be 77f3 f03b e0ec 953d e76e 023e
000001b0: 0608 87be 4ff3 a8be 9b52 c13c a267 a4bb
000001c0: 99db ff3c 0ae1 97bd 80ee c03d df85 1a3e
000001d0: 2a9d 9e3d 5a19 1dbe d439 e53d 6288 60be
000001e0: 2839 22be f3d4 05be 2216 6e3d 2dd9 903e
000001f0: b41b 99bd 2c19 9f3d 7507 2ebe d46f 9bbd
00000200: 2682 653e d9cd 2a3e a007 653e 86d5 8c3d
00000210: 9f2a 173e 0e45 14be a3cc e6bd fadb 2cbe
00000220: 9c67 5a3e 4dca 3a3e 8d65 6f3e e1ff 0ebe
00000230: bc3e db3d d6dc 1cbe e2bc da3d 8582 37bc
00000240: d0fd 303e c1d2 7f3c 181f cdbc 4eb2 37be
00000250: 207b 6e3e 63a6 27bc 2ec0 e63d 63b6 833e
00000260: d752 a33e b95e 70be f86b 35be f66a 643e
00000270: 6956 09be a141 a6bd cca3 4b3e 03fe 803e
00000280: 8ecf 883e 552c a93c d177 10bd 3ac5 903e
00000290: 70ee f83d e0a5 673e 3b0b eb3c 74ef bdbc
000002a0: 2cbe 293e 4fd2 673e b563 0cbe 7373 1bbd
000002b0: fdfb 81bd 95e1 613e 32c8 15be f507 ed3c
000002c0: 5f42 f9bd c8a8 65bd 08e3 ebbe f3c4 e4be
000002d0: c387 3e3e 49a2 0b3e d14f eb3d aae0 2ebd
000002e0: 281e 8dbe 4867 27be 63e4 c3be d4e8 76be
000002f0: 47cc 543e 1041 303e 1f19 9f3e 61cc 03be
00000300: 0e00 8d3e ae3a 18be aefb 1c3e 8b1e 143e
00000310: e4e6 3b3d f3ce 33be fe46 743e e550 3b3e
00000320: b9cb fdbd 8fa4 19be bef0 92bd 8462 c53e
00000330: 55fe eebc 34cd 8a3e c105 253e bbc4 96bd
00000340: 7229 ed3d 506a 853e b999 2a3d d7ca 71be
00000350: 36f0 093e 18e8 2a3e d499 85bd 8782 0f3e
00000360: 3945 ed3d feb9 c03d aa12 c23d 8dd7 81be
00000370: 8b03 843e 8fd9 fb3d d85c 14bd c6f2 dc3d
00000380: a423 833e 38f8 883e af3a 163e fbf3 85be
00000390: 6698 423e 99d4 9ebd 19ca 4e3e 0581 b6be
000003a0: 8b08 64be 476e 813d 7cb9 2b3e d63c 803e
000003b0: 1f35 c0bd 97b1 8abe 07f9 5fbe e51c 843e
000003c0: 85de 7ebd fd75 adbd 808f 1abd 8b75 68be
000003d0: 9acd 233e f725 dc3d ea36 cc3c 4eae fdbd
000003e0: 8918 153d 1868 dcbd 0bec c6bb 766e 08be
000003f0: 5d9f e8bc 43cb b23c 4d32 c73d 0130 1d3d

seq.0.bias f4 [128]
0.64731765 0.75793916 0.7828252 0.23931381 0.42839733 0.8368142 0.8783074 0.63765365
0.7114239 0.36216572 0.54139274 -0.2454391 0.5639785 0.8731171 0.9232502 0.5177369
0.84686977 1.1236221 0.9293664 0.8263007 1.1609333 0.9017064 0.9463542 0.7808057
0.40948772 0.9971575 0.70712054 0.6046144 0.9039442 1.2597432 0.8888151 0.7538274
-0.093353674 0.70234466 -0.079350546 0.3581089 1.0134406 0.4499664 0.9660954 0.4523485
0.6238578 0.77993244 0.88592935 0.7515637 1.0925744 0.5505161 0.3525219 0.5159114
0.92665184 0.78842026 0.6878117 1.6212362 1.1091006 0.11452669 0.71002007 0.29610577
0.61453974 -0.1461822 0.9879949 0.5715212 0.9441152 -0.41375792 0.59876275 0.91774374
0.4305433 0.84222865 0.7921068 0.73530793 0.8378788 0.5356273 0.4145712 0.18155733
0.89105684 0.9445186 0.9165668 0.78877383 0.82886434 0.638518 1.3863643 0.93934304
0.18618813 0.08001664 -0.059980255 0.5465348 1.013404 0.9896354 0.51371807 0.45729926
0.9845647 0.86567605 1.3856931 0.5886494 0.5047443 -1.5256853 0.6505735 1.0387001
1.1885393 0.37049758 1.0701052 0.6968037 0.37089336 0.838318 0.3206049 0.356377
0.6367605 -0.43667668 0.8889452 0.97236884 0.30423605 0.79371995 0.7879605 -0.24505715
0.6489093 0.87936366 0.5814423 0.8986219 0.6988927 0.57049906 0.78526276 0.66608155
1.0583284 0.5286835 -0.28259847 1.8925413 0.07046881 0.93457514 1.7043273 0.99253756
00000000: 9cb6 253f 4d08 423f 3b67 483f ae0e 753e
00000010: e556 db3e 7539 563f c1d8 603f 453d 233f
00000020: e01f 363f c96d b93e b798 0a3f 6354 7bbe
00000030: e560 103f 9a84 5f3f 205a 6c3f 688a 043f
00000040: 75cc 583f d9d2 8f3f f5ea 6d3f 7188 533f
00000050: 7699 943f 3bd6 663f 4544 723f e2e2 473f
00000060: 60a8 d13e b745 7f3f da05 353f 02c8 1a3f
00000070: e368 673f 443f a13f 6389 633f d5fa 403f
00000080: 3630 bfbd dccc 333f 8a82 a2bd 0d5a b73e
00000090: 6cb8 813f ff61 e63e 0752 773f 399a e73e
000000a0: 25b5 1f3f a7a9 473f 44cc 623f 7b66 403f
000000b0: 7ad9 8b3f a0ee 0c3f c07d b43e c512 043f
000000c0: 0e39 6d3f e9d5 493f 6d14 303f ab84 cf3f
000000d0: 02f7 8d3f f88c ea3d e0c3 353f 2d9b 973e
000000e0: 7a52 1d3f c9b0 15be 3ced 7c3f 374f 123f
000000f0: 89b1 713f 14d8 d3be 8448 193f 41f1 6a3f
00000100: 2c70 dc3e 4c9c 573f 83c7 4a3f 243d 3c3f
00000110: 3a7f 563f df1e 093f ad42 d43e 2aea 393e
00000120: 4d1c 643f f9cb 713f 1fa4 6a3f 15ed 493f
00000130: 7430 543f ea75 233f 6374 b13f c978 703f
00000140: 1aa8 3e3e c4df a33d dbad 75bd b4e9 0b3f
00000150: 39b7 813f bf58 7d3f 0783 033f 2123 ea3e
00000160: 6f0c 7c3f f29c 5d3f 645e b13f bab1 163f
00000170: ec36 013f a849 c3bf fc8b 263f 20f4 843f
00000180: 0e22 983f dcb1 bd3e 35f9 883f ba61 323f
00000190: bce5 bd3e 029c 563f 5326 a43e 0c77 b63e
000001a0: bc02 233f 1694 dfbe ea91 633f 2aed 783f
000001b0: d4c4 9b3e 3b31 4b3f c8b7 493f 43f0 7abe
000001c0: eb1e 263f fa1d 613f 67d9 143f 160c 663f
000001d0: a2ea 323f 3a0c 123f fb06 493f 5284 2a3f
000001e0: 4e77 873f cd57 073f bfb0 90be cb3e f23f
000001f0: f451 903d 5140 6f3f 6627 da3f f116 7e3f

seq.2.weight f4 [32, 128]
0.018585637 -0.056635972 0.01999589 0.020124443 -0.07434607 -0.05544214 -0.03521785 -0.06392714
-0.088606976 0.049328357 -0.042673297 0.029439615 -0.07855358 0.040732104 0.036547843 0.05011343
0.048886377 0.0028841016 -0.08925107 0.05708775 0.06940975 -0.008003973 -0.059607796 0.03609931
0.062171493 0.02419865 -0.03879377 -0.063065015 -0.027338533 -0.077316284 -0.06357852 0.055770367
-0.059411407 0.031094352 -0.065163575 -0.06909247 0.044903588 0.0058493493 -0.026556434 0.03382378
-0.08611535 0.052724596 -0.014753787 0.04428313 -0.004372177 -0.02806197 -0.07895005 0.033181686
-0.070169166 -0.028912628 -0.0083231805 -0.060072552 0.07005748 -0.0075327326 0.023449479 0.06369276
0.046893302 0.03135952 0.048249148 -0.0077239345 -0.054099146 -0.021751279 0.049857363 -0.06845151
0.011652434 -0.07868066 -0.04379062 -0.05001447 0.020949239 0.029560808 -0.02277295 0.03318038
-0.054243315 0.012580589 -0.07665467 0.008992 -0.06889557 -0.09084085 -0.07693117 -0.06725713
0.032022115 0.051711977 0.036342368 -0.07836395 -0.022244094 -0.01713127 0.07903177 -0.06976819
0.067467675 -0.08905876 -0.0707512 -0.028316017 0.06828215 -0.06822149 -0.059171706 0.079043716
0.02446667 0.0626677 0.03296044 -0.017742788 -0.06414827 -0.011169132 0.03194583 0.06450891
-0.075498044 -0.08167659 -0.0035036784 0.008950901 0.018664239 0.072662644 -0.044515576 0.056402247
-0.009354896 -0.057366427 -0.024142895 0.06040741 -0.012056081 -0.05263471 0.057925228 -0.047017664
0.06472828 -0.006645729 -0.041165717 -0.06416767 0.037834246 0.0021430072 0.032820076 0.06287614
0.005462853 0.07143307 0.11858461 0.067367226 -0.1201048 0.045802873 0.15071498 0.0968311
0.0049592815 0.04148363 0.032337613 0.17603935 0.034281228 0.0900033 0.058887046 0.16249697
0.13553308 0.65210974 0.28794527 -0.008095837 0.56094223 0.101216674 0.45561478 0.1848998
0.0376559 0.18722509 0.22006303 0.079759866 0.0134892985 0.19081946 0.21177365 0.09486033
0.34860945 -0.22689043 0.13349089 -0.1238086 -0.68419284 0.12621564 0.9106425 -0.017378503
0.17188253 0.19270732 0.04662721 0.119534075 0.2517983 0.08117931 0.13240628 0.113933675
0.062450394 0.07305033 0.14840871 0.029779647 0.1704275 -0.024986451 0.32297006 -0.10463499
0.05971555 -0.7145167 0.088153146 0.11536103 0.07593383 0.55864036 0.094087444 0.11882908
-0.3174137 0.011254779 0.39027274 0.1705595 0.14146207 0.17934069 -0.1330838 0.09331957
0.22208771 -0.15199572 0.04276969 0.037031185 0.067984626 -0.14435983 0.71233904 0.1453679
0.024608778 0.15804164 0.24916244 0.060094636 -0.050873965 0.060572706 -0.20738672 0.05371454
0.27334464 0.088562794 0.522396 0.004662177 -0.14241867 -0.16589163 0.1382878 0.13591678
0.37254655 -0.039224975 0.16634493 0.122372806 -0.035163864 0.21063276 0.14951429 0.18653247
-0.07707791 -0.54151845 0.082701676 0.02678008 -0.06329496 0.003787441 -0.17285354 0.22228141
-0.18068194 0.010572751 0.13180426 0.008129919 0.033385497 0.0037034857 -0.016321989 0.1749531
0.26032463 0.03642484 -0.056891333 1.0320827 -0.00957045 0.3298288 0.54152924 0.2720872
00000000: e840 983c 1ffb 67bd 6cce a33c 04dc a43c
00000010: c142 98bd 4c17 63bd 9840 10bd 3bec 82bd
00000020: 9377 b5bd 880c 4a3d 32ca 2ebd 592b f13c
00000030: b3e0 a0bd b5d6 263d 31b3 153d bd43 4d3d
00000040: 153d 483d 3203 3d3b 44c9 b6bd d8d4 693d
00000050: b326 8e3d 1923 03bc 4e27 74bd dfdc 133d
00000060: 89a7 7e3d 3f3c c63c 37e6 1ebd 3b28 81bd
00000070: 0ff5 dfbc 0058 9ebd 7535 82bd 786f 643d
00000080: 6059 73bd 95b9 fe3c 7b74 85bd 5a80 8dbd
00000090: d3ec 373d e6ab bf3b e18c d9bc ce8a 0a3d
000000a0: 3f5d b0bd bff5 573d deb9 71bc 3a62 353d
000000b0: 7b44 8fbb 37e2 e5bc 90b0 a1bd 85e9 073d
000000c0: dab4 8fbd 2dda ecbc f35d 08bc a30e 76bd
000000d0: 4c7a 8f3d 24d5 f6bb 1f19 c03c 5a71 823d
000000e0: 3113 403d d772 003d e6a0 453d 0f19 fdbb
000000f0: 1197 5dbd bd2f b2bc 3c37 4c3d 4e30 8cbd
00000100: dae9 3e3c 5323 a1bd cb5d 33bd f9db 4cbd
00000110: bd9d ab3c 8229 f23c 568e babc 26e8 073d
00000120: 3d2e 5ebd d11e 4e3c 20fd 9cbd 2e53 133c
00000130: 1f19 8dbd c40a babd 178e 9dbd 1bbe 89bd
00000140: 9f29 033d f0cf 533d bcdb 143d 477d a0bd
00000150: 3f39 b6bc e156 8cbc 69db a13d a0e2 8ebd
00000160: 7e2c 8a3d 7064 b6bd 01e6 90bd fef6 e7bc
00000170: 83d7 8b3d b5b7 8bbd 085e 72bd ace1 a13d
00000180: 536e c83c ec57 803d 8701 073d 5359 91bc
00000190: 2b60 83bd bcfe 36bc a1d9 023d 3f1d 843d
000001a0: b89e 9abd 0e46 a7bd f89d 65bb cda6 123c
000001b0: bfe5 983c 27d0 943d f755 36bd 0b06 673d
000001c0: 4745 19bc 0ff9 6abd 52c7 c5bc c36d 773d
000001d0: de86 45bc 7e97 57bd 0143 6d3d 9895 40bd
000001e0: 4390 843d 6ac4 d9bb 629d 28bd 576a 83bd
000001f0: 15f8 1a3d b271 0c3b 586e 063d 35c5 803d
00000200: bb01 b33b 804b 923d 7ddc f23d d4f7 893d
00000210: 81f9 f5bd cb9b 3b3d 0755 1a3e 624f c63d
00000220: 7881 a23b bdea 293d 7274 043d a943 343e
00000230: 796a 0c3d a653 b83d 8b33 713d 9b65 263e
00000240: 2fc9 0a3e aaf0 263f 906d 933e 67a4 04bc
00000250: e999 0f3f b04a cf3d 5746 e93e 6056 3d3e
00000260: 133d 1a3d efb7 3f3e 3458 613e 2459 a33d
00000270: 3802 5d3c 2d66 433e 31db 583e 2246 c23d
00000280: f07c b23e f755 68be d6b1 083e 5d8f fdbd
00000290: 4327 2fbf ac3e 013e de1f 693f 5d5d 8ebc
000002a0: f901 303e 1155 453e 2cfc 3e3d 48ce f43d
000002b0: b5eb 803e 5741 a63d 8395 073e 0f56 e93d
000002c0: fccb 7f3d 699b 953d 74f8 173e 72f4 f33c
000002d0: 8c84 2e3e 63b0 ccbc 555c a53e df4a d6bd
000002e0: 4b98 743d 91ea 36bf a389 b43d 6742 ec3d
000002f0: 3283 9b3d 0e03 0f3f ebb0 c03d a95c f33d
00000300: 0c84 a2be f765 383c d4d1 c73e 26a7 2e3e
00000310: 6fdb 103e 16a5 373e 1f47 08be 551e bf3d
00000320: f66a 633e c4a4 1bbe 452f 2f3d 03ae 173d
00000330: 863b 8b3d 10d3 13be da5b 363f 53db 143e
00000340: 5998 c93c abd5 213e 7024 7f3e cb25 763d
00000350: 3861 50bd 161b 783d 2f5d 54be c703 5c3d
00000360: d4f3 8b3e 6960 b53d bfbb 053f 2dc5 983b
00000370: 33d6 11be 7fdf 29be 519b 0d3e c52d 0b3e
00000380: 6cbe be3e 5eaa 20bd 5356 2a3e 989e fa3d
00000390: fc07 10bd 1db0 573e 461a 193e 5e02 3f3e
000003a0: 06db 9dbd f4a0 0abf 7f5f a93d e661 db3c
000003b0: caa0 81bd b736 783b 8500 31be bd9d 633e
000003c0: b004 39be 5539 2d3c b2f7 063e 5a33 053c
000003d0: 3bbf 083d 2eb6 723b b1b5 85bc e826 333e
000003e0: 4549 853e 3732 153d e306 69bd 491b 843f
000003f0: 60cd 1cbc 52df a83e a9a1 0a3f 034f 8b3e

seq.2.bias f4 [32]
-0.07444841 0.50432324 0.7861869 0.70039177 0.8286882 0.66133046 0.5947573 0.042660292
0.66668224 0.016471598 -0.018066663 0.7899572 0.77668893 0.62287956 0.004759094 0.5201095
0.39219812 0.8002589 0.64555305 0.0023508712 0.5924219 -0.04471595 0.7859893 -0.09370492
0.64623165 -0.025455875 0.041721538 -0.09322701 -0.016105397 -0.067311466 0.7079232 0.7575309
00000000: 6878 98bd 541b 013f 8b43 493f e04c 333f
00000010: e924 543f f44c 293f 0442 183f 8fbc 2e3d
00000020: b0ab 2a3f 72ef 863c 8a00 94bc a33a 4a3f
00000030: 16d5 463f 0975 1f3f 2df2 9b3b e525 053f
00000040: 31ce c83e c4dd 4c3f f742 253f 1311 1a3b
00000050: f6a8 173f 1228 37bd 9836 493f 5de8 bfbd
00000060: 706f 253f d788 d0bc 34e4 2a3d cded bebd
00000070: 77ef 83bc 98da 89bd 743a 353f 8ced 413f

seq.4.weight f4 [8, 32]
0.13088948 -0.16412698 0.021239538 -0.17751683 -0.048825115 0.04633378 0.13610637 0.04550983
-0.16394132 -0.13170882 0.057407927 0.115993254 0.042957608 -0.13358444 0.14999673 -0.0171655
0.020094182 -0.14183067 0.15993552 0.0008945247 -0.0892644 -0.014667587 0.025243256 -0.040020075
0.11674042 -0.0064355917 0.06166204 0.001884217 -0.10823262 0.03141213 -0.053683672 0.059545916
0.12772645 0.27625847 0.027387105 0.259686 -0.0121748345 0.2652479 0.034578376 0.14081745
0.101674594 -0.14970535 -0.029644854 -0.130901 0.3137416 0.33358237 0.11538157 0.71856636
0.355948 0.1394522 0.19433089 0.01856073 -0.15323208 -0.08478516 -0.3080893 -0.047296476
0.23626542 -0.12528048 0.041183777 0.0150732715 0.10174236 0.0094960965 -0.029611599 0.025744408
-0.16868018 -0.0421141 -0.095780775 0.14307208 -0.0716885 0.07711505 -0.03033553 -0.13375507
-0.022920826 -0.1749146 -0.07234603 -0.08552729 -0.01971914 -0.036141448 0.015857626 -0.094872594
-0.101265915 0.04722371 -0.109548256 0.15312882 -0.16120654 0.005031575 0.020530025 0.088687375
-0.14952938 -0.13014822 0.16755134 0.13196321 -0.09640428 0.022923881 0.106388845 -0.10980714
-0.12368457 0.35293937 0.3009541 0.38881287 0.18269362 0.21553598 -0.07051742 0.059180096
0.41524863 0.09946052 -0.061417323 0.228678 0.286451 0.27580002 0.004314233 -0.19891578
0.44789177 0.22777595 0.27464256 -0.12272912 0.48627573 -0.1465063 0.27011055 -0.042944014
0.10954148 0.1838685 -0.075486064 -0.061973527 -0.028511772 0.14901176 0.39306268 0.38413414
0.15173572 -0.13885947 -0.09272213 -0.05062907 -0.1406752 -0.16149871 0.051654086 -0.074823424
-0.022856485 0.1061142 0.0012522864 0.11319236 -0.08161164 -0.056514513 0.029245697 0.08236949
0.07431622 0.11432882 -0.1305145 0.13677181 -0.026149841 -0.12946467 0.13473421 0.03449846
0.06490841 -0.09494796 0.053271256 0.15996103 -0.10036461 0.08661517 -0.056876756 -0.01741651
-0.1687974 0.0110447565 0.3633173 0.3120436 0.28776336 0.25813708 0.46184477 0.15325597
0.2401836 -0.116151035 -0.02054227 0.14080906 0.32090086 0.14931317 -0.15715812 0.5953622
-0.04993056 0.31708112 0.24116482 -0.011670278 0.3665572 0.069366485 -0.024414431 -0.07532286
0.46328756 -0.058568288 0.0142026665 -0.0657479 0.0025148946 -0.04341063 0.35042757 0.32375568
0.0778286 -0.17691538 0.12360467 -0.09507972 -0.101361476 0.07590685 -0.033106185 0.11277011
-0.022978077 0.12026563 0.035090517 0.07678246 -0.035405725 -0.10563696 0.00078829355 -0.14062975
0.12232527 -0.013824537 -0.19046271 0.03510425 -0.14186566 -0.09298039 -0.17433932 -0.022258269
0.016826084 -0.063758306 0.013131904 -0.14420496 -0.14991988 0.064603366 0.0449489 0.13291638
-0.08612714 0.17868574 0.16468002 0.41841096 0.41808847 0.34051105 0.09089995 0.016634919
0.085768566 0.07763253 0.124597654 0.45576036 0.2727547 0.3795805 -0.10556256 -0.31882367
0.03898196 0.3040382 0.19274078 -0.0072569554 -0.16301486 -0.15463883 -0.33515257 -0.05948785
0.26865026 -0.15147303 -0.06301694 0.017295763 -0.08536754 0.06476474 -0.010612138 0.3725997
00000000: e407 063e e710 28be 8afe ad3c f9c6 35be
00000010: d8fc 47bd 7dc8 3d3d 785f 0b3e 8468 3a3d
00000020: 3ce0 27be adde 06be 9324 6b3d df8d ed3d
00000030: 51f4 2f3d 5cca 08be be98 193e aa9e 8cbc
00000040: 8e9c a43c 0f3c 11be 23c6 233e 897e 6a3a
00000050: 41d0 b6bd 5250 70bc f2ca ce3c 17ec 23bd
00000060: 9a15 ef3d a8e1 d2bb 5691 7c3d d5f7 f63a
00000070: 10a9 ddbd 01aa 003d 69e3 5bbd 6be6 733d
00000080: b9ca 023e c071 8d3e ec5a e03c 90f5 843e
00000090: f578 47bc 93ce 873e 0ea2 0d3d 7332 103e
000000a0: c53a d03d 5c4c 19be c4d9 f2bc e90a 06be
000000b0: bda2 a03e 4fcb aa3e 2c4d ec3d f7f3 373f
000000c0: d13e b63e 8fcc 0e3e adfe 463e ac0c 983c
000000d0: dfe8 1cbe d8a3 adbd e1bd 9dbe f3b9 41bd
000000e0: 90ef 713e 8749 00be 52b0 283d e2f5 763c
000000f0: 4c5e d03d 8495 1b3c 0694 f2bc f0e5 d23c
00000100: 7fba 2cbe d67f 2cbd b628 c4bd 7d81 123e
00000110: 6cd1 92bd 7fee 9d3d 3882 f8bc 17f7 08be
00000120: 75c4 bbbc d01c 33be 282a 94bd ef28 afbd
00000130: 098a a1bc 0e09 14bd dae7 813c 904c c2bd
00000140: 8164 cfbd a66d 413d d65a e0bd cdcd 1c3e
00000150: 5413 25be e9df a43b 952e a83c baa1 b53d
00000160: 3b1e 19be 9345 05be 9492 2b3e 5d21 073e
00000170: 9b6f c5bd ddca bb3c 65e2 d93d 91e2 e0bd
00000180: 564e fdbd 78b4 b43e a816 9a3e 7b12 c73e
00000190: 0914 3b3e 77b5 5c3e 706b 90bd d466 723d
000001a0: 789b d43e f5b1 cb3d bb90 7bbd 912a 6a3e
000001b0: b5a9 923e a935 8d3e 695e 8d3b 94b0 4bbe
000001c0: 1252 e53e 193e 693e f39d 8c3e 6859 fbbd
000001d0: 22f9 f83e bf05 16be ee4b 8a3e 10e6 2fbd
000001e0: 4957 e03d 0648 3c3e 7098 9abd f4d7 7dbd
000001f0: 8591 e9bc 8a96 183e 833f c93e 3bad c43e
00000200: 9c60 1b3e 2d31 0ebe 1ae5 bdbd 6d60 4fbd
00000210: 290d 10be eb5f 25be 3c93 533d 063d 99bd
00000220: 863d bbbc 6752 d93d c223 a43a 65d1 e73d
00000230: 0124 a7bd c37b 67bd ac94 ef3c 56b1 a83d
00000240: 1a33 983d 3a25 ea3d 98a5 05be e90d 0c3e
00000250: 3138 d6bc 6392 04be c4f7 093e 424e 0d3d
00000260: b3ee 843d 1374 c2bd f632 5a3d d3cc 233e
00000270: f68b cdbd 4b63 b13d 9af7 68bd 12ad 8ebc
00000280: 3ad9 2cbe 11f5 343c ba04 ba3e 2ec4 9f3e
00000290: b855 933e 8b2a 843e eb76 ec3e 22ef 1c3e
000002a0: b1f2 753e 98e0 edbd 4348 a8bc 4030 103e
000002b0: 1e4d a43e 8de5 183e 0fee 20be a869 183f
000002c0: fd83 4cbd 7558 a23e e9f3 763e b234 3fbc
000002d0: 63ad bb3e 0410 8e3d c600 c8bc df42 9abd
000002e0: 0734 ed3e 4de5 6fbd 4db2 683c d6a6 86bd
000002f0: eed0 243b 58cf 31bd 3e6b b33e 4ec3 a53e
00000300: 9a64 9f3d 4e29 35be 7224 fd3d 28b9 c2bd
00000310: 9b96 cfbd 0d75 9b3d 5a9a 07bd 04f4 e63d
00000320: 853c bcbc d44d f63d 13bb 0f3d 1f40 9d3d
00000330: 9805 11bd 3158 d8bd 7ca5 4e3a 3f01 10be
00000340: ac85 fa3d 5080 62bc a808 43be 79c9 0f3d
00000350: 3b45 11be 816c bebd 0286 32be f956 b6bc
00000360: dbd6 893c b793 82bd 3327 573c 77aa 13be
00000370: 9984 19be c54e 843d 561c 383d 3b1b 083e
00000380: 6d63 b0bd 65f9 363e e1a1 283e f639 d63e
00000390: b10f d63e 7757 ae3e c129 ba3d f445 883c
000003a0: 6ea7 af3d cefd 9e3d 0e2d ff3d 6c59 e93e
000003b0: 81a6 8b3e 6058 c23e 2f31 d8bd db3c a3be
000003c0: 8cab 1f3d e5aa 9b3e d75d 453e c1cb edbb
000003d0: 5eed 26be a459 1ebe 1e99 abbe 88a9 73bd
000003e0: 878c 893e bf1b 1bbe 070f 81bd d8af 8d3c
000003f0: 2dd5 aebd 60a3 843d 88de 2dbc 63c5 be3e

seq.4.bias f4 [8]
-0.13937527 0.17073818 -0.0654286 0.5274687 -0.07652726 0.91320586 0.119065486 0.7621729
00000000: 64b8 0ebe fdd5 2e3e 6eff 85bd 3008 073f
00000010: 53ba 9cbd dcc7 693f 9bd8 f33d c31d 433f

seq.6.weight f4 [4, 8]
-0.116920374 -0.15819257 -0.2564853 0.07337848 0.20084524 -0.49644116 0.11917458 -0.51548225
0.07951234 -0.008524808 0.09101439 -0.3794475 0.29230633 -0.278799 0.31012356 -0.40991676
-0.20036693 -0.5376208 0.1775439 -0.29237816 0.05755543 -0.074570045 -0.2799837 -0.3759286
-0.020250184 -0.19251268 0.23736519 -0.3583246 0.15457298 -0.4928081 0.26731253 -0.007873209
00000000: f373 efbd 3cfd 21be 0b52 83be 7547 963d
00000010: 60aa 4d3e 892d febe cd11 f43d a5f6 03bf
00000020: 5ed7 a23d a3ab 0bbc c165 ba3d f146 c2be
00000030: 2da9 953e bebe 8ebe 84c8 9e3e 9ce0 d1be
00000040: fd2c 4dbe 84a1 09bf 11ce 353e 97b2 95be
00000050: 3ebf 6b3d 2eb8 98bd 065a 8fbe b779 c0be
00000060: b7e3 a5bc 0b22 45be dc0f 733e 5276 b7be
00000070: 6148 1e3e 5851 fcbe 30dd 883e a2fe 00bc

seq.6.bias f4 [4]
-0.64601785 -0.65896976 -0.5182392 -0.36787644
00000000: 6d61 25bf 3eb2 28bf 53ab 04bf 4d5a bcbe
